upper_baseline_public_cifar100/densenet/densenet20/checkpoint.pth (torch, 930411 bytes, 56 tensors)

conv1.weight f4 [24, 3, 3, 3]
0	0x3d8fc61d	0.07020209
1	0xbf35c792	-0.71007645
2	0x3e87d7e5	0.26531902
3	0xbf84ab80	-1.0364838
4	0xbff0c5ed	-1.8810402
5	0xbf57bd55	-0.8427327
6	0xbecc641e	-0.39920133
7	0xbfa89400	-1.3170166
8	0xbe9ec26e	-0.31007713
9	0x3ea218ec	0.3165964
10	0x3ec80639	0.39067248
11	0x3ed1f92d	0.4101042
12	0x3ee8b814	0.4545294
13	0x3f31072e	0.6915158
14	0x3f196589	0.59920555
15	0x3e9be4f7	0.30448124
16	0x3ed74253	0.4204279
17	0x3ee19816	0.44061345
18	0xbed9b8a9	-0.42523697
19	0xbe125762	-0.14291146
20	0xbeeff5a2	-0.4686709
21	0x3ec04060	0.37549114
22	0x3f5c7166	0.8611053
23	0x3e653392	0.22382954
24	0x3eab60cf	0.33472297
25	0x3f2bbfcd	0.6708954
26	0x3da70dfc	0.08156964
27	0x3e45d861	0.19320823
28	0x3f38be27	0.7216515
29	0xbd20619d	-0.03915559
30	0xbf88b2d3	-1.0679573
31	0x3f15cc6d	0.58515054
32	0x3e64e2cb	0.2235214
33	0xbf86f361	-1.0543023
34	0x3bc3ecce	0.005979157
35	0x3db41f6f	0.08795058
36	0xbec7d24b	-0.39027628
37	0x3f04fb3f	0.5194587
38	0xbec4b432	-0.38418728
39	0xbf9e972f	-1.2389888
40	0x3f80cb78	1.0062094
41	0x3ed1a586	0.40946597
42	0xbf798f5e	-0.97484386
43	0x3f393bf0	0.7235708
44	0x3f040976	0.51576936
45	0xbecddec8	-0.4020903
46	0x3e807d5a	0.25095636
47	0xbecec019	-0.40380934
48	0xbf3fb514	-0.7488568
49	0x3f6481ef	0.8926076
50	0x3e285122	0.164372
51	0xbed7221b	-0.42018208
52	0x3f6119b4	0.87929845
53	0x3ef84962	0.48493487
54	0x3e1eb423	0.15498404
55	0xbe81a3b8	-0.2532022
56	0x3dbafc58	0.09130162
57	0xbedd3911	-0.432076
58	0xbf60ff4f	-0.8788957
59	0xbefea0e5	-0.49732128
60	0xbd49e4c8	-0.04929045
61	0xbf01e684	-0.50742364
62	0xbdecc889	-0.115616865
63	0x3db06bdc	0.086143225
64	0x3e94e38b	0.29079852
65	0x3e157c66	0.14598235
66	0x3da42ec5	0.08016733
67	0x3ea86736	0.32891244
68	0x3e0db0b4	0.13836938
69	0x3e4d1337	0.20026861
70	0x3eb78f22	0.3585139
71	0x3e6c3711	0.23067881
72	0xbd98af86	-0.074553534
73	0x3effd424	0.49966538
74	0x3d828026	0.063720986
75	0x3e304538	0.17213905
76	0x3f55d2a7	0.83524555
77	0x3e86ac72	0.2630344
78	0x3c37f308	0.011227377
79	0x3f07eb76	0.5309366
80	0x3d395889	0.04525045
81	0xbf270e71	-0.6525641
82	0xbfea48c2	-1.8303454
83	0xbf82a964	-1.0207944
84	0x3e1fdb38	0.15610969
85	0xbe0248ad	-0.12723036
86	0x3ead1f07	0.33812734
87	0x3f27de2f	0.655734
88	0x3f8eb984	1.1150365
89	0x3f83ee68	1.0307131
90	0xbf09b23b	-0.53787583
91	0xbfd411ac	-1.6567893
92	0xbf87214d	-1.0557038
93	0x3e5a0e6b	0.21294563
94	0x3d593b76	0.053035222
95	0x3e967809	0.29388455
96	0x3edf1a27	0.4357464
97	0x3f8d07aa	1.1017964
98	0x3f5ff2ee	0.87480056
99	0xbf005772	-0.5013343
100	0xbfa275ae	-1.2692163
101	0xbf6a0e61	-0.9142819
102	0x3e89ce7c	0.26915348
103	0x3e683bea	0.22679105
104	0x3e57393d	0.21017928
105	0x3f0ce4e5	0.55036765
106	0x3f904ee5	1.1274077
107	0x3f3edc51	0.74554926
108	0xbece1376	-0.40249223
109	0xbf91c4d9	-1.1388198
110	0xbf942765	-1.1574522
111	0x3eb4b862	0.35296923
112	0x3e8b3929	0.27192047
113	0xbf5e737e	-0.8689498
114	0x3fa91795	1.3210322
115	0x3fd54648	1.6662073
116	0x3e532c03	0.20622258
117	0xbf1d6eba	-0.6149708
118	0xbecddb29	-0.40206268
119	0xbe947f15	-0.29003206
120	0xbc3b7427	-0.011441267
121	0x3f58c98e	0.8468255
122	0x3e39443d	0.18092437
123	0xbe4e47d4	-0.20144588
124	0x3f48aad3	0.7838566
125	0x3c970329	0.018434124
126	0x3f97101b	1.180179
127	0x3f3ecbb9	0.74529606
128	0x3fd4e9fb	1.6633905
129	0xbeaa50d8	-0.33264804
130	0xbf1f2cfb	-0.6217801
131	0x3f03d004	0.5148928
132	0xbfc94b81	-1.5726167
133	0xbff92224	-1.9463544
134	0xbef56dcb	-0.47935328
135	0x3da90a6b	0.0825394
136	0xbecbb610	-0.3978734
137	0x3e26e6f8	0.16299045
138	0x3ceea6e3	0.029132312
139	0x3d98ee6c	0.0746735
140	0x3e6b73d8	0.2299341
141	0xbe675197	-0.22589718
142	0xbf05c1c0	-0.52248764
143	0xbea6ed80	-0.32603073
144	0xbe8a1f43	-0.26976976
145	0xbf07c27f	-0.5303115
146	0xbeafc70b	-0.34331545
147	0x3e88e396	0.26736134
148	0x3f39c001	0.725586
149	0x3ecc1f40	0.39867592
150	0xbc8bb7f9	-0.017055498
151	0x3e4767a0	0.19473124
152	0xbd22fc51	-0.03979141
153	0xbece685d	-0.40313998
154	0xbf0f0d09	-0.55879265
155	0xbf01a881	-0.5064774
156	0x3ea2c005	0.31787124
157	0x3f4ab1f9	0.79177815
158	0x3e97c575	0.29642835
159	0x3e20422b	0.15650241
160	0x3eeadc70	0.45871305
161	0x3d84aa2c	0.0647777
162	0x3f6019f0	0.8753958
163	0xbd854230	-0.06506765
164	0xbf1730f7	-0.5905909
165	0x3fc2701c	1.5190463
166	0xbe91d75e	-0.28484625
167	0xbfb035b8	-1.3766394
168	0x3f29a47f	0.66266626
169	0xbe3af0c6	-0.1825591
170	0xbf06b6ee	-0.5262288
171	0x3fa03866	1.2517211
172	0xbe499896	-0.19687113
173	0xbf75c101	-0.95997626
174	0x4001417a	2.0196214
175	0xbebcb4f5	-0.3685681
176	0xbfebce57	-1.8422345
177	0x3f89c94f	1.076456
178	0xbe7f818c	-0.24951762
179	0xbf5be3f6	-0.85894716
180	0x3f76059f	0.9610233
181	0xbe65b237	-0.22431265
182	0xbf498ee1	-0.7873364
183	0x3fcdc22f	1.6074885
184	0xbea6d96e	-0.3258776
185	0xbfc4a80c	-1.5363784
186	0x3f682e6a	0.9069582
187	0xbe2d3580	-0.1691494
188	0xbf379bd3	-0.71722144
189	0xbfae2aca	-1.3606808
190	0xbf0421e4	-0.51614213
191	0xbeec7c23	-0.4618846
192	0xbf16ba06	-0.588776
193	0x3eb452a5	0.35219303
194	0x3f3a015b	0.7265832
195	0xbe87e41a	-0.26541215
196	0x3dc4c474	0.09607783
197	0x3fb65f88	1.4247904
198	0x3e13cb7a	0.14433089
199	0x3f44b2ea	0.768355
200	0xbeb81298	-0.35951686
201	0x3ea18835	0.3154923
202	0x3f5cc8da	0.86243975
203	0x3d9ddf8e	0.07708655
204	0xbf167257	-0.5876822
205	0xbf372794	-0.71544766
206	0xbe514341	-0.20435812
207	0x3edd9d90	0.43284273
208	0x3f75a987	0.95961803
209	0xbe6d0fbf	-0.23150538
210	0x3f340980	0.70326996
211	0x3f6fee10	0.9372263
212	0xbe8305e0	-0.2559042
213	0xbece9e63	-0.40355214
214	0xbf515959	-0.8177696
215	0xbf5ea4c5	-0.8697017
216	0x3f98dc9e	1.1942327
217	0x400c14c6	2.188768
218	0x3fbefffc	1.492187
219	0x3ddb16e4	0.106977254
220	0xbe734e6f	-0.23760389
221	0xbda8d0e4	-0.08242968
222	0xbf84dcb4	-1.0379853
223	0xc014486b	-2.31692
224	0xbfa48397	-1.2852658
225	0x3f4fb812	0.81140244
226	0x3fea72e9	1.8316318
227	0x3f9c6683	1.2218784
228	0x3daca5e8	0.084300816
229	0xbe4b0173	-0.19824772
230	0xbcbb5689	-0.022868412
231	0xbf517f69	-0.8183504
232	0xc0048a92	-2.0709577
233	0xbf867f2f	-1.0507563
234	0x3e92a7f9	0.28643778
235	0x3f95fc14	1.1717553
236	0x3f2af52a	0.6678034
237	0x3e0af6da	0.13570729
238	0x3dcd62c6	0.10028605
239	0x3e5a659c	0.21327823
240	0xbed56ed9	-0.41686133
241	0xbf9b6b17	-1.2142056
242	0xbed38145	-0.41309562
243	0xbe9a51de	-0.30140585
244	0x3dfb9d2a	0.12285836
245	0x3ef4c376	0.47805375
246	0x3f73cc76	0.9523386
247	0x3efdf50e	0.49601024
248	0xc020d292	-2.5128522
249	0xbe0fe482	-0.14052013
250	0x3f873afa	1.0564873
251	0xbeccc016	-0.399903
252	0xbf4ef0cf	-0.80836195
253	0x3e621290	0.22077394
254	0x3f7bc729	0.9835077
255	0x3eea7dcd	0.45799103

dense1.0.bn1.weight f4 [24]
0	0x3f4b77ff	0.79479975
1	0x3faf6612	1.3703024
2	0x3f35e9bf	0.71059793
3	0x3f80f2f7	1.0074147
4	0x3f804052	1.0019629
5	0x3f9cc1e3	1.224667
6	0x3f34ec54	0.7067311
7	0x3fd90730	1.6955318
8	0x3f713a27	0.9422936
9	0x400aaf30	2.1669426
10	0x40200ec6	2.5009017
11	0x3f4b28f3	0.7935936
12	0x3fe4b476	1.7867572
13	0x3f29fc06	0.6640018
14	0x3f696dbd	0.9118307
15	0x3f2aa81e	0.66662776
16	0x3f139a40	0.5765724
17	0x3eb5829a	0.35451204
18	0x3f348c3c	0.7052648
19	0x3f0f5203	0.55984515
20	0x3f465f45	0.7748912
21	0x3f0bb232	0.5456878
22	0x3f0e4252	0.55569947
23	0x3ecc21a9	0.3986943

dense1.0.bn1.bias f4 [24]
0	0xbeb4d71e	-0.3532037
1	0x3f4d5fbe	0.80224216
2	0xbdcacf87	-0.09902864
3	0x3f274b4a	0.65349257
4	0x3ef73576	0.48282975
5	0x3ede62a7	0.4343464
6	0x3f215fc6	0.63036764
7	0x3f341058	0.7033744
8	0x3f20b2df	0.62772936
9	0x3f86eb27	1.0540513
10	0x3fa718f4	1.305449
11	0xbcd6d764	-0.026225753
12	0x3f0a4c57	0.54022735
13	0x3ef42fea	0.47692806
14	0x3ebac9f8	0.36482215
15	0xbf250dae	-0.64474
16	0xbebfd80d	-0.3746952
17	0x3e0b8fe1	0.13629104
18	0xbf078cfb	-0.52949494
19	0xbe05b0a7	-0.13055669
20	0xbeb464aa	-0.3523305
21	0x3e1102e1	0.14161254
22	0x3e9f64db	0.31131634
23	0xbd91530c	-0.07095918

dense1.0.conv1.weight f4 [12, 24, 3, 3]
0	0x3c3a7a50	0.011381701
1	0x3eac0ebd	0.33604994
2	0x3d3a5868	0.045494467
3	0x3dafa065	0.08575515
4	0x3eee442d	0.4653639
5	0x3e2516c5	0.16121967
6	0xbe839fa6	-0.2570774
7	0x3d608f56	0.054824196
8	0xbe2e532d	-0.17023917
9	0x3e852c35	0.2601029
10	0x3ed34b25	0.41268268
11	0x3e9aa47a	0.3020361
12	0x3ec85afd	0.3913192
13	0x3f039eb5	0.5141404
14	0x3e8b06c9	0.27153614
15	0xbe1c8e38	-0.15288627
16	0xbe4362ef	-0.19080709
17	0xbebf3d5b	-0.37351498
18	0x3d507abf	0.05089831
19	0x3e92c540	0.28666115
20	0x3dc2d6f7	0.095136575
21	0x3e02c9a4	0.12772232
22	0x3ec1f3e4	0.37881386
23	0x3e0d51cd	0.13800736
24	0xbdd9037d	-0.105963685
25	0x3dcc4bf4	0.099754244
26	0xbdbc2c58	-0.091881454
27	0xbdeee18a	-0.11664112
28	0x3e162bec	0.14665192
29	0xbdd1dac3	-0.102468036
30	0xbe5269a9	-0.20548119
31	0x3e17e67e	0.1483402
32	0xbd13878f	-0.03601795
33	0x3df26f2a	0.11837609
34	0x3eed659c	0.46366584
35	0x3e9dd652	0.30827576
36	0xbcab2c3e	-0.02089512
37	0xbecad9a8	-0.39619184
38	0xbf064e24	-0.52462983
39	0x3f1738f4	0.5907128
40	0x3e8d50c4	0.27600682
41	0xbcc783ae	-0.024354782
42	0x3f6414e7	0.89094394
43	0x3f4da739	0.80333287
44	0x3eaa0b7a	0.3321188
45	0x3e97e6c0	0.29668236
46	0x3f2a2b49	0.664723
47	0x3e716df1	0.23577096
48	0x3e08834b	0.13331334
49	0x3f0feb1d	0.5621813
50	0x3e47d8c0	0.19516277
51	0xbea6871e	-0.3252496
52	0xbc7dd67c	-0.015493032
53	0xbe45813f	-0.19287585
54	0x3df46fec	0.1193541
55	0x3e223cb6	0.15843472
56	0x3e0a64db	0.13515036
57	0x3c8962d8	0.016770765
58	0x3ea7a4da	0.3274296
59	0x3ef3f46a	0.4764741
60	0xbe9d3dcc	-0.3071121
61	0x3c2982b9	0.010346108
62	0x3e507004	0.2035523
63	0xbf8cd4be	-1.1002424
64	0xbee8cb09	-0.45467404
65	0xbd934768	-0.07191354
66	0xbf02ccb5	-0.5109361
67	0x3f12ab9a	0.57293093
68	0x3f5b26d2	0.8560611
69	0xbddffe24	-0.10937145
70	0x3f81b8ce	1.0134523
71	0x3f842533	1.0323852
72	0x3df9996d	0.12187467
73	0x3ea4fdf9	0.32225016
74	0x3e12e01a	0.143433
75	0x3e34ce43	0.17656808
76	0x3eb5bbce	0.35494846
77	0x3cffc52d	0.03122195
78	0xbe2e0918	-0.16995656
79	0xbba8b822	-0.0051489035
80	0xbe9a289b	-0.30109105
81	0x3e8ce3f3	0.2751766
82	0x3d18d5dc	0.037313327
83	0xbf08f42e	-0.5349759
84	0x3f59ccf8	0.8507838
85	0x3f0abed6	0.5419744
86	0xbe56c067	-0.20971833
87	0x3eaa7b06	0.33296984
88	0x3da5c48f	0.08094131
89	0xbef1c230	-0.47218466
90	0x3d40201f	0.046905633
91	0x3ef996e6	0.4874794
92	0x3dbd0f69	0.09231455
93	0xbe7fd01d	-0.24981733
94	0x3efa04f0	0.48831892
95	0x3e51ad17	0.20476185
96	0xbed4e2f2	-0.41579396
97	0x3dfa2578	0.12214178
98	0x3d92bfe6	0.07165508
99	0xbeafe129	-0.3435147
100	0xbe88717f	-0.2664909
101	0xbc8c9c00	-0.01716423
102	0xbd8ec37d	-0.0697088
103	0x3e00b068	0.12567294
104	0x3e9e5636	0.3092515
105	0x3e7ee6f2	0.24892786
106	0x3efc01aa	0.4922002
107	0x3f0462c4	0.51713204
108	0xbf0c11ad	-0.5471447
109	0xbf08f149	-0.5349317
110	0x3e587f88	0.211424
111	0xbf5d21db	-0.86379784
112	0xbf506b27	-0.814135
113	0xb87ba5da	-5.9997525e-05
114	0xbecb557a	-0.3971365
115	0xbeb240c8	-0.3481505
116	0x3e9901ef	0.29884288
117	0xbe4d4c62	-0.20048669
118	0xbedb7198	-0.42860103
119	0xbe27f96e	-0.16403744
120	0xbee25323	-0.44204053
121	0xbf35dff9	-0.7104488
122	0xbeca7793	-0.39544353
123	0xbe8cd840	-0.27508736
124	0xbefe8ca7	-0.49716684
125	0xbe72f77e	-0.23727223
126	0xbecde336	-0.4021241
127	0xbeef3c23	-0.46725568
128	0xbf15d699	-0.58530575
129	0xbe7e3d0b	-0.24827974
130	0xbe98b7b8	-0.29827666
131	0xbedaf421	-0.4276438
132	0x3c29719a	0.010342026
133	0xbcd1a317	-0.025590463
134	0xbe1ac488	-0.15114033
135	0x3e14c5c3	0.14528565
136	0x3e1f75b1	0.1557224
137	0x3df43aa2	0.11925246
138	0xbd29f237	-0.04149076
139	0xbd2bbc8f	-0.04192787
140	0xbdb3b1d6	-0.08774154
141	0xbe269ebe	-0.16271493
142	0xbe28ee4f	-0.16497158
143	0xbe60c3b7	-0.2194966
144	0x3de65184	0.112460166
145	0xbd97ba08	-0.074085295
146	0x3cbcf819	0.023067521
147	0x3d6ced82	0.057843693
148	0xbe35d216	-0.17755923
149	0xbdcf41ef	-0.10119998
150	0x3e156c70	0.14592147
151	0xbd969da6	-0.07354288
152	0xbd0d74ff	-0.034535404
153	0xbe43d232	-0.19123152
154	0xbe286c0e	-0.1644747
155	0xbe791cee	-0.24327442
156	0xbe2351b3	-0.15949135
157	0xbdf2a8c3	-0.11848595
158	0xbe3db4f5	-0.18526061
159	0xbe58ae93	-0.21160345
160	0xbe1e1692	-0.15438297
161	0xbe4dda68	-0.20102847
162	0x3b2bba12	0.0026203436
163	0xbe2763ef	-0.16346715
164	0xbdd29058	-0.10281438
165	0xbdad09a9	-0.08449108
166	0xbe90d95f	-0.2829084
167	0xbe665c28	-0.22496092
168	0x3df5366c	0.11973271
169	0xbd1d03d9	-0.038333748
170	0x3c827aa5	0.015927622
171	0xbdce10d4	-0.100618035
172	0xbe16b067	-0.1471573
173	0xbad7db56	-0.0016468565
174	0xbe5cf248	-0.21576798
175	0xbe88dd2a	-0.26731235
176	0xbddcea74	-0.10786906
177	0xbc8e19da	-0.017346311
178	0xbd3162b4	-0.04330702
179	0x3df231da	0.11825915
180	0xbe863df4	-0.2621914
181	0xbe1261c6	-0.1429511
182	0xbc4c44ec	-0.012467604
183	0xbe43de59	-0.19127788
184	0xbd9ac9ed	-0.075580455
185	0xbdbd76f7	-0.09251206
186	0xbe20cdc3	-0.15703492
187	0xbad1a1fd	-0.0015993711
188	0xbda2e212	-0.07953276
189	0xbe70fa9e	-0.23533103
190	0xbe1488ad	-0.14505263
191	0xbe801c00	-0.25021362
192	0xbe83e688	-0.2576182
193	0xbe24b007	-0.16082774
194	0xbea5535c	-0.3229016
195	0xbe59c773	-0.2126749
196	0xbe001468	-0.12507784
197	0xbe83e862	-0.25763232
198	0xbd1a1c94	-0.03762491
199	0xbe1f72d0	-0.15571141
200	0xbe64dd23	-0.22349982
201	0xbe5636f5	-0.20919402
202	0xbebf75d5	-0.37394586
203	0xbee0bbf5	-0.438934
204	0xbe50a40d	-0.2037508
205	0xbeb4629a	-0.35231477
206	0xbedc8f96	-0.43078297
207	0xbc585f3c	-0.013206299
208	0xbdec95c1	-0.11552001
209	0x3d905b76	0.07048695
210	0xbe3d3d51	-0.18480422
211	0xbe94d4bf	-0.29068562
212	0xbdbbec92	-0.091759816
213	0x3c71e601	0.01476431
214	0xbd63f394	-0.055652216
215	0x3dff66f9	0.12470812
216	0xbdd9c4cc	-0.10633239
217	0xbe606c52	-0.21916321
218	0xbdfc1032	-0.123077765
219	0xbd102347	-0.035189893
220	0xbe1bd078	-0.15216243
221	0xbd961b37	-0.073294096
222	0x3e996f7c	0.29967868
223	0x3e63149c	0.2217583
224	0x3e7a68e6	0.24454078
225	0xbdb3256e	-0.087473735
226	0x3e4ee0f0	0.20202994
227	0x3e244c27	0.16044675
228	0xbe31719a	-0.17328492
229	0x3c11f0f9	0.00890755
230	0x3ddf78a6	0.10911684
231	0x3dfbf062	0.12301709
232	0x3dd2af18	0.10287303
233	0xbe3519ff	-0.17685698
234	0xbd7ef16b	-0.062241953
235	0xbd9236e4	-0.07139376
236	0xbc6e9a52	-0.01456316
237	0xbd3e0e45	-0.046400327
238	0xbd9df719	-0.07713146
239	0xbcd5a4a3	-0.026079481
240	0x3df4fddd	0.11962483
241	0x3dce5d59	0.100763984
242	0x3df9ab43	0.12190869
243	0xbf283fa9	-0.6572214
244	0xbf6e638a	-0.93120635
245	0xbf41b7e4	-0.7567122
246	0xbdf38f2e	-0.11892544
247	0x3e27bed6	0.16381392
248	0xbdfa6a99	-0.12227363
249	0x3eb6b604	0.35685742
250	0x3f734d00	0.9503937
251	0x3e5c0ee7	0.2149006
252	0xbd93d6aa	-0.07218678
253	0xbeab44e7	-0.33451006
254	0xbe1b1dd8	-0.15148103
255	0x3da6f21e	0.08151649

dense1.1.bn1.weight f4 [36]
0	0x3f330081	0.69922644
1	0x3ee46b3f	0.44613072
2	0x3e621895	0.2207969
3	0x3f059ddd	0.52194005
4	0x3f8615bf	1.0475386
5	0x3ea07cb6	0.31345147
6	0x3ed18289	0.40919903
7	0x3ee8b08c	0.45447195
8	0x3ef1e380	0.4724388
9	0x3ec9f5f5	0.39445463
10	0x3f919cf7	1.1376027
11	0x3faa0b74	1.3284745
12	0x3e5275ec	0.20552796
13	0x3df7b187	0.120944075
14	0x3ec51982	0.38496023
15	0x3eb8ffe8	0.3613274
16	0x3f8a76cf	1.0817508
17	0x3f9d4a7e	1.2288358
18	0x3f29704f	0.66186994
19	0x3f8bcddf	1.0922202
20	0x3f4ab67f	0.79184717
21	0x3f346c11	0.70477396
22	0x3f114870	0.56751156
23	0x3f3b311e	0.7312182
24	0x3f5bc714	0.85850644
25	0x3f7d8804	0.9903567
26	0x3f99d767	1.201886
27	0x3fbcf411	1.4761983
28	0x3f3a09d1	0.7267123
29	0x3eed68ee	0.46369117
30	0x3f641654	0.8909657
31	0x3fd7cf83	1.6860203
32	0x3f650ca3	0.8947241
33	0x3f005ffa	0.5014645
34	0x3f047d85	0.5175403
35	0x3f52465e	0.8213862

dense1.1.bn1.bias f4 [36]
0	0x3c7df59c	0.015500452
1	0xbe4b0060	-0.19824362
2	0xbe031402	-0.12800601
3	0xbeb539e0	-0.35395718
4	0x3eadb97f	0.33930585
5	0xbe28c067	-0.16479646
6	0x3e570645	0.20998485
7	0x3bed273b	0.0072373427
8	0x3e004599	0.1252655
9	0x3d826b7a	0.06368156
10	0xbf1a362f	-0.6023893
11	0x3e43bd4c	0.1911518
12	0xbd675b50	-0.056483567
13	0xbe22ff22	-0.15917638
14	0xbddf00d9	-0.108888336
15	0xbebc4e97	-0.3677871
16	0x3db9c9e7	0.09071713
17	0x3f0ea809	0.5572515
18	0xbef851b1	-0.48499826
19	0xbf26aa5f	-0.65103716
20	0xbe7e701a	-0.24847451
21	0xbecc2852	-0.39874512
22	0x3e0aaa04	0.13541418
23	0xbeda4dd2	-0.42637497
24	0xbeb8d89f	-0.3610277
25	0x3f84e008	1.0380869
26	0xbe60a807	-0.21939097
27	0x3e2bf62b	0.16793124
28	0xbed6a480	-0.4192238
29	0xbe8d797c	-0.27631748
30	0xbe799739	-0.24374093
31	0x3f4f334e	0.8093766
32	0xbe78253f	-0.24232958
33	0xbc87f566	-0.016596507
34	0xbe37279f	-0.17886208
35	0x3eac20e6	0.3361885

dense1.1.conv1.weight f4 [12, 36, 3, 3]
0	0xbbee8b66	-0.007279801
1	0x3d6cc488	0.057804614
2	0x3e958f41	0.29210857
3	0xbe106b2f	-0.14103387
4	0xbd80be81	-0.06286336
5	0x3e4cfd08	0.20018399
6	0xbe1933f4	-0.14961225
7	0xbdfcdd30	-0.12346876
8	0x3ddc8695	0.10767857
9	0x3d927483	0.07151129
10	0xbcba2922	-0.022724692
11	0xbe53a08f	-0.20666717
12	0xbad83174	-0.001649423
13	0xbada640a	-0.0016661894
14	0xbe1fab3b	-0.15592663
15	0x3d98d157	0.074618034
16	0xbd1980cd	-0.03747635
17	0xbda9f620	-0.08298898
18	0xbd84a237	-0.064762525
19	0xbbd0cd3c	-0.006372122
20	0x3d6375b3	0.05553217
21	0xbd85566a	-0.06510623
22	0xbbbeb298	-0.00581963
23	0x3d6c5cef	0.057705816
24	0xbd57a77c	-0.05264996
25	0xbc4215ea	-0.011846045
26	0x3d585163	0.05281199
27	0xbd24209b	-0.040070157
28	0xbc635a5e	-0.013876526
29	0x3d1d4f5b	0.038405757
30	0x3d4f83fa	0.050662972
31	0x3d0ccbf2	0.034374185
32	0x3deb9d89	0.11504657
33	0x3dcaddd8	0.099055946
34	0x3c2ede81	0.010673166
35	0x3ca264d3	0.019823467
36	0xbe8dcc38	-0.2769487
37	0x3eb79c06	0.35861224
38	0x3e6d449f	0.23170708
39	0xbdcc938d	-0.099890806
40	0x3e2feda5	0.17180498
41	0x3dc10063	0.09423902
42	0xbdb882f9	-0.09009356
43	0xbe402614	-0.18764526
44	0xbdf5f869	-0.12010271
45	0x3c3324cb	0.010934065
46	0xbc3c53d7	-0.011494598
47	0x3b319949	0.0027099422
48	0xbd041c3f	-0.0322535
49	0xbcde0e53	-0.02710644
50	0xba2cce85	-0.0006592053
51	0xbc05976a	-0.008153776
52	0xbbf39b3a	-0.007434276
53	0x3c1da7f7	0.0096225655
54	0xbec29745	-0.38006034
55	0xbdf1d20a	-0.1180764
56	0xbe78de01	-0.24303438
57	0xbeaa14b2	-0.33218914
58	0xbdc3fd94	-0.095698506
59	0xbd5cef57	-0.05393919
60	0xbe26e622	-0.16298726
61	0x3dc0d361	0.09415317
62	0xbe3c1c5e	-0.18370196
63	0x3d4e044c	0.050297067
64	0x3b54050f	0.0032351648
65	0xbdc06572	-0.09394349
66	0xbc2f33ca	-0.0106935
67	0xbb81c79c	-0.003960563
68	0xbe11287b	-0.14175598
69	0xbda69a2f	-0.08134877
70	0xbd9fc2ba	-0.07800813
71	0xbdbb5280	-0.09146595
72	0x3e2b2b23	0.16715674
73	0xbc15d4c8	-0.009144969
74	0x3e2bbcbf	0.1677122
75	0xbe0d5567	-0.1380211
76	0x3c411779	0.0117853815
77	0x3cfaa77a	0.030597437
78	0xbe1b5da0	-0.15172434
79	0x3d9877a2	0.07444693
80	0xbd9eb010	-0.07748425
81	0xbe0b3aec	-0.13596696
82	0x3ddd47e7	0.1080473
83	0xbd7a73da	-0.06114564
84	0xbe28ea44	-0.16495615
85	0x3d04728e	0.03233581
86	0xbad6d061	-0.0016389006
87	0xbd2cc242	-0.042177446
88	0x3d7f93c9	0.0623968
89	0xbe139e2f	-0.14415811
90	0x3c84b826	0.01620109
91	0xbd5a19f1	-0.053247396
92	0xbe51ec0f	-0.20500205
93	0xbe6d95f4	-0.23201734
94	0xbccf2fb5	-0.025291303
95	0xbe03a205	-0.12854774
96	0xbd063a31	-0.03277034
97	0xbe4ab1c7	-0.19794379
98	0x3c673bc0	0.014113367
99	0xbd87d23f	-0.06631898
100	0xbc9a4cb3	-0.018835401
101	0x3e1513b7	0.14558302
102	0x3d7ca0d8	0.06167683
103	0xbdc2928c	-0.09500608
104	0x3dd79772	0.10526933
105	0x3c8f10f2	0.017464135
106	0xbde2c4f5	-0.11072723
107	0x3e4a1629	0.19735016
108	0xbc10b5d5	-0.008832415
109	0x3ce30604	0.02771283
110	0xbc092e38	-0.008372836
111	0xbc591f86	-0.013252145
112	0x3cf2d010	0.029640228
113	0xbc753a34	-0.01496749
114	0xbc6d2917	-0.014475129
115	0xb9f43c18	-0.0004658408
116	0xbc9fd26c	-0.019509517
117	0xbba8ad42	-0.005147607
118	0x3c92ed7b	0.017935505
119	0x3c4dc739	0.012559705
120	0xbc1e4611	-0.00966026
121	0x3ca058c1	0.019573571
122	0x3c657582	0.014005067
123	0xbc83d692	-0.016093526
124	0x3b07a3cf	0.0020697003
125	0x3bdeacf0	0.006795518
126	0xbdab9fd8	-0.08380097
127	0xbd7069bd	-0.05869459
128	0xbd0868d8	-0.03330311
129	0xbc1e90f3	-0.009678113
130	0x3bd3a693	0.006459066
131	0x3cd992b1	0.026559206
132	0x3cc51cc3	0.024061566
133	0x3bc5f5c9	0.0060412628
134	0xb8940325	-7.057776e-05
135	0x3ddfdd58	0.1093089
136	0xbb4daadb	-0.0031382355
137	0xbd23dd0f	-0.04000574
138	0x3df7dcbd	0.12102649
139	0xbc54ced0	-0.012988761
140	0xbd0abada	-0.0338696
141	0x3e181c98	0.14854658
142	0x3da8fade	0.08250974
143	0x3d8fb453	0.07016816
144	0xbeb0358f	-0.34415862
145	0x3e219db2	0.15782812
146	0x3e9d729b	0.307515
147	0xbed12c47	-0.40854093
148	0x3e3ec07c	0.18628114
149	0x3ea4d4ac	0.32193506
150	0xbecc9cfb	-0.39963517
151	0xbd411dfe	-0.047147743
152	0x3c579679	0.013158434
153	0xbdba29b1	-0.09089983
154	0x3e897c74	0.26852763
155	0x3e0b9bd2	0.1363366
156	0xbde9806b	-0.11401447
157	0x3e9483de	0.29006857
158	0x3df81792	0.12113871
159	0xbe66f090	-0.22552705
160	0xbdab50b5	-0.08365003
161	0xbe4ab8b1	-0.19797017
162	0x3e09b17c	0.13446611
163	0x3e0fdf8c	0.1405012
164	0x3dad0b5b	0.084494315
165	0x3d7f98ff	0.062401768
166	0x3dc2b002	0.09506227
167	0x3d841f76	0.06451313
168	0x3cedbe23	0.029021328
169	0x3d7aa339	0.061190818
170	0x3d68f046	0.056869768
171	0xbe1e09aa	-0.15433374
172	0x3d7353e6	0.059406184
173	0x3e3a6589	0.18202795
174	0xbe173eea	-0.14770094
175	0x3d9cc51e	0.076547846
176	0x3e49a7b0	0.19692874
177	0xbda17e1b	-0.07885381
178	0x3d55a9f9	0.05216405
179	0x3df5270a	0.11970337
180	0xbe16bb7c	-0.14719957
181	0xbed4270f	-0.4143605
182	0xbe2bedb1	-0.16789891
183	0xbe302739	-0.17202462
184	0xbeca77d1	-0.39544538
185	0xbc8bc6c1	-0.017062547
186	0xbb7071d7	-0.0036688948
187	0xbe962b92	-0.29330117
188	0x3d869218	0.06570834
189	0xbe02c9a9	-0.1277224
190	0x3a465b76	0.00075667293
191	0x3e12613e	0.14294907
192	0xbe20f496	-0.15718302
193	0xbc79dbe3	-0.015250179
194	0x3e1d3648	0.15352738
195	0xbe00727d	-0.12543674
196	0xbcb92bb5	-0.022603849
197	0x3e088839	0.13333215
198	0x3dfaed8a	0.12252338
199	0x3e180a35	0.14847644
200	0x3db8ea90	0.09029114
201	0x3e31485c	0.17312759
202	0x3e373a66	0.17893371
203	0x3df34a8c	0.11879453
204	0x3e20f645	0.15718944
205	0x3e1dad70	0.15398192
206	0x3dcea264	0.10089567
207	0xbdd03454	-0.10166231
208	0x3d89b272	0.06723489
209	0x3e0aa86b	0.13540809
210	0xbe00dcec	-0.12584275
211	0x3d29de1c	0.041471586
212	0x3e09fa54	0.13474399
213	0xbdd11115	-0.10208336
214	0xbd129383	-0.03578521
215	0x3d411b90	0.047145426
216	0x3e660a49	0.22464861
217	0xbcde217a	-0.027115572
218	0x3baaf2c3	0.0052169277
219	0x3d4d1296	0.050066553
220	0xbd313b81	-0.043269638
221	0x3da1016c	0.07861599
222	0xbc333105	-0.01093698
223	0xbb7b2c64	-0.003832602
224	0x3d24038d	0.04004245
225	0x3de000ae	0.1093763
226	0x3e20e17d	0.15711017
227	0xbeb09689	-0.3448985
228	0x3f2c2c33	0.6725494
229	0xbf1e4600	-0.6182556
230	0xbe6011ee	-0.2188184
231	0xbd8bdb1b	-0.068289004
232	0x3dfdf751	0.124006875
233	0x3ed8995a	0.42304498
234	0x3cc3e307	0.023911966
235	0xbe97dbf9	-0.29660013
236	0x3e8e7f0e	0.2783131
237	0xbf529d14	-0.8227093
238	0x3f06dc91	0.5268031
239	0x3f151e20	0.5824909
240	0xbe7f9abf	-0.24961375
241	0x3ef7ce69	0.48399666
242	0x3c3d37e0	0.011548966
243	0xbe53c395	-0.20680077
244	0xbe7fbdae	-0.24974701
245	0xbd9e8ef2	-0.077421084
246	0xbf922aaa	-1.141927
247	0x3f4d3c8e	0.80170524
248	0x3f11fbf3	0.5702507
249	0x3f0692b9	0.5256763
250	0xbe145cb0	-0.14488482
251	0xbf25f9bd	-0.64834195
252	0x3d180ac4	0.037119642
253	0x3d2cf6d7	0.042227592
254	0x3d1669bf	0.03672194
255	0x3e770351	0.24122359

dense1.2.bn1.weight f4 [48]
0	0x3eb92c22	0.36166483
1	0x3e4bb256	0.19892249
2	0x3e22658d	0.15859051
3	0x3f158309	0.5840307
4	0x3fd21a4e	1.6414278
5	0x3db16a94	0.08662906
6	0x3f19a7dd	0.60021764
7	0x3e96e202	0.29469305
8	0x3ed107a7	0.4082615
9	0x3eb7152f	0.3575835
10	0x3edfce01	0.43711856
11	0x3f26b1f9	0.65115315
12	0x3d074a3c	0.03302978
13	0x3e8cdc4a	0.27511817
14	0x3e04b1d5	0.12958463
15	0x3ed846ca	0.42241508
16	0x3e94e9ef	0.29084727
17	0x3f1981f9	0.5996395
18	0x3e92fe7b	0.28709778
19	0x3e867ad5	0.26265588
20	0x3f3bca54	0.73355603
21	0x3d8f0766	0.06983833
22	0x3e92baa4	0.2865802
23	0x3e22cf48	0.15899384
24	0x3f5c2426	0.8599266
25	0x3f41659e	0.7554568
26	0x3f0cd0b0	0.5500593
27	0x3fbfe273	1.4990982
28	0x3d377512	0.04478938
29	0x3d1b6bed	0.037944723
30	0x3f5a45ef	0.8526296
31	0x3f86966a	1.0514653
32	0x3eac1416	0.33609074
33	0x3eb44524	0.35209
34	0x3ead106d	0.33801594
35	0x3f842cda	1.0326188
36	0x4001630f	2.021671
37	0x3f8fe21d	1.1240879
38	0x3f0bc1a2	0.54592335
39	0x3f54f15a	0.83180773
40	0x3ee174f4	0.4403454
41	0x3ede9630	0.4347396
42	0x3e0c1d78	0.13683116
43	0x3faa0ca0	1.3285103
44	0x3fce1f76	1.6103351
45	0x3eec8cf4	0.4620129
46	0x3f193faa	0.5986277
47	0x3f7b2ec0	0.9811821

dense1.2.bn1.bias f4 [48]
0	0x3d8a0171	0.06738556
1	0xbd40bb15	-0.047053415
2	0xbdf26d4e	-0.118372545
3	0xbf0893f7	-0.53350776
4	0x3f0889fe	0.5333556
5	0xbcb6f7d6	-0.022334974
6	0x3e4457b6	0.19174084
7	0x3a210266	0.000614202
8	0xbf0433fa	-0.5164181
9	0x3dad4485	0.08460335
10	0xbd867b0d	-0.06566439
11	0x3f0c9e51	0.5492907
12	0xbc67f469	-0.014157393
13	0xbdd699c7	-0.104785495
14	0x3c989166	0.018624019
15	0xbe5e5510	-0.21712136
16	0x3e809f89	0.25121716
17	0xbf3f721c	-0.7478349
18	0xbc2a643d	-0.010399875
19	0xbe62127b	-0.22077362
20	0x3ed9c564	0.4253341
21	0xbd9a0f2a	-0.075224236
22	0xbb8cc8af	-0.0042963843
23	0xbe2b0dce	-0.16704485
24	0xbed2b127	-0.41150782
25	0x3ebc85c8	0.36820817
26	0xbe61a2f9	-0.22034825
27	0x3dce0f8e	0.100615606
28	0xbc8334de	-0.01601642
29	0xbdaf9f9a	-0.085753635
30	0x3e6ae790	0.22939897
31	0x3f083d82	0.53218853
32	0xbec2e412	-0.3806463
33	0x3e318cba	0.17338839
34	0xbe646c9f	-0.2230706
35	0xbe4a75ba	-0.19771472
36	0x3f3d5d60	0.73970604
37	0x3e52b69a	0.2057747
38	0xbece07f7	-0.40240452
39	0xbd025744	-0.031821504
40	0xbe89dc5d	-0.26925936
41	0xbd17c76e	-0.037055425
42	0x3ce8e555	0.028429667
43	0xbe75ea3f	-0.24015139
44	0x3f3875ba	0.72054636
45	0xbe1b066b	-0.15139167
46	0x3e7eca2a	0.24881807
47	0x3f297f65	0.66210014

dense1.2.conv1.weight f4 [12, 48, 3, 3]
0	0x3daf3b70	0.08556259
1	0xbc08794c	-0.008329701
2	0xbbb95f26	-0.0056570945
3	0x3d4d9e49	0.05019978
4	0xbd37a51b	-0.04483519
5	0xbcfe53b2	-0.031045768
6	0x3cdcf9ff	0.026974676
7	0xbd42d565	-0.04756679
8	0xbc8353f9	-0.016031252
9	0x3ca5569e	0.020182904
10	0x3d140487	0.03613713
11	0x3c6b1a3c	0.0143495165
12	0x3cbfff50	0.023437172
13	0x3d292310	0.041293204
14	0x3cb09646	0.021556031
15	0x3cc447ab	0.023959955
16	0x3d12eb2f	0.03586882
17	0x3c305a95	0.010763784
18	0x3c0dd449	0.00865657
19	0xbc8f9d77	-0.01753114
20	0xbcac68d5	-0.021046082
21	0xbbae2fe6	-0.0053157685
22	0xbd0e9beb	-0.034816664
23	0xbd159536	-0.03651925
24	0xbc598653	-0.013276654
25	0xbd158549	-0.036504064
26	0xbd24972c	-0.04018323
27	0xbd002e32	-0.031294055
28	0xbda0322d	-0.0782207
29	0xbdfbe51e	-0.1229956
30	0xbc0c5253	-0.0085645495
31	0xbd13003d	-0.0358889
32	0xbd8b7b8a	-0.068106726
33	0xbd0ef2bb	-0.034899455
34	0x3ccaf273	0.024773812
35	0x3d3d9348	0.046283036
36	0x3ce6f2ce	0.02819195
37	0x3dac6808	0.0841828
38	0x3e030672	0.12795427
39	0x3dba2f13	0.0909101
40	0x3dbfc7e4	0.09364298
41	0x3dc4c2f6	0.09607498
42	0x3d462e33	0.048383903
43	0x3d6a6c72	0.057232328
44	0x3d213ec4	0.0393665
45	0xbc011ef6	-0.007880917
46	0xbc878953	-0.016544973
47	0xbc9364ff	-0.017992495
48	0xbba1c238	-0.0049364828
49	0xbc44aded	-0.012004358
50	0xbc7c5094	-0.015400071
51	0x3b008cdf	0.0019615216
52	0xbb649c36	-0.0034883148
53	0xba300c6a	-0.0006715717
54	0x3ea480fc	0.32129657
55	0xbe06caf9	-0.13163365
56	0x3daee324	0.085394174
57	0x3f0bad57	0.5456137
58	0x3db989b7	0.0905947
59	0x3ee7668b	0.45195422
60	0x3ec1e8b4	0.3787285
61	0x3d074d02	0.033032425
62	0x3eab597b	0.33466706
63	0x3d11c06a	0.03558389
64	0x3c7f39cb	0.015577744
65	0x3c88c0b5	0.016693452
66	0x3d26736d	0.040637422
67	0xbc088000	-0.008331299
68	0xbca61c20	-0.020277083
69	0x3d2ad12b	0.041703384
70	0xbbd6e289	-0.006557767
71	0xbcc99faf	-0.024612276
72	0xbdde5702	-0.10856439
73	0xbcf74f65	-0.030189225
74	0x3dc58a92	0.09645571
75	0xbd9126b0	-0.07087457
76	0xbd378268	-0.0448021
77	0x3d0520d0	0.032501996
78	0xbd3b3b2d	-0.04571073
79	0xbd99b47a	-0.07505126
80	0xbdbba38a	-0.09162052
81	0x3d8f669b	0.07001992
82	0x3c990fa7	0.018684221
83	0x3d66d312	0.056353636
84	0x3dea41af	0.114383094
85	0x3d95facc	0.07323226
86	0x3df4f3af	0.119605415
87	0x3d8e78af	0.06956612
88	0x3d15199a	0.03640137
89	0x3d4e5588	0.050374538
90	0x3c36075c	0.011110153
91	0xba8d4318	-0.0010777442
92	0xbc060be9	-0.008181551
93	0x3c8d8efa	0.01728009
94	0xbcdb0c49	-0.026739256
95	0xbd395572	-0.045247503
96	0x3d4e32c3	0.05034138
97	0x3cb0a23e	0.021561738
98	0x3c44e84a	0.012018273
99	0x3da50c62	0.080590025
100	0xbd2ff528	-0.04295841
101	0x3df269a2	0.11836554
102	0x3d96437a	0.07337089
103	0xbda6fc6d	-0.08153615
104	0x3dcc1579	0.09965033
105	0x3d8c6a41	0.06856204
106	0xbdc2099a	-0.094744876
107	0x3d4bd78e	0.049766116
108	0x3b4979c5	0.0030742746
109	0x3a957768	0.0011403384
110	0x3a642266	0.00087026355
111	0x397b7596	0.0002398103
112	0xbac7401f	-0.0015201605
113	0xba5f2d42	-0.0008513519
114	0xbb091f06	-0.0020923032
115	0xbb888841	-0.0041666334
116	0xbb3c3933	-0.0028720617
117	0x3db361c1	0.087588795
118	0x3d84485b	0.06459113
119	0x3d7a1464	0.061054602
120	0x3d88c5c7	0.06678348
121	0x3d17289a	0.036903955
122	0x3d052081	0.0325017
123	0x3d1c0585	0.0380912
124	0x3b24725e	0.0025092582
125	0xbbd31b17	-0.0064424383
126	0x3b948c32	0.004533314
127	0x3b59de49	0.0033244065
128	0xbc11e7d9	-0.008905374
129	0x3c21112f	0.009830757
130	0x3c0bae72	0.008525478
131	0x3b07f2c4	0.0020744065
132	0x3a73afcf	0.0009295912
133	0x3c5489dd	0.012972322
134	0x3bdc4734	0.0067223553
135	0xbdc15e2f	-0.09441792
136	0x3c71a4a9	0.014748731
137	0x3e321fb8	0.17394912
138	0xbdd7c1a7	-0.10534983
139	0x3ac7fa7c	0.0015257145
140	0x3e3ce15f	0.18445347
141	0xbdcb9f81	-0.09942532
142	0x3bb8bc08	0.0056376494
143	0x3e3154cf	0.17317508
144	0x3cabde83	0.020980125
145	0x3ce45a63	0.027875131
146	0x3da540b7	0.08068984
147	0x3d0fedb5	0.035138804
148	0x3d48bd6b	0.049008768
149	0x3df073e9	0.11740858
150	0x3cc0e379	0.023545967
151	0x3d3c4696	0.045965753
152	0x3dcee71d	0.10102675
153	0x3d56fd85	0.05248787
154	0x3cd62956	0.026142757
155	0x3cdb2733	0.02675209
156	0x3d1877ca	0.037223615
157	0x3b50a41c	0.0031836098
158	0x393d2fdf	0.00018042278
159	0x3c18a84a	0.009317467
160	0xbce4f977	-0.027950985
161	0xbcb53cca	-0.022123713
162	0xbd173caa	-0.036923088
163	0x3d47c360	0.04877031
164	0x3e46404f	0.1936047
165	0xbd865e30	-0.065609336
166	0x3cb154df	0.021646915
167	0x3e419caf	0.18907426
168	0xbd4b166f	-0.04958194
169	0x3cda78e5	0.026668975
170	0x3e25f4e2	0.16206697
171	0x3d982e1f	0.07430672
172	0x3d6768fd	0.05649661
173	0x3d0df35f	0.034655925
174	0x3cf84190	0.0303047
175	0x3c6b413c	0.014358815
176	0xbc137660	-0.009000391
177	0xbbf1bb61	-0.0073770736
178	0xbcadd37e	-0.021219011
179	0xbd11fc0c	-0.03564076
180	0xbeff2be5	-0.49838176
181	0xbe9fa873	-0.31183204
182	0xbf1458fd	-0.57948285
183	0xbf1150d0	-0.56763935
184	0xbee06549	-0.43827274
185	0xbf506aaf	-0.81412786
186	0xbed346cc	-0.4126495
187	0xbeb3dc93	-0.35129222
188	0xbf304db1	-0.6886855
189	0x3ab30b3c	0.0013659964
190	0xbbda7993	-0.006667325
191	0xbbfc6f98	-0.0077037327
192	0xbbb40ddb	-0.0054948158
193	0xbc701ba0	-0.014655024
194	0xbc8d3f90	-0.017242223
195	0xbc0858d3	-0.008321959
196	0xbc615cb9	-0.013755017
197	0xbc97e349	-0.018540995
198	0xbcaf5a09	-0.021405237
199	0x3d466198	0.048432916
200	0x3e05ea8f	0.13077758
201	0xbd182b61	-0.037150744
202	0x3d5ad1d1	0.053422753
203	0x3e29f761	0.16598274
204	0xbcea43aa	-0.028596718
205	0x3d6cfa0b	0.057855647
206	0x3e3663e7	0.17811547
207	0x3d247859	0.040153835
208	0x3ccf1817	0.025280042
209	0x3bd5fb73	0.006530219
210	0x3c9a5f99	0.018844413
211	0xbb301991	-0.0026870708
212	0xbc9a611e	-0.018845137
213	0x3c24d978	0.010061614
214	0xbc2b73b3	-0.010464597
215	0xbcedcd8c	-0.029028676
216	0x3d569996	0.052392565
217	0xbd2be1f6	-0.04196354
218	0x3db9653b	0.09052511
219	0x3c5caff0	0.013469681
220	0xbdf99757	-0.12187069
221	0x3bf0660b	0.007336383
222	0x3d836be4	0.06417063
223	0xbd66a8d3	-0.056313347
224	0x3d8f5bad	0.06999908
225	0x3c5250f9	0.012836688
226	0x3d615df6	0.05502125
227	0x3e10e61b	0.14150278
228	0xbd465071	-0.04841656
229	0x3cabdaeb	0.020978412
230	0x3e7f4445	0.24928387
231	0x3caaff6b	0.020873746
232	0x3d7059c8	0.058679372
233	0x3ea0a02f	0.3137221
234	0x3e092a47	0.13395034
235	0x3d51b30a	0.051196136
236	0x3d006e20	0.031355023
237	0x3e4b4307	0.19849788
238	0x3d6c932f	0.057757553
239	0xbc0f2e17	-0.008739016
240	0x3d7c66e1	0.06162155
241	0x3c760b6f	0.015017374
242	0xbd105ea6	-0.035246514
243	0x3e703d53	0.23460893
244	0xbe36a1ce	-0.17835161
245	0xbe846052	-0.25854737
246	0x3f6a1718	0.9144149
247	0x3e996fb9	0.2996805
248	0x3d735db0	0.05941552
249	0x3e88e70a	0.2673877
250	0xbdadd57e	-0.08487986
251	0xbe923c34	-0.28561556
252	0x3b286fe0	0.0025701448
253	0x3badfeba	0.005309907
254	0x3c329b09	0.010901221
255	0x3ba5b784	0.005057277

dense1.3.bn1.weight f4 [60]
0	0x3ecf25d1	0.4045854
1	0x3e8813ea	0.26577693
2	0x3df90833	0.12159767
3	0x3ef0fafe	0.47066492
4	0x3f2964b2	0.66169274
5	0x3db0e922	0.086382166
6	0x3fc7e474	1.5616593
7	0x3e28eec2	0.16497329
8	0x3f0a0097	0.5390715
9	0x3e839489	0.2569926
10	0x3d8d2d6e	0.06893431
11	0x3e92bae7	0.2865822
12	0x3e0ca113	0.1373332
13	0x3e8e7db6	0.27830285
14	0x3f594cc1	0.8488274
15	0x3dafc1a6	0.085818574
16	0x3e9de966	0.3084213
17	0x3dd7d28e	0.10538207
18	0x3db2e6f7	0.08735459
19	0x3dfc637c	0.12323663
20	0x3fc9119f	1.5708503
21	0x3e566d1a	0.20940056
22	0x3d8ec051	0.06970275
23	0x3db1d6ba	0.08683534
24	0x3e9e7ff3	0.30956993
25	0x3f6c1445	0.9221843
26	0x3e246bd5	0.1605676
27	0x3f5babb6	0.85808885
28	0x3e57102f	0.21002267
29	0x3ea09fe0	0.31371975
30	0x3f72d20f	0.94851774
31	0x3f8dfde9	1.1093112
32	0x3e320894	0.17386085
33	0x3f01e427	0.5073876
34	0x3cc9c067	0.024627877
35	0x3f5f09f7	0.8712458
36	0x3fa55283	1.2915806
37	0x3f8a5e0c	1.0809951
38	0x3c35e33e	0.011101542
39	0x3fa31008	1.2739267
40	0x3e4b4e57	0.19854103
41	0x3d5e21aa	0.054231323
42	0x3e11b414	0.1422885
43	0x3fa0b244	1.2554402
44	0x3f1882ea	0.5957476
45	0x3f013552	0.50471985
46	0x3fbebe1e	1.4901769
47	0x3f0fe50b	0.56208867
48	0x3f73fdd9	0.95309216
49	0x3dc8ffef	0.098144405
50	0x3e6341c4	0.22193056
51	0x3f6203b2	0.8828689
52	0x3e0c4cf8	0.13701236
53	0x3d74e2d9	0.05978665
54	0x3ff67151	1.9253331
55	0x3fac6eab	1.3471273
56	0x3fecf79b	1.8513063
57	0x3ed782ff	0.4209213
58	0x3d994f9a	0.07485886
59	0x3f22c6c0	0.6358452

dense1.3.bn1.bias f4 [60]
0	0xbe3c5984	-0.18393523
1	0xbcdf4abc	-0.027257316
2	0xbdba495c	-0.090960234
3	0x3e65e4b8	0.2245053
4	0x3cc78f72	0.024360392
5	0xbc404ac8	-0.011736579
6	0xbc1f9009	-0.0097389305
7	0x3c1131bd	0.008861956
8	0xbee1dd47	-0.44114134
9	0x3cdfd821	0.027324738
10	0xbc3331b5	-0.010937144
11	0xbd893bbd	-0.06700847
12	0xbc5929c4	-0.013254587
13	0xbe1dcd03	-0.15410237
14	0x3e5fd032	0.21856764
15	0xbdd0759c	-0.10178682
16	0xbded0742	-0.1157365
17	0xbd0112b9	-0.031511996
18	0x3c03b437	0.008038572
19	0xbdb8499b	-0.08998414
20	0x3d0fdb58	0.035121292
21	0x3d1f1d53	0.038846325
22	0xbd893dc1	-0.06701232
23	0xbd8e64de	-0.06952833
24	0xbeaea871	-0.34112886
25	0xbeec890f	-0.46198317
26	0xbeaa12bc	-0.33217418
27	0xbe905e8e	-0.2819714
28	0xbec07f99	-0.3759735
29	0xbe519433	-0.2046669
30	0xbea5ab80	-0.32357407
31	0xbed54fe0	-0.41662502
32	0xbe91f476	-0.2850682
33	0x3e86ce08	0.26329064
34	0xbd710b29	-0.058848534
35	0xbddadd71	-0.10686768
36	0xbe66a848	-0.22525132
37	0x3ef3675b	0.4753979
38	0xbd379f6e	-0.04482978
39	0x3d9c523b	0.07632872
40	0xbe889bed	-0.26681462
41	0xbdaee844	-0.08540395
42	0xbcb5424c	-0.02212634
43	0xbdc815b8	-0.097697675
44	0xbe666a5f	-0.22501515
45	0x3d6a1c71	0.05715603
46	0x3dbfda13	0.09367766
47	0xbe36642b	-0.17811649
48	0xbcec9cb9	-0.028883325
49	0x39e5a45b	0.00043800738
50	0x3d30ed0d	0.04319482
51	0xbdffdcb6	-0.12493269
52	0x3d80f8ed	0.06297479
53	0xbcb41e7a	-0.021987189
54	0x3d9889fa	0.07448192
55	0x3ea6508c	0.32483327
56	0xbdaff382	-0.08591367
57	0x3d8cf5c7	0.06882816
58	0xbc876c94	-0.016531266
59	0x3e174e46	0.14775953

dense1.3.conv1.weight f4 [12, 60, 3, 3]
0	0xbd0947c3	-0.033515703
1	0xbd78f133	-0.0607769
2	0xbd0eb4b3	-0.034840297
3	0xbd393197	-0.04521331
4	0xbda39e45	-0.07989172
5	0xbd8250f4	-0.06363097
6	0xbd1c6578	-0.038182706
7	0xbd87d50a	-0.06632431
8	0xbd4fb536	-0.050709926
9	0xbc5ae3ad	-0.013359946
10	0x3a8af662	0.0010601992
11	0xbbaaf6ac	-0.005217394
12	0xbc8c91ab	-0.017159304
13	0xbaf3b3e5	-0.0018593041
14	0xbc03b13d	-0.008037862
15	0xbc83b446	-0.016077172
16	0xbb2a6570	-0.0026000403
17	0xbc41647d	-0.011803743
18	0x3bfd49cc	0.0077297445
19	0x3bbe6555	0.0058104196
20	0x3c2c0040	0.0104981065
21	0x3af8c745	0.0018980285
22	0xbb902aed	-0.0043996484
23	0x39ac39e8	0.0003284954
24	0x3ba077e7	0.004897106
25	0xbb6c1f5a	-0.003602943
26	0x3a9d45d8	0.0011998964
27	0xbd408144	-0.046998277
28	0xbccf2d33	-0.025290107
29	0x3d88a0db	0.06671306
30	0x3d8246bb	0.06361147
31	0x3d8422f3	0.064519785
32	0x3e25edf2	0.1620405
33	0x3ba3826a	0.004989912
34	0x3c0aede4	0.008479569
35	0x3dc49114	0.09597984
36	0x3ce53887	0.027981056
37	0x3cb5229d	0.022111231
38	0xbc7ba04f	-0.015358045
39	0x3d64e95a	0.055886604
40	0x3d73826f	0.059450563
41	0x3d11e317	0.03561696
42	0x3d46bccb	0.04851989
43	0x3d642875	0.055702645
44	0x3d78b48e	0.060719065
45	0x3994ad49	0.00028357867
46	0xba428f9f	-0.0007421914
47	0x3911694a	0.00013867501
48	0x3b96f00c	0.0046062525
49	0x3b58029c	0.003296054
50	0x3a9be113	0.0011892639
51	0x3a266c07	0.0006348495
52	0xb9dd9d12	-0.0004226943
53	0x3b0a62b7	0.0021115968
54	0xbe191c54	-0.14952213
55	0xbe93a70d	-0.28838387
56	0x3dfdf1ff	0.12399673
57	0xbd4c250e	-0.049840026
58	0xbe602e14	-0.21892577
59	0x3e86f09d	0.26355448
60	0xbd6e691c	-0.05820571
61	0xbe905acc	-0.28194273
62	0x3e2467a7	0.16055165
63	0x3b2dc459	0.0026514737
64	0xbc0e403c	-0.008682307
65	0xba75ed71	-0.000938139
66	0x3b270d30	0.0025490038
67	0xbbb02277	-0.0053752023
68	0x3b5a7902	0.0033336286
69	0xbc134fb1	-0.008991168
70	0xbc6d84a1	-0.014496953
71	0xbc08593b	-0.008322055
72	0x3d62bb39	0.05535433
73	0x3dbe8971	0.093035586
74	0x3e30baa3	0.17258696
75	0x3d896b4c	0.067099184
76	0x3d97bb2e	0.074087486
77	0x3e0b3800	0.13595581
78	0xbd27cbd8	-0.040965885
79	0xbcead20c	-0.028664611
80	0x3ba2cf7c	0.0049685817
81	0xbb5aa39a	-0.0033361674
82	0xbc82b14a	-0.015953679
83	0xbb2768ef	-0.0025544723
84	0x3b968608	0.0045936145
85	0xbc622fd8	-0.013805352
86	0x3946551f	0.00018914462
87	0xbbed1a47	-0.0072357985
88	0xbcb5ceb7	-0.022193296
89	0x3b26e891	0.002546821
90	0x3b36ca47	0.0027891563
91	0xbb5f02be	-0.0034028734
92	0x3a97b417	0.0011574057
93	0x3b9cb470	0.004782252
94	0xbb067d52	-0.0020521474
95	0x3b9d30d3	0.00479708
96	0xba1e56d4	-0.000604016
97	0xbc2277f1	-0.009916292
98	0xbba99f56	-0.005176465
99	0xbc7a8106	-0.015289551
100	0xbd3b2c52	-0.045696564
101	0xbd15e1cc	-0.03659229
102	0xbcda8a06	-0.026677143
103	0xbd816d27	-0.06319647
104	0xbd678cef	-0.05653089
105	0xbd0b6648	-0.03403309
106	0xbd9786be	-0.07398747
107	0xbd7eada7	-0.062177327
108	0x3c10ae17	0.008830569
109	0xba802be6	-0.0009778708
110	0xbbb69d1f	-0.0055729295
111	0x3b8c179d	0.004275276
112	0xbbe3f109	-0.006956224
113	0xbbc755fb	-0.0060832477
114	0xba72865d	-0.0009251589
115	0xbc1221c1	-0.00891918
116	0xbc0f4a5f	-0.008745759
117	0x3d9afa91	0.07567323
118	0x3d485423	0.048908364
119	0x3cc14622	0.023593012
120	0x3d590ad2	0.052988835
121	0x3cc3d48c	0.023905061
122	0x3a125ae9	0.00055830047
123	0x3ca9e5cb	0.020739457
124	0xbb86cc48	-0.0041137077
125	0xbcba1c5d	-0.022718603
126	0xbd898cd2	-0.067163125
127	0xbd20503f	-0.03913903
128	0x3d5f626f	0.054537233
129	0x3dbde4bb	0.092721425
130	0x3ddbb506	0.10727887
131	0x3e457f81	0.1928692
132	0xba64003f	-0.00086975464
133	0x3ca1b381	0.019738914
134	0x3daaa4ce	0.08332215
135	0xba2c9177	-0.0006582955
136	0x3b3fec4b	0.0029285129
137	0x3c4daea7	0.012553847
138	0x38992b16	7.303634e-05
139	0x3b3f4a2e	0.0029188502
140	0x3c6319db	0.013861145
141	0xbb9ff60b	-0.0048816255
142	0xbaff4041	-0.0019474105
143	0x3c2fb307	0.010723836
144	0x3d4881cc	0.04895191
145	0x3cbeef70	0.023307532
146	0x3c2acfcc	0.010425519
147	0x3d07994f	0.03310519
148	0xb9063993	-0.00012800684
149	0xbc875d72	-0.01652405
150	0x3c363a1a	0.011122251
151	0xbcc5c1ca	-0.024140257
152	0xbd3cd111	-0.04609782
153	0x3c87dfcb	0.016586205
154	0x3c455f0e	0.012046589
155	0x3b9e71e9	0.0048353565
156	0x3c8c0162	0.017090503
157	0x3c812c00	0.015768051
158	0x3b48b1cd	0.0030623556
159	0x3c4bec5d	0.01244649
160	0x3c031a46	0.00800187
161	0x3b517aa1	0.0031963962
162	0x3d855b52	0.065115586
163	0x3d4accfe	0.049511902
164	0x3d1f98fe	0.038964264
165	0x3d76c662	0.060247786
166	0x3d27e1e6	0.040986918
167	0x3cda2551	0.026629122
168	0x3d28ed01	0.04124165
169	0x3cc1c211	0.023652108
170	0x3c5b40ff	0.0133821955
171	0x3c9dc260	0.019257724
172	0x3c958c7a	0.018255461
173	0x3cb5525c	0.022133999
174	0x3cd571e9	0.026055293
175	0x3cd6dbff	0.02622795
176	0x3cb000b3	0.021484708
177	0x3ce2e83b	0.027698627
178	0x3ce1e7cd	0.027576352
179	0x3cd392e8	0.025826886
180	0xbc1683ef	-0.009186729
181	0xbdcd953e	-0.10038231
182	0xbe89a1a6	-0.2688114
183	0x3d9ad970	0.07561004
184	0x3a8ca4bc	0.0010730247
185	0xbe56d7a8	-0.20980704
186	0x3d96ef6c	0.07369885
187	0xbd9447e6	-0.07240276
188	0xbe94f75f	-0.2909498
189	0xbb847c88	-0.0040431656
190	0xbc27d8b9	-0.010244542
191	0x3d181e70	0.037138402
192	0xb9ef275d	-0.0004561496
193	0xbbcd374a	-0.0062626945
194	0x3d2e5cf0	0.0425691
195	0x3b1b4cb4	0.0023696842
196	0xbbe581a0	-0.007003978
197	0x3d226add	0.039652694
198	0x3ba12785	0.004918041
199	0x3bb2c451	0.0054555316
200	0x3b6b735d	0.0035926916
201	0x3bcb5afc	0.0062059145
202	0x3bb465c1	0.005505294
203	0x3b7e4072	0.0038795737
204	0x3ade16c6	0.0016944043
205	0x3bb3d627	0.0054881754
206	0x3bd7dd07	0.006587628
207	0xba9a44fe	-0.0011769829
208	0x3a9e8f2d	0.0012097113
209	0x3ab42dff	0.0013746618
210	0x395636ee	0.00020429093
211	0x3a4c9583	0.00078042614
212	0x3b453ec2	0.003009722
213	0x3b9998a3	0.004687385
214	0x3b77cbe0	0.0037810728
215	0x3affa40e	0.0019503848
216	0xbc6dcddc	-0.014514413
217	0x3c91d3a4	0.017801113
218	0x3df7da4e	0.12102185
219	0xbbc2e5f7	-0.005947824
220	0x3ced79e8	0.028988793
221	0x3e03c53d	0.12868209
222	0x3b25356f	0.002520885
223	0x3cef8f1e	0.029243048
224	0x3df0e605	0.11762623
225	0xbdcce6e9	-0.1000498
226	0xbdc7c385	-0.09754089
227	0x3dd04c83	0.101708435
228	0xbdb42ace	-0.08797227
229	0xbbcf95f3	-0.006335014
230	0x3e4ef2df	0.20209835
231	0xbdb15d54	-0.08660379
232	0xbd4c3f5a	-0.049865104
233	0x3dd9805e	0.10620187
234	0xbcfc1f25	-0.03077657
235	0xbd078350	-0.033084214
236	0xbb8bdc0a	-0.004268174
237	0xbd3a471c	-0.04547797
238	0xbd4ce8da	-0.050026752
239	0xbcd1cc0f	-0.025609998
240	0xbcc19f05	-0.023635397
241	0xbcaebb6c	-0.021329604
242	0xbc16c457	-0.0092020845
243	0x3d9214ec	0.07132897
244	0xbc721392	-0.014775174
245	0xbe218822	-0.15774587
246	0x3de55f7c	0.11199853
247	0xbd3c1d74	-0.045926526
248	0xbe028e55	-0.12749608
249	0x3d14d220	0.036333203
250	0xbdfc25d3	-0.12311902
251	0xbdf62403	-0.120185874
252	0xbbbdd008	-0.0057926215
253	0xbbe6e72e	-0.0070466017
254	0xbad54387	-0.0016270735
255	0x3ca31660	0.01990813

dense1.4.bn1.weight f4 [72]
0	0x3f80b4fb	1.0055231
1	0x3eb10879	0.34576777
2	0x3f2e5c63	0.6810972
3	0x3f95ec2c	1.1712699
4	0x3f97ae6b	1.1850103
5	0x3da82221	0.082096346
6	0x3f1bcc77	0.60858864
7	0x3f1a77de	0.6033915
8	0x3fc6451a	1.5489838
9	0x3e635218	0.22199285
10	0x3e4bf596	0.19917902
11	0x3d898a98	0.06715888
12	0x3da53023	0.08065822
13	0x3ea33678	0.31877494
14	0x3f8669bc	1.0501018
15	0x3f33c147	0.7021679
16	0x3f4cafad	0.7995556
17	0x3f314980	0.6925278
18	0x3eee0ed0	0.46495676
19	0x3eaf6aa4	0.34261048
20	0x3f3d1806	0.7386478
21	0x3def3379	0.116797395
22	0x3dc0f1b2	0.094211
23	0x3a8603e4	0.0010224548
24	0x3eb9e550	0.36307764
25	0x3fa5c25c	1.2949939
26	0x3ef77689	0.48332623
27	0x3dc1e1b1	0.09466875
28	0x3e2ff131	0.17181851
29	0x3eaff1d7	0.34364197
30	0x3f33d24d	0.7024277
31	0x3e8f9296	0.28041524
32	0x3efa83f1	0.48928788
33	0x3f274c9b	0.65351266
34	0x3ec30fd0	0.38098
35	0x3f5669eb	0.8375537
36	0x3ed9db82	0.42550284
37	0x3fc2d7f9	1.522216
38	0x3edf7347	0.43642637
39	0x3e465369	0.19367756
40	0x3ef126f4	0.4710003
41	0x3dec3a2a	0.115345314
42	0x3ed41c07	0.41427633
43	0x3f8cb053	1.099131
44	0x3e99d59d	0.30045786
45	0x3f22f426	0.6365379
46	0x3f9b7824	1.2146039
47	0x3f4a72ab	0.7908122
48	0x3f1c4a49	0.6105085
49	0x3dc1c92e	0.094622
50	0x3e4a3d6b	0.19749992
51	0x3f508202	0.81448376
52	0x3f566ee7	0.83762974
53	0x3eb3db5d	0.35128298
54	0x3e9c96f1	0.3058391
55	0x3f6fb0ba	0.9362904
56	0x3fc1c57e	1.5138395
57	0x3e92b900	0.2865677
58	0x3eb88a86	0.36043185
59	0x3f1139eb	0.56729
60	0x3f059a84	0.521889
61	0x3f0faf54	0.56126904
62	0x400b3b1b	2.1754825
63	0x3e944956	0.289622
64	0x3e2d47db	0.16921942
65	0x3ebc675f	0.36797616
66	0x3dc0a20f	0.0940591
67	0x3f8cf7c5	1.1013113
68	0x3e049b34	0.1294983
69	0x3f11f6ff	0.5701751
70	0x3f102008	0.56298876
71	0x3e01f5fa	0.12691489

dense1.4.bn1.bias f4 [72]
0	0xbefc7b4d	-0.4931282
1	0x3c710731	0.014711187
2	0xbe82de1b	-0.25560078
3	0xbe0100ad	-0.12597914
4	0xbe0eeb52	-0.13956955
5	0xbb72b6d7	-0.003703525
6	0xbdd967ff	-0.10615539
7	0x3cda6d59	0.02666347
8	0x3e024b58	0.12724054
9	0x3cf5baaa	0.029996235
10	0x3b26dba5	0.0025460508
11	0xbd371e2e	-0.044706516
12	0xbbfd6bf1	-0.007733815
13	0xbe4ea086	-0.20178422
14	0xbcf2f87d	-0.029659504
15	0xbf0cd451	-0.5501147
16	0xbf374a14	-0.7159741
17	0xbf124d50	-0.5714922
18	0xbea4d802	-0.3219605
19	0xbeab84b0	-0.3349967
20	0xbe727d13	-0.23680525
21	0x3d470730	0.04859084
22	0x3c15f028	0.009151496
23	0xbb82c4e5	-0.003990757
24	0x3eb153be	0.34634203
25	0xbe29ba10	-0.16574883
26	0xbe8ce501	-0.27518466
27	0xbd764cef	-0.060131963
28	0x3c1fde5b	0.0097576035
29	0xbe267a8d	-0.16257687
30	0xbe288ef0	-0.16460776
31	0xbd681460	-0.056660056
32	0xbe906330	-0.28200674
33	0xbed4d55f	-0.4156904
34	0xbe4af96c	-0.1982171
35	0x3d023049	0.03178433
36	0xbe87ce70	-0.26524687
37	0xbef8fc95	-0.48630205
38	0xbf17e1f7	-0.5932917
39	0xbd64cf47	-0.055861738
40	0xbf07d0d4	-0.5305302
41	0xbdc1c2ed	-0.09461007
42	0xbd0acc6d	-0.033886362
43	0xbf03b01d	-0.514406
44	0x3d309526	0.04311099
45	0x3db0d626	0.086345956
46	0xbe4499da	-0.19199315
47	0x3ef6532b	0.48110327
48	0xbe6a14b5	-0.22859462
49	0x3c79e989	0.015253433
50	0x3d0d7fd2	0.034545727
51	0xbe62a469	-0.2213303
52	0x3e6570e2	0.22406343
53	0xbd82934d	-0.06375752
54	0xbe6c1a01	-0.23056795
55	0xbe4ef61a	-0.20211068
56	0xbe9da313	-0.30788478
57	0x3dc543f1	0.096320994
58	0x3c0a29fd	0.008432862
59	0x3ece549d	0.4029893
60	0xbe322920	-0.173985
61	0xbed541ce	-0.41651767
62	0xbe48d858	-0.19613779
63	0x3d8c57bb	0.06852671
64	0xbdef2fdc	-0.1167905
65	0x3da97581	0.08274365
66	0xbcd9d502	-0.026590828
67	0x3e57624b	0.2103359
68	0xbde32067	-0.11090165
69	0x3dcc24d3	0.09967961
70	0x3e0c569f	0.13704918
71	0x3c5141df	0.012772053
