fedmd_results_1000.0/client24/best_model_1000.0.pth (torch, 420839 bytes, 98 tensors)

conv1.0.weight f4 [16, 3, 3, 3]
00000000: 15d5 503d 1dc1 c6bd 00bc b33e 6bf6 adbe
00000010: c113 52bf 3817 86be 79cf edbd efa6 24bf
00000020: e8e8 f9bd da3a 833d 6252 82be d22a 6f3d
00000030: 8c63 bdbc 5417 1bbf 00c8 2abe f8da de3e
00000040: 4444 26be 1f49 8a3e 1152 3a3c 850f 59bd
00000050: f1f2 663e dc16 a1be 6309 1dbf 6ae1 38be
00000060: 8c4a 52be 067b 09bf e614 cbbd 8d8c 1bbf
00000070: 0eb3 09bf 9e83 0dbf 8526 84bf ed04 79bf
00000080: 25be 5dbf ec66 88bf dbf9 9dbf e632 83bf
00000090: 4c0f 653f aa68 893f dfab 523f fa2e 6c3f
000000a0: 53e0 983f ea2c 833f fd6c 583f e033 633f
000000b0: ced9 473f 217a 82be fbef 3abe b022 c5be
000000c0: 3ac1 003d c1e4 623e 3015 b13b 4243 643e
000000d0: 1317 723e ea25 733d 68d3 babe fc32 b63e
000000e0: 9bbe 93be 05eb 6bbe 9e34 5a3f 0971 0bbf
000000f0: df56 933e 102c 833f 1223 4dbf f292 cabe
00000100: 639d 303f 30c6 40bf 5db5 68be 5504 973f
00000110: 6726 90bf bd38 223e e854 993f d8f9 babf
00000120: c047 94be a574 ec3e cc37 63be d1ac bbbd
00000130: 4d63 853f a0fc 1dbf a33a 5e3e f00f 7f3f
00000140: 73e1 8abf f4d4 343e ac32 61bd 1e04 a13d
00000150: fabd f43d 991e 26bd 4a8e 3a3e 5714 ec3e
00000160: bdc5 773e 32d6 083f e3ca 34bf 3fbb 80bf
00000170: a7a9 39bf 56ca 84bf 6c8c aebf 470d 8abf
00000180: caf2 58bf 8e59 a1bf 0a04 74bf 0a15 4f3f
00000190: 6807 6b3f 1a89 6a3f a315 6d3f 7620 8e3f
000001a0: c6c7 7f3f 7b6e 593f 0c11 603f fc50 3f3f
000001b0: 9dc0 10bf 10d9 033e c42e d23e 0abd aa3f
000001c0: ca94 16bd 132e 89bf 6905 f63f 74aa 33bf
000001d0: ec14 c8bf 50d6 c4be 13a2 62bb d6b4 a83d
000001e0: 91ff ce3f ba4f 90bd 94ef a7bf 3138 1240
000001f0: 3268 1dbf 0b13 ccbf 0963 c9be b99e 0cbd
00000200: afa2 c53e 8e39 c03f 2826 42be 9ee1 8dbf
00000210: 32a0 0740 4e04 4dbf cfc5 c8bf 7bab e43c
00000220: 643f 903d b35e 89bb f310 b83e a875 1a3f
00000230: ff13 cd3e cf1a c73d 81ec b53e a9c5 7f3e
00000240: 8774 f0bd 878a a7bd fffc 02be a612 813e
00000250: 8c31 f73e 9261 9a3e 9e30 7dbd 3737 293e
00000260: 6774 a23d e085 a33c 2495 1abc 3e7d fbbc
00000270: 8d1e bd3e 69ee 083f 9178 cd3e af35 2abe
00000280: 0eea b8bb c3dc 12bd fee0 103f 0f97 0d3f
00000290: 06ca 5e3e ca04 663f 5e11 8e3f f596 483f
000002a0: 5dd1 123f ccc4 783f 29fd 2c3f 358e 9a3d
000002b0: b3b5 9ebd ebc2 613c f7ea 01be 8306 91be
000002c0: e76e ddbd f841 adbe 0e2d b1be 2991 dfbd
000002d0: e2d9 f0be 25c7 0ebf d075 98be 22d7 36bf
000002e0: 1745 7abf e965 12bf 4384 3cbf c396 70bf
000002f0: 59cc f4be d6c3 99bf 8234 4a3f 783d 993f
00000300: 5618 823f cb41 b13f 4073 093f 03a6 5f3d
00000310: 6a99 e1bf 5fe2 24c0 b5bb 7dbf d029 583f
00000320: dce5 ae3f e2fd 8a3f 78c4 b43f 5395 473f
00000330: 9758 5abd a995 edbf bad9 18c0 2c38 c2bf
00000340: b17c b0bb c1e8 153f ad1c 7a3f 7bf6 a63f
00000350: 79c8 563f 57ae ef3e 4271 84bf b798 b4bf
00000360: 581c 1c3f f534 553f 7eeb 023f a692 573f
00000370: f192 a23f d9be 5a3f 98ff 093f 28a9 7c3f
00000380: fa5f fe3e d6d2 80bf 3872 95bf fb80 81bf
00000390: fa63 b4bf a5e2 bebf ac5d a3bf 5872 a1bf
000003a0: 1cb3 a0bf a7bc 82bf 689e cf3e 4a49 f53e
000003b0: fa43 cf3e 4e04 c43e 3505 213f 50df 0b3f
000003c0: e3a5 463e e0ee e33e 783b ad3e fbad 0abf
000003d0: 8d61 afbf 2fd4 3ebf af26 23bf 4544 19bf
000003e0: 3333 0abf 425a 923f 7fc7 0340 c524 903f
000003f0: b3f7 fdbe a4bc adbf 85ff 26bf 06d0 13bf
0.05098446 -0.09704802 0.3510437 -0.33977064 -0.8206139 -0.2618959 -0.11611838 -0.6431722
-0.122026265 0.064077094 -0.25453478 0.058390446 -0.023118757 -0.6058247 -0.16677856 0.43526435
-0.16236979 0.27008912 0.011372105 -0.052993316 0.22553612 -0.31462753 -0.6134245 -0.18054739
-0.2053625 -0.53703344 -0.099160954 -0.6076134 -0.5378884 -0.55278957 -1.0324255 -0.9727314
-0.8661826 -1.0656409 -1.2341875 -1.0249908 0.89476466 1.0735066 0.82293504 0.9225918
1.1943458 1.0248082 0.845413 0.8875103 0.7806672 -0.25483802 -0.18255608 -0.38503027
0.031434275 0.22157575 0.005404137 0.22291282 0.23641615 0.05936233 -0.36489415 0.35585773
-0.28856358 -0.23038872 0.8523654 -0.5446935 0.28777215 1.0247822 -0.8013164 -0.39565235
0.68990153 -0.7530241 -0.22725435 1.1798197 -1.126172 0.15841956 1.1979036 -1.4607496
-0.2896099 0.46182743 -0.22189254 -0.091638215 1.0420929 -0.617136 0.21702056 0.99633694
-1.0850052 0.1765936 -0.054979965 0.078621134 0.11950298 -0.040556524 0.18218341 0.46109268
0.24196525 0.53451836 -0.7062208 -1.0057143 -0.72524494 -1.0374248 -1.3636603 -1.0785302
-0.84745467 -1.2605455 -0.95318663 0.8089148 0.91808176 0.9161545 0.9261114 1.1103656
0.99914205 0.84934205 0.8752601 0.7473295 -0.56543905 0.12875772 0.41051304 1.333894
-0.03676299 -1.0717186 1.9220401 -0.70181966 -1.5631385 -0.38444757 -0.0034581467 0.08237617
1.6171743 -0.07046457 -1.3119988 2.2846797 -0.61487114 -1.5943311 -0.3933337 -0.034331057
0.3860068 1.5017564 -0.18959868 -1.1084478 2.1191525 -0.80084693 -1.5685366 0.0279138
0.07043341 -0.004192197 0.3595043 0.6033578 0.40054318 0.0972191 0.35532 0.24977745
-0.11740976 -0.08180719 -0.12791823 0.2520954 0.4827999 0.30152565 -0.061813943 0.16524969
0.07932358 0.019961298 -0.009434972 -0.030699369 0.3693737 0.53488785 0.40131047 -0.16622041
-0.005643136 -0.035855066 0.5659331 0.5530862 0.21756753 0.8985106 1.109905 0.7835534
0.57350713 0.9717529 0.6757379 0.07546655 -0.077495 0.013779382 -0.12687288 -0.2832528
-0.108121686 -0.33839393 -0.34604686 -0.10916359 -0.4704123 -0.5577262 -0.29777384 -0.71422017
-0.9776167 -0.5718675 -0.73639315 -0.93980044 -0.47812155 -1.2012889 0.7898637 1.1971884
1.0163677 1.3848203 0.5369148 0.05460168 -1.7624943 -2.5763166 -0.99114543 0.844388
1.3663898 1.0858729 1.4122458 0.77962226 -0.053307142 -1.8561298 -2.388289 -1.5173392
-0.005385958 0.5855828 0.97700006 1.304397 0.83899647 0.46812698 -1.0347064 -1.4109105
0.6098075 0.8328393 0.5114058 0.8420814 1.2701093 0.8544746 0.5390563 0.9869561
0.496826 -1.0064342 -1.1675482 -1.0117487 -1.409301 -1.4912916 -1.2762961 -1.261302
-1.255466 -1.0213822 0.40550542 0.47907478 0.4048155 0.38284534 0.6289857 0.5463762
0.19399218 0.44518185 0.33834434 -0.54171723 -1.3701645 -0.74542516 -0.637309 -0.59869796
-0.53984374 1.1433794 2.0590513 1.1261221 -0.49603042 -1.3573194 -0.6523364 -0.57739294

conv1.1.weight f4 [16]
00000000: d2f1 e13f ce2b c13f 238e d73f 1d9a d63f
00000010: 948a 0c40 5824 b63f 56df c53f cdc7 0d40
00000020: 1849 b03f 9342 da3f 317a d13f ddd3 e73f
00000030: 244b bf3f 53c4 c93f e44a d23f 4b5a d03f
1.7651923 1.5091493 1.6840252 1.6765782 2.1959581 1.4229841 1.5458782 2.2153199
1.3772306 1.7051567 1.6365415 1.811153 1.4944806 1.5763038 1.6429105 1.6277555

conv1.1.bias f4 [16]
00000000: 8f32 6cbd 1ae8 253f 55ca 833f b7b5 cf3e
00000010: 25f0 42be 7fd5 d93e 2cfe 023f 2081 14be
00000020: 0500 0b3f ae0e adbd 72f5 fc3e a0c8 3ebd
00000030: 378f 843e 2a92 503f 0dd7 e53d fa83 813d
-0.057665404 0.64807284 1.0296122 0.40568325 -0.1903692 0.42545697 0.51169086 -0.14502382
0.54296905 -0.084500656 0.4940601 -0.04657805 0.25890514 0.8147303 0.11222658 0.06324001

stage2.0.branch1.0.weight f4 [16, 1, 3, 3]
00000000: 009a 97bd e64e 0fbe 4252 023f 8107 c83e
00000010: 4fe6 dfbe a64b b03e 8d7c 403e 6101 3abf
00000020: 6d7d 21be f600 943e 2350 52be 98c6 25bf
00000030: 762e 02bf 79f9 373e 612f 523f ee1c 31bf
00000040: abb5 623f 385c e33f 8926 733d f19f 03bd
00000050: e55a 2a3d 147a 573e 529c a3bf 9060 653f
00000060: e6d0 623f 240b 2cc0 ffe0 ec3f ae21 bc3e
00000070: 2fd4 d0be 7da8 b5be bf22 d5be bcf1 88bd
00000080: 4dea 143f ce4c cebe ef9a 303f 53a2 be3f
00000090: acbb 0b3d 7d29 163e 917d c63d fa21 053f
000000a0: 4c14 3c3f 9c07 103f fa1b ee3d e3d9 1f3f
000000b0: fec3 8a3f 1553 d3bc 56cd 78be f99b 27bf
000000c0: 2ed4 4ebc d0fc c73e ae65 0a3e 5fad 9abe
000000d0: a51c 143f 5712 843f 6501 21bf 1e25 f63e
000000e0: 80e0 5d3f be08 b23d 5ad0 07bf 1914 83bf
000000f0: 928e 663f 7928 0bbf a07f a3bf acee 32bd
00000100: 6608 c73d 3057 ca3e 5d5d d93e 106f 943f
00000110: 88c1 5c3f e1d1 e23e 537b 9e3f d6d8 443f
00000120: 2e44 cfbe a177 943e 97ef 3b3f 0e0d fd3e
00000130: 5934 d03c ae0c 06bf 6640 643f 19d9 4cbf
00000140: 0eab fbbf 749f 953e 1662 eabd 6d51 12bf
00000150: 83d0 ab3e 6142 66bf 502f a4bf 6a2d 763d
00000160: 22a5 a3bf c7dd 92bf ee1a ff3d 0c1e 953f
00000170: 3a95 b1bf 4414 e5bf 1f3a 1d3f 1fa1 a23f
00000180: 708c b43f 47cf e6bf 5bf5 953e 7dcd 69bd
00000190: 8a2c 4c3d d6b4 bc3d 8a15 03bf bd05 39bf
000001a0: 6627 9bbe 2bcd f9be d3ad 46bf 5461 3fbf
000001b0: 0cb4 0d3d aa43 c5bc 5fd7 163d 3cac 553e
000001c0: 2824 473e 82d1 5c3e eff1 e43c 2a07 2e3d
000001d0: a1de b83d 5552 4b3f fcea e03c fb11 08bf
000001e0: 68b4 893f 22bb 083d be08 53bf 8dc1 c93e
000001f0: 15b1 a5be cb5f 4ebf ec1f 99be bc6d 343f
00000200: cab4 813f 12a3 f33e 2f8f 3cbd 9fc8 e6be
00000210: 1014 253f 2424 83bf 2b76 bdbf 6981 8bbd
00000220: 29ec 0e3e 0ef3 2a3e cfff 1e3e 856d 0bbf
00000230: 621b 59bf 76dd 263f 46dd d9be acd2 4fbf
-0.0740242 -0.13994941 0.50906765 0.39068225 -0.437304 0.34432715 0.18797512 -0.72658354
-0.15770502 0.28906983 -0.20538382 -0.64756155 -0.50852144 0.1796626 0.82103544 -0.6918477
0.88558453 1.7762518 0.059362922 -0.032134954 0.04159059 0.21042663 -1.278208 0.8960047
0.88600004 -2.68818 1.8506163 0.36744446 -0.40786883 -0.3548011 -0.41628072 -0.06686732
0.58170015 -0.40292972 0.6898641 1.4893287 0.034114525 0.14664264 0.09691919 0.5200497
0.7346847 0.5626161 0.1162643 0.62441844 1.0841062 -0.025796453 -0.2429708 -0.6547237
-0.01262383 0.39060068 0.1351535 -0.30210397 0.5785621 1.0318097 -0.6289275 0.48075193
0.86670685 0.08693074 -0.53052294 -1.0240508 0.90061295 -0.5435863 -1.2773323 -0.043684646
0.09718399 0.39519644 0.42454043 1.1596394 0.86232805 0.4430075 1.2381386 0.76893365
-0.40481704 0.2899752 0.7341246 0.49424022 0.025415586 -0.523631 0.89160764 -0.80018765
-1.9661577 0.29223216 -0.1144449 -0.57155496 0.3355752 -0.89945036 -1.2826939 0.060101904
-1.278477 -1.1473931 0.12456308 1.1649795 -1.3873665 -1.789681 0.6141681 1.270542
1.4105358 -1.8032006 0.29288754 -0.057080735 0.049847163 0.09214179 -0.5120474 -0.7227438
-0.30303496 -0.48789343 -0.77608985 -0.74757886 0.034595534 -0.024080116 0.036826488 0.20866483
0.19447386 0.21564296 0.027947394 0.0424873 0.09026838 0.79422504 0.0274558 -0.53152436
1.0758181 0.03338159 -0.82435215 0.3940548 -0.32361665 -0.8061492 -0.29907167 0.7047994
1.0133297 0.4758535 -0.046034988 -0.45074937 0.6448374 -1.0245404 -1.4801687 -0.068117924
0.13957275 0.1669428 0.1552727 -0.5446399 -0.8480741 0.6518167 -0.4255163 -0.81180835

stage2.0.branch1.1.weight f4 [16]
00000000: 9b80 af3f 2dea d73f 8ffe f13f bb9d d13f
00000010: 2f02 c03f 82dd af3f d127 d43f 67b6 a73f
00000020: abb2 db3f 50d7 a03f 5e3e 0e40 a9fd bf3f
00000030: e96a db3e d105 843f 4a81 c53f 0b01 c43f
1.3711122 1.686834 1.890581 1.637626 1.5000666 1.3739474 1.6574651 1.310254
1.71639 1.2565708 2.2225566 1.4999286 0.42855003 1.0314275 1.5430081 1.5312818

stage2.0.branch1.1.bias f4 [16]
00000000: 2af7 df3d 5a55 8cbe 89ef 663f d4d8 c53d
00000010: 98d9 c3be bf88 c2bd 8a15 b83f 5d76 cbbe
00000020: 60f7 27bd 0703 373f eb46 82bf e62e 623e
00000030: 23a9 29be 2037 acbe e2f5 bdbe fc2e e33d
0.10935815 -0.27408868 0.9020925 0.09660497 -0.38251948 -0.094987385 1.4381573 -0.39738742
-0.0410074 0.71488994 -1.0177892 0.22088203 -0.16568427 -0.33635807 -0.37101656 0.11092946

stage2.0.branch1.2.weight f4 [16, 16, 1, 1]
00000000: c8fa 5b3e 7678 583f 6cb4 3f3e 78e8 873f
00000010: 67eb 98be f552 053f 31e5 1f3f 35e9 c93e
00000020: f3dc 003f 40c6 48bf 2625 063e 32d2 c7bd
00000030: ae56 cebe 4a6f f9be 688f babf 6d81 973f
00000040: 6695 63bf 9bbc 85be aeda 463c 0a6a db3d
00000050: f289 1cbe 44f1 87be 0a35 723d b531 0c40
00000060: 5a0c 83bd d7ad 3fbf 2393 32be d2f5 2c3d
00000070: 4fae f73c be66 683e 9f1f 943e 3caf e9bd
00000080: 8d33 a43d 4880 193f dcb1 1b3e 6bd6 93bf
00000090: 7a09 99bc 52eb babe f34d 44bf a1e5 203e
000000a0: 22e1 fa3f 802b c33d 67b6 0b3d 5307 133e
000000b0: 5358 8e3e c689 0ebd 0299 873e 3fc8 90bf
000000c0: a137 0fbe 1a39 98bf 3ff2 c0bd e30e 46bf
000000d0: 66ab 963d 9961 83bf 748f 77bf 3ec3 bd3c
000000e0: dd88 2e3e 2f7c fe3e 7ed8 2c3b cdbf 6f3e
000000f0: 4968 7e3d 3191 583e 5026 1bbd c341 6f3f
00000100: cecb ee3e 26dd e13d 931c 3bbe 491d b03e
00000110: 119b 3d3f 3abc 8e3e db94 bf3e 5e67 fcbd
00000120: 4c13 b2b7 9368 1940 ab82 923e 5680 9abe
00000130: 77f2 7cbe 28b2 803e 3723 cdbd af99 b5bd
00000140: 3dfb a2be 6aa9 3fbe 7c37 f53f 7cf2 4cbe
00000150: 778d 87bd 576d 1bbe cfd3 923e b148 5dbe
00000160: 003c 8e3e 740f 823d 5c60 41be 6550 62be
00000170: 7b7c f43d 206a 9dbf e2b9 14be 9c10 613e
00000180: efd5 52bc 3ab4 6a3d 357c 1f3d 290a f13d
00000190: 9bbc ad3d 1cd9 aa3e 8b17 bebd bcc4 24be
000001a0: 9a89 eb3d 28f2 a13e 4481 2940 10de 543e
000001b0: a971 953d ff1b 3cbd 812d bcba 769d b03d
000001c0: 89ae 8b3e 945c c4bf 52dd 28bd 79d4 983e
000001d0: f746 e7bd 8e44 393f 68af b4bf 5a5f 1e3e
000001e0: e48a 52bf 7906 52be 3a8a 043d e229 fabd
000001f0: 954a 593e 2a1a 6ebe 16cc 2a3f 7925 6ebe
00000200: 0a22 13bf a4af 9f3d 7215 8abe a96f c1bc
00000210: c0d1 7e3e 7e0a 82bf f9e5 43be c366 133e
00000220: cce1 353f c92a 613f d8be 0cbe 4b01 0e3e
00000230: 2f38 aabd 4731 dd3e b172 983d 790c 6bbe
00000240: de1b 1cbe bd74 aabd 973e 32bf 0581 e0bd
00000250: d6cf d1be d3cf 59be 38bb 8f3d e4d0 80bc
00000260: e3ef f23d ab24 2ebe c120 baba efa9 2240
00000270: ff7d a8be 5f60 52be 67c4 ebbe 1292 2d3b
00000280: 9258 f7be f49f 9abe 60e9 26be 7e8f 763d
00000290: a5e5 5e3f 2e5e e6be ec12 943e 0288 6abf
000002a0: c921 b73e 19bc 8bbe c126 5dbe 8483 a53d
000002b0: e686 ddbd 3342 75bf 78bc 843e 01ec e83e
000002c0: 71a9 eebe 4cb3 20bf ee47 be3d b39d 123e
000002d0: 8d1b b63d ae92 1ebf 7923 78bf 0477 91be
000002e0: 26cf 1fbf d953 863e 9d9d 92bd f428 043d
000002f0: d1e1 163e 221a cb3d 7ef3 0d3f 3fca cabe
00000300: d4bf b1be de67 2b3f b816 ff3e ac09 d63e
00000310: c40d 483e 1cb4 c43e 2f42 fe3e aaaa 9abe
00000320: d968 933e 22b3 9d3e 1d34 383c 8fec 1dbf
00000330: 4bb3 2f3e f170 253d c5bc 5bbf 8ae3 f13d
00000340: 0553 1c3f 31f0 c73c f2b9 0bc0 0354 89bd
00000350: 1261 86be f9bc a83e 738b 0a3d 4115 1dbd
00000360: 877c cebc 280c 203e 3ed8 033c b221 67bd
00000370: 4cdc 8a3e 9a77 d3be 6c85 c5bb 8164 14be
00000380: 1d90 de3e 5852 96bd a72d f4be 2955 b03e
00000390: 87bb 2bc0 d7c2 2f3e 8c72 14be b2eb 4a3e
000003a0: 5bbf 6abe 5461 9fbc 92d0 e13d f953 063d
000003b0: 3936 6cbc a807 983d 9032 653e 8f2c 29be
000003c0: 8150 643e c492 623f 7642 3cbd e910 37bf
000003d0: 41e7 00be 88f0 8e3d 0e8e 693f e317 7fbe
000003e0: 44f2 f43e b02d acbe cdd3 56bd 357f 943d
000003f0: d92d 5bbe 81a9 6abe 6a70 eebe b696 2bbf
0.21482384 0.8455881 0.18721169 1.0617819 -0.29867098 0.5207971 0.62459093 0.39435735
0.5033714 -0.78427505 0.13100109 -0.097568884 -0.40300506 -0.4871772 -1.4575014 1.1836373
-0.8889984 -0.26120457 0.012137098 0.10713585 -0.15286997 -0.2655126 0.059132613 2.1905339
-0.0639884 -0.74874634 -0.1743894 0.04222662 0.030234484 0.22695443 0.28930375 -0.114103764
0.08017645 0.59961367 0.15204567 -1.154981 -0.018681277 -0.3650766 -0.7668144 0.15712596
1.9599955 0.09529781 0.0341095 0.14358263 0.2780176 -0.03479936 0.26483923 -1.131111
-0.13986064 -1.1892426 -0.09421205 -0.77366465 0.073569104 -1.026416 -0.9670327 0.023164388
0.17044397 0.4970412 0.0026374157 0.2341301 0.062111173 0.21149136 -0.037878335 0.9345972
0.46639866 0.11028509 -0.18272619 0.34397343 0.7406474 0.2787798 0.37418255 -0.12324403
-2.122824e-05 2.3970077 0.28615317 -0.30176038 -0.24701868 0.25135922 -0.10016482 -0.088672034
-0.31832305 -0.1871697 1.9157557 -0.20014375 -0.06618779 -0.15178429 0.28677222 -0.21609761
0.2778015 0.06350604 -0.18884414 -0.2210098 0.11937805 -1.2298012 -0.14524034 0.21978992
-0.012868389 0.057300784 0.038936812 0.11769516 0.08483239 0.33368766 -0.09281834 -0.16090673
0.11500855 0.31630063 2.6485147 0.20787835 0.072970696 -0.045925137 -0.0014356823 0.08623783
0.27281597 -1.5340753 -0.041226692 0.29849604 -0.11292832 0.7237023 -1.411603 0.15466061
-0.8224318 -0.20510282 0.032358386 -0.1221502 0.21219857 -0.23252168 0.6671766 -0.23256482
-0.57473814 0.07797173 -0.26969486 -0.023612814 0.24884701 -1.0159452 -0.19130696 0.14394669
0.71047664 0.8795591 -0.13744676 0.1386768 -0.083114974 0.43201658 0.07443751 -0.22953977
-0.15245005 -0.08323047 -0.69626755 -0.109621085 -0.4097888 -0.21270685 0.07018131 -0.015724607
0.11862161 -0.17006175 -0.0014200435 2.541622 -0.32908627 -0.20544575 -0.4604828 0.002648477
-0.4830976 -0.3020016 -0.16299963 0.06019544 0.8706916 -0.44993728 0.28920686 -0.9161378
0.35767964 -0.27291945 -0.21596815 0.08081725 -0.108167455 -0.95804137 0.2592504 0.45492557
-0.4661365 -0.62773585 0.09291063 0.1431797 0.08891974 -0.61942565 -0.96929127 -0.28411114
-0.6242546 0.26235846 -0.071589686 0.03226562 0.1473458 0.09917094 0.55449665 -0.39607427
-0.34716666 0.66955364 0.4982202 0.41804254 0.19536501 0.38418663 0.4965987 -0.3020833
0.2879093 0.3080073 0.0112428935 -0.61689085 0.17158239 0.040390912 -0.85834914 0.11810978
0.6106418 0.024406524 -2.1832242 -0.06705477 -0.26245934 0.32956675 0.033824395 -0.038350347
-0.025205864 0.15629637 0.008047162 -0.05642862 0.27121198 -0.41302186 -0.006027868 -0.14491464
0.43469325 -0.073399246 -0.4769108 0.34439972 -2.6833208 0.17164169 -0.14496821 0.19816473
-0.22924559 -0.01945559 0.1102611 0.032794926 -0.014417225 0.07423335 0.2238257 -0.16520904
0.22296335 0.88505197 -0.04596182 -0.7151018 -0.12588216 0.069794714 0.91232383 -0.24911456
0.47841084 -0.33628607 -0.052448083 0.07250825 -0.21404208 -0.22916223 -0.4657014 -0.6702684

stage2.0.branch1.3.weight f4 [16]
00000000: 7d01 d43f ca23 bd3f e53d 0340 7df2 fc3f
00000010: 6728 d83f f386 f23f 7715 f03f 85e0 e23f
00000020: 65d2 813f 9b57 a53f 6f9f 7d3f fefb 843f
00000030: de86 743f 7d99 cb3f 7a50 ad3f 4c42 833f
1.6562954 1.4776547 2.0506527 1.9761502 1.688733 1.8947433 1.875655 1.7724768
1.0142332 1.291736 0.990714 1.0389402 0.9551829 1.5906216 1.3540184 1.0254607

stage2.0.branch1.3.bias f4 [16]
00000000: 6461 8a3d 9e1e 653f 7626 013e 0c15 0e3f
00000010: e948 893e 5511 d9be 1a96 debd 8d63 273e
00000020: c45b fb3e ebbe 8e3e b2d0 253f 6040 773e
00000030: 8927 c13e dbe2 893d f480 2f3e f16e ee3e
0.06756857 0.89499843 0.12612328 0.55500865 0.2681344 -0.42396036 -0.10868473 0.1634657
0.4909345 0.27880034 0.6477157 0.24145651 0.37725475 0.06732722 0.17139035 0.46569017

stage2.0.branch2.0.weight f4 [16, 16, 1, 1]
00000000: 8c19 0a3d 16a6 3abe e10f eb3d 88c7 b43e
00000010: 2936 a2bd 4c28 c13f 08af c63e f3c4 0dbf
00000020: 683c e8be fd51 6a3d c8f8 b53d 880f 1dbd
00000030: fbcc 603f b564 123f 8c40 5d3f 2f15 b8be
00000040: 76c4 053f bee4 0f3e ab48 89bf aa35 34bd
00000050: b592 58bf 5139 7abc fd45 e83e 8a63 543f
00000060: ffe9 d43e e5b7 c13e 56e3 eb3e e021 dbbe
00000070: ddea d23e ffd0 ea3e 81c3 a43e d6c2 b9bd
00000080: 57e5 b93f 712b 9cbe 4f7c 883e 4a62 02be
00000090: c027 ed3d e3f0 32bd d885 18bf 6803 f83e
000000a0: ed5c db3d 4935 263f 64e2 85be 4b89 b93c
000000b0: 930a 8f3e 03bd c2bd cfd2 05be 9797 a83e
000000c0: 1154 853f 493a be3c 4a91 983d 9d17 d73e
000000d0: a4c2 b03e 7cea 3dbd f9d3 09bf e3be e8be
000000e0: 663c d1be bbe6 a5be 565a 1a3e 0124 ec3e
000000f0: cd51 4ebe a645 edbd 5467 333f ad3e dabe
00000100: ead0 b23f 2224 edbe ec09 66bf 6556 64be
00000110: 1aed 573f 822c 583c 26aa ec3e 1061 8abd
00000120: f86d df3b 04c7 5e3e bdd0 f8bd ff1e 583f
00000130: 6a3f fd3d 4830 02bf 075e 73be a667 153f
00000140: 640e 09be de8e bf3e 9930 f33e 89d2 9fbd
00000150: fc6b 693f b7b6 083f 099b 103e 0aee 373d
00000160: 64c4 213f 509f 463d 43cb 90be a9ab 5a3f
00000170: e929 2f3f a129 7d3e eb3c e6bd 963f 653e
00000180: 0add 163e 304f bd3e b4b6 713e c6f6 cfbe
00000190: 2b75 183e 458f 873f a53f 953f e503 973c
000001a0: 98cd ec3e 13fc 553e 9216 4b3e 0c65 2f3d
000001b0: e6d3 673f 20c5 4ebd ebe4 fdbe da29 803f
000001c0: 6986 5f3f 4f04 1abf 0b7a a83e b711 e53d
000001d0: 15ac 983e 0609 75bf 2161 0c3f 6d68 133f
000001e0: ab5e d0bc a06a e2bc d194 433e aa0c 2abd
000001f0: 2871 3dbf 01ce 46bf e7cc 8e3e 2cbb 60bf
00000200: 3d58 26be 8808 a7bd 3b6a 2bbf bba6 86be
00000210: 338a 02c0 7042 61be ef3f db3e d5e1 ab3f
00000220: 70d8 13be f1a6 2fbe 0ffd b8be 0607 c8bf
00000230: 2a62 d13e cdc8 d2be 347c 8abd d438 b83e
00000240: ac19 7f3f 43cb f83d 3049 373e eff6 bebe
00000250: 35ab 1fbe 1ef2 08bf 9601 833d 8476 7b3d
00000260: 258d 2bbf e4bd 253f f95c d03e e4d4 e4be
00000270: 0c15 91bd 871c acbb f6d0 393e 6c3e 6f3f
00000280: 21d0 563e 9fec 14be 4889 6cbd 534b 753e
00000290: fd46 02be ecb1 0e3f 7f6a 7cbc ab40 b4be
000002a0: e6ef b03d fbd3 86be 788e c43e b127 efbd
000002b0: 79c1 803e a5f8 0cbe 7719 15bf 110c 17bf
000002c0: 71d3 723b c250 47be c9ba 42be e761 b2bf
000002d0: 138f 56bc c829 ef3e 79e7 5a3f 8a1b 24bd
000002e0: d4b7 43bf 1075 643e 7d91 73be 591d ed3c
000002f0: 992a d03e 6f51 083e 55e5 91bf 7190 8a3f
00000300: 45e9 7bbe 80c5 a83f a22e c5bd 34b7 743e
00000310: eb27 25be a476 1b3d 71d1 ccbe 6695 d7bd
00000320: 1e1e 6abf 611c 4cbe f3d1 a03d 2d20 86bd
00000330: d645 ccbe 0964 8dbe d9e8 893f 67b4 613e
00000340: 1ff6 003f 8a31 e43e 3bb7 303f 38f9 123d
00000350: 9efe 17bd c5cf 663e 3cdc 013f fc73 843d
00000360: 8500 ee3e a319 f93e 1249 ed3d e768 d0be
00000370: 71ca d43e 2cdc e7bf a6ae 41be 1ed5 193e
00000380: ce76 533e 70c4 d8be 593a 27be 4dda e33f
00000390: 1827 033d a12f 50be 33de 803f 17e6 9dbd
000003a0: 3542 963f 500a e8bc c1c3 38be b302 34be
000003b0: a27a 59bf 4565 e53d 3a09 d23e 6804 52bf
000003c0: 8c28 b0bd 531c 643e aa09 173c e6b1 27bf
000003d0: ac86 203f 9f01 b2be 9382 283f 4108 00bf
000003e0: 7a40 71bf fe77 debe cb51 06bf 10ab 3f3f
000003f0: bfb2 07be 5880 43bd 5f2d abbe 9eab a3be
0.03371577 -0.1822742 0.11477638 0.3530848 -0.079204865 1.5090423 0.38805413 -0.55378646
-0.45358586 0.057207096 0.08885342 -0.03834489 0.87812775 0.57184917 0.86426616 -0.35953662
0.522529 0.14052102 -1.0725302 -0.04399649 -0.8459886 -0.015272454 0.45365897 0.82964385
0.41584775 0.37835613 0.4607188 -0.42799282 0.4119481 0.45862576 0.32180408 -0.09070365
1.4523114 -0.30501893 0.2665734 -0.12732807 0.11579847 -0.04368676 -0.5957923 0.484401
0.107110836 0.64925057 -0.26149285 0.022648474 0.27937755 -0.095087074 -0.13068698 0.32928154
1.041628 0.023221152 0.07449587 0.42010203 0.345235 -0.0463662 -0.5383907 -0.45458135
-0.40866393 -0.32402596 0.15073523 0.4612122 -0.20148392 -0.1158555 0.7007954 -0.42625943
1.3970006 -0.4631663 -0.8985889 -0.22298582 0.84346163 0.013194205 0.46223563 -0.067567945
0.006818529 0.21755606 -0.12149189 0.84422296 0.12365611 -0.5085492 -0.23766337 0.5836128
-0.13384396 0.37413687 0.47498015 -0.07803828 0.91180396 0.534038 0.14121641 0.044904746
0.63190293 0.048491776 -0.28280076 0.8541818 0.68423325 0.24722911 -0.11242088 0.22387537
0.14732757 0.36974478 0.23604852 -0.4061796 0.14888446 1.0590597 1.1660048 0.018434474
0.46250606 0.2089694 0.19832829 0.042820975 0.90557706 -0.05048096 -0.49588713 1.0012772
0.8731447 -0.60162824 0.3290561 0.111850195 0.29818788 -0.95716894 0.54835707 0.57581216
-0.025435766 -0.027638733 0.19099738 -0.041515984 -0.7400079 -0.77658087 0.27890703 -0.877856
-0.16244598 -0.08155924 -0.6695897 -0.2629908 -2.039685 -0.21998 0.42822215 1.3428293
-0.14438033 -0.17153527 -0.36130568 -1.5627143 0.40895206 -0.41168824 -0.06761971 0.35980856
0.9964855 0.12148144 0.17899013 -0.3729777 -0.15592654 -0.5349444 0.06396787 0.061392322
-0.67012244 0.64742875 0.40695933 -0.44693673 -0.070840925 -0.005252424 0.18146119 0.93454623
0.20977832 -0.14543389 -0.05774811 0.23954515 -0.12722392 0.5574024 -0.01540625 -0.35205588
0.08639507 -0.26333603 0.38389945 -0.116774924 0.25147608 -0.13766725 -0.5824198 -0.59002787
0.0037052298 -0.194644 -0.19016565 -1.3936127 -0.013095635 0.46711564 0.8550945 -0.040065326
-0.76452374 0.22310281 -0.23785968 0.028944658 0.406575 0.13312314 -1.1398112 1.082533
-0.24600704 1.3185272 -0.09628035 0.23898011 -0.16128509 0.03795494 -0.4000354 -0.10526542
-0.91452205 -0.199327 0.07852545 -0.06549106 -0.3989703 -0.27615383 1.0774184 0.22041474
0.5037555 0.44569045 0.6902959 0.035882205 -0.037108056 0.22540195 0.50726676 0.06467435
0.4648477 0.48652372 0.11586203 -0.40705034 0.415607 -1.8114066 -0.1891428 0.15022704
0.20650789 -0.4233737 -0.16330852 1.7800995 0.032019705 -0.20330669 1.006781 -0.07709902
1.1738955 -0.02832523 -0.18043424 -0.17579155 -0.8495275 0.11200956 0.41022664 -0.82037973
-0.08601484 0.2227643 0.009218613 -0.65505826 0.6270549 -0.34766862 0.6582424 -0.50012594
-0.9423901 -0.43450922 -0.52468556 0.74870396 -0.1325178 -0.04772982 -0.33433053 -0.3196687

stage2.0.branch2.1.weight f4 [16]
00000000: ded1 9b3f 6ea7 7d3f b229 933f ff35 883f
00000010: 89c9 dc3f 8e45 8f3f 6e08 6b3f f0c0 843f
00000020: aec7 d63f 0b36 a23f e898 003f 1d58 983f
00000030: 76b6 b43f 3f3a 8d3f d4f2 ac3f c507 923f
1.2173421 0.990836 1.1497099 1.0641478 1.7249004 1.1193101 0.9180974 1.037138
1.6779687 1.2672743 0.50233316 1.190189 1.4118183 1.10334 1.3511605 1.1408621

stage2.0.branch2.1.bias f4 [16]
00000000: 32da 88bf 6b33 163f d4ef e73e 04e8 983e
00000010: 258f f73d c808 6dbe faa8 503d 5d86 9b3f
00000020: e644 c13e 644c bf3e 684c 863f 6198 373f
00000030: b823 0ebf 07ff 8d3e 9ae9 91bf 3cee 983f
-1.0691588 0.5867221 0.45300162 0.29864514 0.120878495 -0.23147881 0.0509424 1.215038
0.37747878 0.3736297 1.0492067 0.71716887 -0.5552325 0.27733633 -1.1399415 1.1947703

stage2.0.branch2.3.weight f4 [16, 1, 3, 3]
00000000: 5ffd ccbd 8c2f b23e 4053 f23e a518 0b3e
00000010: 0fad d2be 5b59 15bf 590c 3a3e ba96 7dbf
00000020: de6e 52bf cb75 b53e 5be6 193f 83bb 973e
00000030: 649c f3be b8f4 61be 1470 1c3e a883 1cbf
00000040: 7a0a 6fbf 1085 eabe af5b 2bbd ea6a c3be
00000050: 1f77 f5be 8887 38be 357c b63e b015 df3e
00000060: 200e c2be ae36 5c3f a993 6e3f e9bc 79be
00000070: 5ead 27be 0d0c 6dbe d64e a7bd b27a 8d3e
00000080: 5bb9 153f 449f 20bd 3b01 013f 4901 603f
00000090: 01ea 04bd bae8 0a3e 6e74 7a3e 829e 173e
000000a0: 7ad3 e5be 5c62 5cbf f233 f4bd 56f0 43bf
000000b0: ec7b afbf fc90 1ebe 9827 bc3c 4093 1dbf
000000c0: 4290 d9bd 6333 27bf 0167 71bf 3f11 093e
000000d0: bef4 ea3c fcbc 9dbd 56ba a5be 8b2c c53d
000000e0: 756f 293f a841 ad3e 947f dfbd 676d 02bf
000000f0: ab08 423f ef11 adbe 70b6 d2bf f885 28bd
00000100: bce8 303e a92a a8be 7ae8 5bbe 767e 06bf
00000110: 52df d7be 5e45 dabe 14ea 5bbf 7510 afbe
00000120: cbb2 30be 0924 953e 1603 d43e 31e6 01bd
00000130: 6da5 353f b599 863f cbf4 d93d 245d 1c3f
00000140: 9814 533f 5432 5bbe 9f03 cd3d c34e 9dbd
00000150: bbe5 4abe a28a 183f 6728 283f 510f eabb
00000160: 29ec 363f 0917 8f3f 2aed 4f3f 5c50 643e
00000170: 7937 913e 75d0 433f c032 7cbe e76b 05be
00000180: 9677 413f cbe5 b3be bc73 08be 87a3 6d3a
00000190: c481 04be 4da2 1abf 0caf d9be 58f1 573e
000001a0: 4825 8f3e cb11 d3be add5 883f f2d1 d63f
000001b0: ce36 583d c878 0fbe 58ed 6abf f641 86be
000001c0: 45c9 9e3e a165 ee3e b7c6 e4be 576b 123f
000001d0: e31f cc3f 3dee 543e 38c8 173f 6e49 993e
000001e0: c8ca f4be f53e d5be 436d 2bbd e8e7 ddbe
000001f0: 5c59 90bf afc0 61bf dc27 46be dcf9 603e
00000200: c81b 593f da16 683e 72c8 ddbe 2ed0 11bf
00000210: 438f 3a3f c774 17bf 9078 b3bf 5910 6fbd
00000220: 135e 14be 3b7e f9be 1823 dabd 8ef5 8d3e
00000230: 3a73 2c3f 5e3d 5a3c c144 213f 0abd b13f
-0.10009264 0.348019 0.4732914 0.1358362 -0.41147658 -0.5833947 0.18168773 -0.99058115
-0.8220042 0.3544143 0.6011712 0.29635248 -0.47580254 -0.22066009 0.1527713 -0.6113839
-0.9337536 -0.45804644 -0.041835483 -0.38167506 -0.47942445 -0.18020451 0.35641637 0.43571234
-0.37901402 0.86020935 0.9319406 -0.2438847 -0.16374728 -0.23149128 -0.08169334 0.27632672
0.58485955 -0.039214388 0.503925 0.8750196 -0.032449726 0.1356534 0.24458477 0.1480656
-0.44887906 -0.86087584 -0.1192397 -0.765386 -1.3709693 -0.15484995 0.022968099 -0.6155281
-0.10623218 -0.65312785 -0.94297796 0.13385485 0.028681155 -0.077020615 -0.32368726 0.096276365
0.66185695 0.33839154 -0.109130055 -0.50948185 0.75794476 -0.33802745 -1.6461926 -0.041143388
0.17276281 -0.32845047 -0.21475402 -0.52536714 -0.42162567 -0.42631048 -0.8590405 -0.34192243
-0.17255704 0.29129055 0.41408604 -0.03171367 0.70955545 1.0515658 0.10642394 0.6107962
0.824533 -0.21405917 0.10010456 -0.07681038 -0.19814198 0.59586537 0.6568665 -0.007142939
0.714541 1.1178905 0.8122126 0.2229628 0.28362635 0.76489955 -0.24628735 -0.13029443
0.755731 -0.35136256 -0.13325399 0.00090652 -0.12940127 -0.604039 -0.42516363 0.21088159
0.2795813 -0.41224512 1.0690209 1.678282 0.05278664 -0.14010918 -0.9176841 -0.262222
0.3101293 0.46561912 -0.44682857 0.5719504 1.5947231 0.20794006 0.59289885 0.29938835
-0.4781096 -0.41649595 -0.041852247 -0.43340993 -1.127727 -0.88184637 -0.19351143 0.21970314
0.84808016 0.22664967 -0.4331699 -0.5695828 0.7287485 -0.59162563 -1.4021168 -0.0583652
-0.14489011 -0.4872912 -0.10651225 0.27726406 0.6736332 0.013320295 0.62995535 1.3885815

stage2.0.branch2.4.weight f4 [16]
00000000: 1c90 ab3f 28e3 9b3f e473 a53f de83 b93f
00000010: dd23 523f 6825 8b3f bcac ad3f 57c4 8c3f
00000020: f0ae bb3f e95a a53f 70cb 7c3f a92a a53f
00000030: 9312 c53f 057b 9f3f 9325 ae3f 4bbb 8f3f
1.3403354 1.2178698 1.2925992 1.4493368 0.82085973 1.087079 1.3568339 1.0997418
1.4662762 1.2918369 0.9874792 1.2903644 1.5396293 1.2459418 1.3605217 1.1229032

stage2.0.branch2.4.bias f4 [16]
00000000: 38e2 0dbe 7316 4f3d 0e64 7ebf 36d3 b2bf
00000010: 818c 3f3f 9cf7 e03e 483e b5bd 4cf0 4c3f
00000020: a7af 8fbe 2239 45bf 62d5 0dbf e9ca debe
00000030: 2028 bd3b c230 883f 163f 613f dbb5 9ebe
-0.13855827 0.05055852 -0.9937142 -1.3970706 0.74823767 0.4393891 -0.0884977 0.80054164
-0.280637 -0.770403 -0.5540372 -0.43514183 0.0057726055 1.063988 0.87986887 -0.3099812

stage2.0.branch2.5.weight f4 [16, 16, 1, 1]
00000000: c3fe 7c3e ea2a 173f 83e7 4c3f 37f2 333f
00000010: d521 a2be a2fd 88bd d313 a83f 4cf9 40bf
00000020: 02d6 343e 4136 86bb 815e acbe e69c 32bf
00000030: 8d46 65bf f793 3f3e de1d 273f d207 a3bd
00000040: 6ee6 323f 459b 5a3c f873 a3be 3275 08bf
00000050: 3ccc 9d3e beac 183e ebdd f03e 3710 e3bd
00000060: 2c5e fcbe ee78 51bf 32e5 18bf 85dc c1be
00000070: ed12 80be 7248 b33e b9a0 a53e 1ad6 e93e
00000080: f9a9 80bc 1d34 323e dafd 203f ea2f 59be
00000090: 4cd5 41bf 588e 453f 10fd 1b3e 517e 64bf
000000a0: dd23 a5be 022e 983e 77ca 83be 7ce0 ea3e
000000b0: 6305 603e 36c8 d9be ead6 8fbd 3da0 b93d
000000c0: 38b0 92bf 6803 8d3d d9a7 70bd f531 eabe
000000d0: cf6b ad3e 8f85 93be ef75 ccbd 0513 373f
000000e0: 4431 45be 9ae4 8abf 8521 78be d722 84bd
000000f0: a90e 1b3e 10af 2d3e 2081 aa3e 4cab 01bf
00000100: 9cf6 183f aa97 b03e 1bcc 3abf 57ac 74bf
00000110: ce0c d03d cb63 e33d e08a 22be 1af9 a1be
00000120: 7a8b 3c3d ff75 4a3e 9e1f eebe 7584 7a3f
00000130: f77f 2abf 3ae9 d0bc b29d e43e 2549 da3e
00000140: 4375 bb3d 8568 023e 19dc c33e c64f 1abf
00000150: 9fee 843f 7356 9a3f 2a02 c23e cd0f 1c3f
00000160: d55f 853e 391d 903f c056 04bf 4b2e 4e3e
00000170: b7cc b5be f3b4 67be 9691 033f 7185 cabe
00000180: 72fd d13e c6c7 49be 1362 e8bd 3d35 b93e
00000190: 85db 1f3f c814 e43d cc7f d23e cc52 b9be
000001a0: 3cee e9be 2886 33be 2ba5 d5be 23fe 4abf
000001b0: 93db 543f 9ae8 d8be dee8 a6bf 7b4e f3be
000001c0: 76b2 c93e 53bd 81bf 8dfe 0fbe d02e edbe
000001d0: 44f2 773e b72f bb3e 6b9d 863d 7924 0abf
000001e0: e954 bf3f 2509 96be 4ad4 0bbf bcd4 3fbf
000001f0: a805 f7bd 422e 7abe 5b03 9c3e baf6 d0be
00000200: 3e4b 58be 8269 ca3d b3a3 b03d 047f 51bf
00000210: f651 89bd c97a 10bf 645a 0cbf 4ea4 01bf
00000220: 4e2f 22bf 424f 01be a6a5 023e 0b3b c0be
00000230: 2e64 55bf 7096 94bf d48c f7be ce36 e93e
00000240: 9952 1d3f eb70 00be 4417 3d3f d0ee 2a3f
00000250: e406 87be dbd8 cdbe b4ea 1f3e ad9f 08bf
00000260: eadc 87be ec5f 003f ae32 133e ac57 96bb
00000270: 47c6 383d f344 7cbe c646 ccbe 5cf5 fabe
00000280: b55b 03bf 14ad ccbd 7d4d 62be 6123 b03d
00000290: c4a4 50be 1b02 b9bd b0b4 2dbe 3307 ac3e
000002a0: d188 4a3e a4f9 fa3e 653c 873e 9077 293f
000002b0: 5b07 243f 3660 a33e 4301 ca3e 7115 273d
000002c0: 1f76 24bf 0cd8 1cbc 9703 8b3e 0463 bbbc
000002d0: de38 17be ce8f 873d 9270 36bf 023c 3fbe
000002e0: 5754 4a3e 04ad 9cbd bb2a b5be 5118 49bf
000002f0: 612d 04bd 8923 02be 3bc6 37bf 455d 0abf
00000300: 5394 bebc 0d99 63bf 4938 1b3f d583 f6be
00000310: ab89 6b3e 72a3 b7be 628f 99bd 3b94 75be
00000320: 845d 08bf 4bc4 593e a053 b63e 9d57 1d3e
00000330: fdb3 c13e a8ba 6e3f 1c14 723d 6130 eebe
00000340: 8255 b43e 13bb d63e 1ab1 d33d a5bd 46bd
00000350: a763 863e 8393 edbe 84a4 693e 2f79 71be
00000360: e143 40bf c9ba 1a3f 340f 833d d758 1d3d
00000370: b6ed 2c3f febc bfbe e9aa 243f 9156 3a3f
00000380: 5ca1 743e 1445 66bc c17d b0bd ad49 e73b
00000390: edf0 4e3e 793f cdbc 6dd3 3a3f c565 2a3e
000003a0: 70bf 333e a9b8 853e 9251 d43d 6256 0ebf
000003b0: 08ee 6f3e 9e90 40bf 56ed 843e 64fe 5abd
000003c0: 6254 103e 0275 dd3e 9bd6 293d 4b0c d4be
000003d0: 70f6 ff3e 423f c03d 2952 95be 4bc8 af3d
000003e0: 272a 903e 0e81 983e dec0 343f 3435 0b3f
000003f0: 58d5 133f 5e82 50bf ee0f 19be 28f4 15bf
0.24706559 0.59049857 0.8004076 0.70291466 -0.31666437 -0.066890016 1.313105 -0.75380397
0.17659763 -0.004095823 -0.3366585 -0.6977066 -0.89560777 0.18708788 0.6527995 -0.07960476
0.6988286 0.013342683 -0.31924415 -0.53303826 0.3081988 0.14909646 0.4704431 -0.11087077
-0.49290597 -0.8182515 -0.59724724 -0.37863556 -0.2501444 0.3501621 0.32349184 0.4567116
-0.01570605 0.17402692 0.62887347 -0.21209684 -0.7571609 0.77170324 0.15233254 -0.89255244
-0.32253924 0.297226 -0.25740406 0.45874393 0.21877055 -0.4253556 -0.070234135 0.09063766
-1.1460028 0.06885415 -0.058753822 -0.4574124 0.33871314 -0.28812835 -0.099834315 0.71513397
-0.19257075 -1.0851014 -0.24231537 -0.06451958 0.15142311 0.16961312 0.3330164 -0.50652003
0.59751296 0.3449071 -0.7296769 -0.9557547 0.10158692 0.111030184 -0.15873289 -0.31635362
0.046031453 0.19771574 -0.46508497 0.97858363 -0.6660151 -0.025501836 0.44651562 0.4263393
0.09153225 0.12735184 0.3825386 -0.60277975 1.0385321 1.2057632 0.37892276 0.6096161
0.26049677 1.1258918 -0.5169487 0.20134847 -0.35507748 -0.2262762 0.5139402 -0.39554933
0.41013676 -0.19705114 -0.11346831 0.3617343 0.62444335 0.11136776 0.41113126 -0.36195982
-0.4568957 -0.17531645 -0.41727576 -0.7929403 0.83147544 -0.4236496 -1.3039815 -0.47520813
0.39393967 -1.0135902 -0.14061947 -0.46324778 0.24213511 0.3655984 0.06572994 -0.539619
1.4947788 -0.29303852 -0.546208 -0.7493398 -0.12061626 -0.24431708 0.3047131 -0.40813237
-0.21122453 0.09883405 0.08624973 -0.81834435 -0.06705086 -0.56437355 -0.54825425 -0.50641334
-0.6335343 -0.1262789 0.12758502 -0.37545046 -0.8335599 -1.160841 -0.4834963 0.45549625
0.6145416 -0.12543075 0.73863626 0.6677065 -0.26372445 -0.4020451 0.15616876 -0.53368646
-0.26535732 0.50146365 0.14374802 -0.004588088 0.045110967 -0.24635677 -0.39897746 -0.4901532
-0.5131181 -0.099939495 -0.22099872 0.08600498 -0.20375353 -0.09033605 -0.16963458 0.33599243
0.19778754 0.49018586 0.26413265 0.6619806 0.64073724 0.3190934 0.39454088 0.040791932
-0.6424274 -0.009572994 0.27151176 -0.022874363 -0.14767787 0.066192254 -0.7126552 -0.18675235
0.19758736 -0.076501876 -0.35384163 -0.7855273 -0.03226984 -0.12708868 -0.7178685 -0.5404857
-0.023264086 -0.8890541 0.6063276 -0.48147455 0.23001735 -0.35866886 -0.07498051 -0.23982327
-0.53267694 0.21266286 0.35610676 0.15365453 0.37832633 0.93253565 0.05910121 -0.46521285
0.35221487 0.419396 0.10336514 -0.048520703 0.26247904 -0.46401605 0.22816664 -0.23581384
-0.75103575 0.6044126 0.06399384 0.038414802 0.6755022 -0.37448877 0.6432329 0.7278834
0.23889679 -0.014054555 -0.08617736 0.0070583434 0.20209093 -0.02505468 0.7297886 0.16640384
0.17553496 0.26117447 0.10367121 -0.5560056 0.23430645 -0.7522067 0.25962323 -0.053465262
0.1409469 0.43253332 0.04146443 -0.4141563 0.49992704 0.093870655 -0.29164246 0.08583125
0.2815716 0.2978596 0.7060679 0.54378057 0.5774741 -0.81448925 -0.14947483 -0.5857568

stage2.0.branch2.6.weight f4 [16]
00000000: a5c1 cf3f 2b2f b93f 5add e13f 2940 a93f
00000010: 0097 c93f 8f82 a03f 7f14 c83f 8cdd a93f
00000020: 17fc 183f c542 6f3f e30a 863f 9180 633f
00000030: 8b0a 453f e1d5 323f 9b3a 203f 2400 5e3f
1.6230971 1.446752 1.7645676 1.3222705 1.5749207 1.2539843 1.5631255 1.3270736
0.5975966 0.9346126 1.0472072 0.8886805 0.7696921 0.69857603 0.62589425 0.86718965

stage2.0.branch2.6.bias f4 [16]
00000000: ade0 aebd 9e82 0f3f 5c65 ec3d 52e3 e73e
00000010: f681 333d 6eab 9d3f 98fd 353f fe40 cf3d
00000020: 139b 2c3f 71c1 9fbd 96f5 2dbf 70d4 47bd
00000030: 344e 493f 5ee2 f63e f3d4 f03e 7f24 1f3f
-0.08538947 0.5605868 0.1154277 0.4529062 0.043825112 1.2317941 0.7109008 0.10119818
0.67424124 -0.07800568 -0.6795286 -0.04878658 0.78634953 0.4821958 0.47037467 0.62165064

stage2.1.branch2.0.weight f4 [16, 16, 1, 1]
00000000: 442c 0cbe 6293 85be c54c b43f ab76 b53e
00000010: 4c69 cfbd 71a4 4fbd f81a 94be 89d0 b13d
00000020: 74c0 e2be cbbc cc3d 521e e6bf f2df 49be
00000030: 3f93 b63f 2f57 b23b 5634 a03e 2f9b 4e3d
00000040: f3ef 43bf d245 1b3f 6764 02bf 746c e9be
00000050: 042a 5fbd 0269 2c3f 8920 173e 690d 0d3f
00000060: 3663 f83e 06a1 543e 9c5e c53d efd7 7abe
00000070: cc5c f3bd e1d0 a9bd 2a17 ec3d d132 6f3e
00000080: f9e7 42be e84a e03e 01d7 5c3b 02be 923e
00000090: 7b69 65be e34d 173f 4068 8b3f f47f 8b3e
000000a0: b2dc a4be 8a13 34bd c650 683e 076a fcbe
000000b0: 704a e2bd a176 17bd 34bc 0ebf 6bad d7be
000000c0: ff93 adbe 052d d4be b728 1fbf 9bcd 00be
000000d0: b396 f83d 16f7 a13d 745f 4e3e 168a b83e
000000e0: 4250 103f 9da5 8e3f 2b42 a0be fe19 c13c
000000f0: 1b7a c03e 8ec1 03bf 4f38 083f 76b5 813e
00000100: d3f1 3bbe 2428 41be 5c49 61be 5e3a 0abc
00000110: 25ec 663c d666 69be 11b0 48be 6000 6abd
00000120: 9ac8 30bd cb4e b7bd 4f18 873e df4c 84bc
00000130: 2f00 42be ab31 a1bd 5db7 9d3d 031d 2fbd
00000140: 4b46 3dbe 844b 41be 51e4 61be 2c84 14bc
00000150: e026 623c d004 69be b5c2 48be a7b7 6dbd
00000160: b011 31bd 6ec2 b7bd c44e 873e b448 87bc
00000170: d7b5 41be 4ec9 a1bd b1c2 9d3d 5197 2abd
00000180: 6f15 48bd 80ec fabb a73b 70be b64b 73be
00000190: d15f 443d 010c bf3e d781 cf3e c366 d33e
000001a0: 5357 483f 4907 473f 3e9c 6dbf 0369 093e
000001b0: cd1e 303f 028b 3fbf 3b5a 9e3e 48f3 b1be
000001c0: a44f 3ebe 46a8 42be 1ee8 63be 8918 22bc
000001d0: fc28 4c3c b262 69be b727 4abe 0a14 6bbd
000001e0: e482 2bbd 6d22 b5bd 729a 873e 4c61 8dbc
000001f0: da75 3fbe ae66 a0bd d08f 9c3d 3220 30bd
00000200: 4e21 3bbe 3f78 01bf d66f 6fbe 99ec bfbe
00000210: 5387 98be d28a 9a3d e308 0cbe 81c1 6bbe
00000220: f8ab b3be c2d3 95be 7527 59bf 1c5f 5dbe
00000230: 0a00 fcbd 51d2 1fbe 10af a3bd 9a0a acbe
00000240: 9f3a ec3d d7d1 d63e 4c00 e93e 9d88 cf3e
00000250: ffec 963f 9733 1cbe 283a 5c3e 5bd1 17bc
00000260: 3d31 733c 2b3b 2fbf f844 48be e336 e03e
00000270: 5bec 0fbe 3d06 d33e fd37 ec3c be80 133f
00000280: db9c 393f 68f4 633f cac8 82ba 174f 1c3f
00000290: 4856 79bf c20a 62be fbc3 363e 4fad a7be
000002a0: 4ec9 0bbd 1648 b43e 417a 6ebd ceb9 513f
000002b0: 9a77 edbd f0ca 96bd 69f3 2dbf 5077 863e
000002c0: db05 903f 423e b3be a316 4ebe 8996 543f
000002d0: abbf f3bd 859b aebe 945c d03e 4ab6 a7be
000002e0: efd7 963d 17b6 22bf bc77 84bd e661 8d3e
000002f0: 43d2 21be 16ff 1dbe 0fc2 eabd 902a 9ebe
00000300: 5d9e 83be f1dc 1dbe f74f 40be e9bd a5be
00000310: 5403 3a3e 2c4b d0bd 2e6a 29bd 821f cbbd
00000320: 5ac1 a7be 2a57 abbe d7bd c23f 8606 f5be
00000330: f9f1 47be d1f1 21bd cdb9 5e3e f9b2 53be
00000340: 1b1b 843d 3c4c 31bf 20af debc 5737 583e
00000350: 94c0 8fbd 5872 ddbe da95 35bf 5b34 ad3e
00000360: a398 163f 60ab 903d 1a62 1fbd cd18 783e
00000370: c601 fb3d ffe9 e73e 50ec 8e3f 99a3 2b3f
00000380: 1826 72bd 718d 64bf 73ea 24be 98da 49bf
00000390: 60fa dbbe e23f 5dbe 7dd9 f6bd 54bb 3abd
000003a0: df05 483f dadb febd 2939 e43e f224 753f
000003b0: 9a1a 33be 53f7 eb3d 9f59 7f3e 5114 fabe
000003c0: e4ba c33e 4ad7 a83d bdc1 41be 1eda 7b3e
000003d0: cc2f 28be 638a 243f 4f70 4e3f 5efd 543f
000003e0: aae8 623d 6550 a8be b594 983c 0580 25be
000003f0: ece4 a13e 1be4 27bf b7cc 043f 15ed a73f
-0.13688761 -0.26089007 1.4085928 0.354421 -0.10127506 -0.050693933 -0.28926826 0.08682353
-0.44287455 0.09996947 -1.7978003 -0.19714335 1.4263686 0.005442522 0.3128993 0.050440963
-0.7653801 0.6065341 -0.5093445 -0.45590556 -0.05448343 0.6734773 0.14758505 0.5509859
0.48513192 0.2076455 0.09637186 -0.24496435 -0.11882934 -0.082917936 0.11527856 0.23359229
-0.19033803 0.4380715 0.0033697488 0.2866059 -0.22403519 0.5910322 1.089119 0.27246058
-0.32199627 -0.043963946 0.22687063 -0.49299642 -0.11049354 -0.036978368 -0.55755925 -0.42124495
-0.33901975 -0.41440597 -0.621715 -0.12578432 0.121381186 0.07908456 0.201536 0.3604285
0.56372464 1.1144291 -0.31300482 0.023571964 0.3759316 -0.51467216 0.5321092 0.25333756
-0.18353967 -0.18862969 -0.2200064 -0.008436767 0.014094387 -0.22793135 -0.19598414 -0.057129264
-0.04316006 -0.089505754 0.26385733 -0.016149936 -0.18945383 -0.078708015 0.077009894 -0.042752277
-0.18483846 -0.18876463 -0.22059752 -0.009064715 0.013803214 -0.22755742 -0.19605525 -0.058036473
-0.04322976 -0.089726314 0.2642728 -0.01651416 -0.18917023 -0.07899724 0.0770315 -0.041648213
-0.048848566 -0.0076575875 -0.23460256 -0.2375935 0.04794294 0.37313846 0.40528747 0.41289338
0.78258246 0.7774549 -0.9281653 0.13418965 0.68797 -0.74821484 0.30928215 -0.3475592
-0.18585068 -0.19009504 -0.22256514 -0.009893545 0.012460943 -0.22791556 -0.19741713 -0.057392158
-0.041872874 -0.08844457 0.2648502 -0.017258309 -0.186973 -0.078320846 0.076446176 -0.042999454
-0.18274423 -0.50574106 -0.23382506 -0.37485197 -0.29790744 0.07546009 -0.13675265 -0.23023035
-0.3509214 -0.2926312 -0.8482583 -0.21618313 -0.12304695 -0.15607573 -0.07992375 -0.33601838
0.115346186 0.4195697 0.4550804 0.40533915 1.1791075 -0.15254055 0.2150656 -0.009266223
0.014843282 -0.6844966 -0.1955756 0.43791875 -0.14055006 0.41215697 0.028835291 0.5761832
0.7250497 0.8904481 -0.0009978053 0.6105818 -0.9739728 -0.22074416 0.17848198 -0.3274941
-0.034127526 0.35211247 -0.05822206 0.8192414 -0.11595078 -0.07362926 -0.6794954 0.26262903
1.1251787 -0.35008436 -0.20125823 0.830422 -0.11901792 -0.34103027 0.40695632 -0.32756263
0.07365405 -0.635591 -0.0646815 0.27613753 -0.15802865 -0.15429339 -0.11462795 -0.30891848
-0.2570676 -0.15416314 -0.18780504 -0.32371452 0.18165332 -0.10170588 -0.041361026 -0.09918119
-0.32764703 -0.33464938 1.5214185 -0.4785654 -0.19525899 -0.039537255 0.21750565 -0.20673741
0.064504825 -0.6925695 -0.027183115 0.2111486 -0.07019153 -0.432513 -0.7093178 0.33829007
0.58826655 0.07063937 -0.038911916 0.24228211 0.12256198 0.45295712 1.1165867 0.67046505
-0.05911836 -0.8927832 -0.1610506 -0.7884917 -0.42964458 -0.216064 -0.12053201 -0.045588806
0.7813396 -0.12444277 0.4457486 0.957595 -0.17490616 0.11521783 0.24936531 -0.48843625
0.38228524 0.08244188 -0.18921562 0.24594924 -0.16424483 0.6427366 0.8064012 0.8319911
0.055397667 -0.32873836 0.018625597 -0.16162117 0.31619966 -0.65582436 0.5187487 1.3119227

stage2.1.branch2.1.weight f4 [16]
00000000: 3e4e 673f f69e 863f 96e5 943f d83c ac3f
00000010: 1e5a b6b9 00bf 3eba 38a1 a83f 016f c4b9
00000020: b44d 743c df0a 973f b414 9b3f 6a9c 733f
00000030: d5dd 4f3f e71b 8a3f 6663 853f fb5c 9a3f
0.90353763 1.0517261 1.1632564 1.3456068 -0.00034780888 -0.0007276386 1.31742 -0.00037466738
0.014911104 1.1800193 1.2115693 0.95160544 0.81197864 1.0789765 1.0420959 1.2059625

stage2.1.branch2.1.bias f4 [16]
00000000: e964 ad3e efa9 653f 636d 2c3f 56a7 0a3f
00000010: 078c afbb 3953 b7bb 7b16 ae3e 926c dabb
00000020: 1433 e63a e0ee f73e 21aa c53e 7e70 993f
00000030: 8956 0c3f 8e89 383f 9f86 9d3f 46d7 e33d
0.3386605 0.89712423 0.6735441 0.54161584 -0.0053572687 -0.0055946377 0.34001526 -0.0066657746
0.001756283 0.48424435 0.3860636 1.1987455 0.5481954 0.7208489 1.2306708 0.111250445

stage2.1.branch2.3.weight f4 [16, 1, 3, 3]
00000000: 4736 ee3e 85ef cabe 365f 9b3e 90f7 493e
00000010: a7b4 c9bf a1e6 3bbf 8193 1e3f f847 02bf
00000020: 24f2 e03d 0b62 be3c 518d e7bc d540 a2be
00000030: f799 453d 8c00 b3bf 9697 ba3e 3e83 5a3e
00000040: 1eba b83f 093e 4ebe 6035 29be ddf4 34be
00000050: 05ce d7bd c8ec ccbe 4b78 b5bf 2c9b 2ebd
00000060: ffd1 ea3e 7014 b63f c0d8 90bc 4ceb 703e
00000070: 7268 09bf 4b1e 723e b171 3c3f 8238 97bf
00000080: 9421 7fbe 3617 b3be 1fc3 53bf af1d b63f
00000090: be40 77bb 8ed0 a6bb 89dd 90bb 7a7d babb
000000a0: cecc bebb 0e2a 77bb 0677 8abb 5ce4 8ebb
000000b0: b665 61bb aa28 bebb 54f2 8bbb 304e adbb
000000c0: a2a7 84bb 0cb1 78bb 001a 68bb faaf 8ebb
000000d0: 70a5 a3bb bb52 acbb d15f 66be 8761 e83d
000000e0: fa5a 4f3e 6bfd 81bd 0c7d a2bf 4c32 cf3f
000000f0: 1e5c 923d 538c 643e d5e5 65bf 967d 2fbb
00000100: fc26 91bb c1bc 61bb e299 4abb 3ec9 aabb
00000110: b227 28bb cc66 a4bb 4961 78bb 62df 47bb
00000120: f53a 8e39 65bf 453b 8534 403b fb71 393b
00000130: 4185 973b 8189 963b 9a1c 223b 56f7 b03b
00000140: c814 2d3b 29bc 743e c14b b1be c277 51be
00000150: ace9 b03e 5678 a83f 32e1 febf 2d4d abbe
00000160: e865 d8bd 04a4 8b3f fe8b 1b3e b8b0 ef3e
00000170: 201c b4be 62e9 fe3e 14f0 633d d19d 8ebf
00000180: 58b3 89be 791f 99bf f9e6 cb3f e698 803d
00000190: b19c 40be 0be0 06be 00f7 4f3f a8ba 723f
000001a0: 3428 713f ab4e 7bbf 7774 6fbf 5e2a 2dbf
000001b0: d214 b7bd d8d1 d03c 335f 59be 982d 18be
000001c0: 57c9 60bf db2b 19bf 092d 68be 8990 e5bd
000001d0: 3c9f babe 3f30 86be 7501 c23e 04f4 b5be
000001e0: a5dc 2fbf 79b1 0c40 6cff a4bf e81a 0dbd
000001f0: 827d 853e c214 293d 3dfc 323e 3477 20be
00000200: ec89 8cbd 8f30 ae3e b4e2 cf3f ed58 903e
00000210: 9dbf 13bf 746b a8bf 321d f0be d573 8c3c
00000220: a796 b8be f786 6d3e aaf5 f13e b1b7 e6bf
00000230: 7509 983f 07ff 8a3e 89e4 06bf 55d6 313e
0.46525785 -0.39635864 0.30346078 0.19723344 -1.5758256 -0.73398787 0.61943823 -0.50891066
0.10983685 0.02324011 -0.028265627 -0.31690088 0.048242535 -1.3984542 0.36443776 0.21339127
1.4431798 -0.20140852 -0.16524267 -0.17671533 -0.10537342 -0.400244 -1.4177336 -0.042628452
0.4586334 1.4224987 -0.01768148 0.23527259 -0.53674996 0.23644368 0.7361098 -1.181412
-0.24915153 -0.34978646 -0.82719606 1.4227809 -0.0037727798 -0.0050907796 -0.0044209403 -0.0056912275
-0.0058227545 -0.0037714276 -0.0042256145 -0.0043607187 -0.00343929 -0.0058031874 -0.004270831 -0.0052888617
-0.0040483037 -0.0037947325 -0.0035415888 -0.004354474 -0.004994087 -0.0052588857 -0.22497489 0.11346727
0.20249549 -0.06347164 -1.2694411 1.6187224 0.07146476 0.22319154 -0.8980382 -0.0026777736
-0.004429696 -0.0034444781 -0.0030914475 -0.005211978 -0.0025658426 -0.005017137 -0.0037899783 -0.0030498137
0.00027128277 0.0030173894 0.002932818 0.0028296697 0.0046240394 0.0045940285 0.0024736286 0.0054005785
0.0026410092 0.23899902 -0.34628108 -0.2045584 0.34553277 1.3161724 -1.9912474 -0.33457318
-0.10566312 1.0909429 0.15190122 0.46814513 -0.35177708 0.49787432 0.05564888 -1.1141912
-0.2689464 -1.196273 1.5929862 0.06279163 -0.18809773 -0.13171403 0.8123627 0.94816065
0.9420197 -0.9816691 -0.93537086 -0.6764277 -0.08939518 0.025490686 -0.21227722 -0.14861143
-0.8780722 -0.59832543 -0.2267343 -0.112092085 -0.3644961 -0.26208684 0.37891737 -0.35537732
-0.6869605 2.198332 -1.2890449 -0.034449488 0.26072317 0.04127956 0.17479034 -0.15670472
-0.06862244 0.34021422 1.6241059 0.28192845 -0.57714254 -1.3157792 -0.46897274 0.017145077
-0.3605244 0.23196016 0.4725774 -1.8024808 1.1877886 0.27147695 -0.52692467 0.17366917

stage2.1.branch2.4.weight f4 [16]
00000000: b347 be3f 1bf8 a43f 3c95 9c3f 6b31 723f
00000010: ec56 693c 82c3 dd3c a2f6 a83f c4ca 153d
00000020: d858 a33e 7ef7 b43f 70e2 ba3f 65ff ad3f
00000030: 720d a53f 9916 b43f 08c1 b83f fa3d af3f
1.4865631 1.2888216 1.2233043 0.94606656 0.014241915 0.027070764 1.3200266 0.036570325
0.3190372 1.4138029 1.4600353 1.3593565 1.2894728 1.4069396 1.4433908 1.3690789

stage2.1.branch2.4.bias f4 [16]
00000000: 2c61 753f 3bef b5be 99e4 5cbe 65cf 8b3e
00000010: 3e46 79bb e55a fcbb f690 0fbe 3ac4 2ebc
00000020: 99e0 6cbc 5ea8 1abe df42 443e 49a1 c03d
00000030: 2722 823e c2a8 b2be 795f a03d 755f 713e
0.958514 -0.3553408 -0.21571578 0.27306667 -0.0038036252 -0.007701265 -0.14020142 -0.010666901
-0.014457845 -0.1510329 0.19166134 0.09405763 0.2541668 -0.34894377 0.0783071 0.2357157
