independent_train/client37/best_model_0.0.pth (torch, 930411 bytes, 56 tensors)

conv1.weight f4 [24, 3, 3, 3]
00000000: c337 30bd a241 003e 98fd 17be da6c 543d
00000010: 93b3 913d 28ef 16bb 1367 c63d 1093 363e
00000020: ad56 fb3d 5806 59bd 5ebd 563c 90bb 0d3d
00000030: ca7f d3ba 4af7 57be 139d 843c 661f 4e3c
00000040: 6b55 d8bc 39ca b1bd a45a 143c 5d50 2ebd
00000050: ab0d f7bd 2fcb 77be 72a5 d03d 740d c4bc
00000060: 5a68 1d3c 976c 85bc 71d8 b8bd 7511 b03d
00000070: d8e8 c03d 5d94 fe3d e8ac 2c3d 60b4 273d
00000080: ce8b 073e f5ec e3bd 56c8 4a3c cce2 68bc
00000090: c2b3 0cbe 3c0e bb3c c561 ac3d d731 273d
000000a0: b162 cfbd 713c 1d3e 3012 3f3d 1ab6 41bc
000000b0: 3612 64bd 4076 2e3e 80a8 cc3c 66b1 023e
000000c0: 233b 043d 2097 b93c 02b2 f7bc d663 6f3d
000000d0: ba2d ed3c 1651 f23c 6b76 da3d 83fd 953d
000000e0: 432e debc 4940 a33d 0fbf 12be f360 cdbc
000000f0: 39f9 f03d 5686 2cbc 9135 8a3c 6923 7cbd
00000100: 4250 113e 9310 853d 2651 b23d 8df4 3b3d
00000110: 97f2 043e 07f9 933d 9326 dbbb 1a52 aa3d
00000120: 5ebe fe3d 5e26 713c 11eb 263e 29e7 e83d
00000130: da1d 053e 1470 73bd 83ab 91bd e90f 21bd
00000140: 03b5 1b3e a5ce b63c 69b2 45bd e772 86be
00000150: 88d6 1f3d b736 c83d 71d6 e03d 74ce d43d
00000160: 3552 873d 6907 7abd 64d8 efbc 0a80 0c3d
00000170: 589a 22bd 448f e7bd c47e 2fbd 1077 35bd
00000180: 083e c53d fb94 9c3d 8858 40bc ed60 0a3d
00000190: 4c60 08be d3b9 f53d f6d8 dcbd 2324 45be
000001a0: a873 4abc 0d2d 9a3d b8de 2a3e a7c2 36bd
000001b0: 3a86 97bc ad92 88bd c8c9 753a 7f14 dabd
000001c0: 1b62 863d d4e7 d4bd 31cf f33c cf34 243d
000001d0: 1542 25be c782 f33d d325 193e b096 933b
000001e0: b8b6 4abd e3fe a0bc d269 cb3d 5695 cbbd
000001f0: c0e4 d63c abe9 98bc 36af c23d dcbc 5fbd
00000200: fc0a d4bd 0801 64be 88cb 0e3d c477 1fbe
00000210: 58ad 07bd 53cc 1ebd 1a91 04be 53b9 ea3d
00000220: c505 00bd 6c16 643d de22 2a3c cdfd c4bd
00000230: 22ea f73d 074c 27be c9e0 54bd 7097 143d
00000240: 6c2a 703c a091 803d 2d59 303e f50e 443e
00000250: c685 263e 1d84 6bbd 107c b7bb f75c 48be
00000260: 5750 c7bd 8041 c93d a79a 2abe 98d9 16bd
00000270: 1a70 0f3e 03ee 0b3e 168e a03c 966d 773c
00000280: dceb babd fbbd c33d 954c ce3d 9722 f8bc
00000290: 0ea4 18be 2c17 473d 4a5c ccbd 1a3a bd3d
000002a0: d261 d2bd cf85 16bd 1e53 1d3d d32d 7f3d
000002b0: 9ad8 233d 15a7 393d cc49 8ebc fe93 20be
000002c0: 7fa5 893e b24f 793e 71de 3e3e 4c4b 893c
000002d0: bc25 6fbd cff8 963d 786d 01bd 6067 cebc
000002e0: 0a64 f23d 90a0 333a 50ad 12be 32d9 bd3d
000002f0: 0ee1 36be 9b64 a03d 0ae5 413e 03b1 b5bc
00000300: 53dd 02be 8ffa 093c 3949 d23c 441c 563e
00000310: cae4 06be 54f7 58be f0f6 fc3d 5905 963d
00000320: 9aa4 5dbd 49f8 1f3e de10 893d c448 b03d
00000330: cd98 88bd 1bff 943d 06db a53d 96da 063e
00000340: 7f01 df3d 2502 173e 56d9 e33d 5c18 56bd
00000350: 9ecd adbd a228 8f3e 00d5 e1bd 105b ee3c
00000360: 5fc3 a1bc 3440 013e 44cb 8fbc 1c69 f7bc
00000370: 0406 edbc 5ed1 e73d 27ee b33d a97f fb3d
00000380: d64f 3c3d f6f3 15bd 8215 283c 1c84 06be
00000390: 364a b9bd c702 bcbc 43a1 7d3b 07b3 8dbb
000003a0: 49f7 fbbd 0047 663d 49cc 433d 87dd 153d
000003b0: e489 aebd fec6 bdbc b2fd 9a3d 1151 87bd
000003c0: 5353 343d e77f a7bd 7288 9ebd fad3 6f3d
000003d0: bac6 0c3c 08f3 873d 17d5 d63d dcee 683c
000003e0: 0b67 05be c3bb 4b3d 0687 c23b 8327 a2bd
000003f0: 9075 30bd 0a26 7bbd 0a9e 203d 84f1 1c3c
-0.04302193 0.12525037 -0.14842832 0.05186162 0.07114329 -0.0023030732 0.096876286 0.17829537
0.122723915 -0.052984565 0.013106672 0.0346027 -0.0016136107 -0.21090427 0.01618818 0.012580728
-0.026407918 -0.08681149 0.0090548135 -0.04255711 -0.12063154 -0.24198602 0.10187806 -0.023932196
0.009607399 -0.016287131 -0.09025658 0.0859708 0.094194114 0.12430642 0.042157084 0.040943503
0.13236925 -0.1112918 0.012376865 -0.014214229 -0.13740447 0.022833936 0.084170856 0.040819015
-0.10126246 0.15355088 0.046648204 -0.011823202 -0.05568143 0.17037296 0.02498269 0.12762985
0.03228296 0.02265507 -0.030236248 0.05844482 0.028952468 0.02957968 0.10667118 0.07323744
-0.027121669 0.07971246 -0.14330696 -0.025070643 0.117662854 -0.010530075 0.016871246 -0.061557207
0.14190772 0.06497302 0.08706884 0.04588752 0.12983166 0.072252326 -0.006687948 0.08316441
0.124386534 0.01471862 0.16300608 0.11372215 0.12999669 -0.059433058 -0.071127914 -0.039321814
0.15205769 0.022315333 -0.04826585 -0.2625954 0.039022952 0.09776061 0.109784015 0.1039094
0.066074766 -0.061042223 -0.029277988 0.034301795 -0.039697975 -0.113066226 -0.042845502 -0.044303
0.09630972 0.07645603 -0.0117398575 0.033783842 -0.13317984 0.11998334 -0.107835695 -0.19252066
-0.012356676 0.07528124 0.16686523 -0.04461923 -0.018496621 -0.06668601 0.0009376076 -0.106484406
0.06561681 -0.1039578 0.029761882 0.040089425 -0.1613849 0.11890178 0.14955835 0.0045040473
-0.04949066 -0.01965279 0.09932293 -0.09940593 0.026232123 -0.01866611 0.09506075 -0.05462347
-0.103536576 -0.22266018 0.03486207 -0.1557303 -0.033124298 -0.038769078 -0.12945977 0.11461129
-0.031255502 0.055685446 0.01038429 -0.09618721 0.12105204 -0.16337596 -0.051972184 0.036277235
0.014658552 0.06277776 0.17221518 0.1914633 0.16261968 -0.05749904 -0.005599506 -0.19566713
-0.097321205 0.09826946 -0.16660558 -0.036828607 0.14007607 0.13665013 0.019599002 0.015101811
-0.09127018 0.0955772 0.100732006 -0.030289931 -0.14906332 0.048606083 -0.0997854 0.092395976
-0.10272564 -0.036748704 0.038409345 0.06229956 0.04000149 0.045325357 -0.017369173 -0.15681455
0.26884076 0.24346808 0.18639542 0.016759537 -0.058385596 0.07371675 -0.03159854 -0.025195777
0.11835487 0.0006852234 -0.14323926 0.09269942 -0.17859289 0.07831689 0.18935028 -0.022179132
-0.12779741 0.008421554 0.02566968 0.2090922 -0.13173214 -0.21188098 0.12351787 0.07325239
-0.054112054 0.15622057 0.0669267 0.08607629 -0.066697694 0.0727522 0.08098416 0.13169321
0.10888957 0.14746912 0.11125438 -0.052269325 -0.08486484 0.27960688 -0.11026955 0.029096156
-0.01974648 0.12622148 -0.01755298 -0.030201487 -0.028933533 0.113192305 0.08785658 0.122802086
0.045974575 -0.036609612 0.010259034 -0.13136333 -0.09047358 -0.022950543 0.0038700856 -0.0043243202
-0.12303025 0.056220055 0.047802243 0.036588218 -0.08522394 -0.023166176 0.0756792 -0.06607259
0.044024777 -0.08178692 -0.07740869 0.058551766 0.008592302 0.066381514 0.104898624 0.014217105
-0.13027589 0.04973961 0.005936506 -0.079176925 -0.043080866 -0.061315574 0.039213218 0.009579066

dense1.0.bn1.weight f4 [24]
00000000: 0000 803f 0000 803f 0000 803f 0000 803f
00000010: 0000 803f 0000 803f 0000 803f 0000 803f
00000020: 0000 803f 0000 803f 0000 803f 0000 803f
00000030: 0000 803f 0000 803f 0000 803f 0000 803f
00000040: 0000 803f 0000 803f 0000 803f 0000 803f
00000050: 0000 803f 0000 803f 0000 803f 0000 803f
1.0 1.0 1.0 1.0 1.0 1.0 1.0 1.0
1.0 1.0 1.0 1.0 1.0 1.0 1.0 1.0
1.0 1.0 1.0 1.0 1.0 1.0 1.0 1.0

dense1.0.bn1.bias f4 [24]
00000000: 0000 0000 0000 0000 0000 0000 0000 0000
00000010: 0000 0000 0000 0000 0000 0000 0000 0000
00000020: 0000 0000 0000 0000 0000 0000 0000 0000
00000030: 0000 0000 0000 0000 0000 0000 0000 0000
00000040: 0000 0000 0000 0000 0000 0000 0000 0000
00000050: 0000 0000 0000 0000 0000 0000 0000 0000
0.0 0.0 0.0 0.0 0.0 0.0 0.0 0.0
0.0 0.0 0.0 0.0 0.0 0.0 0.0 0.0
0.0 0.0 0.0 0.0 0.0 0.0 0.0 0.0

dense1.0.conv1.weight f4 [12, 24, 3, 3]
00000000: 8a70 a9bd 4e09 483d e4f5 363e 3fbd 35be
00000010: dab6 96bd 735c 4e3e 7b35 07bc ab72 78bd
00000020: 011a 0b3e b0ec 273c 2f81 9fbd 43e0 9bbd
00000030: 763a 84bd 27c5 523e 0f37 a33d 7722 c2bc
00000040: f42a 54be 8e5f 1bbe 6085 4a3d 6c07 8cbe
00000050: b2df 253e be90 55be d71c 7b3e 84ef 87bd
00000060: 5161 b0bc 4ee5 86be 4a4a 32be 5129 b83c
00000070: b994 b5bd 3286 963d 4f51 a43d ae6d cabc
00000080: 7a3e e73d da9b b1bd fa54 0a3e 9bcc 193e
00000090: b4ba 42be 3a1f 4d3e 4676 99be aee0 b3be
000000a0: 0c6e 93be 7993 893d a4c6 943d 299d 44be
000000b0: 6baf bc3d 1d0b b9bd d98b 523c 0e9e 35be
000000c0: 610f 85bd 6109 543e b615 7b3e 0ba8 093e
000000d0: 19da 8c3d 0e4f a63c bcb5 27be e584 fc3d
000000e0: 07be e93d ef62 0fbd 7646 fbbd a124 34bb
000000f0: e8a3 073c 6c37 493e 4454 3d3d d6d8 0fbe
00000100: 2688 8ebe cb92 843c 3ed7 c9bc 917a 563d
00000110: 90e6 223e 0cd2 66be 36cd c3bd 3360 06be
00000120: 5ddb d43d 8ac2 32bd e7cf 213e 2ff4 5a3e
00000130: fccd 053e 2604 edbd 007c 3bbd e4c3 393e
00000140: 0f8c d2bd fd3c 2fbd 7eec 3d3e c24d c3bb
00000150: 4361 42be 172b 4c3e aad9 16be bffd a2bd
00000160: a1a7 39bd f91b 5b3e bedd 72be a080 eabd
00000170: 24a2 343d 58fe 783e f969 95bd 6871 58be
00000180: 442d b73c f7b0 69bc 0fe6 f03d 0e8b d7bb
00000190: edee 233b d084 2abc 4956 ca3d 6d58 40bd
000001a0: 5b8b 35bd 58d2 993d 6185 0abe b0bc 503d
000001b0: 8f3e 91bd ada0 603d b186 38be 9c7b 7d3e
000001c0: b8a8 8ebd 5e92 9f3d 06e1 433c ebce 83bd
000001d0: c618 7cbe aea5 5abe aa68 213e a473 193e
000001e0: b15b 82bd 55b3 bf3b bcc7 9f3d dac3 3e3e
000001f0: f694 373d 1887 663d 6174 123e 3c33 a3bd
00000200: 41d2 99bc 4f01 b13d ef13 b73c 94dc d13d
00000210: db85 15bd 624a 833d 7d0a 5f3e b499 7c3d
00000220: 0613 3a3e c4c1 053d b7fa 2cbe 0a83 27be
00000230: 150e 2b3d 6079 2e3e 87bc 883d 87fb 3e3e
00000240: b721 ff3d 4fb0 82bd 1d99 aebc 9c06 47bd
00000250: 897f 2abd dff3 7abe d25d b4bd 236b 62be
00000260: 659d 2abd 15ac 6d3d bcb4 afbd 15f4 223e
00000270: 8449 393d 6d87 713d e96a 313c 0ef6 3cbc
00000280: a751 26bd b797 903e 7d36 923c 2e5e 20bd
00000290: 5f21 273e 19e5 eb3c cf39 48be d0a7 86bc
000002a0: 5a9b 143c 2417 4bbd cf86 1c3e 9298 1cbd
000002b0: 7c46 a6bd 4c47 1c3d 6c79 f93b cdae 8a3e
000002c0: 8ddd 01be 1fa5 a33c 18ac babb 3f22 e83d
000002d0: 6028 10be b6b1 5dbe 4b0f 333e 5c2a b2bd
000002e0: 9b4d 493d b62e 033b 1799 013d 11d8 af3d
000002f0: 8e6f 01be 6046 bebd 958c 933d 0b07 0dbe
00000300: abee 39be 49df 063e 742e 283d 8cac a23d
00000310: 7bbb 4d3d bca6 523e 82e1 e2bd 43fa 24be
00000320: e6d0 823c 7750 01be aef8 073d e5cf a03d
00000330: 1772 97bc 1d6e ea3d eee0 aebd edbd 4abe
00000340: 6f99 97bd 68da 2d3c ddb6 aebd d420 8e3c
00000350: 60c3 5c3c ddc0 733e f2a7 5c3c e607 a1bc
00000360: 5385 34be c7e6 0f3e ca6d 3cbd 7a62 943d
00000370: 2b82 bb3d 764b 87bc af60 213e 9a34 563d
00000380: 64a7 1f3e 5676 383d ceb4 3ebd be3f e7bc
00000390: 36fa 12be aeac 1fbe e380 0a3e bfc5 62be
000003a0: b6d1 4b3e 9d6d 6ebe 919e 1c3e 0d6b 32bc
000003b0: 1819 69be 7c9b 05be f434 153e 0f20 0a3e
000003c0: 9e7b 9d3d 85a3 9cbc 396f f23d 23c6 a03d
000003d0: 6d4c 823e a8fc aa3c 5f42 4abe 8301 293d
000003e0: 1aca 46be 4ec7 943e 011d 96be 3827 e73d
000003f0: 823e ae3e c9a0 0cbe ce87 54bd b434 0bbd
-0.08273418 0.048837 0.17867237 -0.17747973 -0.07359095 0.20152454 -0.008252497 -0.06065623
0.13584138 0.010249302 -0.07788312 -0.07611134 -0.06456463 0.2058302 0.07969486 -0.023698075
-0.2071951 -0.1517317 0.049443603 -0.27349412 0.16198614 -0.20855996 0.2452272 -0.06637481
-0.02153078 -0.2634682 -0.17411152 0.022480639 -0.08866257 0.073498145 0.08023321 -0.024710502
0.11291213 -0.086723045 0.13508978 0.15019457 -0.19016534 0.20031443 -0.29973048 -0.35132354
-0.28794897 0.06717581 0.0726445 -0.19200577 0.09213146 -0.09035323 0.012850725 -0.17736074
-0.06497074 0.20706703 0.24520001 0.1344301 0.06877536 0.020301368 -0.1637792 0.12330035
0.11413198 -0.03500646 -0.12269299 -0.0027487653 0.008278824 0.19650048 0.04622294 -0.1404756
-0.27838248 0.016183278 -0.024638768 0.052362982 0.15908265 -0.22541064 -0.09560625 -0.13122635
0.10393403 -0.04364256 0.15801965 0.21382211 0.13066858 -0.11573057 -0.045772552 0.18141133
-0.1028062 -0.042782772 0.18547246 -0.005960197 -0.18982415 0.19938312 -0.1473147 -0.079585545
-0.04532588 0.2139739 -0.237174 -0.114503145 0.04409994 0.24315774 -0.07295603 -0.21137011
0.022360452 -0.014263383 0.1176263 -0.006577856 0.0025014237 -0.0104076415 0.09879739 -0.04695933
-0.044322353 0.07510823 -0.13527443 0.050961196 -0.0709201 0.054840732 -0.1802013 0.24754184
-0.06965774 0.07791589 0.011955505 -0.06435951 -0.24618825 -0.21352264 0.15762582 0.1498552
-0.06365145 0.0058502355 0.07801768 0.18629399 0.044819795 0.05628118 0.14302208 -0.079687566
-0.018777015 0.08642828 0.022348372 0.1024715 -0.036504608 0.06410672 0.21781345 0.06167002
0.1817132 0.032655492 -0.16892515 -0.16358581 0.041761477 0.17038488 0.06676584 0.18650638
0.124576025 -0.063812844 -0.021313244 -0.048590288 -0.041625533 -0.24507092 -0.08806957 -0.22111182
-0.04165401 0.05802544 -0.08579394 0.15913422 0.045236126 0.058967043 0.010828712 -0.011533273
-0.040605213 0.2824075 0.017848248 -0.039152317 0.16321324 0.028795766 -0.19553302 -0.016437441
0.009070242 -0.049582615 0.152858 -0.03823144 -0.081189126 0.03815393 0.0076133516 0.27086487
-0.12682171 0.019976197 -0.0056967847 0.11334657 -0.14077902 -0.21649823 0.17486303 -0.08699486
0.049146276 0.0020016856 0.03164014 0.08586133 -0.12640211 -0.09290767 0.07204548 -0.13772218
-0.18157451 0.13171114 0.041059926 0.07943067 0.050227623 0.20571417 -0.110781685 -0.16111092
0.015968751 -0.12628351 0.033196144 0.07852153 -0.01848702 0.11446784 -0.08538996 -0.19799013
-0.07402312 0.010611154 -0.08530972 0.017349638 0.013474315 0.2380404 0.013467776 -0.019657087
-0.17628984 0.14052878 -0.04600314 0.072453454 0.09155687 -0.016515475 0.15759538 0.05229626
0.15591198 0.04503473 -0.046559148 -0.028228637 -0.1435326 -0.15593216 0.13525729 -0.22145747
0.19904217 -0.23284002 0.15294863 -0.010889781 -0.22763479 -0.13047594 0.14570981 0.13488792
0.07689594 -0.019120941 0.1183762 0.078502916 0.25448933 0.020872429 -0.19751881 0.041261207
-0.19413033 0.29058307 -0.29319003 0.11286777 0.34032065 -0.1373321 -0.051887326 -0.03398581

dense1.1.bn1.weight f4 [36]
00000000: 0000 803f 0000 803f 0000 803f 0000 803f
00000010: 0000 803f 0000 803f 0000 803f 0000 803f
00000020: 0000 803f 0000 803f 0000 803f 0000 803f
00000030: 0000 803f 0000 803f 0000 803f 0000 803f
00000040: 0000 803f 0000 803f 0000 803f 0000 803f
00000050: 0000 803f 0000 803f 0000 803f 0000 803f
00000060: 0000 803f 0000 803f 0000 803f 0000 803f
00000070: 0000 803f 0000 803f 0000 803f 0000 803f
00000080: 0000 803f 0000 803f 0000 803f 0000 803f
1.0 1.0 1.0 1.0 1.0 1.0 1.0 1.0
1.0 1.0 1.0 1.0 1.0 1.0 1.0 1.0
1.0 1.0 1.0 1.0 1.0 1.0 1.0 1.0
1.0 1.0 1.0 1.0 1.0 1.0 1.0 1.0
1.0 1.0 1.0 1.0

dense1.1.bn1.bias f4 [36]
00000000: 0000 0000 0000 0000 0000 0000 0000 0000
00000010: 0000 0000 0000 0000 0000 0000 0000 0000
00000020: 0000 0000 0000 0000 0000 0000 0000 0000
00000030: 0000 0000 0000 0000 0000 0000 0000 0000
00000040: 0000 0000 0000 0000 0000 0000 0000 0000
00000050: 0000 0000 0000 0000 0000 0000 0000 0000
00000060: 0000 0000 0000 0000 0000 0000 0000 0000
00000070: 0000 0000 0000 0000 0000 0000 0000 0000
00000080: 0000 0000 0000 0000 0000 0000 0000 0000
0.0 0.0 0.0 0.0 0.0 0.0 0.0 0.0
0.0 0.0 0.0 0.0 0.0 0.0 0.0 0.0
0.0 0.0 0.0 0.0 0.0 0.0 0.0 0.0
0.0 0.0 0.0 0.0 0.0 0.0 0.0 0.0
0.0 0.0 0.0 0.0

dense1.1.conv1.weight f4 [12, 36, 3, 3]
00000000: 2f60 89bd 8d50 15bd a142 cb3d 3810 e1bc
00000010: e3d9 8b3e 6d54 aebd e6cd 113d 645c bcbd
00000020: b7f2 6fbd 5c01 82bd b23f 843e 7053 a93d
00000030: 83ce 52bd 5edb 31be 5b63 ad3d b4bc f2bc
00000040: b6f4 aabe 365d bd3d 1d7f 9cbb 0ac5 64be
00000050: 44e0 483e a4ac 29be e11b c7be 2034 8abe
00000060: f9a2 a4bd 0881 093e cff0 eebe d1a0 383e
00000070: bae2 0c3e 9684 97bd 4c09 1dbe 4840 2c3e
00000080: 60a5 dbbd df6c 903c e7a6 d53d 5828 a3bd
00000090: 295a 2cbd 138f cabc 97fd 18be 98c0 3a3e
000000a0: bbf5 743d 1b16 ad3d cc45 f5bd 53fd 593e
000000b0: f866 81be f78a 703e a6bb 073e ee74 a63d
000000c0: 94bd 2bbe fd46 613e f144 94be 8ba3 adbe
000000d0: d3d4 263e a7d4 d0bd 661e 53bb 5f15 a73d
000000e0: e201 20be 5400 193e 4080 df3c 32a2 8dbd
000000f0: 0e89 6b3e e0ad 33ba db18 053c 6e94 babd
00000100: 03ae dfbd 59f3 e03d 60cb adbc 0c59 7dbe
00000110: 4c4a f63c c8c5 883d 30c0 febd 4608 58bd
00000120: ff3d 9e3d 6931 a53d edc4 ca3d fa19 72be
00000130: ca59 2f3d efcc 9e3e eba4 04be 61b2 1c3e
00000140: 44c6 c7bd 25dc 5c3d 8355 2fbe 4174 163d
00000150: 4b48 9a3c 3b42 d53c ba06 8c3a ad89 bdbd
00000160: 8aaa b93d 09b4 513e 8a0f a53d 7263 fabc
00000170: 1059 aebe d0ac a53c 0eeb 323e 5f48 08be
00000180: 41f4 23be c0dc 1f3e e9ff d83d 2322 b1bd
00000190: 63e9 22be 03e0 ba3d 1f95 57bd a3de 3bbe
000001a0: ad2a 34bd 6f9c 85bd 08e4 03bc fef6 d53d
000001b0: 3c9a f0bc 1b0a db3d 0a28 f7bd c682 01be
000001c0: 26f8 4d3d b27f bf3d 4353 cc3c 80d2 cd3d
000001d0: e587 013e 736c 2cbe 6592 1e3d 730d 46bd
000001e0: a85c d33e fab4 bfbb d66d 5ebd dc71 fdbd
000001f0: f31e fdbc 2e0d e7bc 6640 973d 63e0 713e
00000200: 9084 c83d 6834 2ebe 68a6 133d d46f 00be
00000210: 14dd 6cbe 4fb2 2a3e a309 38be 4720 f5bd
00000220: a24e abbe 4463 bfbd a1d9 98bd 5fd2 a4bb
00000230: 6481 103d 964e 7dbd f915 32bd 52d4 3a3c
00000240: e313 9a3d 7d93 d7bd c0dd 893d 0fca 36bd
00000250: 7f46 a4bc 6f90 b4bb 00e4 633d d583 7fbd
00000260: 229a 82be c248 93bd 363b 4d3d 843d ac3e
00000270: 031c efbd 657f 423b 1d0a 22be 0629 99bc
00000280: c6bd 933e be56 303e fc3f 35be 1e09 393c
00000290: 1349 813c 2ed0 083e 2cf9 bd3d ceab 9d3d
000002a0: 82a0 93bd 47fb 8cbb 1ce3 2dbc 4083 40be
000002b0: 1238 683e 3306 afbd 5084 603e 716a 173e
000002c0: e91d 983d cae2 ce3d a7c5 3fbd 26bd ab3d
000002d0: 5094 d5bc 799b 2b3e f296 893e 5d32 023e
000002e0: cc08 18bd 653b 1ebe f88b fd3d 1ed0 9cbe
000002f0: 963d 933b c183 dbbd 0354 f4bc 57a3 623e
00000300: c2b3 213c 21bd f5bd b6e9 033e 95b2 66be
00000310: c8fc 13be a40c 333d 4ab6 493d 36f1 0cbe
00000320: 8922 82bd 9661 173b 053e e4bd fb00 af3c
00000330: 1e5a 51bd 0d43 e1bd 7c6a 06be 9c5c 1c3e
00000340: 8948 61bd 14bd ad3c 592f 28bd 23cb 06be
00000350: 4825 9a3d dd7b edbd c1dc fdbd a6e0 4ebd
00000360: 66d5 f63d 0827 de3d f987 813d 3b9d 12be
00000370: 7bac 04be 0170 633e d44c 853d 06e8 83be
00000380: 358e 10bd c9e4 403c d99a 2bbe 0a2c 0b3d
00000390: d0e8 253e 15d3 23bd 7e30 d4ba 3378 4e3d
000003a0: 42bd ef3d 600d 7b3e 9436 e1bd 11ef 74bd
000003b0: a73e 23bc f8e5 6fbe 991e 023c 552d 40bd
000003c0: 4814 20be 9279 43be dbcf aa3d cc35 0dbc
000003d0: aeac ac3d ce18 06be 9ada bbbb e601 24be
000003e0: 5a96 86bd ff0e ddbd 08ac 9d3c 790e 6d3e
000003f0: 5189 433d 04a1 4a3e b353 363d 386d 283e
-0.06707799 -0.036453772 0.09924818 -0.027473554 0.27314672 -0.08512197 0.03559675 -0.091973096
-0.05858108 -0.063479155 0.25829846 0.082678676 -0.051466476 -0.17368838 0.08466216 -0.029630996
-0.33389825 0.09246294 -0.0047758953 -0.2234079 0.196168 -0.16569763 -0.38888457 -0.26992893
-0.08038897 0.13428128 -0.46668097 0.18030097 0.13758364 -0.07398336 -0.15335578 0.16821396
-0.10724902 0.017630039 0.10432225 -0.07966679 -0.04207817 -0.024726426 -0.14940487 0.18237531
0.05980466 0.08451482 -0.11976203 0.21288042 -0.2527387 0.23490511 0.13255176 0.08127771
-0.16771537 0.21999736 -0.28958848 -0.33913836 0.16292123 -0.1019681 -0.0032214164 0.08158373
-0.15625718 0.14941531 0.027282834 -0.06915702 0.23001501 -0.00068542175 0.008123602 -0.09110342
-0.10921862 0.10983915 -0.02121514 -0.24741 0.030064724 0.06678349 -0.124390006 -0.052742265
0.077266686 0.08066065 0.09900842 -0.23642722 0.04281024 0.31015727 -0.12953536 0.15302421
-0.09754613 0.053920884 -0.17122464 0.036731962 0.0188333 0.026032558 0.0010683157 -0.09254775
0.09065731 0.20478834 0.080596045 -0.030564997 -0.34052324 0.020224005 0.17472479 -0.13308857
-0.16011144 0.15611553 0.10595686 -0.08649089 -0.15909342 0.09124758 -0.052632447 -0.18346648
-0.04398601 -0.06523978 -0.008049972 0.10447501 -0.02937042 0.10695287 -0.12068184 -0.12647542
0.05028548 0.09350528 0.024942046 0.10049915 0.12649496 -0.16838245 0.03871383 -0.04835267
0.4128163 -0.0058504315 -0.054303966 -0.123752326 -0.030898547 -0.028204527 0.0738533 0.23620753
0.09790909 -0.17012179 0.03604737 -0.12542659 -0.2313121 0.16669582 -0.17972426 -0.11969047
-0.3345843 -0.09345105 -0.074633844 -0.005029961 0.035279647 -0.061842524 -0.043477986 0.01140316
0.07523324 -0.10526178 0.067317486 -0.04462629 -0.020053146 -0.005510382 0.05563736 -0.062381584
-0.2550822 -0.07191612 0.050105296 0.33640683 -0.11675265 0.0029677984 -0.1582417 -0.01869632
0.28855723 0.1722059 -0.1770019 0.011293678 0.015781915 0.13360664 0.092760414 0.07698785
-0.07208349 -0.0043024155 -0.010613229 -0.18800068 0.22677639 -0.08546104 0.21925473 0.14786698
0.0742758 0.1010185 -0.046819355 0.083856866 -0.026071697 0.16758527 0.26872975 0.12714525
-0.037117764 -0.15452345 0.123802125 -0.3062753 0.0044934256 -0.107184894 -0.029825216 0.22132622
0.009869518 -0.11998964 0.12882122 -0.22529061 -0.14451897 0.043713227 0.04924611 -0.1376389
-0.06354243 0.0023098937 -0.11144642 0.021362772 -0.051111333 -0.10999117 -0.13126558 0.15269703
-0.055000816 0.021208324 -0.04106078 -0.13163428 0.07526642 -0.11595891 -0.12395621 -0.05050721
0.12052421 0.10847288 0.06324763 -0.14317791 -0.12956421 0.22210695 0.065087944 -0.25762957
-0.03529187 0.011773297 -0.16758288 0.033977546 0.16202092 -0.039996225 -0.0016188768 0.0504076
0.1170602 0.24516821 -0.10996738 -0.059798304 -0.009963668 -0.2342757 0.007941865 -0.046918232
-0.15632737 -0.19089344 0.083404265 -0.008618783 0.084313735 -0.130954 -0.0057328464 -0.16016349
-0.06571646 -0.10793876 0.01924707 0.23150052 0.047738377 0.19787985 0.044513416 0.16447914

dense1.2.bn1.weight f4 [48]
00000000: 0000 803f 0000 803f 0000 803f 0000 803f
00000010: 0000 803f 0000 803f 0000 803f 0000 803f
00000020: 0000 803f 0000 803f 0000 803f 0000 803f
00000030: 0000 803f 0000 803f 0000 803f 0000 803f
00000040: 0000 803f 0000 803f 0000 803f 0000 803f
00000050: 0000 803f 0000 803f 0000 803f 0000 803f
00000060: 0000 803f 0000 803f 0000 803f 0000 803f
00000070: 0000 803f 0000 803f 0000 803f 0000 803f
00000080: 0000 803f 0000 803f 0000 803f 0000 803f
00000090: 0000 803f 0000 803f 0000 803f 0000 803f
000000a0: 0000 803f 0000 803f 0000 803f 0000 803f
000000b0: 0000 803f 0000 803f 0000 803f 0000 803f
1.0 1.0 1.0 1.0 1.0 1.0 1.0 1.0
1.0 1.0 1.0 1.0 1.0 1.0 1.0 1.0
1.0 1.0 1.0 1.0 1.0 1.0 1.0 1.0
1.0 1.0 1.0 1.0 1.0 1.0 1.0 1.0
1.0 1.0 1.0 1.0 1.0 1.0 1.0 1.0
1.0 1.0 1.0 1.0 1.0 1.0 1.0 1.0

dense1.2.bn1.bias f4 [48]
00000000: 0000 0000 0000 0000 0000 0000 0000 0000
00000010: 0000 0000 0000 0000 0000 0000 0000 0000
00000020: 0000 0000 0000 0000 0000 0000 0000 0000
00000030: 0000 0000 0000 0000 0000 0000 0000 0000
00000040: 0000 0000 0000 0000 0000 0000 0000 0000
00000050: 0000 0000 0000 0000 0000 0000 0000 0000
00000060: 0000 0000 0000 0000 0000 0000 0000 0000
00000070: 0000 0000 0000 0000 0000 0000 0000 0000
00000080: 0000 0000 0000 0000 0000 0000 0000 0000
00000090: 0000 0000 0000 0000 0000 0000 0000 0000
000000a0: 0000 0000 0000 0000 0000 0000 0000 0000
000000b0: 0000 0000 0000 0000 0000 0000 0000 0000
0.0 0.0 0.0 0.0 0.0 0.0 0.0 0.0
0.0 0.0 0.0 0.0 0.0 0.0 0.0 0.0
0.0 0.0 0.0 0.0 0.0 0.0 0.0 0.0
0.0 0.0 0.0 0.0 0.0 0.0 0.0 0.0
0.0 0.0 0.0 0.0 0.0 0.0 0.0 0.0
0.0 0.0 0.0 0.0 0.0 0.0 0.0 0.0

dense1.2.conv1.weight f4 [12, 48, 3, 3]
00000000: 2bfb e9bd 078a cb3d 0271 ffbd c845 6a3d
00000010: 0b2e 0dbd 1d5c 833e 57b4 9bbc 2dc7 9bbe
00000020: 048c cabe ec2c 433e f07a aabc 138a 53be
00000030: 0270 c2bc bb69 a3bd ff8f 7abe 2435 edbc
00000040: a5cb 8bbd 7358 cc3d 8e3e 07be 6f68 20be
00000050: 0e64 35be 2c7e bebd 180c b53d d9a7 b03c
00000060: fef8 f8bd ff33 74be 452e 193c 9080 b2bb
00000070: a0d4 80bd 29e6 b8bd faa7 2ebd cf83 dd3d
00000080: 9abc 7fbc 4f50 5dbd 4826 763c 0d82 b93c
00000090: 9e12 fb3d d377 14be 9b89 28bd 2d9b 05bd
000000a0: 1e8d 213d a562 1c3d c12c 473e 7387 32be
000000b0: 645a c23d 72b9 ee3c 817b acbd 825c 863d
000000c0: 48f1 1cbd bdb1 8a3c 4243 8b3d 1c3d 47be
000000d0: 7afe 113e 54a0 58be 77aa 04be 69d3 983d
000000e0: 765b 06be 8c87 9b3e 6d22 7a3e 5193 1f3e
000000f0: 3d84 103e f3ba 793d faf3 94bd 5629 3e3e
00000100: febf 43bb b1e8 b03d ca15 51be b243 43be
00000110: 09c2 e23d 6a43 44be 2d61 443e de90 783b
00000120: 8820 1d3d 6b95 87bd 2e5f eb3d 1a89 873d
00000130: 349b 23be 57e5 023d 507f 133e 47c7 123e
00000140: caef cb3d a1f6 0abe c593 4fbe db3b 8abb
00000150: 824f 1bbe c0d8 1dbe 45ee 053e 4a58 36be
00000160: 61e5 0cbe 4ec2 0cbd 10e5 70be 978f 2d3e
00000170: a41f 7abd 8976 ab3d 15e1 e1ba 658d 84bd
00000180: eda7 8b3c 0a61 fcbc 3300 8c3b 251e 33bd
00000190: 81a1 083e a403 c43d 9b52 e239 00f8 edbd
000001a0: 1dc2 433d 2e60 193e 22a7 59be a649 a5bd
000001b0: a2ba ff3d 0a79 6a3d 1516 7bbe 8def 88bd
000001c0: f7e2 b4bc 6796 0d3d 5fcb 573d 09b3 aa3d
000001d0: 81fb 0e3e b3da 63bd 1e47 4c3e 78bf 563e
000001e0: 49a2 f43d 2e00 113e e96f 1c3e 8923 fcbd
000001f0: 5490 bb3d 943d 453e 703c ef3d ca5f 083e
00000200: 3503 643d bd1d c1bd 5f6d 913d 6519 5c3d
00000210: 4f24 113d a20d 093c 9083 053e 782a 72bc
00000220: fecb 513e ce44 dcbd 862c 86be 0606 3cbd
00000230: 6614 383e df89 233e f9e0 56be edd1 f73d
00000240: c512 02be 3316 313e a982 433d aaa9 49be
00000250: 4e02 15bc 8ce6 023e 29a1 1d3d d4ba 24bc
00000260: cb2a 733d f810 5cbe 636e 20be 88e5 6f3e
00000270: d90f 4c3e a729 573e 598c 9b3d ffbf 09be
00000280: 7c7a 8ebd 6cfc 68be 445c fb3b b9c1 73bb
00000290: a3d3 33bd 3b84 27bd 2f5a 0a3c 7cdd c53d
000002a0: b5b9 df3a d1e4 e2bd 5847 33be 10ca e43d
000002b0: 325a 5cbd 87d3 053e 8c47 b4bd 2934 a7bc
000002c0: f89f e0be 2b3a 59be 2c62 0bbe c725 983e
000002d0: 65e6 b73d 07db 1a3e 62f0 c03d 3748 d93d
000002e0: 1d19 5d3d 3747 e73c 739c 353e 4597 ebbd
000002f0: cc96 83bd e49f df3d 3e20 3c3e 144f 663d
00000300: 33e6 27be 4924 0d3e 86be c9bd 7bac 303e
00000310: d490 b7bd d23b 433e f6b7 5e3e 26dc 7c3d
00000320: 2094 cabc 98d6 e0bd 8a11 e13d 7811 11bd
00000330: 28a6 123e 445f cd3d 566e 393e 9194 30be
00000340: 1000 98bd 4e9a 98bd e8f2 ccbc 8458 343b
00000350: 64a9 10be c8b4 f1bd 6164 2b3d 6b45 d8bd
00000360: 0403 1ebe ccbe 823d cef1 37be 190b 71bc
00000370: 09cd 3a3e 54d1 9bbc eaf9 143d 8001 453c
00000380: adee 513d 4c93 a3bd b1da a6bd d576 4f3d
00000390: 255d 1bbd dd85 1b3e c2ed cabd 5d8b 86be
000003a0: 3026 f7bb c01c b8bc cd79 b83d 202b ff3c
000003b0: ceb6 c1bd 658c 513e 8d4b c1bd 9534 843b
000003c0: eb97 6e3e 76b3 37bd 9410 9cbd 16e4 84bb
000003d0: b7aa 153e 4038 36be 11b7 313e 0606 633e
000003e0: 0295 28be 3554 15be 5524 dd3d 68c2 efbd
000003f0: 93cb 4cbd 95e5 2bbe 933a efbc 42a6 99be
-0.114248596 0.09938436 -0.124727264 0.057195455 -0.034467738 0.25656214 -0.019006891 -0.30425397
-0.39559948 0.19060105 -0.020810574 -0.2065814 -0.02373505 -0.07979151 -0.24468993 -0.028956003
-0.068259515 0.09977808 -0.13207456 -0.15664838 -0.17713949 -0.09301409 0.08840197 0.021564411
-0.121568665 -0.2384796 0.00934941 -0.0054474548 -0.06290555 -0.090282746 -0.042640664 0.10816156
-0.015608931 -0.054031666 0.015023775 0.02264502 0.1225941 -0.14498834 -0.041146856 -0.03261869
0.03944122 0.038180012 0.19450666 -0.17434482 0.09489897 0.029141162 -0.08421994 0.06560613
-0.03831604 0.016930455 0.06799938 -0.19456905 0.14257231 -0.2115491 -0.12955652 0.07462198
-0.13120827 0.30376852 0.24427195 0.1558354 0.14112945 0.060969304 -0.07273097 0.18570456
-0.0029869075 0.08638132 -0.20418468 -0.19068792 0.110721655 -0.19166341 0.19177695 0.0037928144
0.038361102 -0.06620296 0.114927635 0.06617947 -0.15977174 0.031956997 0.14404035 0.14333831
0.099578455 -0.13570644 -0.20271213 -0.004218561 -0.15167049 -0.15414715 0.13079174 -0.17807117
-0.13759376 -0.03436499 -0.2352488 0.16949306 -0.06106533 0.08372218 -0.0017233217 -0.06472281
0.017047847 -0.03080799 0.0042724847 -0.04372992 0.13342859 0.09571007 0.00043167625 -0.11619568
0.047792543 0.14978096 -0.21255162 -0.08070688 0.12486769 0.057244338 -0.24520142 -0.06686316
-0.022080882 0.034567263 0.052684184 0.083349295 0.13963129 -0.05562849 0.19949004 0.20971477
0.11945016 0.14160225 0.15277065 -0.12311465 0.09158388 0.19261771 0.116814494 0.1331779
0.05566712 -0.094295 0.07100939 0.053735156 0.035435017 0.008365067 0.13038468 -0.014780633
0.20487973 -0.10755311 -0.26205844 -0.045904182 0.17976531 0.15970562 -0.20984258 0.12100587
-0.12702473 0.17293625 0.04773203 -0.19693628 -0.009094788 0.12783259 0.038483772 -0.010054309
0.059366982 -0.21490848 -0.15667109 0.23427403 0.1992792 0.21011983 0.075951286 -0.13452147
-0.06956956 -0.22752541 0.007670911 -0.0037194325 -0.043903004 -0.04089759 0.008444353 0.096613854
0.0017068895 -0.110787995 -0.17507684 0.11171353 -0.053796954 0.13068973 -0.08802709 -0.020410614
-0.43872046 -0.21213596 -0.13611668 0.29716322 0.08979491 0.15122615 0.094208494 0.10609477
0.053979028 0.0282322 0.17735462 -0.11503462 -0.064252466 0.109191686 0.18371674 0.05622776
-0.16396408 0.13783373 -0.098507926 0.17253296 -0.08963171 0.19065788 0.21749863 0.061733387
-0.024728835 -0.109784305 0.109896734 -0.03541705 0.14321196 0.10027936 0.18108496 -0.17244174
-0.07421887 -0.07451306 -0.02501817 0.002751858 -0.14127117 -0.118020594 0.041843776 -0.105601154
-0.15430838 0.06384048 -0.17963335 -0.014712119 0.18242277 -0.019020714 0.03637115 0.012024283
0.05125301 -0.07987079 -0.08147181 0.050650436 -0.037930626 0.15187784 -0.0990863 -0.262782
-0.007542394 -0.022474647 0.09007607 0.031148493 -0.09458695 0.20463713 -0.09438238 0.0040345886
0.2330014 -0.04484888 -0.076203495 -0.0040555103 0.14615904 -0.17794895 0.1735499 0.22170267
-0.16463092 -0.14582904 0.107979454 -0.11707002 -0.04999883 -0.16786797 -0.029202735 -0.30009657

dense1.3.bn1.weight f4 [60]
00000000: 0000 803f 0000 803f 0000 803f 0000 803f
00000010: 0000 803f 0000 803f 0000 803f 0000 803f
00000020: 0000 803f 0000 803f 0000 803f 0000 803f
00000030: 0000 803f 0000 803f 0000 803f 0000 803f
00000040: 0000 803f 0000 803f 0000 803f 0000 803f
00000050: 0000 803f 0000 803f 0000 803f 0000 803f
00000060: 0000 803f 0000 803f 0000 803f 0000 803f
00000070: 0000 803f 0000 803f 0000 803f 0000 803f
00000080: 0000 803f 0000 803f 0000 803f 0000 803f
00000090: 0000 803f 0000 803f 0000 803f 0000 803f
000000a0: 0000 803f 0000 803f 0000 803f 0000 803f
000000b0: 0000 803f 0000 803f 0000 803f 0000 803f
000000c0: 0000 803f 0000 803f 0000 803f 0000 803f
000000d0: 0000 803f 0000 803f 0000 803f 0000 803f
000000e0: 0000 803f 0000 803f 0000 803f 0000 803f
1.0 1.0 1.0 1.0 1.0 1.0 1.0 1.0
1.0 1.0 1.0 1.0 1.0 1.0 1.0 1.0
1.0 1.0 1.0 1.0 1.0 1.0 1.0 1.0
1.0 1.0 1.0 1.0 1.0 1.0 1.0 1.0
1.0 1.0 1.0 1.0 1.0 1.0 1.0 1.0
1.0 1.0 1.0 1.0 1.0 1.0 1.0 1.0
1.0 1.0 1.0 1.0 1.0 1.0 1.0 1.0
1.0 1.0 1.0 1.0

dense1.3.bn1.bias f4 [60]
00000000: 0000 0000 0000 0000 0000 0000 0000 0000
00000010: 0000 0000 0000 0000 0000 0000 0000 0000
00000020: 0000 0000 0000 0000 0000 0000 0000 0000
00000030: 0000 0000 0000 0000 0000 0000 0000 0000
00000040: 0000 0000 0000 0000 0000 0000 0000 0000
00000050: 0000 0000 0000 0000 0000 0000 0000 0000
00000060: 0000 0000 0000 0000 0000 0000 0000 0000
00000070: 0000 0000 0000 0000 0000 0000 0000 0000
00000080: 0000 0000 0000 0000 0000 0000 0000 0000
00000090: 0000 0000 0000 0000 0000 0000 0000 0000
000000a0: 0000 0000 0000 0000 0000 0000 0000 0000
000000b0: 0000 0000 0000 0000 0000 0000 0000 0000
000000c0: 0000 0000 0000 0000 0000 0000 0000 0000
000000d0: 0000 0000 0000 0000 0000 0000 0000 0000
000000e0: 0000 0000 0000 0000 0000 0000 0000 0000
0.0 0.0 0.0 0.0 0.0 0.0 0.0 0.0
0.0 0.0 0.0 0.0 0.0 0.0 0.0 0.0
0.0 0.0 0.0 0.0 0.0 0.0 0.0 0.0
0.0 0.0 0.0 0.0 0.0 0.0 0.0 0.0
0.0 0.0 0.0 0.0 0.0 0.0 0.0 0.0
0.0 0.0 0.0 0.0 0.0 0.0 0.0 0.0
0.0 0.0 0.0 0.0 0.0 0.0 0.0 0.0
0.0 0.0 0.0 0.0

dense1.3.conv1.weight f4 [12, 60, 3, 3]
00000000: 1a47 6bbe 47f1 00be 1ba0 153e 4563 9cbc
00000010: ff56 023e dbc4 63bd 303d debc 5e12 203e
00000020: d7aa f73d 97bf 96be 2770 883d 52ee 9fbe
00000030: 8bc2 8ebc d750 07be 924e 513e 0d6a 32be
00000040: c789 02be c89b a43d 1e98 3d3c 0b6c 39bd
00000050: 33fa 88bd 3c45 0c3e 747b 243e 9617 bc3d
00000060: ac8b 4cbc c7cf 8dbc 379e 4dbe e270 4d3d
00000070: 08ff 2abe 9951 f4bd dcc9 0d3e 80a7 8fbd
00000080: 3455 863d 452f 69be 184a 7bbd 1f6b 8e3e
00000090: d3b5 67be fea2 e1bd e057 a93d 9279 943d
000000a0: 05ce 053e 9e04 cebb 3234 5abe 5cbd 193c
000000b0: 25a1 59bd 071c 7b3d e720 223e bd38 6bbd
000000c0: d5e7 903c ce50 75be ea5b 16bc 51fd 173d
000000d0: 3dd5 8b3d bdcf 123e a81d 983d 78d8 8c3d
000000e0: d813 2b3d 4a42 82bc 6e44 133d fff8 1e3e
000000f0: d609 24bd 81a5 90bd 3ca6 a0bc afef d33b
00000100: 880f fc3d 2639 c93e 6623 5c3d c1d1 76bc
00000110: 80a7 843d 640c 323d f6bd 0d3d ff65 8e3d
00000120: 6008 bc3d 9898 0e3e 68e9 6dbe 03bd fd3c
00000130: 51d8 503e 4702 6a3d c253 583d 0ebd f93d
00000140: 7c09 99bd 0133 5b3e d6a3 89bc f382 85bd
00000150: da6d c1bd 05a0 1abd 4458 15bd d0c0 7b3d
00000160: 3353 b0bd b9e9 04bd c611 2fbc cb3a 4a3e
00000170: bc6b c4be c7a5 0bbe 4854 e53d 7c94 babe
00000180: ab5f 17be 40c5 313d 2b40 b93d c138 1f3e
00000190: 3ae6 fd3d 5ba1 bdbe 2291 53ba fb94 66be
000001a0: bdd9 153d e883 c63e ed69 81bd eadb a93d
000001b0: 9429 403d 0904 8a3d 93e3 d43c 9bde 48be
000001c0: efb6 733d 3ac8 6abd f9f3 2dbe 8e22 0dbc
000001d0: e255 263c 946e 71bd 18c7 b6bd 522b 8f3e
000001e0: ac5e 5d3d d9df febd fca0 ee3d 7bcf 9bbb
000001f0: 41ad 87ba fc60 1c3e 6a49 803c 2afb d63d
00000200: f497 e53d fe05 2f3e 90d4 383e c1a4 eb3c
00000210: d1be 443d b2f4 cebd 4ea9 02bd 7b2e d03d
00000220: 5d2a cc3d d0f3 313d e8e7 cc3d e7f9 8f3e
00000230: 7b5a cfbc ad6d dfbc 478a 3fbd 39bd 3cbe
00000240: a285 dfbd 0507 7c3d 9d7f 37be 08c6 763d
00000250: 7ac6 e4bc 0b6d 50be caa5 a43a 1c10 d6bc
00000260: db55 7abe b69b 42bd 515b 613e feaf 2abe
00000270: 5aa2 cf3d 8e70 43bd f3f0 d9bd d774 533e
00000280: ff71 e8bd 839a 7dbe 3e8d 893d ef09 74be
00000290: 3de6 1f3e c834 fe3b ad3c a73d f773 343d
000002a0: d19c 52bd 2dd9 073e 2d1f 15be 55b0 e4bd
000002b0: 2ce4 aa3e 89dc 8f3d 8b7a 74be 2999 a23e
000002c0: 2aed b63d 08c1 50be dd2e 073d 0d01 f7bd
000002d0: 8f25 1b3d 4dae d03d 5bd0 5b3e fd67 69bd
000002e0: a715 663d 43d3 9dbd ae9f cb3c a8ad 463e
000002f0: e2b4 4d3d 4884 7f3e 0f8b 49be cc41 27be
00000300: 6a58 79bc 0fbd 373e 572f b9bd 8309 0e3e
00000310: 32b1 213e 0b3c dc3d 71cb 823d e1a6 a03e
00000320: 7407 0cbd d82d 8ebe 18c1 363e 6c99 1f3e
00000330: ac2d 83bd d18b 513e b70d f2bd 3163 e9bb
00000340: 83a9 d33d 4d85 98be c8e4 173e d487 aabb
00000350: 0448 23be 654b 21bd 4133 5ebe 7229 3d3d
00000360: 94f7 263e 5dcb 96bd 2739 83bd ec42 4f3e
00000370: 851b 893d 19fb 71be 512c 19be b059 05be
00000380: e507 cbbd 3329 a2bc 836d 47bd 89e3 a9be
00000390: 71db fb3d 2fcd e8bd b93c cd3e 0d7f f1bd
000003a0: e59a b83d aca6 de3c b5fb 64bc bc2d 973d
000003b0: 9375 4c3d ccb0 15bc 8567 81bc d9a1 d83d
000003c0: 47eb e63d aeb6 6e3e 057f debb e8a7 4bbe
000003d0: 77be c63c 1df7 f33d 43ae 6f3d 1421 bb3d
000003e0: be25 fe3c 9aa4 d33c 7ea1 3c3e dccc f8bc
000003f0: a047 6b3d a991 123d 87b4 9eba f9d6 453e
-0.22976342 -0.1259204 0.14611857 -0.019090304 0.12728499 -0.055607658 -0.027128786 0.15632007
0.12093132 -0.29443046 0.06662016 -0.3123651 -0.01742675 -0.13214432 0.20440128 -0.17423268
-0.1274787 0.080375254 0.011571912 -0.045269053 -0.06688347 0.13698286 0.16062719 0.09184186
-0.012484472 -0.01731099 -0.20079885 0.05015648 -0.16698849 -0.11929626 0.13846534 -0.0701437
0.0655922 -0.22771938 -0.06134996 0.27816102 -0.22627954 -0.110174164 0.08268714 0.0724975
0.13066871 -0.0062871715 -0.21308973 0.009383526 -0.053132195 0.061306026 0.15832864 -0.057427157
0.017688671 -0.23956606 -0.009177187 0.037106816 0.06827781 0.14337058 0.074275315 0.06877226
0.04176697 -0.01590075 0.03595393 0.15524672 -0.040048443 -0.07062817 -0.019610517 0.0064677815
0.1230765 0.39301413 0.053744696 -0.015064658 0.064772606 0.043468848 0.03460499 0.06953048
0.09181285 0.13925397 -0.23233569 0.030973917 0.20395018 0.057131078 0.052814253 0.121942624
-0.07472512 0.21406175 -0.016801756 -0.06519117 -0.09444781 -0.037750263 -0.03646113 0.061463177
-0.08609619 -0.032449458 -0.01068539 0.1974899 -0.38363445 -0.13637458 0.11197716 -0.3644141
-0.14782588 0.043401003 0.09045442 0.15548994 0.12397428 -0.37037167 -0.00080706377 -0.22517769
0.036584605 0.3877251 -0.06319032 0.082938984 0.046914652 0.06739051 0.025987422 -0.19616167
0.05950063 -0.057319857 -0.169876 -0.0086141955 0.010152312 -0.058943346 -0.08924693 0.27962738
0.054045364 -0.12445039 0.11651799 -0.004754958 -0.0010351316 0.15271372 0.015660007 0.104971245
0.112106234 0.1709213 0.18049836 0.028765084 0.04803354 -0.10105266 -0.031899743 0.101651154
0.09969018 0.04344541 0.1000517 0.28120348 -0.0253117 -0.027273977 -0.04676273 -0.18431558
-0.1091416 0.06153013 -0.17919774 0.06024745 -0.027926672 -0.20354097 0.0012561616 -0.026130728
-0.24446814 -0.04751178 0.2200749 -0.16668698 0.10138388 -0.047714762 -0.106416605 0.2065004
-0.11349868 -0.24765973 0.06716393 -0.23831914 0.15615173 0.007757757 0.0816587 0.044055905
-0.051419083 0.1326644 -0.14562674 -0.11166445 0.33377206 0.070244856 -0.23874871 0.31757477
0.08931954 -0.20386136 0.033003677 -0.12060747 0.037877616 0.10189495 0.214662 -0.056983937
0.056172993 -0.077063106 0.024856415 0.19402182 0.05022133 0.24952805 -0.19681953 -0.16333693
-0.015218833 0.17943214 -0.090422325 0.13870816 0.15790251 0.1075364 0.063864596 0.31377319
-0.034186795 -0.2776935 0.17847097 0.1558587 -0.064051956 0.20463492 -0.11819022 -0.0071224202
0.10335066 -0.297892 0.14833367 -0.0052041803 -0.1594544 -0.039378542 -0.2169924 0.046182103
0.16305381 -0.07363007 -0.06407385 0.20240372 0.06694702 -0.23630942 -0.14958312 -0.13022494
-0.09913615 -0.019795036 -0.048688423 -0.33181408 0.122977145 -0.11367261 0.4008539 -0.11791811
0.09013919 0.027179085 -0.013976027 0.0738177 0.049916815 -0.00913639 -0.015796432 0.10577745
0.11275344 0.23311874 -0.0067900443 -0.1988827 0.024260743 0.119123675 0.0585158 0.091371685
0.031023856 0.025835324 0.1842098 -0.030371122 0.057441354 0.035783444 -0.0012108245 0.19320287

dense1.4.bn1.weight f4 [72]
00000000: 0000 803f 0000 803f 0000 803f 0000 803f
00000010: 0000 803f 0000 803f 0000 803f 0000 803f
00000020: 0000 803f 0000 803f 0000 803f 0000 803f
00000030: 0000 803f 0000 803f 0000 803f 0000 803f
00000040: 0000 803f 0000 803f 0000 803f 0000 803f
00000050: 0000 803f 0000 803f 0000 803f 0000 803f
00000060: 0000 803f 0000 803f 0000 803f 0000 803f
00000070: 0000 803f 0000 803f 0000 803f 0000 803f
00000080: 0000 803f 0000 803f 0000 803f 0000 803f
00000090: 0000 803f 0000 803f 0000 803f 0000 803f
000000a0: 0000 803f 0000 803f 0000 803f 0000 803f
000000b0: 0000 803f 0000 803f 0000 803f 0000 803f
000000c0: 0000 803f 0000 803f 0000 803f 0000 803f
000000d0: 0000 803f 0000 803f 0000 803f 0000 803f
000000e0: 0000 803f 0000 803f 0000 803f 0000 803f
000000f0: 0000 803f 0000 803f 0000 803f 0000 803f
00000100: 0000 803f 0000 803f 0000 803f 0000 803f
00000110: 0000 803f 0000 803f 0000 803f 0000 803f
1.0 1.0 1.0 1.0 1.0 1.0 1.0 1.0
1.0 1.0 1.0 1.0 1.0 1.0 1.0 1.0
1.0 1.0 1.0 1.0 1.0 1.0 1.0 1.0
1.0 1.0 1.0 1.0 1.0 1.0 1.0 1.0
1.0 1.0 1.0 1.0 1.0 1.0 1.0 1.0
1.0 1.0 1.0 1.0 1.0 1.0 1.0 1.0
1.0 1.0 1.0 1.0 1.0 1.0 1.0 1.0
1.0 1.0 1.0 1.0 1.0 1.0 1.0 1.0
1.0 1.0 1.0 1.0 1.0 1.0 1.0 1.0

dense1.4.bn1.bias f4 [72]
00000000: 0000 0000 0000 0000 0000 0000 0000 0000
00000010: 0000 0000 0000 0000 0000 0000 0000 0000
00000020: 0000 0000 0000 0000 0000 0000 0000 0000
00000030: 0000 0000 0000 0000 0000 0000 0000 0000
00000040: 0000 0000 0000 0000 0000 0000 0000 0000
00000050: 0000 0000 0000 0000 0000 0000 0000 0000
00000060: 0000 0000 0000 0000 0000 0000 0000 0000
00000070: 0000 0000 0000 0000 0000 0000 0000 0000
00000080: 0000 0000 0000 0000 0000 0000 0000 0000
00000090: 0000 0000 0000 0000 0000 0000 0000 0000
000000a0: 0000 0000 0000 0000 0000 0000 0000 0000
000000b0: 0000 0000 0000 0000 0000 0000 0000 0000
000000c0: 0000 0000 0000 0000 0000 0000 0000 0000
000000d0: 0000 0000 0000 0000 0000 0000 0000 0000
000000e0: 0000 0000 0000 0000 0000 0000 0000 0000
000000f0: 0000 0000 0000 0000 0000 0000 0000 0000
00000100: 0000 0000 0000 0000 0000 0000 0000 0000
00000110: 0000 0000 0000 0000 0000 0000 0000 0000
0.0 0.0 0.0 0.0 0.0 0.0 0.0 0.0
0.0 0.0 0.0 0.0 0.0 0.0 0.0 0.0
0.0 0.0 0.0 0.0 0.0 0.0 0.0 0.0
0.0 0.0 0.0 0.0 0.0 0.0 0.0 0.0
0.0 0.0 0.0 0.0 0.0 0.0 0.0 0.0
0.0 0.0 0.0 0.0 0.0 0.0 0.0 0.0
0.0 0.0 0.0 0.0 0.0 0.0 0.0 0.0
0.0 0.0 0.0 0.0 0.0 0.0 0.0 0.0
0.0 0.0 0.0 0.0 0.0 0.0 0.0 0.0

dense1.4.conv1.weight f4 [12, 72, 3, 3]
00000000: 89c0 cabd 1216 09be 8b15 c5be 5d6f 0cbe
00000010: 0027 33be 563a 1d3e 5b2e 2cbc eac1 43bd
00000020: 8713 a2bd b9bf 8a3e f2c1 e4bd 3049 92bd
00000030: 43f6 b73c 2c5a 11be 87c7 5cbd d0f8 4a3d
00000040: f7af 223d e5b8 7ebe 18a1 803d 7370 02be
00000050: 318b 26be 9267 0dbe b8e9 8cbe 1606 df3d
00000060: 2fce a5be 9866 31bd 94ea 783d 1cf9 05be
00000070: 5436 8d3e 554e 8ebd 6299 2c3d 11b6 d83d
00000080: 1f98 b0bd cc2b 36be 54b6 383e 2d03 2bbe
00000090: 9716 c93d 6300 15bd 3600 7c3d 3503 a9bd
000000a0: 3de2 2f3e cde6 2cbe 5e66 b1bd f835 55be
000000b0: 6ea4 4e3e 53dc 1a3e e764 4f3e a26b 68be
000000c0: 7fc9 6e3c 6482 e03c b649 efbd bf3f 2ebe
000000d0: d8eb 57be 2247 0c3d b1df 8bbd 1d4b 8dbd
000000e0: bdbb 5dbd ebc1 553e 67a1 aebd 661a 5e3c
000000f0: f20e e4bd 76a3 17be add2 b9bd b402 683d
00000100: ed33 983b a7c3 5d3e 0b85 8ebe 1f36 263d
00000110: cbe3 9f3d 49fc f2bd 622e 093e a765 11bc
00000120: 94d8 07be 792c 94be 3146 b03d 6670 463c
00000130: d0cc 27bd d02f 2dbe fc51 913c 9528 18be
00000140: ae85 173e 8199 3c3e 5682 84bd 19d3 b0bc
00000150: d9bc 36bb 053f 7ebe 0e4d 1d3d f8c1 a8bd
00000160: 4d09 85be 7cb8 4a3e 2c15 b83d a479 7fbd
00000170: 7f9a 05be 502c 743d d600 9c3c c354 febd
00000180: 1d6a ae3c 2bfe 253d 4516 64be 51e5 16bb
00000190: 43b7 13be 8ee3 0e3d 3ce0 233e d73b b4bc
000001a0: 7cd8 2f3e 5bba 85be 7a62 57be 85fc 04bd
000001b0: 60ad 80bb cd3e 5c3e 8eeb 703e 7699 b0bd
000001c0: abbc ec3d ac61 6e3d f5d2 0cbe 8bf1 6ebe
000001d0: 11a9 fcbb 7404 093e 2695 9dbe dd6c 97bd
000001e0: b632 743e b7d4 8d3d c143 4bbe bd74 49bc
000001f0: baca 663e a609 86bd 70ce 1a3d 8ccd c73d
00000200: 3b15 953d e047 b1bd a356 2fbd 7fd2 0c3d
00000210: 34a0 b7bc b06c d23d 1efc cf3d 67fb 623e
00000220: 2f69 00bd a410 d5bc 38ab b0bd b57f 4b3c
00000230: 7dc7 ea3d b1a9 9cbe c4ef 843b 14e1 3bbd
00000240: 1f77 c03c e2ea f7bd c884 15be dfc1 3a3e
00000250: 9eae cbbd c5f8 10be 195b 3e3e ec9d cebd
00000260: ff76 d5bb 74da 87be db29 bdbb d6a8 2cbe
00000270: 8e11 03be df6f f1bd 13b5 6dbd 36b3 1f3d
00000280: e40e 14be 2861 9fbd 81f3 b4bd 7377 13be
00000290: 568d e03d 8906 ca3d 32f7 d3bc e593 4e3d
000002a0: 89ea e43d 18cd 073e c47d 9a3d 96f7 b63e
000002b0: e465 ae3d cf70 043d 4136 34be 6f11 7d3e
000002c0: 9824 3a3e 3308 4b3d c0ad 513d be4a 073d
000002d0: 5ffe 77be d29f 813d fd7e 4dbd fd02 c0bc
000002e0: 1296 4d3e 11cb b83d 2b63 553e ab81 72bd
000002f0: 2be1 b03d f43c d13d f8c5 28bd 13e7 a2bd
00000300: 6f16 4b3d 0661 9a3d 1fdb 48bc 3b0b 853d
00000310: 61fa c9bd 419e 193e 2da0 8bbc 2a8d a0bd
00000320: d662 e2bd 6e13 863e d560 a23d 1cc0 dfbd
00000330: 4df1 8abc 1438 b8bd 3998 ffbd 2d80 8a3e
00000340: 581d 18bd e222 a03d 5279 f03d 6d30 1e3e
00000350: a65c 983c 6015 103b 9a9f 3e3e 23b6 c93d
00000360: 8416 6cbd 7445 993d 5488 02be 1444 083e
00000370: 691f c0bd f8b5 2f3e a54d 13be 73da 473c
00000380: a265 9f3e ed9f 11be bee7 4dbe 7b60 d23d
00000390: 0958 5d3d befc 153e 5663 b6bc 3648 143b
000003a0: c21d 02bc 0788 55be 92ff 80be 4da1 f13d
000003b0: 474a 143d 7581 46bd ec60 ccbc d168 313d
000003c0: 3e2f a33c 21ee 923d 249d 1e3d 61ec 28be
000003d0: 9630 a63d 0d43 92be 0eac 31bd 30ed a43d
000003e0: 9f93 44be 1e8a 7d3e 1454 283d fef3 333e
000003f0: f0cb f73d 3423 603e d6fc 39be c02e c23d
-0.099000044 -0.13387325 -0.38492998 -0.13714357 -0.17495346 0.15354285 -0.010509099 -0.047792353
-0.07913881 0.27099398 -0.11169805 -0.07142866 0.022456294 -0.14194554 -0.05390122 0.049553692
0.039718594 -0.24875219 0.06280726 -0.12738208 -0.16264035 -0.1380904 -0.27522063 0.10889833
-0.32383868 -0.04331073 0.060770586 -0.13083309 0.27580512 -0.069485344 0.042138465 0.105816014
-0.08622765 -0.17790145 0.18038303 -0.1670043 0.09818762 -0.036377322 0.06152364 -0.08252565
0.17176147 -0.16884919 -0.08662103 -0.20821369 0.20179912 0.1512311 0.20253335 -0.22697309
0.014574408 0.027405925 -0.11683981 -0.17016505 -0.21086061 0.034247525 -0.06829775 -0.06899092
-0.05413412 0.20874755 -0.08526879 0.013556099 -0.11135663 -0.14808449 -0.09073386 0.056643203
0.004644862 0.21656667 -0.2783588 0.040578958 0.0780712 -0.11864526 0.133966 -0.008874333
-0.13266212 -0.2894018 0.08607138 0.012111759 -0.04096681 -0.1691277 0.017739289 -0.14859231
0.14797089 0.18417932 -0.06470172 -0.021585034 -0.0027883558 -0.24828728 0.038403563 -0.082401216
-0.25983658 0.19796938 0.08988413 -0.062371865 -0.13047217 0.059612572 0.019043367 -0.12418511
0.021290833 0.040525597 -0.2227412 -0.0023024867 -0.14425378 0.03488498 0.16003507 -0.02200119
0.17172426 -0.2611874 -0.2103366 -0.032467384 -0.003926918 0.21508332 0.23527357 -0.0862302
0.11559423 0.058198616 -0.13752349 -0.23334329 -0.007710584 0.13380605 -0.30777854 -0.07393811
0.2384747 0.06925338 -0.19850065 -0.012295899 0.22538272 -0.06544809 0.03779453 0.09756002
0.0727944 -0.08656287 -0.042807233 0.034380432 -0.022415258 0.10274637 0.101555094 0.22166215
-0.03135031 -0.026008911 -0.086264074 0.012420584 0.114638306 -0.30598214 0.0040569026 -0.045868948
0.023494301 -0.12105347 -0.14601433 0.18238018 -0.09945415 -0.14157398 0.18589438 -0.10088715
-0.0065144296 -0.26533854 -0.005772812 -0.16861281 -0.12799665 -0.11788916 -0.058034014 0.03898927
-0.14458805 -0.07782203 -0.08835507 -0.14401035 0.10964458 0.09864528 -0.025874708 0.050434012
0.111775465 0.13261831 0.07543519 0.35735768 0.08515528 0.032334145 -0.17598821 0.24713682
0.18178022 0.049568366 0.05119109 0.033030264 -0.24218129 0.063293114 -0.050169934 -0.023438925
0.20076779 0.09023107 0.20838611 -0.059205692 0.086366974 0.10216704 -0.041204423 -0.0795423
0.04958194 0.07538037 -0.012259274 0.06496283 -0.09862209 0.15001775 -0.017044151 -0.07839425
-0.11054008 0.261867 0.079286255 -0.10925314 -0.016960764 -0.08995071 -0.12480206 0.27050915
-0.03713736 0.07819153 0.1174189 0.1544816 0.018598866 0.0021985397 0.1861557 0.09849193
-0.05763866 0.0748395 -0.12747318 0.1330722 -0.09380991 0.1715926 -0.14385088 0.012198078
0.31132227 -0.14221163 -0.20107934 0.102723084 0.054039035 0.14647195 -0.022264164 0.002262605
-0.007941665 -0.20852672 -0.25194985 0.11798344 0.03620365 -0.048463304 -0.02494856 0.04331285
0.019919988 0.07174326 0.03872408 -0.16496421 0.08114736 -0.2856678 -0.043376975 0.080530524
-0.19196938 0.24759719 0.04109581 0.17573544 0.12099445 0.21888429 -0.18162856 0.09481573

trans1.bn1.weight f4 [84]
00000000: 0000 803f 0000 803f 0000 803f 0000 803f
00000010: 0000 803f 0000 803f 0000 803f 0000 803f
00000020: 0000 803f 0000 803f 0000 803f 0000 803f
00000030: 0000 803f 0000 803f 0000 803f 0000 803f
00000040: 0000 803f 0000 803f 0000 803f 0000 803f
00000050: 0000 803f 0000 803f 0000 803f 0000 803f
00000060: 0000 803f 0000 803f 0000 803f 0000 803f
00000070: 0000 803f 0000 803f 0000 803f 0000 803f
00000080: 0000 803f 0000 803f 0000 803f 0000 803f
00000090: 0000 803f 0000 803f 0000 803f 0000 803f
000000a0: 0000 803f 0000 803f 0000 803f 0000 803f
000000b0: 0000 803f 0000 803f 0000 803f 0000 803f
000000c0: 0000 803f 0000 803f 0000 803f 0000 803f
000000d0: 0000 803f 0000 803f 0000 803f 0000 803f
000000e0: 0000 803f 0000 803f 0000 803f 0000 803f
000000f0: 0000 803f 0000 803f 0000 803f 0000 803f
00000100: 0000 803f 0000 803f 0000 803f 0000 803f
00000110: 0000 803f 0000 803f 0000 803f 0000 803f
00000120: 0000 803f 0000 803f 0000 803f 0000 803f
00000130: 0000 803f 0000 803f 0000 803f 0000 803f
00000140: 0000 803f 0000 803f 0000 803f 0000 803f
1.0 1.0 1.0 1.0 1.0 1.0 1.0 1.0
1.0 1.0 1.0 1.0 1.0 1.0 1.0 1.0
1.0 1.0 1.0 1.0 1.0 1.0 1.0 1.0
1.0 1.0 1.0 1.0 1.0 1.0 1.0 1.0
1.0 1.0 1.0 1.0 1.0 1.0 1.0 1.0
1.0 1.0 1.0 1.0 1.0 1.0 1.0 1.0
1.0 1.0 1.0 1.0 1.0 1.0 1.0 1.0
1.0 1.0 1.0 1.0 1.0 1.0 1.0 1.0
1.0 1.0 1.0 1.0 1.0 1.0 1.0 1.0
1.0 1.0 1.0 1.0 1.0 1.0 1.0 1.0
1.0 1.0 1.0 1.0

trans1.bn1.bias f4 [84]
00000000: 0000 0000 0000 0000 0000 0000 0000 0000
00000010: 0000 0000 0000 0000 0000 0000 0000 0000
00000020: 0000 0000 0000 0000 0000 0000 0000 0000
00000030: 0000 0000 0000 0000 0000 0000 0000 0000
00000040: 0000 0000 0000 0000 0000 0000 0000 0000
00000050: 0000 0000 0000 0000 0000 0000 0000 0000
00000060: 0000 0000 0000 0000 0000 0000 0000 0000
00000070: 0000 0000 0000 0000 0000 0000 0000 0000
00000080: 0000 0000 0000 0000 0000 0000 0000 0000
00000090: 0000 0000 0000 0000 0000 0000 0000 0000
000000a0: 0000 0000 0000 0000 0000 0000 0000 0000
000000b0: 0000 0000 0000 0000 0000 0000 0000 0000
000000c0: 0000 0000 0000 0000 0000 0000 0000 0000
000000d0: 0000 0000 0000 0000 0000 0000 0000 0000
000000e0: 0000 0000 0000 0000 0000 0000 0000 0000
000000f0: 0000 0000 0000 0000 0000 0000 0000 0000
00000100: 0000 0000 0000 0000 0000 0000 0000 0000
00000110: 0000 0000 0000 0000 0000 0000 0000 0000
00000120: 0000 0000 0000 0000 0000 0000 0000 0000
00000130: 0000 0000 0000 0000 0000 0000 0000 0000
00000140: 0000 0000 0000 0000 0000 0000 0000 0000
0.0 0.0 0.0 0.0 0.0 0.0 0.0 0.0
0.0 0.0 0.0 0.0 0.0 0.0 0.0 0.0
0.0 0.0 0.0 0.0 0.0 0.0 0.0 0.0
0.0 0.0 0.0 0.0 0.0 0.0 0.0 0.0
0.0 0.0 0.0 0.0 0.0 0.0 0.0 0.0
0.0 0.0 0.0 0.0 0.0 0.0 0.0 0.0
0.0 0.0 0.0 0.0 0.0 0.0 0.0 0.0
0.0 0.0 0.0 0.0 0.0 0.0 0.0 0.0
0.0 0.0 0.0 0.0 0.0 0.0 0.0 0.0
0.0 0.0 0.0 0.0 0.0 0.0 0.0 0.0
0.0 0.0 0.0 0.0
