fedmd_results_0.0/client8/best_model_0.0.pth (torch, 225191 bytes, 29 tensors)

conv1.weight f4 [24, 3, 3, 3]
0	0x3e2f0a29	0.1709372
1	0x3ee66641	0.4499989
2	0x3e226c8a	0.15861717
3	0x3f15d10e	0.5852212
4	0x3f6e7a9c	0.9315584
5	0x3f19507b	0.5988843
6	0x3d84d657	0.064861946
7	0x3ec943c2	0.39309508
8	0x3dbf65cf	0.0934559
9	0xbdbf9fc7	-0.09356647
10	0xbe1889ed	-0.14896365
11	0xbd5441e0	-0.051820636
12	0xbe427c19	-0.18992652
13	0xbe8ee529	-0.2790921
14	0xbe1e9ef3	-0.15490322
15	0xbe069873	-0.13144092
16	0xbe73527e	-0.23761937
17	0xbe131bb6	-0.1436604
18	0xbda48ab2	-0.080342665
19	0xbec29d71	-0.38010743
20	0xbdf35484	-0.118813545
21	0xbe9c9f6f	-0.30590388
22	0xbf23b186	-0.63942754
23	0xbea5ed5d	-0.32407656
24	0x3dd12b10	0.10213292
25	0xbe51f578	-0.20503795
26	0x3da7e8e6	0.08198719
27	0xbfca0952	-1.5784094
28	0xbfe8b7b3	-1.818106
29	0xbfc7e41d	-1.561649
30	0x3efac1ca	0.48975974
31	0x3f51b8fc	0.8192289
32	0x3f100522	0.5625783
33	0x3f3c7010	0.73608494
34	0x3f91ec61	1.1400262
35	0x3f2d4600	0.67684937
36	0xbf7bf42a	-0.9841944
37	0xbfa368f0	-1.2766399
38	0xbf832776	-1.0246418
39	0x3eb5438d	0.354031
40	0x3f1d5783	0.6146166
41	0x3ee13454	0.43985236
42	0x3ecad716	0.39617223
43	0x3f3d0cd9	0.7384773
44	0x3ee6f8f0	0.451118
45	0x3c123bad	0.008925361
46	0xbeed79ab	-0.46381888
47	0xbdf66b2f	-0.120321624
48	0x3ea529ae	0.32258362
49	0x3e95407e	0.29150766
50	0x3eba99ab	0.36445364
51	0xbd6f6fd8	-0.058456272
52	0xbd7763fe	-0.060398094
53	0xbc844a3d	-0.01614868
54	0xbe00c74e	-0.12576029
55	0x3e638905	0.22220238
56	0xbdc55cd1	-0.09636844
57	0x3d75ecb9	0.06004021
58	0x3ecfb3b4	0.4056679
59	0x3e516cd4	0.20451671
60	0xbdb5cdc9	-0.08877141
61	0x3e692719	0.22768821
62	0x3e01e6a8	0.12685645
63	0x3e41821f	0.18897294
64	0x3e6ab1ae	0.22919342
65	0x3e297df6	0.16551957
66	0xbdd87d40	-0.105707645
67	0xbdcbf1c9	-0.09958226
68	0xbd870b10	-0.06593907
69	0xbe0436cc	-0.12911528
70	0xbe2efa8a	-0.1708776
71	0xbd4beceb	-0.04978649
72	0x3e735714	0.23763686
73	0x3d1e85fb	0.038701992
74	0x3ddb5a8f	0.10710632
75	0xbe8a4ee7	-0.27013323
76	0xbf10a249	-0.5649763
77	0xbebb5e02	-0.3659516
78	0xbe3ee018	-0.18640172
79	0xbefd716d	-0.495006
80	0xbe7b4995	-0.24539788
81	0x3da54ee3	0.08071687
82	0x3d7432c9	0.059618745
83	0x3ead1839	0.33807543
84	0x3fa81ffb	1.313476
85	0xbde048a0	-0.10951352
86	0xbf9e8d91	-1.2386953
87	0x3eee3392	0.4652372
88	0xbdcec5cc	-0.100963205
89	0xbe591b73	-0.21201877
90	0x3f472377	0.7778849
91	0xbe964f31	-0.29357293
92	0xbf2791f4	-0.6545708
93	0x401089ff	2.2584226
94	0xbe905a6c	-0.28193986
95	0xc00b42d3	-2.1759536
96	0x3f9bcbf8	1.2171621
97	0xbe78dee8	-0.24303782
98	0xbf717f3a	-0.9433476
99	0x3e98e94f	0.298655
100	0xbe93e580	-0.28886032
101	0xbe7a7215	-0.24457581
102	0x3feeb0df	1.8647727
103	0xbe38d269	-0.18049015
104	0xbfe25bf2	-1.768431
105	0x3f8541a2	1.0410655
106	0xbe34d49c	-0.17659229
107	0xbf5e4aa4	-0.8683264
108	0xbf4ed1eb	-0.8078906
109	0x3db12435	0.08649484
110	0x3f46503d	0.77466184
111	0x3f5c7318	0.8611312
112	0x400f4b1a	2.2389588
113	0xbfab2336	-1.337012
114	0xbf7d4f4e	-0.98949134
115	0x3f68edc1	0.90987784
116	0xbf01d21e	-0.5071124
117	0xbf26c128	-0.65138483
118	0xbd83838f	-0.06421577
119	0x3e9ba3c4	0.3039838
120	0x3ecf7692	0.4052015
121	0x3fd07c3c	1.6287913
122	0xc004d134	-2.0752687
123	0xbf8d46a7	-1.1037186
124	0x3f570143	0.839863
125	0xbeab2ece	-0.33434147
126	0xbf23483b	-0.6378209
127	0xbebbbf4a	-0.3666938
128	0x3f0f12b1	0.55887896
129	0x3e7b271f	0.24526642
130	0x3fa351c3	1.2759327
131	0xbfbe8655	-1.4884745
132	0xbf4a58b0	-0.79041576
133	0x3f546b4c	0.8297622
134	0x3e871bce	0.263884
135	0x3e50e392	0.20399311
136	0xbb368905	-0.0027852666
137	0x3e1215ec	0.14266175
138	0xbe1e144a	-0.15437427
139	0xbea87c1a	-0.32907182
140	0xbe6e70f8	-0.23285282
141	0xbc976cda	-0.018484522
142	0xbe04b691	-0.12960269
143	0xbde44a3f	-0.11146974
144	0xbec762ed	-0.38942662
145	0xbf009652	-0.5022937
146	0xbebfeacd	-0.37483826
147	0xbf0b0036	-0.54297197
148	0xbf143313	-0.57890433
149	0xbf0608f9	-0.5235744
150	0xbf23a18b	-0.6391837
151	0xbf298cb5	-0.66230327
152	0xbf22604c	-0.6342819
153	0x3d4d26b3	0.050085735
154	0x3ed4c393	0.4155546
155	0x3e4c3385	0.19941528
156	0x3f5859bc	0.84511924
157	0x3fabd058	1.3422956
158	0x3f80f969	1.0076114
159	0x3ee44411	0.4458318
160	0x3f70e59e	0.9410037
161	0x3f14c773	0.58116835
162	0xbed28c52	-0.4112268
163	0xbc02771b	-0.007962967
164	0xbed8725d	-0.42274752
165	0x3f3531fa	0.70779383
166	0x3fac9886	1.3484046
167	0x3f4ab8ef	0.79188436
168	0x3ec0fcbd	0.37692824
169	0x3f7f56e8	0.99741983
170	0x3ee4419b	0.44581303
171	0xbe0c583b	-0.13705532
172	0xbed37aa6	-0.4130451
173	0xbc64822e	-0.013947053
174	0xbf67276b	-0.9029452
175	0xbf9ec17c	-1.2402797
176	0xbf313c5d	-0.6923273
177	0xbf3bf348	-0.7341809
178	0xbf8d1cbc	-1.1024394
179	0xbf18d93d	-0.5970648
180	0x3f0dc4e6	0.5537857
181	0x3ec7dfc7	0.39037916
182	0x3f153eaf	0.5829877
183	0x3df1823d	0.11792419
184	0xbdb46284	-0.08807853
185	0x3e57f983	0.21091275
186	0x3afc66f0	0.0019256752
187	0xbe845455	-0.2584559
188	0x3d5330a5	0.051560063
189	0x3ea0b295	0.31386247
190	0x3f09af1f	0.5378284
191	0x3ec1983b	0.37811455
192	0x3ed087c1	0.40728572
193	0x3f33a99e	0.7018069
194	0x3f1c4b99	0.6105285
195	0xbe8701db	-0.26368603
196	0xbd269065	-0.04066505
197	0xbcc474aa	-0.023981411
198	0x3e2ff58d	0.17183514
199	0x3ea0835d	0.31350222
200	0x3eab90bb	0.33508858
201	0xbd3e3f24	-0.046446934
202	0x3dc64a8b	0.09682187
203	0x3e584f40	0.21123981
204	0xbef3449d	-0.47513285
205	0xbee5e3fe	-0.44900507
206	0xbe8ef983	-0.27924737
207	0x3c8f5abc	0.01749932
208	0x3d0d0b73	0.034434747
209	0x3e279f6b	0.16369407
210	0xbe6b3c46	-0.22972211
211	0xbe6d75b4	-0.23189431
212	0xbd1e5e2f	-0.03866404
213	0xbea84db5	-0.32871786
214	0xbebc4f0b	-0.36779055
215	0xbe337c89	-0.17527975
216	0xbce2d28d	-0.027688289
217	0x3f7f2495	0.99665195
218	0x3d6f234b	0.058383267
219	0x3f824153	1.0176185
220	0xbfbc56b1	-1.4713956
221	0x3f1a8c9f	0.6037082
222	0x3e135daa	0.14391199
223	0xbf6a162e	-0.91440094
224	0x3ed21420	0.4103098
225	0x3de27bd3	0.11058774
226	0x3eb5d4bd	0.3551387
227	0x3dcd2634	0.10017052
228	0x3ed74e7b	0.42052063
229	0xc0321660	-2.7826157
230	0xbe1b75ec	-0.15181702
231	0x3f0d2f23	0.5515005
232	0xbf60febc	-0.87888694
233	0x3f687064	0.90796494
234	0xbe66c06e	-0.22534344
235	0x3f0e7b0d	0.5565651
236	0x3dc51b4f	0.09624349
237	0x3e708282	0.23487285
238	0xc0061b6c	-2.0954237
239	0x3d5caa02	0.05387307
240	0x3e40394a	0.18771854
241	0xbf1905f0	-0.59774685
242	0x3f627f22	0.8847524
243	0xbe4bd7fb	-0.19906609
244	0xbf1090d8	-0.56471014
245	0xbe895f2e	-0.2683043
246	0xbee67f64	-0.45019066
247	0xbf572e84	-0.8405535
248	0xbf0c5051	-0.54810053
249	0xbedf1803	-0.43573007
250	0xbf57288d	-0.8404625
251	0xbf050c75	-0.5197213
252	0x3f17c81e	0.5928973
253	0x3f3f1c10	0.74652195
254	0x3f1b372c	0.6063106
255	0x3f885b4d	1.0652863

dense1.0.bn1.weight f4 [24]
0	0x3f4c4577	0.79793495
1	0x3f2f3236	0.6843599
2	0x3f0ef1d9	0.5583778
3	0x3f69b471	0.91290957
4	0x3feb40ae	1.8379114
5	0x3ee2f421	0.4432688
6	0x3fa8d53f	1.3190078
7	0x3f286f46	0.6579479
8	0x3ffe004a	1.9843838
9	0x3eea0b7d	0.4571189
10	0x3f024181	0.508812
11	0x3e9e61ee	0.3093409
12	0x3ed9b700	0.4252243
13	0x3ede8570	0.4346118
14	0x3f5dcc7c	0.86640143
15	0x3f938525	1.1525007
16	0x3e94474d	0.28960648
17	0x3f001c11	0.50042826
18	0x3eafddb5	0.34348837
19	0x3f2e953c	0.68196464
20	0x3f1830e2	0.5944959
21	0x3f740228	0.9531579
22	0x3ed9be06	0.4252779
23	0x3f20aab2	0.6276046

dense1.0.bn1.bias f4 [24]
0	0xbeea1a14	-0.4572302
1	0xbe8a6696	-0.27031392
2	0xbd9990e6	-0.0749834
3	0x3f063a7d	0.52432996
4	0x3f26a2ca	0.65092146
5	0xbe7e18e7	-0.24814187
6	0xbf9b2f6c	-1.2123847
7	0xbeec542a	-0.46157962
8	0x3f19d614	0.6009228
9	0xbe2b6245	-0.16736706
10	0xbe602d51	-0.21892287
11	0x3ce32386	0.0277269
12	0xbddaefdf	-0.10690283
13	0x3eb89c2a	0.36056644
14	0x3ed86e89	0.42271832
15	0x3e99d112	0.3004232
16	0xbe85540f	-0.26040694
17	0xbe389d90	-0.18028855
18	0xbe98d6d4	-0.298514
19	0x3e88ca94	0.26717055
20	0xbebe075e	-0.37114996
21	0x3f4c8562	0.79891026
22	0x3dd35b2c	0.10320124
23	0xbdabb914	-0.0838491

dense1.0.conv1.weight f4 [12, 24, 3, 3]
0	0x3dd423af	0.103583686
1	0x3cc16f3f	0.023612617
2	0x3e4e0d15	0.20122178
3	0x3ccec076	0.025238257
4	0xbdd33451	-0.10312713
5	0x3da37ff3	0.07983389
6	0x3d663f28	0.056212574
7	0xbe07e852	-0.13272217
8	0x3d11d4da	0.03560338
9	0xbcc12535	-0.023577312
10	0xbe6dcd54	-0.23222858
11	0x3d95e168	0.073183835
12	0xbe0b66de	-0.1361346
13	0xbe8d5003	-0.27600107
14	0xbd360d5e	-0.04444634
15	0x3c84c322	0.016206328
16	0xbc829d12	-0.015944038
17	0xbcf919b4	-0.030407764
18	0x3c9fec54	0.01952187
19	0xbda1c85e	-0.07899545
20	0x3e59e59e	0.21278998
21	0x3b8f5433	0.004374051
22	0xbe010453	-0.12599306
23	0x3e4b0724	0.19826943
24	0xbd54484f	-0.05182677
25	0xbe79e0fd	-0.24402232
26	0x3d654570	0.055974424
27	0x3e656a8f	0.2240393
28	0xbe5247e1	-0.20535232
29	0xbed05d34	-0.40696108
30	0x3f8e7cec	1.1131873
31	0xbd360458	-0.044437736
32	0xbf87a034	-1.0595765
33	0xbe02baa8	-0.12766516
34	0xbe0aed9b	-0.13567202
35	0xbed62dd0	-0.41831827
36	0x3ef78635	0.4834458
37	0xbfa97ceb	-1.3241247
38	0x3f0f5f86	0.5600513
39	0x3fb5082d	1.414312
40	0xbfe2e51f	-1.7726172
41	0x3e8e1423	0.27749738
42	0x3e9b735b	0.30361447
43	0xbf4dc02a	-0.80371344
44	0x3ebdb65c	0.37053192
45	0xbdbb6141	-0.09149409
46	0xbd974022	-0.07385279
47	0x3a94e953	0.001136104
48	0xbe186823	-0.14883475
49	0xbe29614f	-0.16541027
50	0xbdafbbb2	-0.08580722
51	0xbd52c498	-0.051457018
52	0xbd8a28e9	-0.06746084
53	0xbc320813	-0.010866183
54	0xbdf1e073	-0.118103884
55	0xbe1b9988	-0.15195286
56	0x3ce367b2	0.027759407
57	0xbd800a4c	-0.06251964
58	0xbe1e6686	-0.15468797
59	0xbadccb88	-0.0016845325
60	0x3dd650cc	0.104646295
61	0xbd065c32	-0.032802768
62	0x3c600d24	0.013675008
63	0x3b94d27f	0.0045416947
64	0x3d1b88a0	0.037972093
65	0x3dabedbf	0.08394956
66	0xbd884e9a	-0.06655617
67	0xbd4742c9	-0.048647676
68	0x3e08afd4	0.13348323
69	0xbc1486e7	-0.009065366
70	0x3cfec2b0	0.031098694
71	0x3e524937	0.20535742
72	0xbe92f8e1	-0.28705505
73	0x3f58ebc9	0.8473478
74	0xbf1b5be0	-0.60687065
75	0xbf179bd1	-0.5922213
76	0x3fbc164f	1.4694308
77	0xbf8b9a50	-1.0906467
78	0xbe283a55	-0.16428502
79	0x3df00412	0.11719526
80	0xbe58dcec	-0.21178025
81	0x3c60f9f1	0.013731466
82	0xbdb4b46c	-0.08823475
83	0x3d3bf9ae	0.04589241
84	0x3d0ae60a	0.03391079
85	0xbda1bbbb	-0.07897135
86	0x3c93bc4a	0.01803412
87	0x3d7e8ac8	0.06214407
88	0xbda7a860	-0.08186412
89	0xbbc55ef8	-0.006023284
90	0x3dc68af1	0.0969447
91	0xbba8a4ce	-0.0051465994
92	0x3d11d2dc	0.03560148
93	0x3d096991	0.03354794
94	0xbdcd708f	-0.100312345
95	0xbce09245	-0.027413497
96	0x3d8a90e7	0.06765919
97	0xbd1f8db0	-0.038953483
98	0x3c90aa97	0.017659469
99	0x3d05bc4e	0.032650284
100	0xbd3b847a	-0.045780636
101	0x3e14d86d	0.14535685
102	0xbcf7aec6	-0.030234706
103	0xbdcf5968	-0.10124475
104	0x3dd2bc50	0.10289824
105	0x3df3f7d3	0.11912503
106	0x3cc264b6	0.023729663
107	0x3e3b4a94	0.18290168
108	0x3dfbfa93	0.123036526
109	0xbd296385	-0.041354675
110	0x3d988648	0.07447487
111	0x3c818207	0.015809072
112	0xbde3ff65	-0.11132697
113	0xbd0ed4da	-0.03487096
114	0x3d6f8ac0	0.05848193
115	0xbd8b80ab	-0.06811651
116	0x3c94940b	0.018136999
117	0xbdbb6cfa	-0.09151645
118	0xbdbb8c6a	-0.09157641
119	0x3c95e6bf	0.018298505
120	0xbc144d33	-0.009051609
121	0xbe05dfac	-0.13073605
122	0x3e02a7dd	0.12759347
123	0x3e3c1cfe	0.18370435
124	0xbc307ea6	-0.010772383
125	0x3e95b6ef	0.2924113
126	0x3e5e42c5	0.21705158
127	0xbe4c5e9e	-0.19957969
128	0x3e5cf7f7	0.21578966
129	0x3e502c15	0.20329316
130	0xbe931776	-0.28728837
131	0xbaff523d	-0.0019479465
132	0x3c6b48f9	0.01436066
133	0xbe6c0f5f	-0.23052739
134	0xbd96a304	-0.073553115
135	0x3babc987	0.00524253
136	0x3d87ac75	0.066246904
137	0x3dd54a63	0.10414579
138	0xbe3a1f37	-0.1817597
139	0x3d4a98de	0.04946219
140	0x3dd3c49b	0.10340234
141	0xbe3bde81	-0.18346597
142	0xbc8d1849	-0.017223494
143	0x3e00918e	0.12555525
144	0xbbba2ce4	-0.005681621
145	0xbd45a8a3	-0.048256528
146	0xbbec2986	-0.0072070984
147	0x3cdbae5d	0.026816541
148	0xbb0fddc2	-0.0021952246
149	0xbc7ab5d0	-0.015302137
150	0x3d6a3352	0.05717785
151	0x3d128be7	0.035777953
152	0x3c145e72	0.009055721
153	0x3aadc354	0.0013257065
154	0xbd3da108	-0.04629615
155	0x38c6caed	9.4791736e-05
156	0xbd1ed900	-0.038781166
157	0xbdc5e72a	-0.09663232
158	0xbd0b245b	-0.03397022
159	0xbdbe6ca0	-0.09298062
160	0xbe1bb774	-0.152067
161	0xbde7e624	-0.11323193
162	0xbd45bd03	-0.04827596
163	0xbd7711d2	-0.06031973
164	0xbc883f81	-0.016631844
165	0xbd8b57df	-0.068038695
166	0xbdccc622	-0.09998728
167	0xbd1dd5d7	-0.03853401
168	0x3c71bfb7	0.014755181
169	0xbd0397f8	-0.03212735
170	0x3b5d484b	0.0033765014
171	0xbc6d0065	-0.014465426
172	0xbe14904f	-0.14508174
173	0xbda92e5e	-0.08260797
174	0x3edd8769	0.43267372
175	0xbdbb124e	-0.09134351
176	0xbe569af8	-0.20957553
177	0x3e9b25c2	0.30302244
178	0xbe33840d	-0.17530842
179	0xbe9941a2	-0.29932886
180	0xbe0964bb	-0.13417332
181	0xbe7465cc	-0.23866957
182	0xbdd47a60	-0.10374904
183	0xbd42c033	-0.047546577
184	0xbe0552ca	-0.13019863
185	0xbcaf883e	-0.02142727
186	0x3d94ecdb	0.07271739
187	0x3d823874	0.06358424
188	0x3dd078bd	0.10179279
189	0xbf69eab3	-0.9137375
190	0xbd678709	-0.056525264
191	0x3f1247f7	0.5714106
192	0xbf81c4c8	-1.0138178
193	0xbee5d0d0	-0.44885874
194	0x3fdb75eb	1.7145361
195	0xbe73c13d	-0.23804183
196	0xbf63e801	-0.89025885
197	0x3e72027a	0.23633757
198	0x3cbdabe8	0.02315326
199	0xbda2061b	-0.07911321
200	0xbbdf166d	-0.0068080933
201	0x3d3ab3b2	0.045581527
202	0xbb0c98b6	-0.0021453327
203	0x3d6f8825	0.058479447
204	0xbd66e8f2	-0.056374498
205	0xbdea3d49	-0.114374705
206	0x3ae34ae9	0.001734105
207	0x3e1219e4	0.14267689
208	0x3e23cd3d	0.15996261
209	0x3e86a9ec	0.26301515
210	0x3e0dddd8	0.13854158
211	0x3e0f334f	0.13984416
212	0x3ea3d762	0.32000262
213	0xbe09024d	-0.13379784
214	0xbe68959d	-0.22713323
215	0xbcff179e	-0.031139191
216	0xbe8b1392	-0.27163368
217	0xbe04cb42	-0.12968162
218	0xbe354e9b	-0.17705767
219	0xbe1c959a	-0.15291443
220	0x3c40703c	0.011745509
221	0xbd8f2306	-0.06989102
222	0xbe5d17aa	-0.21591058
223	0xbda7c69c	-0.081921786
224	0xbe3196c7	-0.17342673
225	0x3daea8f0	0.08528316
226	0x3da3b801	0.0799408
227	0x3e102e9d	0.14080282
228	0x3d51f805	0.05126192
229	0x3c0a0d85	0.008426075
230	0x3c3100da	0.010803426
231	0x3d01ac1a	0.03165827
232	0xbc121454	-0.008915979
233	0xbcd80634	-0.026370145
234	0x3d0477ec	0.03234093
235	0x3dcb23e3	0.09918954
236	0x3c825e3b	0.015914073
237	0x3e052e5f	0.1300597
238	0x3e5b4d67	0.21416245
239	0x3dfd64a4	0.12372711
240	0x3d2d3280	0.04228449
241	0x3e096186	0.13416108
242	0x3cf61712	0.030040298
243	0xbd074c0c	-0.03303151
244	0x3dc502fc	0.0961971
245	0xbd751ef1	-0.05984396
246	0x3d57a42c	0.0526468
247	0x3e2ca7f0	0.16860938
248	0xbda2dc1d	-0.079521395
249	0x39bd7e14	0.00036142825
250	0x3dfe3f4d	0.124144174
251	0xbced643a	-0.028978456
252	0xbeba66cf	-0.36406562
253	0xbe2c97de	-0.16854808
254	0xbead3abf	-0.33833882
255	0x3dcd26ba	0.10017152

dense1.1.bn1.weight f4 [36]
0	0x3efb352a	0.49063998
1	0x3f61560e	0.88021934
2	0x3e982580	0.2971611
3	0x3f4a4fc6	0.79027975
4	0x3f3e4472	0.7432319
5	0x3f405d3e	0.75142276
6	0x3e43f1a9	0.19135155
7	0x3f31358d	0.69222337
8	0x3f0d3b83	0.5516893
9	0x3ee729c0	0.4514904
10	0x3ecf5d38	0.40500808
11	0x3ed3a2f8	0.41335273
12	0x3f139430	0.5764799
13	0x3f34191d	0.7035082
14	0x3efca27a	0.4934271
15	0x3e4add89	0.19811071
16	0x3ee59664	0.448413
17	0x3f3ffd3b	0.74995774
18	0x3ef1e433	0.47244415
19	0x4003e991	2.0611308
20	0x3fa08d6c	1.2543159
21	0x4002c212	2.043095
22	0x3f1a443c	0.6026037
23	0x3f5e7737	0.8690066
24	0x3fbd431d	1.4786106
25	0x3e828018	0.25488353
26	0x3fb927c5	1.4465262
27	0x3fc0f089	1.5073406
28	0x3f01e2b3	0.5073654
29	0x3ef48e2d	0.47764722
30	0x3faeebcf	1.3665713
31	0x3f2622aa	0.64896643
32	0x3f05f95c	0.5233362
33	0x3f745be2	0.954527
34	0x3fb10270	1.3828869
35	0x3fddd89a	1.7331727

dense1.1.bn1.bias f4 [36]
0	0xbec1128b	-0.3770946
1	0x3ea22355	0.3166758
2	0xbe41496c	-0.18875664
3	0xbec8d226	-0.3922283
4	0xbd390a6f	-0.045175966
5	0xbe5f2cfe	-0.21794507
6	0x3db906d7	0.09034508
7	0xbf037ced	-0.51362497
8	0xbe0f29bb	-0.13980763
9	0xbd68a66f	-0.05679935
10	0xbe7d95ee	-0.24764225
11	0xbe75d825	-0.24008234
12	0xbe701150	-0.23444104
13	0x3e88565e	0.26628393
14	0xbdcfac5d	-0.101402976
15	0x3e1b2360	0.15150213
16	0xbe7f4363	-0.2492805
17	0xbf4b7807	-0.7948002
18	0xbd700ce4	-0.058606043
19	0xbf4967ae	-0.7867383
20	0xbf0332f4	-0.51249623
21	0xbf411e91	-0.75437266
22	0xbdddde07	-0.10833364
23	0xbf0fb93f	-0.5614204
24	0xbd634cb1	-0.05549306
25	0x3d8bb1e3	0.068210386
26	0xbe9aa19c	-0.30201423
27	0x3e2f1258	0.17096841
28	0x3d439711	0.04775149
29	0xbe1663b3	-0.1468647
30	0x3ea94147	0.33057615
31	0xbef22a69	-0.4729798
32	0xbd9abfba	-0.075561
33	0xbeab58c9	-0.33466175
34	0x3db4a364	0.08820227
35	0x3ee9b00e	0.45642132

dense1.1.conv1.weight f4 [12, 36, 3, 3]
0	0xbdae0ed5	-0.08498923
1	0xbd6f6b8e	-0.05845218
2	0xbd8694f5	-0.0657138
3	0x3c6f76dd	0.014615742
4	0x3c906491	0.017626079
5	0x3bcb5acc	0.006205892
6	0x3db7ca65	0.089741506
7	0x3dd98fd3	0.106231354
8	0x3dd8cebe	0.10586308
9	0x3e127a74	0.14304525
10	0x3dc84214	0.097782284
11	0x3e41c54c	0.18922919
12	0x3e1b20fb	0.151493
13	0x3e0e3231	0.13886334
14	0x3e504849	0.20340075
15	0x3d8191ec	0.063266605
16	0x3c3448db	0.011003698
17	0x3d84c883	0.06483557
18	0x3cb27e43	0.021788722
19	0xbc4a5e13	-0.012351531
20	0x3ac5d8a1	0.0015094468
21	0x3cf4a226	0.029862475
22	0x3c18ff49	0.0093382085
23	0x3c58959e	0.013219265
24	0x3d2473f3	0.04014964
25	0x3d04d3b3	0.032428455
26	0x3cc8f4c4	0.024530776
27	0x3da1ef6b	0.079069935
28	0x3dcbc088	0.09948832
29	0x3d73a365	0.059481997
30	0xbd3ca74c	-0.046057984
31	0x3d780267	0.060549166
32	0x3cd85178	0.026406035
33	0xbe0fab4a	-0.14030185
34	0xbd4fd786	-0.05074265
35	0xbd10e21f	-0.035371896
36	0x3d3351f2	0.04377932
37	0x3c4861ce	0.01223035
38	0xbc933de9	-0.017973857
39	0xbc479436	-0.012181332
40	0xbcfd5ce1	-0.030928077
41	0xbd7bcf63	-0.061477076
42	0xbdb7d73a	-0.08976598
43	0xbdd09196	-0.10184018
44	0xbdded24f	-0.10879957
45	0xbc2ac0dc	-0.010421958
46	0xbd23895c	-0.039925918
47	0xbd0ab397	-0.033862676
48	0x3cf2f0eb	0.029655894
49	0xba262805	-0.0006338361
50	0x3c5e57e5	0.01357076
51	0x3d753fd7	0.059875336
52	0x3cfdea85	0.030995617
53	0x3d206900	0.039162636
54	0x3d457e4c	0.04821615
55	0x3d022a31	0.031778518
56	0x3d83c664	0.064343244
57	0x3dbaec11	0.09127057
58	0x3dcaae21	0.09896494
59	0x3dc19714	0.09452644
60	0x3dc0e322	0.09418322
61	0x3dc09f00	0.09405327
62	0x3dbf48ff	0.09340095
63	0x3db6b63f	0.089214794
64	0x3db147a7	0.08656245
65	0x3dd34861	0.103165396
66	0xbc1cd240	-0.009571612
67	0x3c005927	0.007833756
68	0x3c9028ab	0.017597517
69	0x3da5e494	0.081002384
70	0x3d9749ef	0.073871486
71	0x3dd1ce33	0.102444075
72	0x3c08f01f	0.008358031
73	0xbd0ad167	-0.033891108
74	0xbc63f151	-0.013912515
75	0xbd9617ed	-0.07328782
76	0xbd9c22eb	-0.076238476
77	0xbcf01cf9	-0.02931069
78	0xbd4bbbe1	-0.049739722
79	0xbd6cb507	-0.05778983
80	0xbd52a818	-0.051429838
81	0xbbc5e154	-0.006038824
82	0xbd30ed1d	-0.04319488
83	0x3ca96fa4	0.020683117
84	0xbdc0f694	-0.09422031
85	0xbdf72c95	-0.1206905
86	0xbd87886e	-0.06617819
87	0x3a36d9bb	0.00069751934
88	0xbce94399	-0.028474616
89	0x3c8443de	0.016145643
90	0x3db0f7d4	0.086410195
91	0x3db7f60c	0.089824766
92	0x3dc20b63	0.09474828
93	0x3d92fe18	0.07177371
94	0x3d80bc9e	0.06285976
95	0x3d9a7f85	0.07543854
96	0x3d7fffbe	0.062499754
97	0x3d5a3f0b	0.05328278
98	0x3d8de2fb	0.06928059
99	0xbd9e7150	-0.077364564
100	0xbda53e36	-0.080685064
101	0xbda85031	-0.0821842
102	0xbcb72396	-0.022355836
103	0xbc6df734	-0.01452427
104	0xbce8ac36	-0.02840243
105	0xbbc87f8f	-0.006118722
106	0x3c24c095	0.010055681
107	0x3c1471a7	0.0090603
108	0x3d947f59	0.07250852
109	0x3d5c1ab3	0.0537364
110	0x3d812544	0.06305936
111	0x3d28b001	0.041183475
112	0x3ca25f23	0.019820755
113	0x3d10916a	0.035294928
114	0x3d64436d	0.055728365
115	0x3cc5a8b7	0.024128301
116	0x3d14e281	0.036348823
117	0x3eabc8b2	0.33551556
118	0x3e23b1fb	0.15985863
119	0x3e502cd3	0.20329599
120	0x3dc59dc5	0.09649233
121	0xbd417502	-0.047230728
122	0x3ba01e1a	0.004886401
123	0x3ecd004f	0.40039298
124	0x3e8311d4	0.2559954
125	0x3e92f2ba	0.2870081
126	0x3e1a9960	0.1509757
127	0x3e0931fb	0.13397972
128	0x3e257e2c	0.16161412
129	0x3da6fbf2	0.081535235
130	0x3da1ab1e	0.07893966
131	0x3dbe10d7	0.09280556
132	0x3d179b4e	0.037013344
133	0x3ba4a0d9	0.0050240573
134	0x3d730355	0.05932935
135	0x3e28e0fe	0.16492078
136	0x3e1c19f6	0.15244278
137	0x3e22e561	0.15907814
138	0x3e36c75b	0.17849486
139	0x3e2b57f4	0.1673277
140	0x3e2da8a1	0.16958858
141	0x3e2cb261	0.16864921
142	0x3e232d5c	0.15935272
143	0x3e36b30c	0.17841738
144	0x3d07cc08	0.033153564
145	0x3d45fc21	0.048336152
146	0x3d2460a7	0.040131237
147	0xbacb2565	-0.0015498815
148	0x3bc90335	0.0061344155
149	0x3ba25b7d	0.004954754
150	0x3d09703b	0.033554297
151	0x3c9b7852	0.018978272
152	0x3c545eb7	0.012962035
153	0x3e41cd2b	0.18925922
154	0x3e351654	0.17684299
155	0x3e396a62	0.18106988
156	0x3e855619	0.2604225
157	0x3e9441a0	0.28956318
158	0x3e95a669	0.29228523
159	0x3eb06791	0.34454015
160	0x3eb8edb7	0.36118862
161	0x3eb5e7b1	0.3552833
162	0x3d03a305	0.03213789
163	0x3c94958d	0.018137718
164	0x3d8378e7	0.06419545
165	0x3d84e604	0.064891845
166	0x3d6d09a7	0.057870533
167	0x3d9e8659	0.077404685
168	0x3de7df03	0.11321833
169	0x3ddb5945	0.10710386
170	0x3e09ce14	0.13457519
171	0x3e5d18ba	0.21591464
172	0x3e44662b	0.19179599
173	0x3e608ead	0.21929426
174	0xbd004f65	-0.031325717
175	0xbd5bffea	-0.053710856
176	0xbdd52a5d	-0.10408471
177	0x3e35eaf9	0.17765416
178	0x3dd3926c	0.10330662
179	0xbd799e5e	-0.060942046
180	0x3e9392f4	0.28823054
181	0x3e739bf9	0.23789968
182	0x3e6ce1c0	0.23132992
183	0x3e8f3963	0.2797347
184	0x3e5ed55b	0.21761076
185	0x3e6d964a	0.23201862
186	0x3d7a5db9	0.061124537
187	0x3cce3416	0.02517132
188	0x3d074f88	0.03303483
189	0x3e1aa034	0.15100175
190	0x3e4125d5	0.18862088
191	0x3e3bffb6	0.18359265
192	0xbb964caf	-0.004586778
193	0x3d8cd3ce	0.06876336
194	0xbda4c281	-0.08044911
195	0xbdf74453	-0.12073579
196	0xbdf9aeb6	-0.121915266
197	0xbe6f072d	-0.23342581
198	0x3dc19a70	0.09453285
199	0x3d78601a	0.060638525
200	0x3da1a2a2	0.07892348
201	0x3dac0aa6	0.084004685
202	0x3d6df0f7	0.05809113
203	0x3d87ba6e	0.066273555
204	0x3e2f0f03	0.1709557
205	0x3e27b2f5	0.1637686
206	0x3e30f0c3	0.17279343
207	0x3e30c57b	0.17262833
208	0x3e177630	0.14791179
209	0x3e265e24	0.1624685
210	0x3e2968a5	0.16543825
211	0x3e063367	0.13105546
212	0x3e04ca58	0.12967813
213	0x3e85c877	0.26129505
214	0x3e6ee5a2	0.23329785
215	0x3e76b40f	0.24092124
216	0xbe2923b1	-0.16517521
217	0xbe17d603	-0.14827733
218	0xbe8b3d98	-0.2719543
219	0xbf21a8f4	-0.63148427
220	0xbf172742	-0.5904428
221	0xbf203aa7	-0.62589496
222	0xbf380147	-0.7187695
223	0xbf29a10a	-0.6626135
224	0xbf30ad32	-0.69014275
225	0x3b580689	0.003296288
226	0xbbef4fee	-0.0073032295
227	0x3ac26954	0.0014832416
228	0x3c4bb6f9	0.012433761
229	0x3cfe5d05	0.031050215
230	0x3cf5e976	0.03001855
231	0x3c45b792	0.012067692
232	0x3c9d7891	0.01922253
233	0x3cef7fbb	0.029235711
234	0xbf048717	-0.5176863
235	0xbedd8575	-0.43265882
236	0xbf02101a	-0.5080582
237	0xbf160b53	-0.5861103
238	0xbf128623	-0.57235926
239	0xbf1da637	-0.6158175
240	0xbf005e24	-0.5014365
241	0xbed01c26	-0.40646476
242	0xbf00bc00	-0.50286865
243	0x3f068e2c	0.5256069
244	0x3ed05100	0.40686798
245	0x3eb389c8	0.35066056
246	0x3dd4a924	0.103838235
247	0x3c818b17	0.015813394
248	0x3cdcfb34	0.026975252
249	0x3e94c921	0.290597
250	0x3df21b8e	0.11821662
251	0x3d123a82	0.03570033
252	0x3ccfed3e	0.02538168
253	0x3bfb4ec1	0.0076693003
254	0x3a3c1e95	0.0007176188
255	0x3d85f057	0.06539982

trans1.bn1.weight f4 [48]
0	0x3f1e3730	0.6180296
1	0x3fb0646a	1.3780644
2	0x3f48aa2a	0.7838465
3	0x3fa76d6a	1.3080266
4	0x3fa21b5d	1.2664601
5	0x3f75edb8	0.96065855
6	0x3f76ba3f	0.9637794
7	0x3f7d2733	0.9888794
8	0x3f5d7b01	0.86515814
9	0x3f8b21f7	1.086974
10	0x3f31770a	0.69322264
11	0x3f762401	0.9614869
12	0x3f7f4b8b	0.99724644
13	0x3f96f487	1.1793374
14	0x3fb227c1	1.3918382
15	0x3dc83144	0.09775022
16	0x3f3d7033	0.7399933
17	0x3f48fb8b	0.78508824
18	0x3f6c8fe9	0.9240709
19	0x3f6b5b53	0.91936225
20	0x3f845d84	1.0341039
21	0x3f735fb8	0.9506793
22	0x3f8975c5	1.0739065
23	0x3f80567c	1.0026393
24	0x3fcd0f95	1.602038
25	0x3f9b1605	1.2116095
26	0x3fe14dab	1.7601827
27	0x3fed51b8	1.8540564
28	0x3fd3033b	1.6485361
29	0x3fabacbd	1.341209
30	0x3fedbcc1	1.8573228
31	0x3f834825	1.0256392
32	0x3fc1b928	1.513463
33	0x3fc4efe2	1.5385706
34	0x40002f27	2.002878
35	0x4004f59d	2.077491
36	0x3fab0a85	1.3362585
37	0x4014c921	2.324776
38	0x3ff6c89d	1.9279972
39	0x3fc1664c	1.5109344
40	0x4012c6d2	2.293385
41	0x4003b5c3	2.0579689
42	0x3f94bcf1	1.162016
43	0x400ee9d5	2.233022
44	0x3fce3871	1.6110975
45	0x401060c0	2.2559052
46	0x3f9fb3f4	1.2476792
47	0x3fbb618e	1.4639146

trans1.bn1.bias f4 [48]
0	0x3db5bb0e	0.088735685
1	0xbe6508a8	-0.22366583
2	0xbf01252e	-0.50447357
3	0xbe0dc896	-0.13846049
4	0xbe367ca2	-0.17820981
5	0x3e8d45c6	0.27592295
6	0x3e5f3a8c	0.21799678
7	0xbe50ab03	-0.20377736
8	0x3d9cb6a6	0.07652025
9	0x3dcb622e	0.09930836
10	0xbe045b75	-0.12925513
11	0x3e4a9f30	0.19787288
12	0xbd90dff3	-0.07073965
13	0xbe5d9365	-0.21638258
14	0xbe4d704a	-0.20062366
15	0x3e88200f	0.2658696
16	0x3e0cfef8	0.13769138
17	0x3e8ef501	0.27921298
18	0x3dd9d23e	0.10635804
19	0xbf143bc0	-0.5790367
20	0xbe96d299	-0.29457548
21	0xbe46aabb	-0.19401066
22	0xbe804f7a	-0.25060636
23	0xbeb6c334	-0.35695803
24	0xbe802fb6	-0.250364
25	0x3ec02d97	0.37534782
26	0xbe3762bf	-0.17908762
27	0xbe703dce	-0.23461077
28	0xbf24f7eb	-0.6444079
29	0xbced70ce	-0.028984454
30	0xbf448e67	-0.7677979
31	0xbecdd507	-0.4020159
32	0xbeb9c7c8	-0.36285233
33	0xbdc56be5	-0.0963972
34	0xbe89d762	-0.26922137
35	0xbf650435	-0.89459544
36	0x3eaded12	0.33969933
37	0xbd3490e6	-0.0440835
38	0xbe8f0a3a	-0.2793749
39	0xbe86f213	-0.26356563
40	0x3de3bb5b	0.111197196
41	0xbebf1939	-0.3732393
42	0xbf8796d1	-1.05929
43	0x3d7ae369	0.06125203
44	0xbf39ed86	-0.72628057
45	0xbd3ffffd	-0.04687499
46	0xbf9d14f1	-1.2272016
47	0x3ec8c8a3	0.39215574

trans1.conv1.weight f4 [48, 48, 1, 1]
0	0x3d50751e	0.05089294
1	0x3f1e48ba	0.6182972
2	0xbdc601a9	-0.096682854
3	0xbec1bf67	-0.3784134
4	0xbd214b2d	-0.039378334
5	0xbe684cd9	-0.22685565
6	0x3ec048fd	0.37555686
7	0xbdcd03f6	-0.10010521
8	0xbc972c69	-0.018453794
9	0xbb9f32a2	-0.004858331
10	0x3cd4d1f3	0.025979018
11	0x3e9a5c8a	0.30148727
12	0x3dfbba61	0.12291408
13	0xbec3731a	-0.38173753
14	0xbdc41cb4	-0.09575787
15	0xbd37bd28	-0.044858128
16	0x3dd2b083	0.10287573
17	0xbe8008ff	-0.25006863
18	0xbe275793	-0.16342
19	0x3ad4c3e7	0.00162327
20	0xbe24e854	-0.16104251
21	0x3ef20f4a	0.4727729
22	0x3dddccb2	0.10830058
23	0xbe82f8d5	-0.2558047
24	0x3dfb4370	0.12268722
25	0x3e21ecaa	0.15812936
26	0xbe201dcc	-0.15636367
27	0x3e87555e	0.26432317
28	0x3e8a58a2	0.27020746
29	0x3d12d69f	0.03584921
30	0x3e1fd128	0.1560713
31	0xbd8d31b4	-0.06894246
32	0x3ea79a46	0.3273489
33	0x3f59afe2	0.85034
34	0x3e0c3684	0.13692671
35	0x3deeb28b	0.11655148
36	0x3e1005ab	0.14064662
37	0xbd5d6464	-0.054050818
38	0x3c67a99c	0.014139559
39	0xbe3f09e6	-0.1865612
40	0x3e6a2685	0.22866257
41	0x3e9e3a75	0.30903974
42	0xbe9f6648	-0.31132722
43	0xbe2072b6	-0.15668759
44	0x3e5a71d6	0.21332487
45	0xbdd565c4	-0.10419801
46	0x3e899d32	0.26877743
47	0x3e7755ab	0.24153773
48	0x3e782273	0.24231891
49	0xbe5f51ef	-0.21808599
50	0x3ce8838b	0.028383037
51	0x3e02e599	0.12782897
52	0xbbe5f016	-0.007017146
53	0x3cc76a14	0.024342574
54	0x3e417cff	0.18895338
55	0x3c685bc2	0.014182033
56	0xbceeb286	-0.029137861
57	0xbf3b1233	-0.73074645
58	0xbb98fcf9	-0.0046688286
59	0x3e49bb10	0.19700265
60	0xbec402d0	-0.38283396
61	0xbd2b5e91	-0.041838232
62	0xbd85ab35	-0.06526796
63	0x3e4c89ac	0.19974393
64	0x3cf9ee50	0.030509144
65	0xbd7b7d9a	-0.06139908
66	0xbf145bbe	-0.5795249
67	0x3d59bb1e	0.053156964
68	0x3dc0d043	0.09414723
69	0x3e8537fb	0.26019272
70	0xbd8d9bae	-0.06914459
71	0x3c7b7acc	0.015349101
72	0xbeaa903d	-0.3331317
73	0x3ed9472f	0.4243712
74	0xbe3a9e84	-0.18224531
75	0xbea780a1	-0.32715324
76	0xbec81d95	-0.3908507
77	0x3e9bd569	0.30436257
78	0xbe94713a	-0.28992635
79	0x3dc2f5d8	0.09519547
80	0xbe314c94	-0.17314368
81	0x3cb305df	0.021853385
82	0xbef9d73f	-0.48797032
83	0xbe542d6d	-0.20720454
84	0x3ea28103	0.31739053
85	0x3ebc6ef0	0.3680339
86	0x3df63a21	0.12022806
87	0xbeb2f62b	-0.34953436
88	0xbe38f5ba	-0.18062487
89	0xbd8791d1	-0.06619609
90	0xbd2b43fe	-0.04181289
91	0x3f34b424	0.7058737
92	0x3d66abe6	0.05631628
93	0xbdb67e21	-0.08910776
94	0xbf036f66	-0.51341856
95	0x3e9639f6	0.29341096
96	0x3ee8e750	0.45488977
97	0xbd23166a	-0.039816298
98	0xbed31eb9	-0.41234377
99	0xbda8ef28	-0.082487404
100	0x3e93706e	0.28796715
101	0x3f4c6e0c	0.7985542
102	0x3f55e623	0.83554286
103	0x3e0202e5	0.12696417
104	0x3da69e8c	0.08135709
105	0xbf016c38	-0.50555754
106	0xbc338093	-0.010955947
107	0x3f9743ef	1.1817607
108	0x3e60b353	0.21943407
109	0x3d516533	0.0511219
110	0xbc95c805	-0.018283853
111	0xbe045566	-0.12923202
112	0xbe92f639	-0.28703478
113	0xbf4d7fa5	-0.80272895
114	0xbeac5cae	-0.3366446
115	0x3ebf6c31	0.3738723
116	0x3dc11d2c	0.09429392
117	0x3e8ca8bd	0.27472487
118	0xbe3665e4	-0.17812306
119	0xbe8494ad	-0.2589468
120	0xb7a760cb	-1.9953024e-05
121	0x3ef5df78	0.48022056
122	0xbe23b636	-0.15987477
123	0x3d180317	0.03711232
124	0x3df68a88	0.120381415
125	0xbeb3469e	-0.35014814
126	0x3e8e70d0	0.27820444
127	0xbea015c7	-0.31266615
128	0xbe819343	-0.25307664
129	0xbe89adf9	-0.26890543
130	0xbdf76c0e	-0.12081157
131	0xbdee1197	-0.11624449
132	0xbe5fed8d	-0.21867962
133	0xbd91837d	-0.071051575
134	0xbcbd8660	-0.023135364
135	0xbe3700df	-0.17871426
136	0x3e0b9426	0.13630733
137	0xbd903ff9	-0.07043452
138	0xbe3ba759	-0.18325557
139	0x3d3afaf5	0.045649488
140	0x3d255165	0.040360827
141	0xbd92280a	-0.07136543
142	0x3e0abbd3	0.13548212
143	0xbe235977	-0.15952097
144	0x3e826211	0.25465444
145	0x3e7624ba	0.24037448
146	0x3e1f3695	0.15548165
147	0xbefe9383	-0.49721918
148	0xbe01e297	-0.12684093
149	0x3e5fc861	0.21853782
150	0x3f0479c6	0.5174831
151	0x3e29d32d	0.16584463
152	0xba0771b1	-0.00051667826
153	0xbdb57489	-0.08860118
154	0x3e38866d	0.1802003
155	0x3f05299b	0.5201661
156	0x3dcb823a	0.09936948
157	0x3ea8296c	0.32844102
158	0xbc401a83	-0.011725071
159	0xbdb93a46	-0.09044318
160	0xbcc7e07f	-0.02439904
161	0xbf1bc15a	-0.60841906
162	0x3f220317	0.63285965
163	0xbe890d6a	-0.26768047
164	0xbf0663c7	-0.52496
165	0xbf32d6ce	-0.69859016
166	0x3e24432e	0.16041252
167	0x3cdd1744	0.026988633
168	0xbead450e	-0.33841747
169	0x3ed43126	0.41443747
170	0xbc3efdf7	-0.01165723
171	0x3ecb3491	0.39688542
172	0x3f579614	0.84213376
173	0x3e3cf35b	0.18452208
174	0x3eb535d0	0.35392618
175	0xbdff914f	-0.12478887
176	0x3edae0ad	0.4274954
177	0xbe519d32	-0.20470122
178	0x3ef75318	0.48305583
179	0xbdf0e7a1	-0.1176293
180	0x3e9b0aa8	0.30281568
181	0xbe7ffe16	-0.2499927
182	0xbea20b85	-0.31649414
183	0xbf0c309e	-0.54761684
184	0x3f898b71	1.0745679
185	0xbeaa860c	-0.33305395
186	0xbeaeae9c	-0.3411759
187	0xbe525937	-0.20541845
188	0x3dc8c93b	0.09804007
189	0x3d8a8b1e	0.06764816
190	0xbd9ae4fa	-0.07563205
191	0xbf2d5d5c	-0.6772058
192	0xbe8cabf8	-0.27474952
193	0xbf38520a	-0.7200018
194	0xbe56f24a	-0.20990863
195	0xbd3ef16e	-0.046616964
196	0xbe0e3b0e	-0.13889715
197	0x3e6d1c03	0.23155217
198	0xbd4f470b	-0.05060486
199	0xbe845280	-0.25844193
200	0x3d218efb	0.039442997
201	0x3b116aad	0.0022188828
202	0xbdd55cab	-0.10418066
203	0x3d0df826	0.03466048
204	0xbddef124	-0.10885838
205	0xbf33e925	-0.70277625
206	0xbec7e310	-0.39040422
207	0xbe16f048	-0.14740098
208	0xbd73c151	-0.059510533
209	0xbf1ba950	-0.60805225
210	0x3eb79c78	0.35861564
211	0xbe9b7939	-0.30365923
212	0xbefad3f5	-0.48989835
213	0xbe4ea77a	-0.20181075
214	0xbb9c429c	-0.0047686826
215	0xbe914584	-0.2837335
216	0x3f4410f4	0.7658837
217	0xbe2de032	-0.16980055
218	0x3e7e293b	0.24820416
219	0x3ecd703a	0.40124685
220	0xbd369948	-0.044579774
221	0x3dbb97fd	0.09159849
222	0xbf5192af	-0.81864446
223	0xbc48f5ed	-0.0122656645
224	0xbef78075	-0.48340192
225	0xbecd8ee4	-0.4014808
226	0xbd0141e4	-0.03155698
227	0xbd003db7	-0.031308856
228	0xbf03b3a0	-0.5144596
229	0x3e9082e8	0.28224874
230	0xbf21f80a	-0.632691
231	0x3eee054e	0.46488422
232	0xbf9ac297	-1.2090634
233	0x3efa9219	0.4893959
234	0xbe3d6a9c	-0.184977
235	0xbeb4b822	-0.35296732
236	0x3e07d4b3	0.13264732
237	0xbf8d2fdc	-1.103023
238	0xbd76c5d5	-0.06024726
239	0xbcb96efd	-0.022635931
240	0xbef3592e	-0.47528976
241	0x3da8a054	0.08233705
242	0xbedcf719	-0.4315727
243	0xbe36884c	-0.1782543
244	0x3e3dab11	0.18522288
245	0x3eae1159	0.3399761
246	0xbc963453	-0.018335497
247	0x3cf6bcff	0.030119417
248	0x3dd9d1cb	0.10635718
249	0xbdc404ca	-0.09571226
250	0xbe6c1341	-0.2305422
251	0x3e42fe30	0.19042277
252	0x3f3f2f13	0.74681205
253	0xbe354bfb	-0.17704765
254	0xbe087ec3	-0.13329606
255	0xbd374545	-0.044743795

dense2.0.bn1.weight f4 [48]
0	0x3f3c6c13	0.7360241
1	0x3f4fcb1f	0.81169313
2	0x3f7d5596	0.9895872
3	0x3f70d4c1	0.94074637
4	0x3f55b599	0.8348022
5	0x3f0930d7	0.5359015
6	0x3f873b56	1.0564983
7	0x3f7bdab1	0.9838057
8	0x3f45048b	0.7696006
9	0x3f3b0268	0.73050547
10	0x3f409800	0.75231934
11	0x3f34038f	0.7031793
12	0x3ee2db16	0.44307774
13	0x3f31059d	0.6914919
14	0x3f430ba6	0.7618965
15	0x3f58898f	0.845849
16	0x3f5c7692	0.86118424
17	0x3f5ff7ee	0.87487686
18	0x3f32be7c	0.69821906
19	0x3f7285ae	0.9473523
20	0x3f4426d6	0.7662176
21	0x3f8e47a6	1.1115615
22	0x3f07a3f2	0.52984536
23	0x3f8f772f	1.1208247
24	0x3f5e9bbd	0.8695639
25	0x3f8d386f	1.1032847
26	0x3f74bd6f	0.9560155
27	0x3f3b1e5d	0.73093206
28	0x3f1d9d9a	0.61568606
29	0x3f98e95a	1.1946213
30	0x3f361679	0.7112804
31	0x3f6a8156	0.916036
32	0x3fb42e97	1.4076718
33	0x3f6a488f	0.91516966
34	0x3f6af2e9	0.917769
35	0x3ef26eae	0.47350067
36	0x3f00089a	0.50013125
37	0x3f7109b3	0.94155425
38	0x3f68b423	0.90899867
39	0x3f4039f7	0.7508845
40	0x3f65361e	0.895357
41	0x3f8d4d04	1.1039128
42	0x3f214d89	0.63008934
43	0x3fa8894e	1.3166902
44	0x3f5e2048	0.8676801
45	0x3f81cf0d	1.0141312
46	0x3f289f04	0.6586764
47	0x3f84f314	1.0386682

dense2.0.bn1.bias f4 [48]
0	0xbf0a9c39	-0.54144627
1	0x3e66199a	0.22470704
2	0xbea45598	-0.32096553
3	0xbec4966f	-0.38396022
4	0x3efa5334	0.48891604
5	0x3c4c0318	0.0124519095
6	0x3ddae720	0.10688615
7	0xbe4986a3	-0.19680266
8	0xbe2df648	-0.1698848
9	0xbea28349	-0.31740788
10	0x3f8fe3d7	1.1241406
11	0xbe947b7c	-0.2900046
12	0xbdfe3e82	-0.12414266
13	0x3d7744b6	0.060368262
14	0xbd965bfd	-0.07341764
15	0xbe46738f	-0.1938002
16	0xbe0aec94	-0.1356681
17	0x3dd4bac7	0.103871875
18	0xbed894a3	-0.423009
19	0x3ca3aca8	0.01997979
20	0xbf1eccc4	-0.620312
21	0x3d28e5b3	0.041234683
22	0x3f3cb316	0.73710763
23	0xbe886983	-0.26643
24	0xbee0cb8c	-0.43905294
25	0x3e838323	0.25685987
26	0xbf367f5e	-0.71288097
27	0xbea8ea3a	-0.329912
28	0xbe8b0fc4	-0.27160466
29	0x3d2f1d49	0.042752538
30	0x3ecefde4	0.40428078
31	0xbe94375c	-0.28948486
32	0x3f84858d	1.0353256
33	0xbf4c457a	-0.7979351
34	0xbf0b15cf	-0.5433015
35	0xbe21ad85	-0.15788849
36	0xbe6ff1f8	-0.23432148
37	0xbd9ea7a7	-0.07746821
38	0xbe8bff24	-0.27343094
39	0x3f442ce0	0.76630974
40	0xbe0132fb	-0.12617104
41	0xbee4cacc	-0.44685972
42	0xbe710025	-0.23535211
43	0xbd45e135	-0.048310477
44	0x3c04fdae	0.008117123
45	0x3e904141	0.28174785
46	0x3e5c5824	0.21517998
47	0xbeb2e623	-0.34941205

dense2.0.conv1.weight f4 [12, 48, 3, 3]
0	0x3d46ece7	0.04856577
1	0xbe6152ba	-0.22004214
2	0xbec5e18e	-0.38648647
3	0xbdd89475	-0.10575191
4	0xbcf389ce	-0.029728796
5	0xbe17acb4	-0.14811975
6	0xbe4d0455	-0.20021184
7	0xbb02acc1	-0.0019939395
8	0xbeca9c1b	-0.39572224
9	0xbda82bd5	-0.08211485
10	0xbdcbc0e2	-0.09948899
11	0xbd9d559b	-0.076823436
12	0xbc79add9	-0.015239202
13	0xbcb499cd	-0.022045994
14	0x3c34a001	0.011024476
15	0x3e6eb3c8	0.23310769
16	0x3e07d053	0.13263063
17	0x3e27dfb7	0.16393934
18	0x3e4d0aee	0.200237
19	0x3d4af121	0.049546365
20	0x3e935a13	0.2877966
21	0xbe75e3f9	-0.24012746
22	0xbea3e041	-0.3200703
23	0x3d85242c	0.0650104
24	0x3e03f23e	0.12885377
25	0xbe03bc5a	-0.12864819
26	0x3d4666d4	0.04843791
27	0x3ef60f2e	0.48058456
28	0x3e81315f	0.2523298
29	0xbe1377ec	-0.14401215
30	0x3ea1e509	0.31620052
31	0x3d7a0723	0.061041962
32	0xbeb88f96	-0.36047047
33	0x3e9f9e5a	0.311755
34	0x3db04f7e	0.08608912
35	0xbe9e1b14	-0.30880034
36	0xbef3add1	-0.4759355
37	0xbeaa294d	-0.33234635
38	0x3ea1ef6f	0.31627986
39	0xbec89738	-0.3917787
40	0xbdf7fa9f	-0.12108349
41	0x3f042924	0.51625276
42	0xbede9363	-0.43471822
43	0xbeb4e6c8	-0.35332322
44	0x3eba2ddf	0.36363122
45	0x3dd806f7	0.105482034
46	0xbe29afaa	-0.16570917
47	0xbdfc5bcf	-0.123221986
48	0x3d473e74	0.048643544
49	0xbdd82c5f	-0.10555338
50	0xbcac060c	-0.020998977
51	0x3d3be2ee	0.045870714
52	0xbd12f72e	-0.03588026
53	0xbd163664	-0.036672965
54	0xbe4db60d	-0.20088978
55	0x3e69433a	0.22779551
56	0x3e30b470	0.17256331
57	0xbec1e897	-0.37872764
58	0x3d5ccd1b	0.05390654
59	0x3e42d9b9	0.19028367
60	0xbe4575ba	-0.1928319
61	0xbd54b4aa	-0.051930107
62	0x3db851d5	0.08999983
63	0xbe91cae8	-0.28475118
64	0xbd9f9930	-0.0779289
65	0xbe3ace85	-0.18242843
66	0x3d9305ef	0.07178866
67	0xbd947a99	-0.07249946
68	0xbdb199cd	-0.08671913
69	0xbe34156a	-0.17586294
70	0xbdd1e9ee	-0.10249697
71	0xbe0ba8fe	-0.13638684
72	0xbe1b8816	-0.15188631
73	0x3d1408e1	0.03614128
74	0xbe476912	-0.19473675
75	0x3e424726	0.18972453
76	0xbd16c08e	-0.03680473
77	0xbe2e05aa	-0.16994348
78	0x3ea6b342	0.32558638
79	0xbd07201f	-0.032989617
80	0xbeb095ea	-0.34489375
81	0x3e3c9294	0.1841529
82	0x3de98474	0.114022166
83	0xbe976372	-0.29568058
84	0x3e9b1435	0.30288854
85	0x3eb3620f	0.3503575
86	0xbf045b58	-0.5170188
87	0x3e5fa0f7	0.21838747
88	0x3d27d2eb	0.04097263
89	0xbf14ad3b	-0.5807683
90	0xbe70d0e7	-0.2351719
91	0xbd8e7f7b	-0.06957909
92	0x3e7e747e	0.24849126
93	0xbee38ff9	-0.4444578
94	0xbe18e8a8	-0.14932501
95	0x3edd1017	0.43176338
96	0xbe9faa0b	-0.3118442
97	0xbd888c60	-0.066673994
98	0x3f2b3d5a	0.6689049
99	0x3dae1246	0.08499579
100	0xbe254b3b	-0.1614198
101	0xbe8b2743	-0.27178392
102	0x3e4987f8	0.19680774
103	0xbe016abb	-0.1263837
104	0xbea643c9	-0.3247359
105	0x3d65a89a	0.056068994
106	0xbe8c5275	-0.2740666
107	0xbee16577	-0.44022724
108	0x3e940047	0.28906462
109	0x3d6c789e	0.057732217
110	0xbe800c52	-0.250094
111	0x3e882cec	0.26596773
112	0x3d75d403	0.060016643
113	0xbe4668a8	-0.1937586
114	0x3e8cf05a	0.27527124
115	0x3e056c1a	0.13029519
116	0xbdd083a7	-0.10181361
117	0x3e3f1cc6	0.1866332
118	0xbd510568	-0.051030546
119	0xbdf73c0f	-0.12072002
120	0x3e3e52f8	0.18586338
121	0xbe26e5c2	-0.16298583
122	0xbe592c40	-0.21208286
123	0x3ed7c7dd	0.4214467
124	0x3bee00f6	0.007263298
125	0xbd0800fa	-0.033204056
126	0x3e7d141b	0.24714701
127	0x3bf42981	0.0074512367
128	0xbede8c1a	-0.43466264
129	0x3ebe9253	0.37221012
130	0x3e3db63c	0.18526548
131	0xbedb03af	-0.42776248
132	0x3e53cd25	0.20683725
133	0x3d5d9f14	0.054106787
134	0xbeb32e63	-0.34996328
135	0x3f0e5f3d	0.5561407
136	0xbe13b20b	-0.14423387
137	0xbee13348	-0.43984437
138	0x3efad7ad	0.48992673
139	0xbedf2241	-0.4358082
140	0xbf1e184b	-0.6175582
141	0x3ee8108b	0.4532512
142	0xbe6289cb	-0.22122876
143	0xbed9a29e	-0.4250688
144	0xbe474b26	-0.1946226
145	0xbd810a10	-0.063007474
146	0x3e40db55	0.18833669
147	0xbe045a8e	-0.12925169
148	0x3cbb45d9	0.022860454
149	0x3e9870a4	0.29773438
150	0xbe8c1f05	-0.27367416
151	0xbdcdfcb5	-0.10057966
152	0x3e2bd2f5	0.16779692
153	0x3e67f6a3	0.22652678
154	0xbc5162ad	-0.012779874
155	0xbe69e970	-0.22842956
156	0x3e2c71c8	0.16840279
157	0x3cb2f747	0.021846427
158	0xbe51bb7a	-0.20481673
159	0x3e52df13	0.20592909
160	0x3e366bd7	0.17814575
161	0xbde86296	-0.11346929
162	0x3db65b9b	0.08904191
163	0xbc941211	-0.018075021
164	0x3dd2bff6	0.1029052
165	0x3ddaf5e2	0.1069143
166	0xbe157006	-0.14593515
167	0xbdefe741	-0.1171403
168	0x3cbcf8dc	0.023067884
169	0xbe3a042d	-0.18165655
170	0xbe26ff2e	-0.16308281
171	0x3f2f1a42	0.6839944
172	0x3dd7af3e	0.10531472
173	0xbed985ce	-0.42484897
174	0x3eb0cf89	0.34533337
175	0xbe05e2d6	-0.13074812
176	0xbf039345	-0.5139659
177	0x3ea35501	0.3190079
178	0xbcd14996	-0.025547784
179	0xbed11f79	-0.40844324
180	0xbd36f97e	-0.044671528
181	0x3dadb9a9	0.084826775
182	0x3e15f5e0	0.14644575
183	0x3c105e42	0.008811535
184	0x3d697589	0.056996856
185	0x3d93b38d	0.07211981
186	0xbdbf2967	-0.09334069
187	0xbe7acc82	-0.24492076
188	0xbefb3ec7	-0.49071333
189	0xbeb8d6d6	-0.36101407
190	0x3cb53cc8	0.02212371
191	0x3d02eec5	0.03196599
192	0xbe91cb2d	-0.28475323
193	0x3d0f8d19	0.03504667
194	0x3e82c18c	0.2553829
195	0xbe329626	-0.1744009
196	0x3d630be0	0.055431247
197	0x3ceb8acc	0.028752707
198	0xbd29559a	-0.0413414
199	0xbd7c3bb1	-0.061580364
200	0x3b97d7e5	0.004633891
201	0xbe3a7594	-0.18208915
202	0xbdb4e1e7	-0.0883215
203	0x3de7d883	0.11320593
204	0xbe1d3351	-0.15351607
205	0xbd837682	-0.06419088
206	0x3e69abd5	0.22819455
207	0xbd0aafb0	-0.033858955
208	0xbe5774f4	-0.21040708
209	0xbcb2ff31	-0.0218502
210	0x3d3e97c2	0.046531446
211	0xbe41dfb4	-0.18932992
212	0xbe1012d1	-0.14069678
213	0x3d5ab882	0.053398617
214	0xbdb46016	-0.088073894
215	0xbe1a1dee	-0.1505048
216	0xbd317c67	-0.04333153
217	0xbdc27dc6	-0.09496646
218	0xbe0fce71	-0.14043595
219	0x3d92706a	0.071503475
220	0x3d8ee209	0.069767065
221	0xbe98ee7d	-0.29869452
222	0x3e8c3eb4	0.2739159
223	0x3e0fc327	0.14039288
224	0xbea8a9da	-0.32942086
225	0xbec38c7b	-0.38193116
226	0xbe42e37a	-0.19032088
227	0x3e85815f	0.26075265
228	0xbed884e0	-0.42288876
229	0xbe3a3c61	-0.18187095
230	0x3e945d05	0.28977218
231	0xbed7a7a5	-0.4212009
232	0xbe3dd6a4	-0.1853891
233	0x3db1dffc	0.086853
234	0x3ccb1a4b	0.02479281
235	0x3ca9c8e6	0.020725679
236	0x3ea03cb4	0.31296313
237	0xbe85ed80	-0.2615776
238	0xbe08a3e0	-0.13343763
239	0x3e4e107c	0.20123476
240	0xbe34d772	-0.17660311
241	0xbd9c4915	-0.07631127
242	0x3e6db989	0.23215307
243	0xbe16bd78	-0.14720714
244	0xbe170089	-0.14746298
245	0x3e5d94a9	0.2163874
246	0xbe355303	-0.17707448
247	0xbe4bfeed	-0.19921465
248	0x3e3f9971	0.18710877
249	0x3e31f666	0.1737915
250	0xbd8f569b	-0.069989406
251	0x3d5b1fde	0.053497188
252	0xbdd0f283	-0.102025054
253	0x3cb6d40e	0.022317912
254	0x3e020c51	0.12700011
255	0xbcb3dd5e	-0.021956142

dense2.1.bn1.weight f4 [60]
0	0x3f2956c6	0.6614803
1	0x3f6ab692	0.9168483
2	0x3f8a5591	1.0807363
3	0x3f7ab7fd	0.97936994
4	0x3f1387b2	0.5762893
5	0x3f025cda	0.5092293
6	0x3f5b6e55	0.8571523
7	0x3f7340e9	0.9502092
8	0x3f13b620	0.57699776
9	0x3ef07f07	0.46971914
10	0x3f605c13	0.87640494
11	0x3f5e195a	0.86757433
12	0x3f80dfe3	1.0068325
13	0x3f628cd2	0.88496125
14	0x3f1e3e0a	0.61813414
15	0x3f3aeb98	0.7301574
16	0x3f142b02	0.57878125
17	0x3f4ca85f	0.79944414
18	0x3f221e9e	0.6332797
19	0x3f3b1064	0.73071885
20	0x3ef7740e	0.4833073
21	0x3f4502fe	0.7695769
22	0x3ebdb759	0.37053946
23	0x3f546bea	0.82977164
24	0x3f2d500f	0.67700285
25	0x3f25f462	0.64826024
26	0x3f89e457	1.0772809
27	0x3fa4216b	1.2822698
28	0x3f3e740c	0.74395823
29	0x3f17d9b3	0.5931656
30	0x3f6df3d3	0.9295017
31	0x3f630a90	0.8868799
32	0x3f1ea97e	0.61977375
33	0x3f6f6387	0.9351124
34	0x3f8020db	1.0010027
35	0x3f4b4303	0.79399127
36	0x3f33c02f	0.70215124
37	0x3f4d63a0	0.8023014
38	0x3f6fc5f2	0.93661416
39	0x3f643759	0.89146954
40	0x3f946209	1.1592418
41	0x3f6e0e57	0.9299063
42	0x3f2e1eb3	0.68015593
43	0x3f4cca3d	0.7999609
44	0x3f96a82b	1.1770071
45	0x3f641ecb	0.89109486
46	0x3ef9cf9f	0.48791215
47	0x3f844849	1.033456
48	0x3f94b3b4	1.1617341
49	0x3f3fd66c	0.74936557
50	0x3f02f739	0.5115848
51	0x3f648ecf	0.8928041
52	0x3f8c2e47	1.0951623
53	0x3f62aabb	0.88541764
54	0x3f728549	0.94734627
55	0x3f1676a3	0.58774775
56	0x3f9bd0e3	1.2173122
57	0x3f459b27	0.7718987
58	0x3fa3ef74	1.280745
59	0x3f45392e	0.77040374

dense2.1.bn1.bias f4 [60]
0	0xbf3c849e	-0.7363986
1	0x3dde3d56	0.10851543
2	0xbe997d01	-0.29978183
3	0xbf1e4169	-0.6181856
4	0x3ef8537e	0.485012
5	0xbe3fe1ea	-0.18738523
6	0xbe3afdb6	-0.18260846
7	0xbe985105	-0.29749313
8	0x3cc716a1	0.024302782
9	0xbe277eed	-0.16357012
10	0x3edb5f64	0.42846215
11	0xbed29209	-0.4112704
12	0xbf3db44d	-0.7410324
13	0xbc76ef30	-0.015071675
14	0x3de6965a	0.11259146
15	0xbeaed395	-0.341458
16	0xbe1467e3	-0.14492755
17	0xbb874544	-0.00412813
18	0xbeaec3b0	-0.34133673
19	0x3db02c39	0.08602185
20	0xbf3edb2b	-0.74553174
21	0xbdb020d7	-0.08600014
22	0x3f56e91f	0.83949465
23	0xbee9daf8	-0.45674872
24	0xbe954f83	-0.29162225
25	0x3e516db0	0.20451999
26	0xbe8e798b	-0.27827105
27	0xbec549a6	-0.38532752
28	0xbd840229	-0.064457245
29	0x3ef59915	0.47968355
30	0x3ea82032	0.32837063
31	0xbe964cb7	-0.29355404
32	0x3f2159c6	0.6302761
33	0xbef56997	-0.4793212
34	0xbed7a97b	-0.4212149
35	0xbe91123f	-0.28334233
36	0xbef495a4	-0.47770417
37	0xbe82029a	-0.2539261
38	0xbe603708	-0.21895993
39	0xbe68ee37	-0.22747122
40	0xbf1f28ed	-0.6217182
41	0xbed2e494	-0.41190016
42	0xbe9867de	-0.29766744
43	0x3e8be988	0.27326608
44	0xbf324d97	-0.6964964
45	0x3a616fcc	0.0008599728
46	0x3d44cec0	0.048048735
47	0xbe944981	-0.2896233
48	0xbcb2896b	-0.021794042
49	0xbe51d2e1	-0.204906
50	0x3eb291b4	0.34876788
51	0xbee25a62	-0.44209582
52	0xbe24172c	-0.16024464
53	0x3e0943cd	0.1340477
54	0xbde8edbf	-0.113734715
55	0x3f41f2b4	0.7576096
56	0x3e077ea1	0.13231899
57	0x3cb0b34e	0.021569874
58	0x3e312288	0.17298329
59	0xbe358024	-0.17724663
