fedmd_results_1000.0/client28/checkpoint_1000.0.pth (torch, 420839 bytes, 98 tensors)

conv1.0.weight f4 [16, 3, 3, 3]
0	0x3d76722d	0.06016748
1	0xbde01b68	-0.10942727
2	0x3eb8d3eb	0.3609918
3	0xbea9233d	-0.33034697
4	0xbf536fdc	-0.8259256
5	0xbe86c35b	-0.2632092
6	0xbded273e	-0.115797505
7	0xbf2377c5	-0.6385463
8	0xbe0a610a	-0.1351358
9	0x3d04e3ce	0.032443814
10	0xbe9d1206	-0.30677813
11	0x3d2bb44c	0.04191999
12	0xbd1799f0	-0.03701204
13	0xbf226feb	-0.63452023
14	0xbe397d85	-0.18114288
15	0x3ed1c9d0	0.40974283
16	0xbe3faed4	-0.18719035
17	0x3e6d613b	0.23181622
18	0xbc89bb61	-0.016812982
19	0xbdc3c6f4	-0.09559432
20	0x3e580fd3	0.21099786
21	0xbea561e9	-0.32301262
22	0xbf231aff	-0.6371307
23	0xbe49121e	-0.19635817
24	0xbe759fd6	-0.23986754
25	0xbf121d17	-0.5707564
26	0xbe12e688	-0.14345753
27	0xbf1f402a	-0.6220728
28	0xbf13f61e	-0.5779742
29	0xbf123bf0	-0.5712271
30	0xbf82c49c	-1.021625
31	0xbf7f4634	-0.99716496
32	0xbf620443	-0.8828775
33	0xbf88e47e	-1.069473
34	0xbfa25efa	-1.2685235
35	0xbf87b060	-1.06007
36	0x3f61e152	0.88234437
37	0x3f858f7b	1.0434412
38	0x3f52000a	0.8203131
39	0x3f6f8dac	0.9357555
40	0x3f97449d	1.1817814
41	0x3f830fd7	1.0239209
42	0x3f5a4240	0.8525734
43	0x3f5de8a7	0.86683124
44	0x3f42d1a0	0.7610111
45	0xbe673bf8	-0.2258147
46	0xbe31db2d	-0.17368765
47	0xbeb944ce	-0.36185306
48	0x3d825138	0.063631475
49	0x3e68f10f	0.22748207
50	0x3c7c53ef	0.015400871
51	0x3e7b3250	0.24530911
52	0x3e64a6a9	0.22329201
53	0x3d223724	0.039603367
54	0xbea33afe	-0.31880945
55	0x3ea456b7	0.32097408
56	0xbea00021	-0.31250098
57	0xbe2ef410	-0.1708529
58	0x3f5e3512	0.8679973
59	0xbf07e01a	-0.53076327
60	0x3eb0d6c0	0.3453884
61	0x3f8a6f17	1.0815152
62	0xbf4abf02	-0.79197705
63	0xbed2de2a	-0.41185123
64	0x3f24fc93	0.644479
65	0xbf4ce3f7	-0.80035347
66	0xbe6ec79f	-0.23318337
67	0x3f9391db	1.1528887
68	0xbf977b25	-1.1834456
69	0x3e2b28ad	0.16714735
70	0x3f9a60c0	1.2060776
71	0xbfc5b195	-1.5444819
72	0xbe765ffe	-0.24060056
73	0x3ede62ea	0.4343484
74	0xbe7dc00c	-0.24780291
75	0xbd195062	-0.037430175
76	0x3f833028	1.0249071
77	0xbf27eb5f	-0.6559352
78	0x3e952dba	0.2913645
79	0x3f81859c	1.0118899
80	0xbf91884f	-1.1369723
81	0x3e12ddab	0.14342372
82	0xbd436f00	-0.04771328
83	0x3da2ae5f	0.07943415
84	0x3d4849a5	0.048898358
85	0xbd896405	-0.0670853
86	0x3e1ab403	0.15107732
87	0x3ec2aebe	0.38023943
88	0x3e39fa9c	0.18162006
89	0x3ef30bbc	0.4746989
90	0xbf2e022a	-0.6797205
91	0xbf772598	-0.9654174
92	0xbf30c3ee	-0.69048965
93	0xbf8533e2	-1.0406458
94	0xbfaccc26	-1.3499801
95	0xbf8874cc	-1.0660644
96	0xbf57a648	-0.842381
97	0xbfa05b78	-1.2527914
98	0xbf727365	-0.9470733
99	0x3f4f74de	0.810377
100	0x3f6ec7b7	0.9327349
101	0x3f6d4c94	0.92694974
102	0x3f69d5b5	0.91341716
103	0x3f8eb86f	1.1150035
104	0x3f808300	1.0039978
105	0x3f5bd59a	0.85872805
106	0x3f6445bc	0.89168906
107	0x3f4352ab	0.76298016
108	0xbf11f2d8	-0.57011175
109	0x3ddb972d	0.10722194
110	0x3ebb7db1	0.36619332
111	0x3faccd51	1.3500158
112	0xbd16bb28	-0.03679958
113	0xbf8c9aa6	-1.0984695
114	0x3ff1ab88	1.8880472
115	0xbf3d4450	-0.7393236
116	0xbfceab4b	-1.6146024
117	0xbeba93d6	-0.36440915
118	0x3c4cd2f5	0.012501468
119	0x3dc079df	0.09398245
120	0x3fd56f67	1.6674622
121	0xbcaf5659	-0.021403478
122	0xbfa22eae	-1.2670496
123	0x40121f59	2.2831633
124	0xbf18ecd5	-0.59736377
125	0xbfc9bfcc	-1.5761657
126	0xbec556a5	-0.38542667
127	0xbcfd48ab	-0.03091844
128	0x3ebc0398	0.36721492
129	0x3fc3fe84	1.5312047
130	0xbe214740	-0.15749836
131	0xbf8b1f0c	-1.086885
132	0x4005b9fb	2.0894763
133	0xbf4d8dee	-0.8029469
134	0xbfca30ec	-1.579618
135	0x3ca84727	0.02054174
136	0x3d7c2ea5	0.06156792
137	0x3c382f20	0.011241704
138	0x3eb7f4cc	0.35928953
139	0x3f1881bb	0.59572953
140	0x3ecc3a20	0.39888096
141	0x3dadd6d5	0.084882416
142	0x3eac86ab	0.33696494
143	0x3e6f658b	0.2337858
144	0xbde5dff5	-0.11224357
145	0xbdbc992c	-0.09208903
146	0xbddc41f0	-0.10754764
147	0x3e861940	0.2619114
148	0x3ef249c5	0.47321907
149	0x3e988387	0.29787847
150	0xbd3f8df4	-0.046766236
151	0x3e27d62c	0.16390294
152	0x3da2df72	0.07952775
153	0x3d21bb4b	0.039485257
154	0x3b316974	0.0027070912
155	0x3c134aac	0.008989971
156	0x3ec424d4	0.38309348
157	0x3f0a8bed	0.5411976
158	0x3ed73ea1	0.4203997
159	0xbe159932	-0.1460922
160	0x3c3e9c9a	0.011634016
161	0xbc0ac806	-0.008470541
162	0x3f115490	0.5676966
163	0x3f10d261	0.5657101
164	0x3e68f5d4	0.22750026
165	0x3f6ca6ed	0.9244221
166	0x3f926be6	1.1439178
167	0x3f4d5e14	0.80221677
168	0x3f15e006	0.5854496
169	0x3f7ea6d8	0.99473333
170	0x3f316e76	0.69309175
171	0x3d26ab07	0.040690448
172	0xbdc6f82b	-0.09715303
173	0x3bce3fa2	0.0062942067
174	0xbe0a0b6c	-0.1348092
175	0xbe8cb590	-0.2748227
176	0xbdd6cecf	-0.10488664
177	0xbebdf495	-0.37100664
178	0xbebc6e1d	-0.3680276
179	0xbe097265	-0.13422544
180	0xbeef27ac	-0.46709955
181	0xbf0e7199	-0.55642086
182	0xbe913434	-0.2836014
183	0xbf2f01d9	-0.68362194
184	0xbf7118a0	-0.941782
185	0xbf07e2e6	-0.53080595
186	0xbf367699	-0.71274716
187	0xbf6796ba	-0.90464365
188	0xbede8d9c	-0.43467414
189	0xbf930179	-1.1484824
190	0x3f4ffc83	0.8124468
191	0x3f978870	1.1838512
192	0x3f84d1e0	1.0376549
193	0x3fb50a3d	1.414375
194	0x3f1171e0	0.56814384
195	0xbbd2d0d5	-0.006433586
196	0xbfe06a77	-1.753249
197	0xc022d20f	-2.544071
198	0xbf73ffbe	-0.95312107
199	0x3f59c909	0.8507238
200	0x3fab4450	1.3380222
201	0x3f89df56	1.0771282
202	0x3fb46c61	1.4095575
203	0x3f455ec2	0.77097714
204	0xbe13c15c	-0.1442923
205	0xbff1f103	-1.8901676
206	0xc01a068a	-2.406649
207	0xbfb9b37a	-1.4507897
208	0x3ca4adfc	0.020102493
209	0x3f113378	0.5671916
210	0x3f8043ab	1.0020651
211	0x3fa937c8	1.3220148
212	0x3f576b37	0.8414797
213	0x3ed72d1e	0.4202661
214	0xbf847505	-1.0348212
215	0xbfb34510	-1.4005451
216	0x3f161c20	0.58636665
217	0x3f4ddd7f	0.804161
218	0x3ef5692f	0.4793181
219	0x3f5cbee4	0.86228776
220	0x3fa4a9b4	1.2864289
221	0x3f56d86c	0.83923984
222	0x3f0d94b6	0.5530504
223	0x3f7aaa7b	0.9791638
224	0x3eeb4f32	0.4595886
225	0xbf837a3f	-1.0271682
226	0xbf98215c	-1.188518
227	0xbf8312b2	-1.024008
228	0xbfb15ff2	-1.3857405
229	0xbfbcddd9	-1.4755203
230	0xbfa38f6b	-1.2778143
231	0xbf9d5769	-1.22923
232	0xbf9fb79e	-1.247791
233	0xbf8538ff	-1.0408019
234	0x3ed2933c	0.41127956
235	0x3efcb3e6	0.49356002
236	0x3ed8d478	0.423496
237	0x3ed27400	0.41104126
238	0x3f28551f	0.65754884
239	0x3f1129a0	0.5670414
240	0x3e7fedab	0.24993007
241	0x3efed930	0.49775076
242	0x3ec2a43c	0.38015926
243	0xbf10343d	-0.5632971
244	0xbfb1d781	-1.3893892
245	0xbf45a77f	-0.77208704
246	0xbf248390	-0.6426325
247	0xbf1f7fb5	-0.6230424
248	0xbf0741d1	-0.528348
249	0x3f94c106	1.1621406
250	0x40010014	2.0156298
251	0x3f94a8ca	1.161401
252	0xbef67b96	-0.48141164
253	0xbfade343	-1.358498
254	0xbf29a36c	-0.66264987
255	0xbf0c2994	-0.54750943

conv1.1.weight f4 [16]
0	0x3fdd2c60	1.7279167
1	0x3fcc9ef0	1.5986004
2	0x3fdb01fd	1.7109982
3	0x3fd13b3b	1.6346201
4	0x400a0473	2.1565216
5	0x3fb0db2c	1.3816886
6	0x3fcd85f1	1.6056501
7	0x401008d3	2.2505386
8	0x3fad46f6	1.353728
9	0x3fe237c0	1.7673264
10	0x3fd49fb6	1.661124
11	0x3fd7a11f	1.6846045
12	0x3fbe4792	1.4865592
13	0x3fcba320	1.5909157
14	0x3fc64c55	1.5492045
15	0x3fdb5771	1.713606

conv1.1.bias f4 [16]
0	0xbdd30f56	-0.103056595
1	0x3f2a00e7	0.66407627
2	0x3f845940	1.0339737
3	0x3efb0f23	0.49034986
4	0xbe4be94f	-0.19913219
5	0x3ee039bf	0.43794057
6	0x3f036832	0.51330864
7	0xbe308e96	-0.17241892
8	0x3f10f1b8	0.56618834
9	0xbe3a2bf1	-0.18180825
10	0x3f10d356	0.56572473
11	0xbdccbe3b	-0.09997221
12	0x3e82f77d	0.25579444
13	0x3f5d5116	0.8645185
14	0xbdaf46e0	-0.0855844
15	0x3e077a3f	0.13230227

stage2.0.branch1.0.weight f4 [16, 1, 3, 3]
0	0xbd95f66c	-0.07322392
1	0xbe0b9322	-0.13630345
2	0x3f0295e4	0.51009965
3	0x3eca6f44	0.39538014
4	0xbeda19ad	-0.42597714
5	0x3eb84d6b	0.35996565
6	0x3e43bb30	0.19114375
7	0xbf397cad	-0.72455865
8	0xbe150d91	-0.14555956
9	0x3e94b012	0.2904058
10	0xbe741e84	-0.23839766
11	0xbf2a72aa	-0.66581213
12	0xbefb5f5d	-0.49096194
13	0x3e273dfe	0.16332242
14	0x3f5140f4	0.81739736
15	0xbf27a39b	-0.6548402
16	0x3f641c2d	0.8910549
17	0x3fe878e8	1.8161898
18	0x3bf6fcb7	0.00753745
19	0xbd0f6442	-0.035007723
20	0xbcd68bbb	-0.026189676
21	0x3e4f446e	0.20240948
22	0xbfa1a7a7	-1.2629288
23	0x3f5f2293	0.8716213
24	0x3f61dee1	0.8823071
25	0xc02fd800	-2.7475586
26	0x3fef09f7	1.8674916
27	0x3e9ca631	0.30595544
28	0xbedcd8de	-0.43134207
29	0xbeab22c7	-0.3342497
30	0xbef7ece9	-0.48422936
31	0xbde86923	-0.11348178
32	0x3f0f5899	0.55994564
33	0xbef16346	-0.47146052
34	0x3f22e126	0.636248
35	0x3fbc414e	1.470743
36	0x3c2e3018	0.010631584
37	0x3df2402d	0.11828647
38	0x3db75f45	0.08953718
39	0x3f0901b3	0.5351822
40	0x3f442d79	0.76631886
41	0x3f0af795	0.5428403
42	0x3e3ff51c	0.18745846
43	0x3f17a2ac	0.5923259
44	0x3f8b2f88	1.087388
45	0xbd115656	-0.035482727
46	0xbe6f6a73	-0.23380451
47	0xbf22001e	-0.6328143
48	0xbca955f6	-0.020670872
49	0x3ec871be	0.39149278
50	0x3e109ab5	0.14121516
51	0xbe89a9ab	-0.2688726
52	0x3f11ff81	0.57030493
53	0x3f7d436c	0.98931
54	0xbf0c986f	-0.54920095
55	0x3f0d9c34	0.5531647
56	0x3f69cfee	0.913329
57	0x3daf8368	0.08569986
58	0xbf0534c0	-0.52033615
59	0xbf7c9027	-0.9865746
60	0x3f62a188	0.8852773
61	0xbf0c7f33	-0.5488159
62	0xbfa197b4	-1.2624421
63	0xbd8a0985	-0.06740097
64	0x3da37381	0.07981015
65	0x3ec71f45	0.38891044
66	0x3edb42a9	0.42824295
67	0x3f91f301	1.1402284
68	0x3f4c6f33	0.79857177
69	0x3ee29114	0.4425131
70	0x3f983be3	1.1893276
71	0x3f38fe68	0.72263193
72	0xbec8874c	-0.39165723
73	0x3e8e9983	0.27851495
74	0x3f31eff5	0.6950677
75	0x3f03fe19	0.515596
76	0x3cca879d	0.024722869
77	0xbf0a8c85	-0.54120666
78	0x3f6d98d1	0.92811304
79	0xbf4355aa	-0.7630259
80	0xbff7bd0b	-1.9354566
81	0x3e9b221c	0.3029946
82	0xbdf082ee	-0.11743723
83	0xbf1b4a1b	-0.6065995
84	0x3ea707ea	0.32623225
85	0xbf694b46	-0.91130483
86	0xbfa3b38d	-1.278917
87	0x3cd0cddf	0.025488792
88	0xbfa5e953	-1.296183
89	0xbf90fa08	-1.1326303
90	0x3d9e1c1d	0.07720206
91	0x3f9794f7	1.1842335
92	0xbfb55cf4	-1.4168992
93	0xbfe24b18	-1.7679167
94	0x3f1fa690	0.6236353
95	0x3fa736f3	1.3063644
96	0x3fbbb041	1.4663163
97	0xbfe52f85	-1.7905127
98	0x3e82db03	0.25557718
99	0xbdb8c299	-0.090214916
100	0x3d5c7064	0.05381812
101	0x3dc4abe5	0.09603099
102	0xbf0d8033	-0.5527374
103	0xbf3a012d	-0.72658044
104	0xbe9782d4	-0.29592
105	0xbef664fa	-0.48123914
106	0xbf43096d	-0.7618626
107	0xbf53ad74	-0.82686543
108	0x3c281ca0	0.010260731
109	0xbd206c76	-0.039165936
110	0x3c71ee32	0.014766263
111	0x3e3af9a8	0.18259299
112	0x3e2d3d0f	0.16917823
113	0x3e3de343	0.18543725
114	0x3ac6914c	0.0015149503
115	0x3c9e9ede	0.019362863
116	0x3d4f70c0	0.050644636
117	0x3f4f3a9a	0.80948794
118	0x3d826b5e	0.06368135
119	0xbf10e80c	-0.56604075
120	0x3f8e5500	1.111969
121	0x3d9b4d2f	0.07583081
122	0xbf591fdc	-0.8481424
123	0x3eec8e3c	0.46202266
124	0xbe9978c1	-0.2997494
125	0xbf580253	-0.84378546
126	0xbeb5c6eb	-0.35503325
127	0x3f2480e1	0.64259154
128	0x3f67c1aa	0.9052988
129	0x3ef0ffa1	0.4707003
130	0xbd50601b	-0.050872903
131	0xbefd3b7d	-0.49459448
132	0x3f1d0811	0.61340433
133	0xbf8522b2	-1.0401213
134	0xbfc3fa84	-1.5310826
135	0xbd058341	-0.032595877
136	0x3e1ae14b	0.15125005
137	0x3e1636e0	0.1466937
138	0x3e1734c8	0.14766228
139	0xbf0b1d9f	-0.54342073
140	0xbf5fd0c8	-0.8742795
141	0x3f21c594	0.63192105
142	0xbee35abf	-0.4440517
143	0xbf5ded25	-0.8668998

stage2.0.branch1.1.weight f4 [16]
0	0x3fa969ae	1.3235376
1	0x3fc88ab4	1.5667329
2	0x3fe9cb87	1.8265237
3	0x3fd1cab3	1.6389984
4	0x3fbfe18d	1.4990708
5	0x3fad7706	1.3551948
6	0x3fd2d3fa	1.647094
7	0x3fa8712d	1.3159539
8	0x3fe71940	1.8054581
9	0x3fa6fb92	1.3045523
10	0x40118fb0	2.274395
11	0x3fc02bb0	1.5013332
12	0x3ed094fa	0.4073866
13	0x3f7a2b9b	0.97722787
14	0x3fcae6fe	1.5851743
15	0x3fbfeda7	1.4994401

stage2.0.branch1.1.bias f4 [16]
0	0x3db19614	0.08671203
1	0xbec8bfb6	-0.39208764
2	0x3f7bb54f	0.9832353
3	0x3e087144	0.13324457
4	0xbeacee68	-0.3377564
5	0xbde3e04f	-0.11126768
6	0x3fb3c451	1.4044286
7	0xbeda2d8e	-0.4261288
8	0xbe1dc734	-0.15408021
9	0x3f3f1dde	0.7465495
10	0xbf894614	-1.0724511
11	0x3e6b01de	0.22949931
12	0xbe20f9af	-0.15720247
13	0xbec1df6a	-0.37865764
14	0xbebd15f1	-0.36930802
15	0x3e29576f	0.1653726

stage2.0.branch1.2.weight f4 [16, 16, 1, 1]
0	0x3e2011a0	0.15631723
1	0x3f3aacb9	0.72919804
2	0x3e14e4ba	0.14540377
3	0x3f84503d	1.0336987
4	0xbec16e6d	-0.3777956
5	0x3eed00d0	0.46289682
6	0x3f21545e	0.6301936
7	0x3ee8e364	0.45485985
8	0x3ed857c0	0.42254448
9	0xbf537fbb	-0.82616776
10	0x3e219d15	0.15782578
11	0xbd6af83d	-0.057365645
12	0xbe5b72dc	-0.21430534
13	0xbef78bf3	-0.4834896
14	0xbfb9fc2b	-1.453008
15	0x3f9b8020	1.2148476
16	0xbf52158d	-0.82064134
17	0xbe4f08ec	-0.20218247
18	0x3c579b70	0.013159618
19	0x3d8670ba	0.0656447
20	0xbdc681aa	-0.096927
21	0xbe8d0d93	-0.2754942
22	0x3d787043	0.060653936
23	0x400c05e6	2.18786
24	0xbd99e1f0	-0.07513797
25	0xbf4fef9c	-0.8122499
26	0xbe3cd7ce	-0.18441698
27	0x3ccc9ac3	0.02497614
28	0xbc38b4f6	-0.011273613
29	0x3e3586e6	0.17727241
30	0x3eb3f8cf	0.35150763
31	0xbdd09ac7	-0.101857714
32	0x3c467a71	0.012114153
33	0x3f0652fe	0.52470386
34	0x3e31595c	0.17319244
35	0xbf967de7	-1.1757172
36	0x3cd2d4c1	0.025736215
37	0xbecaf2ff	-0.39638516
38	0xbf1dca8a	-0.61637175
39	0x3e4e0075	0.20117362
40	0x4001dbc1	2.0290377
41	0x3c0b421b	0.0084996475
42	0x3ce2acd3	0.0276703
43	0x3e50a3fb	0.20375054
44	0x3e762b11	0.24039866
45	0x3d1b9cab	0.037991207
46	0x3e8049d4	0.25056326
47	0xbf84a1f9	-1.036193
48	0xbe3b1064	-0.18267971
49	0xbf8f25f5	-1.1183459
50	0xbd7d10fa	-0.06178377
51	0xbf40ef2f	-0.75364965
52	0x3cc52fb2	0.024070594
53	0xbf8d6c2c	-1.1048636
54	0xbf80cce5	-1.0062529
55	0x3cb0b738	0.02157174
56	0x3e84a6d5	0.25908533
57	0x3f04832e	0.51762664
58	0x3b7aa8f2	0.0038247672
59	0x3e1b13f4	0.1514433
60	0xbc5ccd02	-0.013476612
61	0x3e0a07d5	0.1347955
62	0x3bd0c557	0.006371181
63	0x3f782005	0.9692386
64	0x3eef307d	0.4671668
65	0x3df5f4f5	0.120096125
66	0xbe46ce8a	-0.19414726
67	0x3eb071b3	0.34461746
68	0x3f3be115	0.7339032
69	0x3ebb67fe	0.36602777
70	0x3ec2d3f4	0.38052332
71	0xbe05ae80	-0.13054848
72	0xbdebf90c	-0.11522111
73	0x401420f5	2.3145115
74	0x3ea13d88	0.31492257
75	0xbeb28368	-0.3486588
76	0xbe3aa9a1	-0.18228771
77	0x3e9a9b62	0.30196673
78	0xbdb30e46	-0.08742957
79	0xbd17e475	-0.037083108
80	0xbe904cd1	-0.28183606
81	0xbe6368cd	-0.22207947
82	0x3ff76e87	1.9330605
83	0xbe71799c	-0.23581547
84	0xbc1f0d82	-0.00970781
85	0xbe1b7cd7	-0.15184341
86	0x3e9516a8	0.29118848
87	0xbe6b2126	-0.22961864
88	0x3e5de9e3	0.21671252
89	0x3d135ddf	0.035978194
90	0xbe4b3c25	-0.19847162
91	0xbe8a0f58	-0.2696483
92	0x3dead300	0.11466026
93	0xbfa6f9fe	-1.3045042
94	0xbdbb1c6c	-0.091362804
95	0x3e151f77	0.14562784
96	0x3d816339	0.06317753
97	0x3d1c1b39	0.0381119
98	0x3d458d9c	0.048230752
99	0x3dc6596f	0.09685027
100	0x3da72ea1	0.08163191
101	0x3e8d671e	0.27617735
102	0xbdc1d3fe	-0.094642624
103	0xbe287363	-0.16450267
104	0x3db04331	0.08606566
105	0x3ea34163	0.31885824
106	0x402c181f	2.6889722
107	0x3e38b096	0.18036112
108	0x3d301d75	0.042996842
109	0xbd2e5e1a	-0.04257021
110	0xbd5156a3	-0.051108014
111	0x3d99afc6	0.07504229
112	0x3e5ef619	0.21773566
113	0xbfcc2733	-1.5949463
114	0xbd5a3d38	-0.05328104
115	0x3e971a97	0.29512474
116	0xbc9f1b74	-0.01942227
117	0x3f1463a9	0.5796457
118	0xbfbce982	-1.4758761
119	0x3da10e07	0.07864004
120	0xbf58bed0	-0.84666157
121	0xbe2c94c9	-0.16853632
122	0x3d0cb172	0.034348913
123	0xbdd72c9c	-0.105065554
124	0x3de774a6	0.11301546
125	0xbe235a00	-0.15952301
126	0x3f2f3f30	0.6845579
127	0xbe80c165	-0.25147548
128	0xbeeb8d81	-0.46006396
129	0x3dfaa94c	0.12239322
130	0xbe7671c4	-0.24066836
131	0xbcef9798	-0.02924709
132	0x3e444b70	0.19169402
133	0xbf6d6850	-0.92737293
134	0xbe37cca3	-0.17949156
135	0x3e307b6f	0.17234586
136	0x3f356fb8	0.70873594
137	0x3f6bbcd9	0.92085034
138	0xbdef6b78	-0.1169042
139	0x3dd34fac	0.103179306
140	0xbcac693b	-0.021046272
141	0x3e9e5518	0.30924296
142	0x3d857c3e	0.06517838
143	0xbe83eee3	-0.25768194
144	0xbe3cb163	-0.18427043
145	0xbda806a0	-0.082043886
146	0xbf2f02ea	-0.6836382
147	0xbe260ba9	-0.16215385
148	0xbeda7666	-0.42668456
149	0xbe3d74d8	-0.18501604
150	0x3de8f3ce	0.11374627
151	0x3c94fb66	0.018186282
152	0x3de846a9	0.11341602
153	0xbe650a8a	-0.22367302
154	0x3c341109	0.01099039
155	0x4021c31e	2.527534
156	0xbe836454	-0.25662482
157	0xbe5c94b6	-0.21541104
158	0xbeee5244	-0.4654714
159	0xbc5e2fc4	-0.013561193
160	0xbebd1ce8	-0.36936116
161	0xbeb66873	-0.35626563
162	0xbe8d4871	-0.2759433
163	0xbc832166	-0.016007137
164	0x3f641b28	0.8910394
165	0xbec13113	-0.37732753
166	0x3e28466a	0.16433111
167	0xbf6cd528	-0.9251275
168	0x3ea9a4d4	0.33133566
169	0xbe6f5dd9	-0.23375644
170	0xbe5ad764	-0.21371228
171	0x3deb3ac9	0.11485822
172	0xbd0ea503	-0.034825336
173	0xbf568b5d	-0.838064
174	0x3e48a240	0.19593143
175	0x3efc8c2e	0.493257
176	0xbec1dbd9	-0.37863043
177	0xbf275db3	-0.6537735
178	0x3d67125b	0.05641399
179	0x3db5e9ed	0.088825084
180	0xbd4ec01e	-0.050476186
181	0xbf2366b8	-0.6382861
182	0xbf791f41	-0.97313315
183	0xbea4884d	-0.3213524
184	0xbf0efa58	-0.55850744
185	0x3e8465e5	0.2585899
186	0xbd92f50d	-0.07175646
187	0x3de313a8	0.110877335
188	0x3d88dd40	0.06682825
189	0x3d44d20f	0.04805189
190	0x3f190ce1	0.59785277
191	0xbed9f0a8	-0.4256642
192	0xbe8bee35	-0.27330175
193	0x3f27fa51	0.6561633
194	0x3f00ba96	0.5028471
195	0x3ed93c9f	0.42429063
196	0x3e5c52ea	0.21516004
197	0x3eb61b1b	0.35567555
198	0x3f01d086	0.50708807
199	0xbe8957a8	-0.2682469
200	0x3e9a7820	0.30169773
201	0x3eaef3d4	0.341704
202	0xbc9ae5db	-0.018908432
203	0xbf093f38	-0.5361209
204	0x3e08cade	0.13358638
205	0x3d81bcec	0.06334862
206	0xbf6bb953	-0.9207966
207	0x3db7aa92	0.089680806
208	0x3f1b3416	0.6062635
209	0x3c8d2777	0.017230732
210	0xc00ba22b	-2.181773
211	0xbba4411c	-0.0050126445
212	0xbe91437b	-0.28371796
213	0x3e9c9300	0.30580902
214	0x3d5dfa2c	0.05419366
215	0xbd566c64	-0.052349463
216	0x3cf28999	0.029606627
217	0x3e266f3b	0.16253369
218	0x3c79c8c0	0.015245616
219	0xbd946f18	-0.07247752
220	0x3e67e0a4	0.22644287
221	0xbe91f88e	-0.28509945
222	0x3ce721b8	0.02821432
223	0xbe155535	-0.14583285
224	0x3ebea4a4	0.37234986
225	0xbc5a39e8	-0.01331947
226	0xbed4f432	-0.41592556
227	0x3eb655b3	0.35612258
228	0xc03061be	-2.7559657
229	0x3e2b8f16	0.16753802
230	0xbd83facd	-0.06444321
231	0x3e2637b3	0.16232185
232	0xbe695c82	-0.22789195
233	0x3c95c616	0.018282931
234	0x3d8799a4	0.066211015
235	0x3de486d4	0.11158529
236	0xbce21840	-0.027599454
237	0x3e3fe605	0.18740089
238	0x3e5b06d9	0.21389331
239	0xbe411500	-0.18855667
240	0x3e7e177b	0.24813645
241	0x3f5afed5	0.8554509
242	0x3c555b05	0.013022189
243	0xbf1e93a4	-0.6194403
244	0xbe50dcce	-0.2039673
245	0x3d8671de	0.06564687
246	0x3f588d9d	0.84591085
247	0xbe9007e4	-0.2813102
248	0x3ee283a5	0.44241062
249	0xbeae9d62	-0.3410445
250	0xbc3dd2de	-0.011585919
251	0x3df18209	0.1179238
252	0xbe038cb3	-0.12846641
253	0xbe59c8a3	-0.21267943
254	0xbf01dc79	-0.5072704
255	0xbf2b2566	-0.6685394

stage2.0.branch1.3.weight f4 [16]
0	0x3fdb3b2b	1.7127432
1	0x3fbeac30	1.4896297
2	0x40080725	2.125436
3	0x40005eb1	2.0057795
4	0x3fd6ee81	1.6791536
5	0x3ff3d00d	1.9047867
6	0x3ff57cd8	1.9178724
7	0x3fe8cd88	1.8187723
8	0x3f79a79b	0.9752137
9	0x3fa66104	1.2998357
10	0x3f838182	1.0273898
11	0x3f891ffa	1.0712883
12	0x3f5fadf2	0.87374794
13	0x3fce47cb	1.611566
14	0x3fb1928d	1.3872849
15	0x3f7abf07	0.97947735

stage2.0.branch1.3.bias f4 [16]
0	0x3d2a07b7	0.041511264
1	0x3f731dcc	0.9496734
2	0x3d4bae1f	0.0497266
3	0x3efdc50e	0.49564403
4	0x3e72ae0d	0.23699208
5	0xbeb08c91	-0.34482244
6	0xbe0b663d	-0.1361322
7	0x3e408901	0.18802263
8	0x3f001db2	0.5004531
9	0x3e8544da	0.26029092
10	0x3f1aed40	0.60518265
11	0x3e731dd3	0.23741846
12	0x3ebc68a3	0.3679858
13	0x3c13d1ec	0.009022217
14	0x3da3de20	0.08001351
15	0x3ebd0e71	0.3692508

stage2.0.branch2.0.weight f4 [16, 16, 1, 1]
0	0xbb318663	-0.0027088157
1	0xbe4dca8d	-0.20096798
2	0x3e0ae131	0.13562466
3	0x3ebdceb9	0.3707178
4	0xbdb44150	-0.0880152
5	0x3fc309e7	1.5237397
6	0x3ed292e9	0.4112771
7	0xbf0b8a2d	-0.54507715
8	0xbed4c921	-0.415597
9	0x3d8f6b2e	0.07002865
10	0x3d7d0bd8	0.061778873
11	0xbcae100f	-0.021247892
12	0x3f5a8f35	0.85374767
13	0x3f1031a0	0.5632572
14	0x3f4dd8d4	0.8040898
15	0xbea577ca	-0.32317954
16	0x3f058e47	0.52170223
17	0x3e28d93d	0.1648912
18	0xbf88b8e2	-1.0681422
19	0xbd13a59c	-0.03604661
20	0xbf56a27d	-0.8384169
21	0xbc951cb5	-0.018202165
22	0x3ed4e4ed	0.41580907
23	0x3f54a5ce	0.830655
24	0x3ec68267	0.38771364
25	0x3ed88d1e	0.42295164
26	0x3ee16204	0.44020092
27	0xbed34bce	-0.41268772
28	0x3ee2c7be	0.44293016
29	0x3ee8dd50	0.45481348
30	0x3ebf2e22	0.37339884
31	0xbd820f6d	-0.063505985
32	0x3fba9940	1.4578018
33	0xbe95e7c8	-0.29278398
34	0x3e80edd1	0.2518144
35	0xbdbdced4	-0.09267965
36	0x3e2af2b2	0.16694143
37	0xbd85ba00	-0.06529617
38	0xbf239cbd	-0.6391104
39	0x3ef421bd	0.4768199
40	0x3e0db0a7	0.13836919
41	0x3f23135f	0.6370143
42	0xbe38f671	-0.1806276
43	0xbbcb59ed	-0.0062057883
44	0x3e3a953a	0.18220988
45	0xbe04af14	-0.12957412
46	0xbe1c5497	-0.15266643
47	0x3ea5fc38	0.3241899
48	0x3f81d974	1.0144486
49	0x3dec4ed8	0.11538476
50	0x3cf22867	0.029560281
51	0x3ee813a0	0.45327473
52	0x3ea16d55	0.31528726
53	0xbcc40129	-0.023926334
54	0xbf1c2157	-0.6098837
55	0xbf0306bd	-0.51182157
56	0xbef167e9	-0.4714959
57	0xbeb016e1	-0.34392455
58	0x3e4ee6b1	0.2020519
59	0x3f012e8d	0.50461656
60	0xbe5348d7	-0.20633255
61	0xbda2a4ea	-0.07941611
62	0x3f3a55fe	0.72787464
63	0xbea10936	-0.3145234
64	0x3fb0f331	1.3824216
65	0xbee2bef1	-0.44286302
66	0xbf66ee29	-0.90207154
67	0xbe69ccf9	-0.22832097
68	0x3f5b58ef	0.85682577
69	0xbd270e05	-0.040784854
70	0x3f1215fb	0.5706479
71	0xbcf2ff0d	-0.029662633
72	0x3ca90a87	0.020634903
73	0x3e4444b5	0.19166835
74	0xbe00c9a8	-0.12576926
75	0x3f6751bf	0.9035911
76	0xbca2b636	-0.019862276
77	0xbee04088	-0.43799233
78	0xbe87661a	-0.26445085
79	0x3f076fd1	0.52904993
80	0xbd962623	-0.07331493
81	0x3ecd7d29	0.40134552
82	0x3efc41ad	0.49268857
83	0xbbd93416	-0.0066285236
84	0x3f6800e2	0.9062635
85	0x3f057786	0.52135503
86	0x3e2d660c	0.16933459
87	0x3c972ab8	0.018452987
88	0x3f303540	0.68831253
89	0x3c375479	0.011189573
90	0xbe663d89	-0.22484411
91	0x3f5938b3	0.8485214
92	0x3f2ac165	0.66701347
93	0x3e894d2a	0.26816684
94	0xbddddaa9	-0.10832722
95	0x3e802e9e	0.25035566
96	0x3e71b749	0.23605074
97	0x3eba0487	0.3633158
98	0x3e46ad43	0.19402032
99	0xbee2e900	-0.4431839
100	0x3df93508	0.12168318
101	0x3f877c4a	1.0584805
102	0x3f9154f3	1.135405
103	0x3d553701	0.05205441
104	0x3ee9cd2d	0.4566435
105	0x3e3d4ec2	0.18487075
106	0x3e627fdb	0.22119085
107	0x3da5f98c	0.08104238
108	0x3f735349	0.9504896
109	0xbc52e984	-0.012873057
110	0xbed5d8f3	-0.41767082
111	0x3f7077fc	0.9393308
112	0x3f550fe4	0.8322737
113	0xbf16a130	-0.588397
114	0x3eb00376	0.3437764
115	0x3da635d0	0.08115733
116	0x3ecb9191	0.39759496
117	0xbf6d71db	-0.92751855
118	0x3f0b238a	0.54351103
119	0x3f27b102	0.6550447
120	0xbbca04e0	-0.006165132
121	0xbbce7995	-0.006301115
122	0x3e56b639	0.2096795
123	0xbba4e0b1	-0.005031668
124	0xbf43fc5c	-0.76556945
125	0xbf42f577	-0.761558
126	0x3e83c6f4	0.25737727
127	0xbf6c51a3	-0.9231207
128	0xbe25d6b5	-0.16195185
129	0xbdeeae13	-0.11654296
130	0xbf32015d	-0.6953333
131	0xbe919e9d	-0.28441325
132	0xc00104ee	-2.015926
133	0xbe7fb42f	-0.24971078
134	0x3ea37900	0.31928253
135	0x3fb9bdc0	1.4511032
136	0xbe3b2b62	-0.18278268
137	0xbe45c588	-0.19313633
138	0xbec1f671	-0.37883332
139	0xbfc5a6b0	-1.5441494
140	0x3ebabfa1	0.36474326
141	0xbedcb11d	-0.43103877
142	0xbe05664e	-0.13027307
143	0x3ecdb4bb	0.4017695
144	0x3f7e956e	0.9944676
145	0x3dd12bab	0.10213407
146	0x3e34c243	0.1765223
147	0xbeaf9c1c	-0.3429879
148	0xbe677a9c	-0.22605366
149	0xbf1150f0	-0.56764126
150	0x3d442666	0.047888182
151	0x3d5eaa4d	0.05436163
152	0xbf25c948	-0.64760256
153	0x3f20e472	0.6284858
154	0x3eb999d3	0.3625017
155	0xbeea7f65	-0.4580032
156	0xbd3d30da	-0.046189167
157	0x3d419bd6	0.047267757
158	0x3e7ad6ea	0.24496046
159	0x3f6cacd6	0.92451227
160	0x3e90d98b	0.28290972
161	0xbe10c03d	-0.14135833
162	0xbd91cc7d	-0.07119081
163	0x3e1b6f47	0.15179168
164	0xbe26e208	-0.16297162
165	0x3efdce62	0.4957152
166	0x3d507627	0.05089393
167	0xbebef77c	-0.3729819
168	0x3dc588df	0.09645247
169	0xbe8ffeae	-0.28123993
170	0x3ec99200	0.39369202
171	0xbe352759	-0.17690791
172	0x3e7bc054	0.24585086
173	0xbe0c4cc4	-0.13701159
174	0xbf24a490	-0.643136
175	0xbeefae8a	-0.4681285
176	0xbcbbc5b2	-0.022921417
177	0xbe3c6b3d	-0.18400283
178	0xbe30f518	-0.17280996
179	0xbfb47f46	-1.4101341
180	0x3cf3b826	0.029750895
181	0x3edc013e	0.42969698
182	0x3f671205	0.9026187
183	0xbdba611c	-0.091005534
184	0xbf3e00d0	-0.7421999
185	0x3e56b195	0.2096618
186	0xbe4d0761	-0.20022346
187	0x3d341d86	0.04397347
188	0x3ee03732	0.4379211
189	0x3e316ee2	0.17327455
190	0xbf931d48	-1.1493311
191	0x3f874764	1.0568662
192	0xbe6c640c	-0.2308504
193	0x3fb3f5a2	1.4059336
194	0xbd6791d0	-0.056535542
195	0x3e6ff1dd	0.23432107
196	0xbe173dc0	-0.1476965
197	0x3ccb05a8	0.02478297
198	0xbe94125f	-0.28920266
199	0xbdf12a02	-0.117755905
200	0xbf629719	-0.88511807
201	0xbdf2721a	-0.118381694
202	0x3dfbfedd	0.12304471
203	0xbd19759a	-0.03746567
204	0xbebfe9aa	-0.3748296
205	0xbe727112	-0.23675945
206	0x3f8f64ed	1.1202675
207	0x3e7c8fad	0.24664183
208	0x3ef33570	0.47501707
209	0x3ed9de02	0.4255219
210	0x3f307d72	0.68941414
211	0xbc7f14aa	-0.015568892
212	0xbd4c4acd	-0.049876023
213	0x3e338651	0.17531706
214	0x3f002843	0.50061435
215	0x3e022bad	0.12711973
216	0x3eeb41fa	0.45948774
217	0x3f023827	0.5086693
218	0x3e0db616	0.13838992
219	0xbecf9585	-0.40543762
220	0x3eec9051	0.46203855
221	0xbfe4a5eb	-1.7863134
222	0xbe24e8fa	-0.16104499
223	0x3e37f089	0.1796285
224	0x3d308ecc	0.04310493
225	0xbeee3f0a	-0.4653247
226	0xbe2f2e9e	-0.17107627
227	0x3fe1369b	1.7594789
228	0xbcac35f7	-0.021021826
229	0xbe823353	-0.25429782
230	0x3f80bf06	1.0058296
231	0xbdab30f5	-0.08358947
232	0x3f981179	1.1880332
233	0x3c1c2ee0	0.00953266
234	0xbe44875d	-0.19192262
235	0xbe26b278	-0.16279018
236	0xbf45e6c2	-0.77305233
237	0x3dc3b166	0.095553204
238	0x3ebc7546	0.36808223
239	0xbf481a2e	-0.7816495
240	0xbd92db80	-0.071707726
241	0x3e5ee778	0.21767986
242	0xbca41a28	-0.020032004
243	0xbf2c7151	-0.6736041
244	0x3f1a1e07	0.6020207
245	0xbebca58e	-0.36845058
246	0x3f30ed84	0.6911242
247	0xbf087254	-0.5329945
248	0xbf7813cc	-0.9690521
249	0xbed45c61	-0.4147673
250	0xbf03dbc2	-0.515072
251	0x3f32a6ad	0.6978558
252	0xbe2a73ce	-0.16645738
253	0xbd7dc1ba	-0.06195233
254	0xbeb1efdd	-0.34753314
255	0xbeb7099c	-0.3574952

stage2.0.branch2.1.weight f4 [16]
0	0x3f99b3dd	1.2008015
1	0x3f816910	1.0110188
2	0x3f8ed774	1.1159501
3	0x3f846a89	1.0345012
4	0x3fdc7435	1.7222964
5	0x3f90de91	1.1317922
6	0x3f56a8a1	0.8385106
7	0x3f86f13b	1.0542368
8	0x3fd99f73	1.7001785
9	0x3f9f8c54	1.24647
10	0x3f0ac007	0.5419926
11	0x3f98de98	1.194293
12	0x3fb283b3	1.3946441
13	0x3f8c4dd2	1.0961249
14	0x3fb353da	1.4009964
15	0x3f8f15b8	1.1178503

stage2.0.branch2.1.bias f4 [16]
0	0xbf82bd57	-1.0214032
1	0x3f0e21e8	0.55520487
2	0x3ee17025	0.44030872
3	0x3eb468f9	0.35236338
4	0x3e442f4a	0.19158664
5	0xbe2c7d99	-0.16844787
6	0x3d803662	0.06260373
7	0x3f99d626	1.2018478
8	0x3eae29d4	0.34016287
9	0x3eb1d791	0.34734777
10	0x3f8066fd	1.003143
11	0x3f503a22	0.81338704
12	0xbf210628	-0.6290002
13	0x3e82cadf	0.25545403
14	0xbf97d4e9	-1.186185
15	0x3f990231	1.1953794

stage2.0.branch2.3.weight f4 [16, 1, 3, 3]
0	0xbda506a6	-0.08057909
1	0x3ea6f04c	0.32605207
2	0x3ed552c3	0.41664705
3	0x3e14c13c	0.14526838
4	0xbecbf218	-0.3983314
5	0xbf0b5107	-0.5442051
6	0x3db469a0	0.08809209
7	0xbf81777c	-1.0114589
8	0xbf4e943f	-0.80694956
9	0x3ec7daff	0.39034268
10	0x3f1b44c5	0.6065181
11	0x3ea7508b	0.32678637
12	0xbee2d62d	-0.44304028
13	0xbe56b45e	-0.20967242
14	0x3e2406d0	0.16018224
15	0xbf1cb9ef	-0.6122121
16	0xbf6d8776	-0.9278482
17	0xbee598dd	-0.44843188
18	0x3c969629	0.018382149
19	0xbea8c0cd	-0.32959595
20	0xbefc9f9f	-0.4934053
21	0xbe1db44f	-0.15400814
22	0x3ec107e9	0.37701347
23	0x3ee38183	0.44434747
24	0xbeb2c3ba	-0.34914953
25	0x3f62d4bf	0.88605875
26	0x3f682d1a	0.9069382
27	0xbe5d563b	-0.21614926
28	0xbe3de2d7	-0.18543564
29	0xbe3132e4	-0.1730457
30	0xbdb2b845	-0.08726553
31	0x3e92a760	0.28643322
32	0x3f1c0f1c	0.60960555
33	0xbd72ed0f	-0.059308108
34	0x3efe4f52	0.49669892
35	0x3f5d203d	0.86377317
36	0x3b540851	0.003235359
37	0x3e490260	0.19629812
38	0x3e87aec2	0.26500517
39	0x3e42fde2	0.19042161
40	0xbed31cc1	-0.41232875
41	0xbf52db6d	-0.8236607
42	0xbdde8f31	-0.10867155
43	0xbf3dee88	-0.74192095
44	0xbfb15e8e	-1.3856981
45	0xbe092f86	-0.13397035
46	0x3ce103eb	0.027467689
47	0xbf1781d3	-0.5918247
48	0xbde5c138	-0.11218494
49	0xbf30e504	-0.6909945
50	0xbf745df5	-0.9545587
51	0x3dab0084	0.08349708
52	0x3d07564e	0.03304129
53	0xbdd33deb	-0.10314544
54	0xbeb2e66a	-0.34941417
55	0x3dcf151d	0.10111449
56	0x3f2a6106	0.66554296
57	0x3e98ce4b	0.2984489
58	0xbde3b9a0	-0.111193895
59	0xbefd387e	-0.49457163
60	0x3f2c9082	0.67408
61	0xbebee46f	-0.37283656
62	0xbfcff05e	-1.6245229
63	0xbd2e3cf9	-0.042538617
64	0x3e0cb867	0.13742219
65	0xbeb61c43	-0.35568437
66	0xbe6c5e9b	-0.23082964
67	0xbf0bfabe	-0.5467948
68	0xbee955ad	-0.45573178
69	0xbefa988e	-0.48944515
70	0xbf5adadb	-0.85490197
71	0xbedae3d8	-0.42751956
72	0xbe187ef0	-0.14892173
73	0x3e894c7e	0.2681617
74	0x3ee24f8c	0.44201314
75	0xbcea6d3e	-0.028616544
76	0x3f3650c9	0.7121702
77	0x3f85db27	1.0457505
78	0x3dd50242	0.10400821
79	0x3f17d511	0.5930949
80	0x3f52e6ef	0.82383627
81	0xbe4e6919	-0.20157279
82	0x3dbab71e	0.09116958
83	0xbd92b1b2	-0.07162799
84	0xbe5a45fd	-0.21315761
85	0x3f166334	0.5874512
86	0x3f2c1725	0.67222816
87	0xbc2f1f40	-0.010688603
88	0x3f31c4e8	0.6944108
89	0x3f8e75e8	1.1129732
90	0x3f4a0c40	0.7892494
91	0x3e4c51ad	0.19953032
92	0x3e880f77	0.265743
93	0x3f41e8f9	0.75746113
94	0xbe837d75	-0.25681654
95	0xbe0fe0b9	-0.14050569
96	0x3f3ff887	0.749886
97	0xbeb86005	-0.36010757
98	0xbe0e73c9	-0.13911356
99	0x3c09df76	0.008415094
100	0xbe47a5c8	-0.19496834
101	0xbf313385	-0.6921924
102	0xbec3b4d8	-0.3822391
103	0x3e47dbba	0.19517413
104	0x3e6c3a57	0.2306913
105	0xbeb111dc	-0.34583938
106	0x3f8cb0c3	1.0991443
107	0x3fd79c0d	1.6844498
108	0x3d670b6f	0.05640739
109	0xbe25713f	-0.16156481
110	0xbf761b3c	-0.96135306
111	0xbe82237b	-0.25417694
112	0x3e9ecfce	0.31017917
113	0x3ee9ede5	0.45689312
114	0xbeda9b93	-0.4269682
115	0x3f149b82	0.58049786
116	0x3fca0aa8	1.5784502
117	0x3e86e963	0.26349935
118	0x3f0ab3db	0.5418069
119	0x3e9973cc	0.29971159
120	0xbeedc4d5	-0.46439233
121	0xbedd4e64	-0.4322387
122	0xbda0edc0	-0.07857847
123	0xbed767dc	-0.42071426
124	0xbf8fed6c	-1.124433
125	0xbf6ae39f	-0.9175357
126	0xbe289a53	-0.1646512
127	0x3e408355	0.18800099
128	0x3f5022a1	0.8130284
129	0x3e91df1a	0.28490525
130	0xbecfb175	-0.40565076
131	0xbf0d44e6	-0.55183256
132	0x3f4596cf	0.7718324
133	0xbf1c3529	-0.61018616
134	0xbfba996f	-1.4578074
135	0xbd43404a	-0.047668733
136	0xbe225eb4	-0.15856439
137	0xbeff921e	-0.49916166
138	0xbdcf55c9	-0.10123784
139	0x3e82a6c5	0.2551786
140	0x3f316013	0.6928722
141	0x3c398839	0.011323982
142	0x3f1a21d7	0.60207886
143	0x3fb6c76e	1.4279611

stage2.0.branch2.4.weight f4 [16]
0	0x3fac3f7e	1.3456876
1	0x3f9e62a8	1.2373857
2	0x3fa82637	1.3136662
3	0x3fb566f9	1.417205
4	0x3f5e155a	0.8675133
5	0x3f8a0ecd	1.0785767
6	0x3fb5e0e2	1.4209254
7	0x3f8373f6	1.0269763
8	0x3fb724e2	1.4308131
9	0x3fa637f4	1.2985826
10	0x3f6e635c	0.9312036
11	0x3fab0cad	1.3363243
12	0x3fc3b448	1.5289392
13	0x3fa4556b	1.2838567
14	0x3fb7ab2f	1.4349116
15	0x3f90b0c1	1.1303941

stage2.0.branch2.4.bias f4 [16]
0	0xbd8ca4ec	-0.06867394
1	0x3c8401e6	0.016114186
2	0xbf812727	-1.0090073
3	0xbfb569fd	-1.417297
4	0x3f3fd905	0.7494052
5	0x3ef0ea79	0.47053888
6	0xbdb553c7	-0.0885387
7	0x3f410d0a	0.7541052
8	0xbea5263a	-0.32255727
9	0xbf3c95fd	-0.73666364
10	0xbf0bc83d	-0.54602414
11	0xbec7f272	-0.3905216
12	0x3da5fa8c	0.08104429
13	0x3f7e5865	0.9935363
14	0x3f587281	0.8454972
15	0xbe7d0c3e	-0.24711701

stage2.0.branch2.5.weight f4 [16, 16, 1, 1]
0	0x3e8d65c6	0.2761671
1	0x3f0c2967	0.54750675
2	0x3f4e1fa8	0.80517054
3	0x3f2b8a1e	0.67007625
4	0xbea40c79	-0.32040766
5	0xbdae8469	-0.08521349
6	0x3fa8fd75	1.3202349
7	0xbf5c9ee1	-0.8617993
8	0x3e1adfcb	0.15124433
9	0xbc035b1b	-0.008017327
10	0xbec13e30	-0.37742758
11	0xbf345b71	-0.7045203
12	0xbf566885	-0.83753234
13	0x3e3fe9eb	0.18741576
14	0x3f157ee5	0.5839675
15	0xbdd11926	-0.10209875
16	0x3f379e81	0.7172623
17	0x3ce52dbe	0.027975913
18	0xbe9b6fc7	-0.30358717
19	0xbf0ade02	-0.5424501
20	0x3e9d7ad8	0.30757785
21	0x3e1aa3c7	0.15101539
22	0x3efa4eac	0.48888147
23	0xbde688d6	-0.11256568
24	0xbee410b9	-0.44544008
25	0xbf50bac3	-0.81534976
26	0xbf365f8d	-0.7123955
27	0xbecf86de	-0.40532583
28	0xbe5dae73	-0.21648578
29	0x3eb76441	0.35818675
30	0x3ea1dacd	0.31612244
31	0x3eec7fe1	0.46191314
32	0x3c3090e1	0.010776729
33	0x3e67a219	0.22620429
34	0x3f32b24c	0.6980331
35	0xbe5e8614	-0.21730834
36	0xbf27cd30	-0.65547466
37	0x3f368b37	0.71306175
38	0x3e4f2791	0.20229937
39	0xbf4dce32	-0.80392754
40	0xbeb101eb	-0.34571776
41	0x3e7bd4f2	0.24592951
42	0xbe977001	-0.2957764
43	0x3ef2b34f	0.47402427
44	0x3e5683f5	0.20948775
45	0xbee8222d	-0.45338574
46	0xbbb7c07b	-0.0056076623
47	0x3d99ea9c	0.07515451
48	0xbf907b02	-1.1287539
49	0x3ddf1309	0.108923025
50	0xbc0c6316	-0.008568546
51	0xbef9d1f4	-0.48792994
52	0x3eb4a195	0.35279527
53	0xbe899bea	-0.26876765
54	0xbe0b0e58	-0.1357969
55	0x3f3cd3cc	0.73760676
56	0xbe3456f7	-0.176113
57	0xbf8da010	-1.1064472
58	0xbe7e76b9	-0.24849977
59	0xbdf74643	-0.12073948
60	0x3e791315	0.24323685
61	0x3e0169f3	0.12638073
62	0x3e965697	0.29362938
63	0xbef1d8d5	-0.47235742
64	0x3f151025	0.5822776
65	0x3ea378dd	0.3192815
66	0xbf4a614c	-0.79054713
67	0xbf68aa1b	-0.9088456
68	0x3dada097	0.08477896
69	0x3e12c300	0.14332199
70	0xbe2bbc41	-0.16771032
71	0xbe488eed	-0.19585772
72	0xbd09433e	-0.033511393
73	0x3e85144f	0.25992057
74	0xbed7208f	-0.42017028
75	0x3f69cdfa	0.9132992
76	0xbf3aa1ef	-0.7290334
77	0xbc4cc104	-0.01249719
78	0x3ed4ba1c	0.4154824
79	0x3ec22210	0.37916613
80	0x3d8b3ce7	0.067987256
81	0x3df8d2f5	0.12149612
82	0x3eb883bd	0.36038008
83	0xbf1f99db	-0.6234414
84	0x3f8b0a0f	1.0862445
85	0x3fa527a0	1.2902718
86	0x3ed7e2d7	0.42165253
87	0x3f15c7f4	0.5850823
88	0x3e89bb17	0.2690055
89	0x3f884939	1.0647346
90	0xbee35510	-0.44400835
91	0x3e66375c	0.22482055
92	0xbe71ea56	-0.23624548
93	0xbe45f3fa	-0.19331351
94	0x3ed43250	0.41444635
95	0xbeceb616	-0.40373296
96	0x3ede303a	0.4339617
97	0xbe19efed	-0.1503293
98	0xbd88dd1b	-0.066827975
99	0x3e8d7d82	0.27634817
100	0x3f0d38ef	0.55165
101	0x3dafbf84	0.085814506
102	0x3f014fb3	0.50512236
103	0xbeb4ea5e	-0.35335058
104	0xbf0ad64e	-0.54233253
105	0xbe1990e8	-0.14996684
106	0xbec8cc1f	-0.39218232
107	0xbf444f7d	-0.7668379
108	0x3f5857bd	0.8450888
109	0xbed9c933	-0.42536315
110	0xbfac8d59	-1.3480636
111	0xbef4a34f	-0.47780845
112	0x3eb161e6	0.34645003
113	0xbf849d9f	-1.0360602
114	0xbe1d0e57	-0.15337501
115	0xbeea5381	-0.45766833
116	0x3e7e77c1	0.2485037
117	0x3e99a4ec	0.30008638
118	0x3d263c7b	0.040585022
119	0xbee33163	-0.44373617
120	0x3fb61b9b	1.4227175
121	0xbe8cb8a4	-0.2748462
122	0xbee8e7bd	-0.45489302
123	0xbf579301	-0.84208685
124	0xbd6b656d	-0.057469774
125	0xbe4420f2	-0.19153193
126	0x3eb2e908	0.34943414
127	0xbee4ea41	-0.44709972
128	0xbe608012	-0.21923855
129	0x3dcc8c56	0.099877045
130	0x3d55bb68	0.052180678
131	0xbf4e0d49	-0.8048902
132	0xbd82fa16	-0.06395356
133	0xbf08b604	-0.53402734
134	0xbf0fe492	-0.56208146
135	0xbefa9eb8	-0.48949218
136	0xbf1a3f0e	-0.60252464
137	0xbdd80627	-0.105480485
138	0x3e1470e8	0.14496195
139	0xbeb00449	-0.3437827
140	0xbf62a8e0	-0.8853893
141	0xbf945c0f	-1.1590594
142	0xbeece657	-0.46269485
143	0x3edbc92f	0.42926928
144	0x3eda251b	0.42606434
145	0xbe08e8df	-0.13370083
146	0x3f472a7b	0.77799195
147	0x3f1f997d	0.6234358
148	0xbe994230	-0.2993331
149	0xbeb13ed2	-0.3461824
150	0x3e456db4	0.1928013
151	0xbf01181a	-0.504274
152	0xbea32858	-0.31866717
153	0x3f03d5e0	0.5149822
154	0x3e0fa88b	0.14029138
155	0xbe0c9b19	-0.1373104
156	0xbcc580c3	-0.02410925
157	0xbe656719	-0.2240261
158	0xbecc4433	-0.39895782
159	0xbf03109a	-0.51197207
160	0xbef1eb2c	-0.47249734
161	0xbd665d64	-0.056241408
162	0xbeb6f33b	-0.35732445
163	0x3e0203a0	0.12696695
164	0xbe38ef57	-0.18060051
165	0x3d58307f	0.052780624
166	0xbe09678c	-0.13418406
167	0x3e95f4b3	0.29288253
168	0x3de9d0cf	0.1141678
169	0x3ec6c789	0.38824108
170	0x3e91fcd1	0.28513196
171	0x3f26091e	0.6485766
172	0x3f38e8f6	0.7223047
173	0x3e9b765a	0.30363733
174	0x3e48b58c	0.19600505
175	0x3d7a87d1	0.06116468
176	0xbf354a58	-0.70816565
177	0xbd43e5dc	-0.047826633
178	0x3e888f68	0.2667191
179	0x3bb3cd2b	0.0054871044
180	0xbde2d667	-0.1107605
181	0x3db1ecf6	0.08687775
182	0xbf46091c	-0.7735765
183	0xbe223d3c	-0.15843672
184	0x3e733dee	0.23754093
185	0xbdbc1769	-0.09184153
186	0xbe6e4362	-0.23267892
187	0xbf34a45b	-0.70563287
188	0x3c98ac9d	0.018636996
189	0xbe389162	-0.18024209
190	0xbf39cac7	-0.7257504
191	0xbf22602b	-0.6342799
192	0xba9e381f	-0.0012071169
193	0xbf65eb90	-0.89812565
194	0x3f0dcd73	0.55391616
195	0xbef17e53	-0.4716669
196	0x3e85bb38	0.261194
197	0xbec1309b	-0.37732396
198	0xbddb4b7a	-0.107077554
199	0xbe417b06	-0.18894586
200	0xbef1b0d5	-0.47205225
201	0x3e3daa10	0.18521905
202	0x3ed38812	0.4131475
203	0x3dc6619b	0.096865855
204	0x3eabd551	0.33561185
205	0x3f6b0de1	0.9181805
206	0xbd72e653	-0.059301686
207	0xbeff219c	-0.4983033
208	0x3ebcb0ae	0.36853546
209	0x3ee86206	0.45387286
210	0x3d8a2da4	0.067469865
211	0xbdeff858	-0.1171729
212	0x3e87eeff	0.26549527
213	0xbef5a426	-0.47976798
214	0x3e87ce34	0.26524508
215	0xbe8d3709	-0.2758105
216	0xbf3bbc46	-0.7333416
217	0x3f04878a	0.51769316
218	0x3d722f45	0.05912711
219	0x3cad9509	0.02118923
220	0x3f2b9733	0.67027587
221	0xbebab98d	-0.3646969
222	0x3f0edf7c	0.5580976
223	0x3f4571c7	0.77126735
224	0x3e4bd3f6	0.19905075
225	0xbd1d9b7f	-0.03847837
226	0xbd950cf5	-0.07277862
227	0x3c51e4aa	0.012810865
228	0x3e8ab298	0.2708938
229	0xbd79495e	-0.060860984
230	0x3f39f23f	0.72635263
231	0x3e561fd8	0.20910585
232	0x3e309567	0.17244492
233	0x3e83b7e7	0.25726244
234	0x3be6d034	0.0070438627
235	0xbf0c2a2f	-0.5475187
236	0x3e45f524	0.19331795
237	0xbf3e2b6e	-0.7428502
238	0x3e6413cb	0.22273175
239	0x3cb16eb9	0.021659242
240	0x3e1242d7	0.1428331
241	0x3eed5494	0.4635359
242	0x3db0c978	0.08632177
243	0xbeda4678	-0.42631888
244	0x3f04db15	0.5189679
245	0x3dea443f	0.11438798
246	0xbe770356	-0.24122366
247	0x3d3a837c	0.04553555
248	0x3e99a2ca	0.3000701
249	0x3ead3182	0.33826834
250	0x3f2e2dd2	0.68038666
251	0x3f123697	0.5711455
252	0x3f17528b	0.59110326
253	0xbf59c6a0	-0.850687
254	0xbdfcee15	-0.12350098
255	0xbf1cfd0f	-0.61323637

stage2.0.branch2.6.weight f4 [16]
0	0x3fcf0410	1.6173115
1	0x3fb2e8c8	1.3977289
2	0x3fd5684b	1.6672453
3	0x3fb5fa0b	1.4216932
4	0x3fbfbe62	1.4979975
5	0x3f9d3335	1.2281252
6	0x3fc3155a	1.5240891
7	0x3fa852b1	1.3150235
8	0x3f1f3ad9	0.6219917
9	0x3f6e5acf	0.9310731
10	0x3f832354	1.0245156
11	0x3f6b9feb	0.9204089
12	0x3f47910a	0.7795569
13	0x3f3b5aa8	0.73185205
14	0x3f28071b	0.6563584
15	0x3f5af2ac	0.8552654

stage2.0.branch2.6.bias f4 [16]
0	0xbe4d3a40	-0.20041752
1	0x3f0b4566	0.5440277
2	0x3e231ede	0.15929744
3	0x3eb3ce6c	0.35118425
4	0xbd62d512	-0.05537898
5	0x3f99e336	1.2022464
6	0x3f2989fb	0.66226166
7	0x3e1edf63	0.15514903
8	0x3f383c76	0.71967256
9	0xbdae7286	-0.08517937
10	0xbf2a1a5f	-0.6644649
11	0xbdb68540	-0.08912134
12	0x3f4e7861	0.80652434
13	0x3f00209c	0.5004976
14	0x3eefeded	0.4686121
15	0x3f1064f9	0.5640407

stage2.1.branch2.0.weight f4 [16, 16, 1, 1]
0	0xbc070be2	-0.008242579
1	0xbea24969	-0.31696633
2	0x3fb3444c	1.4005218
3	0x3ebbe034	0.3669449
4	0xbdff4ff5	-0.124664225
5	0xbbe2ae32	-0.0069177384
6	0xbe6c1479	-0.23054685
7	0x3dc4da89	0.09611995
8	0xbed718ee	-0.42011207
9	0x3d1e8e82	0.038710125
10	0xbfea4d69	-1.8304874
11	0xbe24c08c	-0.16089076
12	0x3fb3e925	1.4055525
13	0x3da8562f	0.08219563
14	0x3e76695c	0.24063629
15	0xbc4644a5	-0.012101327
16	0xbf457485	-0.7713092
17	0x3f110ef5	0.5666345
18	0xbeddd21d	-0.43324366
19	0xbee2488f	-0.44195983
20	0xbe024b6d	-0.12724085
21	0x3f264735	0.64952403
22	0x3e53d38e	0.2068617
23	0x3f0fbd12	0.56147873
24	0x3f042dd8	0.5163245
25	0x3e160be6	0.14652976
26	0x3c63ac5f	0.013896077
27	0xbe8a3863	-0.26996145
28	0xbe119430	-0.14216685
29	0xbd84ef5e	-0.06490968
30	0x3e1739f0	0.14768195
31	0x3e4f8912	0.20267132
32	0xbe49efa5	-0.19720323
33	0x3ee20fd4	0.441527
34	0x3d63c5b0	0.05560845
35	0x3e81d1b9	0.25355318
36	0xbe8241be	-0.25440782
37	0x3f07cebb	0.5304982
38	0x3f90310b	1.1264967
39	0x3e454e46	0.1926814
40	0xbec8ba7c	-0.39204776
41	0xbda2494e	-0.07924138
42	0x3e280753	0.16409044
43	0xbefdacbe	-0.49545854
44	0xbd21212c	-0.039338276
45	0xbd7cf070	-0.061752737
46	0xbf00d5da	-0.5032631
47	0xbec08024	-0.37597764
48	0xbebffea4	-0.37498963
49	0xbee616e0	-0.44939327
50	0xbf159913	-0.584367
51	0xbe0ff847	-0.14059554
52	0x3df31788	0.118697226
53	0x3d7dad58	0.06193289
54	0x3e623e45	0.22094066
55	0x3ecfa5f0	0.40556288
56	0x3f03e437	0.51520103
57	0x3f8cd368	1.1002016
58	0xbeb1fae8	-0.3476174
59	0x3ce6e6b0	0.028186172
60	0x3ecc5a8d	0.39912835
61	0xbefe494e	-0.49665302
62	0x3f018e92	0.5060817
63	0x3e5ac36b	0.21363609
64	0xbe4f773a	-0.20260325
65	0xbe64ee5f	-0.22356556
66	0xbe41f868	-0.18942416
67	0xbd6b3010	-0.057418883
68	0xbce962ab	-0.028489431
69	0xbe5ad248	-0.21369278
70	0xbe48d51d	-0.19612546
71	0xbd30707b	-0.04307602
72	0xbda99825	-0.082809724
73	0xbd90d504	-0.070718795
74	0x3e390f8b	0.18072335
75	0xbdaa366f	-0.08311164
76	0xbe25c592	-0.16188648
77	0xbdc8f4c9	-0.09812314
78	0x3d7e67d8	0.062110752
79	0xbd4106ad	-0.047125507
80	0xbe512638	-0.20424736
81	0xbe6569bc	-0.22403616
82	0xbe42da9b	-0.19028704
83	0xbd6f117e	-0.05836629
84	0xbcef711e	-0.029228743
85	0xbe5aaea5	-0.21355684
86	0xbe493ab4	-0.196513
87	0xbd346ac0	-0.044047117
88	0xbdaa7dba	-0.08324762
89	0xbd9171c3	-0.071017765
90	0x3e39146f	0.18074201
91	0xbdabc80b	-0.083877645
92	0xbe259f4f	-0.16174053
93	0xbdca43fc	-0.09876248
94	0x3d7da403	0.061923992
95	0xbd3d7aff	-0.046259876
96	0xbcf6741c	-0.030084662
97	0xbc1688cf	-0.009187891
98	0xbe6d2c0f	-0.23161338
99	0xbe8c7be1	-0.27438262
100	0x3d24c41b	0.040226083
101	0x3eb01367	0.34389803
102	0x3e99fc4f	0.3007531
103	0x3ecf6357	0.40505478
104	0x3f423800	0.758667
105	0x3f456f49	0.7712293
106	0xbf741402	-0.9534303
107	0x3dcebfb9	0.10095162
108	0x3f2d99ed	0.67813
109	0xbf310994	-0.6915524
110	0x3e8cea37	0.27522442
111	0xbec4d8d6	-0.38446683
112	0xbe010744	-0.12600428
113	0xbe13ca6a	-0.14432684
114	0xbe1a22cd	-0.15052338
115	0x3d74b26c	0.05974047
116	0x3d381e9c	0.044951066
117	0xbe534d77	-0.20635019
118	0xbdb17439	-0.08664746
119	0xbc05bad9	-0.008162224
120	0xbc3910a1	-0.011295469
121	0xbcc917bd	-0.024547452
122	0x3e7fddcd	0.24986954
123	0xbb8badb8	-0.0042626522
124	0xbe05fc7f	-0.13084601
125	0xbd024a3b	-0.031809073
126	0x3ddbcb9c	0.10732195
127	0x3c580783	0.013185385
128	0xbe3a5622	-0.1819692
129	0xbf010216	-0.5039381
130	0xbe6435f7	-0.22286211
131	0xbebf964b	-0.37419352
132	0xbe9e04ce	-0.3086304
133	0x3d9fef84	0.07809356
134	0xbe11437a	-0.14185897
135	0xbe7f9963	-0.24960856
136	0xbea5adc8	-0.32359147
137	0xbe90192d	-0.28144208
138	0xbf59d295	-0.8508695
139	0xbe494dc3	-0.1965857
140	0xbddc1a05	-0.1074715
141	0xbe148d2a	-0.14506975
142	0xbd71402f	-0.0588991
143	0xbea7b725	-0.32756916
144	0x3db9923b	0.090610944
145	0x3eca566e	0.39519066
146	0x3f09917d	0.5373762
147	0x3ece7bcf	0.40328833
148	0x3f95286a	1.1652958
149	0xbe2c47ae	-0.16824219
150	0x3e6dbb59	0.23215999
151	0x3b1f0eea	0.0024270364
152	0xbbb2566a	-0.0054424303
153	0xbf321537	-0.6956362
154	0xbe549a30	-0.20761943
155	0x3ef946dd	0.48686877
156	0xbe312432	-0.17298964
157	0x3ed66667	0.41875002
158	0xbcab906b	-0.020942887
159	0x3f1e4c1b	0.6183488
160	0x3f402166	0.7505096
161	0x3f604bf1	0.8761588
162	0x3d27c5bf	0.04096007
163	0x3f1fa6e6	0.6236404
164	0xbf7d81ba	-0.9902607
165	0xbe5fc5ab	-0.21852748
166	0x3e483880	0.19552803
167	0xbe887e08	-0.26658654
168	0xbd46b772	-0.04851479
169	0x3ea8533e	0.3287601
170	0xbd6b86ec	-0.05750172
171	0x3f5485b7	0.8301653
172	0xbddb2594	-0.10700527
173	0xbd85b9c0	-0.065295696
174	0xbf1d2e4b	-0.6139876
175	0x3e96dfeb	0.2946771
176	0x3f915127	1.1352891
177	0xbed43a6b	-0.4145082
178	0xbe75e3eb	-0.24012725
179	0x3f5814eb	0.8440692
180	0xbdfc3e38	-0.12316555
181	0xbec7719b	-0.38953862
182	0x3eb673a3	0.356351
183	0xbec5808e	-0.38574642
184	0x3d3ef1cf	0.046617325
185	0xbf2c939c	-0.67412734
186	0xbd8ef383	-0.0698004
187	0x3e7d4307	0.247326
188	0xbe2a963e	-0.16658875
189	0xbdc2eab2	-0.09517421
190	0xbe1b0626	-0.15139064
191	0xbe7f58f9	-0.24936284
192	0xbe8169a4	-0.2527591
193	0xbe27a53b	-0.16371624
194	0xbe3f7965	-0.18698652
195	0xbea54c14	-0.32284606
196	0x3e42202c	0.18957585
197	0xbdbfdd1a	-0.09368344
198	0xbc639a6c	-0.0138917975
199	0xbd8ab895	-0.067734875
200	0xbea199ae	-0.3156256
201	0xbe86162b	-0.26188788
202	0x3fc1d095	1.5141779
203	0xbef24186	-0.47315615
204	0xbe4fd755	-0.20296986
205	0xbda9eebf	-0.0829749
206	0x3e5f86bc	0.21828741
207	0xbe5d4712	-0.21609142
208	0x3e1e4c6f	0.15458845
209	0xbf2c1396	-0.67217386
210	0xbc9003d6	-0.017579954
211	0x3e892c05	0.26791397
212	0xbdb1602c	-0.086609215
213	0xbeace05c	-0.33764923
214	0xbf2d7711	-0.67759806
215	0x3ebacd14	0.36484587
216	0x3f073813	0.5281994
217	0x3c928896	0.017887395
218	0xbd4f258c	-0.050572917
219	0x3e978c2a	0.29599124
220	0x3d8ef37f	0.06980037
221	0x3eee72f3	0.46572074
222	0x3f9004e4	1.1251493
223	0x3f234673	0.6377937
224	0xbe00d1f1	-0.12580086
225	0xbf6854c1	-0.90754324
226	0xbe8c080f	-0.27349898
227	0xbf36a722	-0.71348774
228	0xbed30267	-0.4121277
229	0xbe55acfb	-0.20866768
230	0xbe330242	-0.1748133
231	0xbd78ff81	-0.060790543
232	0x3f410d56	0.75410974
233	0xbd23e9d9	-0.040017936
234	0x3edc01cb	0.42970118
235	0x3f73e35e	0.9526881
236	0xbe7e2714	-0.24819595
237	0x3e2ed4f6	0.17073426
238	0x3e54e917	0.20792042
239	0xbee9756e	-0.45597404
240	0x3ec0083f	0.3750629
241	0x3dc99d51	0.09844459
242	0xbe626b0c	-0.22111148
243	0x3e5a21a2	0.21301892
244	0xbe3e689b	-0.18594591
245	0x3f239a1b	0.6390702
246	0x3f4f2dae	0.80929077
247	0x3f574e64	0.8410399
248	0x3cea182a	0.028575975
249	0xbe9b5cc7	-0.3034422
250	0xbc6b2f93	-0.014354604
251	0xbe0567dc	-0.130279
252	0x3ebaef85	0.36510864
253	0xbf372c66	-0.7155212
254	0x3f02a8a4	0.51038575
255	0x3fa767c4	1.3078542

stage2.1.branch2.1.weight f4 [16]
0	0x3f4f18bd	0.8089712
1	0x3f8690b4	1.051291
2	0x3f908f01	1.1293641
3	0x3faefb5d	1.367046
4	0x3f021568	0.50813913
5	0x3f01c86f	0.5069646
6	0x3fa54a4c	1.2913299
7	0x3f156e4e	0.58371437
8	0x3c8ae176	0.016953211
9	0x3f975d42	1.1825335
10	0x3f9dbe7e	1.2323759
11	0x3f8ba271	1.0908948
12	0x3f4e5212	0.8059398
13	0x3f89692e	1.0735223
14	0x3f7f354f	0.9969072
15	0x3f984b52	1.1897986

stage2.1.branch2.1.bias f4 [16]
0	0x3ea0eb04	0.31429303
1	0x3f601216	0.87527597
2	0x3f25ba1f	0.64737123
3	0x3f0034a3	0.5008032
4	0x3da73219	0.08163852
5	0x3da6e4b7	0.08149093
6	0x3e9bf823	0.3046275
7	0x3e120024	0.14257866
8	0x3a84059b	0.0010072471
9	0x3ef970d6	0.487189
10	0x3ed0f801	0.40814212
11	0x3f8ef190	1.1167469
12	0x3f068e49	0.5256086
13	0x3f359117	0.70924515
14	0x3f9b0b5a	1.2112839
15	0x3dbce9fa	0.09224315

stage2.1.branch2.3.weight f4 [16, 1, 3, 3]
0	0x3ee474bc	0.4462031
1	0xbedbaa29	-0.4290326
2	0x3ea36ceb	0.31919035
3	0x3e31e4d9	0.17372455
4	0xbfc3ee0e	-1.5307024
5	0xbf3c4d28	-0.7355523
6	0x3f2479ba	0.6424824
7	0xbf0634cd	-0.5242432
8	0x3de82dce	0.113368616
9	0xbd1424bd	-0.03616785
10	0xbd65debc	-0.05612062
11	0xbe939652	-0.28825623
12	0xbc208135	-0.00979643
13	0xbfb5ec3f	-1.4212722
14	0x3ea4beed	0.32176915
15	0x3e7d1829	0.24716248
16	0x3fb96ea6	1.4486892
17	0xbe462db8	-0.19353378
18	0xbe180bba	-0.14848223
19	0xbe34c3f7	-0.1765288
20	0xbd556e20	-0.052106977
21	0xbec001fc	-0.37501514
22	0xbfae8c87	-1.3636636
23	0xbcf04b71	-0.029332848
24	0x3ef2e87a	0.4744299
25	0x3fba1a51	1.4539281
26	0x3daf498e	0.08558951
27	0x3e09c2d9	0.13453235
28	0xbf0be9fe	-0.5465392
29	0x3e8b6bba	0.27230626
30	0x3f2af14e	0.6677445
31	0xbf922fd8	-1.1420851
32	0xbe569eb4	-0.20958978
33	0xbec237f8	-0.37933326
34	0xbf652f7b	-0.89525574
35	0x3fbbeaf2	1.4681075
36	0xbe1408f8	-0.14456546
37	0xbe217aed	-0.15769549
38	0xbe1c31a5	-0.15253313
39	0xbe1cbaa2	-0.1530557
40	0xbe298f3b	-0.16558544
41	0xbe2113c7	-0.157302
42	0xbe1649a5	-0.1467653
43	0xbe22dda4	-0.15904862
44	0xbe1990b1	-0.14996602
45	0xbe15df5e	-0.14635989
46	0xbe208833	-0.15676956
47	0xbe1c8c40	-0.15287876
48	0xbe1ac6f3	-0.15114956
49	0xbe2770d7	-0.16351639
50	0xbe204fc2	-0.15655425
51	0xbe16157a	-0.1465663
52	0xbe2364e4	-0.15956455
53	0xbe1ace5f	-0.15117787
54	0xbe812a87	-0.25227758
55	0x3df0a874	0.1175088
56	0x3e806ebc	0.25084484
57	0x3b836d83	0.0040108575
58	0xbf9fcbff	-1.248413
59	0x3fc75e42	1.557564
60	0x3dff1216	0.124546215
61	0x3e4e3671	0.20137955
62	0xbf7a8a26	-0.9786705
63	0xbe9dd22d	-0.30824414
64	0xbea50022	-0.32226664
65	0xbea7b305	-0.3275377
66	0xbea2e2cd	-0.3181366
67	0xbeaa4247	-0.3325369
68	0xbeaafffd	-0.3339843
69	0xbea0bc91	-0.31393865
70	0xbea6b2f0	-0.32558393
71	0xbea740e0	-0.32666683
72	0xbbbc12e7	-0.005739558
73	0xbb550da1	-0.0032509344
74	0xbb4bf361	-0.0031120407
75	0xbb5b1abf	-0.003343269
76	0xba9feb4f	-0.0012200865
77	0xba86aa7d	-0.0010274198
78	0xbb7cdcf1	-0.003858384
79	0xba1695b8	-0.0005744356
80	0xbb5096e6	-0.0031828224
81	0x3e754a9f	0.23954247
82	0xbeaff5af	-0.3436713
83	0xbe308005	-0.17236336
84	0x3e9f1b5b	0.31075558
85	0x3fa802ce	1.3125856
86	0xbffaa279	-1.9580833
87	0xbebaa3b3	-0.36453018
88	0xbd9b1d7b	-0.07573982
89	0x3f922c9a	1.1419861
90	0x3e004963	0.12527995
91	0x3ef5b84f	0.4799218
92	0xbe9cb70f	-0.30608413
93	0x3f08251b	0.5318162
94	0x3d088aa9	0.03333536
95	0xbf897ee4	-1.0741849
96	0xbe7e6af5	-0.24845488
97	0xbf999d61	-1.2001153
98	0x3fcda539	1.6066047
99	0x3d432fa3	0.04765285
100	0xbe3a30e1	-0.18182708
101	0xbe18f1da	-0.14936009
102	0x3f486bdf	0.782896
103	0x3f72141a	0.9456192
104	0x3f6dccaa	0.9289042
105	0xbf7c8a22	-0.98648274
106	0xbf7108cc	-0.9415405
107	0xbf2fb789	-0.6863943
108	0xbdb4e0cf	-0.08831941
109	0x3c139035	0.00900655
110	0xbe5fc6a2	-0.21853116
111	0xbe2b4172	-0.16724184
112	0xbf626ffa	-0.8845211
113	0xbf17cb45	-0.5929454
114	0xbe4e65d3	-0.2015603
115	0xbdf005bc	-0.11719844
116	0xbea8e068	-0.32983708
117	0xbe582125	-0.21106394
118	0x3ed3af9a	0.4134491
119	0xbeae3679	-0.34025934
120	0xbf29fc9b	-0.6640107
121	0x400d66d1	2.2094004
122	0xbfa41e82	-1.282181
123	0xbc2638b4	-0.010145355
124	0x3e87dfb8	0.2653787
125	0x3c3bceff	0.011462926
126	0x3e25cffb	0.1619262
127	0xbe0ffaa7	-0.1406046
128	0xbd9a935e	-0.07547639
129	0x3e97504f	0.29553458
130	0x3fcb269a	1.5871155
131	0x3e6daf31	0.23211361
132	0xbf172103	-0.59034747
133	0xbfa99964	-1.3249936
134	0xbee642e9	-0.44972923
135	0x3b247917	0.002509659
136	0xbeac9149	-0.33704594
137	0x3e8410fb	0.25794205
138	0x3f043d11	0.5165568
139	0xbfe21611	-1.7662984
140	0x3f99aa29	1.2005054
141	0x3ea61dcc	0.32444608
142	0xbf12f075	-0.5739816
143	0x3e04e320	0.12977266

stage2.1.branch2.4.weight f4 [16]
0	0x3fb95474	1.4478898
1	0x3fa7156d	1.3053414
2	0x3f9e947e	1.2389066
3	0x3f829927	1.0202988
4	0x3cbbdb53	0.02293173
5	0x3cd35b77	0.02580045
6	0x3fa4f5df	1.2887534
7	0x3e03cf58	0.12872064
8	0x3ebad2bd	0.36488906
9	0x3fb19881	1.3874665
10	0x3fbcac4a	1.4740078
11	0x3fb56346	1.4170921
12	0x3fa4aade	1.2864645
13	0x3fb1e6a7	1.3898515
14	0x3fb0b7d9	1.3806106
15	0x3fa60dcd	1.2972962
