independent_train/client74/best_model_0.0.pth (torch, 930411 bytes, 56 tensors)

conv1.weight f4 [24, 3, 3, 3]
000000 0a c6 e9 be 82 bf d4 3c bd 80 a6 be bd 84 ad 3e
       -0.45658904 0.025970224 -0.32520095 0.33890334
000010 4e 5f 60 3f 8e 19 09 3f 76 0d 3c bd 74 d8 b5 3e
       0.87645423 0.5355462 -0.045911275 0.35516703
000020 1f d3 bb 3d 4c 0e 4a 3e 56 28 87 3e ac 5f 3f 3e
       0.091711275 0.19732016 0.2639796 0.1868884
000030 7a a2 c2 3e 61 98 d0 3e 49 02 bb 3e 21 a1 1a 3e
       0.38014585 0.40741256 0.3652518 0.15100528
000040 1a c5 7c 3d 48 31 36 3d a4 47 fc 3d 61 e7 f7 be
       0.06171141 0.044480592 0.12318352 -0.48418716
000050 bb 2d 7d 3d 97 81 1e bf 15 a0 b7 bf a0 03 48 bf
       0.06181119 -0.6191649 -1.4345728 -0.7813053
000060 26 70 11 3e 84 5b 29 bf 5e 5c b6 bd 33 8c 94 3e
       0.14202937 -0.66155267 -0.089043364 0.29013214
000070 46 1b 13 3f bd 86 0a 3e 7a 44 18 3f b1 32 6d 3f
       0.5746349 0.13527961 0.59479487 0.92655474
000080 83 20 03 3f a9 c9 26 3d db 98 4e 3e 3b 80 82 bd
       0.51221484 0.04071966 0.20175497 -0.06372114
000090 f2 46 a6 bd 40 8f 81 be 04 3e 6a be 5f 0a 5f be
       -0.081190005 -0.25304604 -0.2287522 -0.217813
0000a0 31 c4 cf be 01 10 8f be c9 e7 81 be e8 f2 08 bf
       -0.4057937 -0.27941898 -0.2537215 -0.53495646
0000b0 6e b7 a5 be 5b c0 fa bc 6d 8a 90 be 07 2f a8 bd
       -0.32366508 -0.0306093 -0.2823061 -0.08212095
0000c0 bd 2c 71 be 58 64 1b bf ae ba 9c be ad a9 b7 3a
       -0.23552223 -0.6069999 -0.30611175 0.0014012359
0000d0 e2 80 d2 be 0a 67 4f bd 0a ed a9 3d 09 ec 94 3e
       -0.41113955 -0.050635375 0.08297165 0.2908633
0000e0 39 58 6b 3e 63 f1 10 3f 42 63 3b 3f 7f 88 17 3f
       0.22982873 0.56618327 0.7319833 0.5919265
0000f0 9e ae a1 3e 8a 13 08 3f 1d 15 b9 3e 48 aa 1b be
       0.31578535 0.53154814 0.3614892 -0.15201676
000100 28 68 31 be 26 23 5a be 25 f6 dd 3d f3 13 24 3c
       -0.17324889 -0.2130247 0.10837964 0.010014522
000110 56 0e dd ba ad a3 54 bd 51 39 62 bd 1e a0 89 bd
       -0.0016865234 -0.051913906 -0.055230442 -0.06719993
000120 80 47 3a bc 07 24 1c be cb 80 eb bd 6f 89 f1 3c
       -0.011369586 -0.15248118 -0.11499175 0.029484479
000130 68 c2 15 be c5 c4 22 be a6 4d 89 bc da a6 fc bd
       -0.14624941 -0.15895374 -0.016760658 -0.12336512
000140 34 2c 70 bd 5e 9a 79 be 29 25 1e be 2a 22 eb bd
       -0.058635905 -0.24375293 -0.15443863 -0.11481126
000150 9b db b4 be 41 9c d8 be 31 56 fa be 23 72 9d be
       -0.35323796 -0.42306712 -0.48893884 -0.30751142
000160 15 16 bc be 4e 6c 9e be 64 d3 7a 3e 19 61 29 3f
       -0.36735597 -0.30942005 0.24494702 0.66163784
000170 58 d8 9f 3e 61 bf 15 3f 51 8e 67 3f db 86 d4 3e
       0.31219745 0.58495146 0.9045153 0.41509137
000180 1c 80 a2 3e 0d 1d 0f 3f 23 fb 94 3e 2f 79 10 bd
       0.31738365 0.559037 0.29097852 -0.03527182
000190 44 18 65 be 50 dd 38 bc f6 42 5f be ad 20 1a bf
       -0.22372538 -0.011283234 -0.21802887 -0.6020611
0001a0 68 b4 cb be 42 98 d3 bd 78 80 d1 be 02 d6 6b bd
       -0.39786077 -0.10331775 -0.40918326 -0.05757714
0001b0 b1 23 06 3d b4 d7 14 3f ff 58 58 bc 41 de 51 3e
       0.03274888 0.58141637 -0.013204812 0.2049494
0001c0 4a 7d fe 3f 88 b8 68 3f 1d 43 a3 3a 25 fc 5b 3f
       1.9881985 0.9090657 0.0012455914 0.8593162
0001d0 e6 a6 93 3e c8 07 e8 be 64 fc 6c bf ac f6 48 bf
       0.2883827 -0.45318437 -0.9257262 -0.7850139
0001e0 c6 9f bd bf 43 94 8b bf 0a 70 9d bf 2b 19 19 bf
       -1.4814384 -1.0904621 -1.2299817 -0.5980403
0001f0 ff d9 85 bf 5e f6 45 bf 59 c3 32 3f 75 26 c1 3e
       -1.0457152 -0.7732905 0.69829327 0.37724653
000200 d8 1a bc 3e 22 3a 3d 3e ca 6b 0f 3f 4d 78 3e 3e
       0.3673923 0.18479207 0.5602385 0.18600579
000210 38 59 23 3f 16 f4 a6 3e 4e 81 7c 3e 05 27 fc bd
       0.6380801 0.32608098 0.24658701 -0.1231213
000220 f2 a3 de be 65 66 cc be ff d4 28 be cc 18 ad be
       -0.43484455 -0.3992187 -0.16487502 -0.3380798
000230 cb d7 52 be db 87 37 3c 99 a4 46 be 78 f8 33 3d
       -0.20590131 0.011201824 -0.19398727 0.04393813
000240 33 92 8f 3e 6b 57 e8 3e 1b df 42 3e 2d 3b 0e 3f
       0.2804123 0.45379195 0.1903042 0.55559045
000250 17 42 54 3f d4 5b 1f 3f 72 10 f4 3d 85 43 cf 3e
       0.82913345 0.62249494 0.11917199 0.404812
000260 d0 f2 bb 3e ff 36 62 3e 54 08 80 be 22 fc 0a 3d
       0.3670869 0.22091292 -0.25006354 0.03393186
000270 d4 b8 8e be 85 dd 41 bf d6 9c 96 be 19 e2 0b be
       -0.27875388 -0.75728637 -0.2941653 -0.13660468
000280 6e 17 10 bf ef f9 5a 3b 82 44 6c bd 74 6d 98 bc
       -0.5628575 0.0033413132 -0.05768252 -0.018606879
000290 7d 1c c1 bd 53 6c 07 3e 18 a5 7d 3e 8b 9e 08 3d
       -0.09429262 0.13224916 0.2477001 0.033354323
0002a0 47 dc be 3d e3 06 28 3e eb ec d9 bc 83 87 b4 be
       0.09319358 0.16408877 -0.02660223 -0.35259637
0002b0 5e b4 05 be ae ee 80 be 6d 6f 33 be 97 9b 1c 3e
       -0.13057086 -0.25182098 -0.17522974 0.15293728
0002c0 fb 30 1d be bd 68 f5 be 23 84 3d be 6f c5 d8 be
       -0.15350716 -0.4793147 -0.18507437 -0.4233813
0002d0 1a 17 47 3d 6f 47 04 3f c7 63 3b 3e 96 6b ba 3e
       0.048606016 0.516715 0.18299781 0.36410207
0002e0 73 d1 7a 3f f9 b5 fd 3e 57 9d 62 be 41 7b 93 3e
       0.97975844 0.49552897 -0.22130333 0.28804973
0002f0 ed de c8 bd 58 af 1a 3f 4c 32 9b 3f 9b ea 0b 3f
       -0.09808145 0.60423803 1.2124724 0.54654855
000300 54 a2 47 bd d8 3a 77 bd 7a c7 09 be f2 42 ce be
       -0.048738793 -0.060358852 -0.13455 -0.4028545
000310 14 0e 87 bf 06 73 26 bf 52 3f 19 3f 8e 04 9a 3f
       -1.0551171 -0.6501926 0.59862244 1.203264
000320 10 3d 2d 3f ce a4 66 be 5f be 53 be 04 58 be bd
       0.676713 -0.22523805 -0.2067809 -0.092941314
000330 c7 ca e4 be 2d c5 70 bf 86 39 c4 be ed 69 c6 3e
       -0.44685957 -0.94050866 -0.38325137 0.3875269
000340 b1 5a 4b 3f ba 23 a6 3e 14 82 7a be 8d 96 7b be
       0.7943526 0.32449132 -0.24463683 -0.2456915
000350 64 65 11 be 16 d9 20 be c0 c9 27 bf 09 10 00 be
       -0.14198834 -0.15707812 -0.6554222 -0.12506117
000360 d3 22 ae 3c 39 3b a5 3e 49 8a 44 3e 8a 80 d6 3d
       0.02125684 0.32271746 0.19193377 0.10473736
000370 5a 70 1b 3e d5 d6 5c 3e 36 66 48 3d d1 cb 13 be
       0.15179577 0.21566327 0.0489256 -0.14433219
000380 aa b4 a8 3d db 61 f3 3d 94 35 b1 3e 58 69 98 3e
       0.08237584 0.11883899 0.3461119 0.2976787
000390 6f d4 c8 bd 7b 25 10 be 3d 8b 09 3b bf 94 31 be
       -0.098061435 -0.14076798 0.0020987533 -0.17341898
0003a0 5a 74 0a bf 1b a9 31 be b3 70 86 3e 88 73 92 3e
       -0.5408379 -0.17349665 0.26257858 0.28603768
0003b0 b5 9b 11 3e 11 0f a2 bc 15 9c 68 be ff 72 5a be
       0.14219554 -0.019782575 -0.2271579 -0.2133293
0003c0 aa 5d 5b bd bb d4 02 bf ba 22 8c be 16 77 68 3d
       -0.053556122 -0.5110585 -0.27370244 0.056754194
0003d0 64 6b ea be 8d ee ee bc 39 4d 11 bf 71 c3 8a bf
       -0.45785058 -0.029166484 -0.5675846 -1.0840894
0003e0 a8 97 29 bf 4d 53 5c 3d 61 f4 cc be b9 56 6d bc
       -0.66247034 0.05379038 -0.40030196 -0.014486008
0003f0 28 a4 32 3d 24 7b 18 3d 72 8e ea 3c 2b fd 7c bd
       0.043613583 0.03722681 0.028632376 -0.061764877

dense1.0.bn1.weight f4 [24]
000000 8d c6 fd 3e 2d 2f 1a 3f e8 1d f8 3e de 11 2c 3f
       0.49565545 0.60228235 0.48460317 0.67214763
000010 60 cf 75 3f c8 b4 18 3f d1 24 26 3f e2 14 17 3f
       0.96019554 0.5965085 0.6489993 0.5901624
000020 58 92 f8 3e c2 b4 14 3f 86 51 0b 3f 4c 5c ae 3e
       0.4854915 0.58088315 0.5442127 0.34054792
000030 a4 94 12 3f 5b 6d 46 3f 16 a4 46 3f 3c 87 bd 3e
       0.5725806 0.77510613 0.77594125 0.37017238
000040 d6 b9 db 3e 23 0c 5d 3f fa d0 18 3f 44 7e 24 3f
       0.4291522 0.86346644 0.5969387 0.64255166
000050 56 60 12 3f 19 32 90 3f 52 1c 1d 3f 0a e5 d2 3f
       0.57178247 1.1265289 0.6137134 1.6476147

dense1.0.bn1.bias f4 [24]
000000 8a 63 f5 3d 57 90 92 3d a6 1f ed be e4 74 32 3e
       0.11981876 0.07156437 -0.46313208 0.17427403
000010 a4 67 06 3f b9 91 d7 3e 55 9a 47 be 46 56 9d be
       0.52501893 0.42103365 -0.19492467 -0.30729884
000020 f9 dc 5c 3e ec f7 a6 be ab 16 d0 3e e6 42 b1 3c
       0.2156867 -0.32611024 0.40642294 0.021638345
000030 fb ec db 3e c3 32 a3 bd e4 0c 16 bf 8d 6c 87 be
       0.4295424 -0.079686664 -0.5861342 -0.26450005
000040 e8 3b 01 bd ae 0c c7 3e fe d9 f0 3e 41 9b ee be
       -0.03155127 0.3887686 0.47041315 -0.46602824
000050 c2 72 8a 3e af 01 33 3f 3e 72 15 bf c8 85 52 3f
       0.27040678 0.69924444 -0.58377445 0.82235384

dense1.0.conv1.weight f4 [12, 24, 3, 3]
000000 4c 5b fa bc e0 f6 f9 bc 89 6e 90 bc 4e 09 9c bd
       -0.030561112 -0.030513227 -0.017630832 -0.07618962
000010 d0 4c 73 3b 94 2b 88 bd 25 c2 66 bd 6d d9 f0 3c
       0.0037124641 -0.06648937 -0.056337494 0.029400552
000020 36 d8 8b bd 9d 61 3f be 41 0f 55 be a2 98 08 be
       -0.06828348 -0.1868958 -0.208066 -0.13339475
000030 f7 8c 81 be 25 74 ae be fd 5c 85 be 14 cb 83 be
       -0.2530286 -0.34072986 -0.26047507 -0.25740874
000040 fd 95 a1 be 19 9a 78 be 0a 70 59 bd 5d d7 cb bd
       -0.31559744 -0.24277534 -0.053085364 -0.09953187
000050 b1 d5 b3 bd 71 8f 95 bd ce 3c a9 bd f6 fb 86 bd
       -0.08780993 -0.0730275 -0.08263551 -0.065910265
000060 96 a3 8c 3d e4 be 3c 3d 08 92 21 3d f3 07 ec 3c
       0.06867139 0.046080485 0.039445907 0.028812384
000070 8f 27 2b 3e 44 5e 77 3d bd 18 14 3e 20 a5 8c 3e
       0.16714309 0.060392633 0.14462562 0.2746973
000080 e0 ca 16 3e 33 e7 00 3d 42 aa e3 3d a9 f2 a6 3c
       0.14725828 0.03147049 0.111164585 0.020379381
000090 8b b5 13 bd 3e da e8 bd 28 5d aa 3d 8a 9e 4e be
       -0.036061805 -0.113697514 0.083185494 -0.20177665
0000a0 05 1c a0 be 9a 1c 3b be ab 9a 3d bd db f5 d7 bd
       -0.31271377 -0.1827263 -0.04629008 -0.1054494
0000b0 64 a2 42 3b ee 01 0c 3b 12 0a 07 3e 3d b9 81 bc
       0.0029698843 0.0021363455 0.13187435 -0.015835399
0000c0 a7 b7 29 3e 2e 7f 69 3e 44 fe c4 3d a7 51 08 3d
       0.16573964 0.22802421 0.0961881 0.033280995
0000d0 60 62 1b 3e 9a 5b ac 3c d5 84 c6 bc a9 36 61 bd
       0.15174246 0.021039773 -0.024233261 -0.05498377
0000e0 f2 f2 ee bd 98 1d 74 3d ff 88 43 bb 10 25 d6 bd
       -0.11667432 0.059598535 -0.0029836295 -0.10456288
0000f0 ea 20 a4 3d 26 2d 74 3c 84 3a f6 bc a6 c1 08 bd
       0.0801409 0.014903342 -0.0300572 -0.033387803
000100 b7 ea 09 bd ec 2c 14 bd 7b 01 6e 3c e6 77 7f bc
       -0.033671107 -0.036175653 0.01452672 -0.015592551
000110 8b 2a af bc b7 30 40 3d c3 72 6e 3d 2d 11 21 3d
       -0.02138259 0.046921458 0.058214914 0.03932302
000120 88 6d 17 be 98 5f b2 bd 3e d4 06 bd 13 64 c7 bd
       -0.14787877 -0.08709639 -0.032917254 -0.097358845
000130 0f 1f 58 bd f9 66 2b bd 0a eb fc 3c e9 f4 78 bb
       -0.052763995 -0.04184625 0.030873794 -0.0037987775
000140 73 57 1b 3d 96 d2 5f 3d d3 c4 4f bd b6 cd 03 be
       0.037925195 0.05464419 -0.050724816 -0.12871441
000150 14 e8 ca 3d fe 3e b7 3d d0 73 3f bd 15 83 81 3d
       0.09907547 0.08947562 -0.046741307 0.0632383
000160 6b 4f 27 3d 05 a3 a4 bd 49 19 21 bc 2b 9f b7 bc
       0.040847223 -0.08038906 -0.009832689 -0.022414764
000170 f7 d1 58 3d 7a 37 ae 3d 4d a2 79 3d 4a 07 ad 3d
       0.052934613 0.08506675 0.060945798 0.08448656
000180 ff 11 f4 bc 2a a5 39 bc 67 2d 5e 3d 75 b4 77 bc
       -0.029793737 -0.011330882 0.054242518 -0.015118708
000190 87 1a 00 3d 84 43 59 bd 27 b6 a6 3d d3 c9 7c 3d
       0.0312753 -0.053042904 0.081402116 0.061715912
0001a0 f3 c1 08 bc 25 e4 68 3d 25 57 85 3c 81 a7 dc 3b
       -0.008347022 0.0568582 0.016276905 0.006733835
0001b0 29 77 46 3d 0d 0b bf 3c 6e 43 c2 bd 00 71 fa 3d
       0.048453484 0.0233207 -0.094855174 0.12228584
0001c0 74 97 4f 3e b3 e4 c3 bc 21 60 4b 3d 79 d0 9c 3d
       0.20272619 -0.023912763 0.049652223 0.076569505
0001d0 50 fe 85 bc a6 fd 27 be 72 f0 1a be c4 b5 b8 bd
       -0.016356617 -0.16405353 -0.15130785 -0.09019044
0001e0 39 ca bf bd 44 fd f6 bd 9c 69 01 be 0a 0e 0c be
       -0.09364743 -0.12060025 -0.12637943 -0.1367723
0001f0 d7 4f 3b bd 5a d7 a1 bd 67 20 2c be 22 16 36 be
       -0.045730438 -0.07902403 -0.16809236 -0.1778188
000200 ab 58 47 be 62 c4 ef bd f6 64 0d be 65 88 3f be
       -0.19467418 -0.11707379 -0.13808045 -0.18704374
000210 88 62 16 be 25 b5 21 be 2c 9f 4b be 30 f9 ee bc
       -0.14686024 -0.15791757 -0.19884938 -0.029171556
000220 0c 4f bc 3b 05 68 ce 3c fc a6 2e be 9a 58 00 be
       0.005746728 0.025196085 -0.17055887 -0.12533799
000230 ae 20 b4 bd 06 6d 49 3d 94 fb 1f 3d bd 05 ee 3c
       -0.08795296 0.04917624 0.039058283 0.02905547
000240 0c e9 10 3e b2 f2 20 3e 2a 0f 6f 3d 2a 3b 48 3e
       0.141514 0.15717581 0.05836407 0.1955382
000250 2e 4a 19 3e f2 94 b2 3d 51 34 37 3e 85 40 13 3e
       0.14969704 0.08719815 0.17891051 0.14380081
000260 a5 0e 82 3d f5 8f c7 3d 56 cb 54 3e 52 d8 ed 3b
       0.063504495 0.097442545 0.20780692 0.0072584534
000270 65 9c 82 3d 5b 00 9a 3e 84 b9 99 3d a5 48 04 be
       0.06377486 0.30078396 0.075060874 -0.12918337
000280 36 55 40 3c 3f 13 09 be 07 12 d1 3d c5 43 76 3d
       0.011739066 -0.13386248 0.102085166 0.060123224
000290 72 2a c6 39 06 ac 05 3d 70 d6 a5 3d 8a b2 4a 3d
       0.00037797127 0.032634757 0.08097541 0.049486674
0002a0 46 04 cf 3d 5b 92 3f 3c ba 67 c0 bd 81 c4 ec bb
       0.10108237 0.011692609 -0.09394784 -0.0072255735
0002b0 ea f0 ee 3c cc e0 48 3d 17 f0 11 3e 58 64 ad 3d
       0.029167611 0.049042508 0.14251743 0.08466405
0002c0 10 62 2f 3d cc 84 da 3c 69 ba 05 3e cf ca be 3d
       0.04281813 0.02667465 0.13059391 0.093160264
0002d0 b9 21 16 3d 39 2c ac 3d 53 24 ee bc 35 85 12 3d
       0.036653254 0.08406872 -0.029070055 0.035771567
0002e0 af d0 aa 3d 39 73 19 bd c7 77 30 3e f4 7e 26 3e
       0.083405845 -0.0374634 0.17233191 0.16259366
0002f0 36 19 9a 3d 4e 33 e1 3c 32 3d 32 3c 00 0f 98 bb
       0.0752434 0.027490284 0.010878848 -0.00464046
000300 79 f8 16 bd f5 e6 a5 3c da f1 4e 3b 8a 00 80 bd
       -0.036858056 0.02025173 0.003157726 -0.06250103
000310 7c fb 25 bd 0e 6b 42 bc 8c 02 68 bd 9c 1c 14 bd
       -0.040523037 -0.011866344 -0.056643054 -0.036160097
000320 5e 24 59 bd 06 0a ac bd 14 3d 99 bd b1 bb b2 bd
       -0.053013198 -0.08400349 -0.07482353 -0.087272055
000330 39 de 90 bd b3 42 f6 bc a4 d9 47 bd 5f a2 c7 bd
       -0.070736356 -0.030061102 -0.048791543 -0.09747767
000340 2b f0 4d bc ce 87 55 be 44 48 e8 bc d8 c8 88 3d
       -0.012569468 -0.20852587 -0.028354771 0.06678933
000350 80 cc 1d be e0 01 ca 3d 0e 3e b8 3d 7f 74 f7 bc
       -0.15410042 0.09863639 0.08996211 -0.030206917
000360 b2 2c 20 3d b3 b4 c9 3b 85 de 97 3d a3 26 ae 3c
       0.039105125 0.006155574 0.07415489 0.021258658
000370 6c ee 89 bc ff cd a9 3d 67 0d 85 3d c5 d6 99 3d
       -0.016837321 0.08291244 0.06496697 0.07511667
000380 5d 38 f2 3d ba 42 ac 3d b6 28 82 3c 15 e9 07 3d
       0.11827157 0.084111646 0.015888553 0.03318127
000390 77 ca 29 bc ce 29 7d bc ee 3d f8 3b bc e4 fb bb
       -0.010363213 -0.015451862 0.007575742 -0.0076871794
0003a0 2e 50 6e bd 42 75 b1 3a e8 75 fe 3c 4e 62 23 bc
       -0.058181934 0.0013538974 0.031062081 -0.009972168
0003b0 a6 cf 2e 3d 10 88 dc bc b2 e6 b0 3c f4 29 86 bc
       0.042678498 -0.026920348 0.02159438 -0.016377427
0003c0 b4 47 73 bb 0b 2e 8f bb 76 ca 26 bd bb 72 9c 3d
       -0.0037121596 -0.0043695024 -0.040720426 0.076390706
0003d0 cf 49 8f 3d e7 d0 27 3d 38 c5 94 3d 7c c8 9c 3d
       0.069965 0.04097071 0.07264179 0.07655427
0003e0 0c 8e 98 3d 80 89 13 3e a1 78 be 3d 79 44 bb 3d
       0.07448968 0.14407921 0.09300352 0.091439195
0003f0 50 45 eb 3d 64 d3 95 3d 34 b7 d6 3d 01 25 4b bb
       0.1148783 0.0731571 0.10484162 -0.0030997398

dense1.1.bn1.weight f4 [36]
000000 df f5 ce 3e e2 de 37 3e 54 0c 66 3e 05 9b 8e 3e
       0.4042196 0.17956117 0.2246564 0.27852646
000010 21 ad b3 3e f2 8c 82 3e 21 fe b3 3e ce 94 06 3f
       0.35093024 0.25498158 0.35154822 0.5257081
000020 1e fe af 3e 36 c9 bc 3e fb ab 27 3f 4c 99 62 3e
       0.34373564 0.36872262 0.65496796 0.2212879
000030 39 7e 56 3e c7 d1 81 3e 7b d4 9b 3e f8 a2 e9 3e
       0.20946588 0.2535536 0.30435547 0.45632148
000040 5d c0 43 3e 0b b5 22 3f 3e 11 61 3f 93 36 c0 3e
       0.1911635 0.635575 0.87916934 0.37541637
000050 61 ee 01 3f bf f3 11 3f 6d 52 2a 3f d9 17 08 3f
       0.5075436 0.5701255 0.6653202 0.5316139
000060 e9 0c c4 3e 29 72 6d 3e 2e b1 88 3f 26 83 14 3e
       0.382911 0.2318808 1.0679071 0.14503154
000070 47 0e 55 3f 3a 91 33 3e bb 12 46 3f 03 ff d6 3e
       0.8322491 0.17535868 0.7737233 0.41991434
000080 48 52 3a 3f 56 fa 0c 3f 5a da 51 3f a1 b1 5b 3f
       0.727818 0.5506948 0.81973803 0.85817915

dense1.1.bn1.bias f4 [36]
000000 9c 9e c6 be b5 5b 9d bb ec 2e 63 3a bd 8c e1 3d
       -0.38792884 -0.004802192 0.00086663547 0.11013172
000010 00 71 90 be fe aa da 3d 31 56 e3 bd b2 10 75 3e
       -0.28211212 0.106771454 -0.11100424 0.2393215
000020 88 7a 44 3e 70 17 18 be e1 87 bf bd e0 d1 28 3b
       0.19187367 -0.1485269 -0.09352089 0.002575986
000030 85 cf 02 3e c1 1d 0b 3e 67 05 61 3e ae a4 2f 3e
       0.12774475 0.13585569 0.21974717 0.17152664
000040 4a 12 60 3d c2 47 67 be 86 c5 80 be 3f 29 8d be
       0.05470494 -0.22585967 -0.25150698 -0.2757053
000050 e6 51 97 be 91 0b 7a 3e 63 af 21 bf f8 65 c3 3e
       -0.2955467 0.24418475 -0.63158244 0.38163733
000060 ec f4 c4 bd 76 c2 12 be e1 bf 51 3f d7 02 7a 3e
       -0.09617028 -0.14331993 0.8193341 0.24415146
000070 f5 d6 a1 3d df e8 a5 be c8 b7 0a 3e e1 5e 89 3e
       0.07902328 -0.3240423 0.1354667 0.268302
000080 de 3f 97 3e 22 25 0f 3e de 94 ed 3e 12 ba 37 3e
       0.29540914 0.13979009 0.4640264 0.17942074

dense1.1.conv1.weight f4 [12, 36, 3, 3]
000000 c8 58 0f 3d 9d 06 30 bc 29 b8 de bc b9 23 4b 3d
       0.034996778 -0.010743764 -0.027187424 0.049594615
000010 f2 ce 6c bd 78 ac d8 bd 8b 5e 8d 3d d7 06 90 bc
       -0.057814546 -0.10579771 0.06902798 -0.017581386
000020 14 c1 ad bd 82 cd ae 3d cb d1 8f 3c 45 d9 cf 3c
       -0.08484092 0.08535291 0.017556092 0.025372157
000030 7e af 80 3d 6e b3 b1 3c 0d 81 84 3d e3 d4 01 3e
       0.062834725 0.021692004 0.06469927 0.12678866
000040 cd ff e4 3d c9 e0 a3 3d 34 05 a9 3d a9 7c 95 3d
       0.111816026 0.08001859 0.082529455 0.07299168
000050 2c 99 95 3d df 1e f7 bb 8f 1b 57 bc d2 74 0e 3d
       0.07304606 -0.007541522 -0.013129129 0.034779377
000060 6c 43 8c bd 03 33 41 bc 26 36 0b 3e e6 ce 75 3d
       -0.06848797 -0.011791947 0.13594875 0.060011767
000070 16 e2 2a bd 1f 4f fc bd 94 4b 43 3d 24 67 ad 3c
       -0.04171952 -0.12319779 0.0476795 0.021167345
000080 88 ea c5 bd c0 33 76 3d db e7 7b 3c 00 eb 8c bd
       -0.09663874 0.060107946 0.015375103 -0.0688076
000090 29 fa 4b bd 27 48 df bd 1a 86 75 3d dc 24 01 bd
       -0.04979912 -0.10902434 0.059942342 -0.031529292
0000a0 59 1b 3c bd 1e 83 51 3d 1c 3c 45 bd 23 3b 4c 3d
       -0.04592452 0.051150434 -0.048153028 0.049861085
0000b0 5e 20 58 3d b7 04 2b bc 98 21 d5 bc 92 96 ac bd
       0.052765243 -0.010438136 -0.026016995 -0.084271565
0000c0 e9 b3 14 3e 1b cb 57 bc 9d 7d fc bd d9 b5 e2 3d
       0.14521755 -0.013170983 -0.12328646 0.11069841
0000d0 39 d3 b4 3b 15 46 6c 3b d4 d4 c9 3d 88 42 5b 3c
       0.0055183438 0.0036052514 0.09855047 0.0133825615
0000e0 bc 0e 32 bd 1a 0e 68 3d ad 05 a5 3c a2 a9 70 bc
       -0.043471083 0.056654073 0.020144308 -0.014688881
0000f0 02 28 1e 3d 67 18 14 3c 45 a8 5f bd d6 1d 5d 3e
       0.038612373 0.009039021 -0.054603834 0.21593413
000100 b1 a9 aa 3d cb 51 16 bd d6 39 25 3e 12 9c e2 be
       0.08333147 -0.036699098 0.16135344 -0.44259697
000110 eb 21 dc be 16 2a 26 3e 74 b6 ce bd fd 99 81 be
       -0.42994627 0.16226992 -0.10093394 -0.25312796
000120 e4 d8 02 3e d5 7a 98 3b 2a 9a 9d bc fd be ce 3d
       0.1277805 0.0046533146 -0.01923855 0.10095022
000130 f6 7d 34 be e2 a1 96 bd 58 d5 e3 3d 53 42 a4 3b
       -0.17626175 -0.073550954 0.111246765 0.0050127893
000140 ac a3 2e bd 08 34 8c 3c c7 6b a3 bd e5 84 0f 3c
       -0.04263656 0.017114654 -0.07979541 0.008759712
000150 a9 03 5b 3c 03 e3 ac bc 44 81 fb bc 6c 47 f7 3d
       0.013367572 -0.021104341 -0.030701287 0.120741695
000160 54 47 ca 3d df 7b cd 3d b2 72 d3 be 04 6b 09 be
       0.09876886 0.10033392 -0.41298443 -0.1341973
000170 29 c9 bc 3e a4 9d 9a bd cd c0 95 3e fd 0d 10 3d
       0.36872223 -0.07549599 0.29248658 0.03516959
000180 8e 5e 2c 3e 6c 3d e8 3e a7 7d b4 be 00 61 f1 3c
       0.16832945 0.4535936 -0.35252115 0.029465199
000190 b5 69 b5 3b 5d 2e ef ba 23 91 ac 3c e7 ab 44 3c
       0.005536283 -0.001824807 0.0210653 0.012003875
0001a0 c2 33 8f b8 3c 83 c6 bb 60 48 81 3d 4b 80 6d bc
       -6.828412e-05 -0.006058125 0.063126326 -0.014495919
0001b0 68 ca e6 3c 5a 41 28 bc 6d 94 b9 3c 26 1b ab 3d
       0.028172687 -0.010269487 0.022653783 0.083547875
0001c0 f2 ca 5d bd 4d 1f f2 3c 78 e0 c8 3d 1d d2 67 3d
       -0.05414862 0.029555941 0.09808439 0.056596864
0001d0 ca 1b c8 3d ab f5 33 3d 75 0a 59 3d 76 51 f9 bc
       0.09770925 0.04393546 0.05298849 -0.030434351
0001e0 24 27 dd 3c 71 6c 81 3d 19 6f a8 bc 89 34 d8 3d
       0.026996203 0.06319512 -0.020560788 0.10556895
0001f0 ca e5 53 3d 31 73 b3 3c 39 f4 21 3d 8d 71 ea bb
       0.051732816 0.021905513 0.03953955 -0.0071546496
000200 4e f6 ea bc 64 a5 ba bb 4d 90 56 3c e6 17 4e bc
       -0.0286819 -0.0056959856 0.013095927 -0.01257894
000210 46 73 88 3d d8 4e ac 3d 36 33 13 3d 56 25 88 bd
       0.06662612 0.08413476 0.03593751 -0.06647746
000220 55 85 16 3e bf 56 2f 3e 90 de ae be 63 ac 2a 3d
       0.146993 0.17122935 -0.34154177 0.041668307
000230 d8 c4 fe 3d e2 61 10 be 5f 57 4f 3d a0 d8 12 3e
       0.12439889 -0.1409984 0.050620433 0.14340448
000240 8a bb ab 3d 52 bb db 3d b2 fc ef 3d 1a 25 56 3d
       0.083853796 0.10729088 0.1171812 0.052281477
000250 71 f2 71 3c 97 d9 2e 3d 47 a6 a9 bd ad 67 b3 3c
       0.014767275 0.04268798 -0.08283668 0.021900022
000260 31 5e 52 3d b8 da c5 bc 3d 09 31 bd 31 95 90 bc
       0.05135936 -0.024152145 -0.0432217 -0.017649265
000270 68 f0 33 bd e1 e3 e4 bc d5 c9 49 bd 0b 23 76 3b
       -0.04393044 -0.027940692 -0.049264748 0.0037557508
000280 a0 2f 62 3d 61 61 2a bc 0a ca f1 bc de 0a 61 be
       0.0552212 -0.0103991935 -0.029515285 -0.21976802
000290 99 4f 16 be 11 dc 0d be 03 70 03 3e 7c a7 93 3d
       -0.14678802 -0.1385348 0.12835698 0.072096795
0002a0 bd d8 d2 bd 5c 31 a4 3d aa ad 98 3e 17 4b 14 bd
       -0.10295246 0.08017227 0.29819995 -0.036204424
0002b0 a0 61 b6 3d bb 47 e1 3d 5c c1 b7 bd 85 96 40 bb
       0.08905339 0.110000096 -0.08972427 -0.0029386592
0002c0 d6 3f 22 3d 1e 94 9f bd f2 54 bd bd 56 de 4e bd
       0.03961166 -0.07791923 -0.09244718 -0.050505005
0002d0 6c fc 99 bc 48 29 00 be 12 f4 b2 bd ad c7 38 be
       -0.018797122 -0.12515748 -0.08737959 -0.1804492
0002e0 1a e7 1a be 4a 69 22 be 56 76 da 3c 23 1d 73 ba
       -0.15127221 -0.15860477 0.026667755 -0.0009274056
0002f0 e4 8a cd bd 4b 29 6f be 51 e0 46 3d 03 27 87 3d
       -0.10036257 -0.23355596 0.04855377 0.06599238
000300 07 f8 80 be f9 f1 0a 3d f8 01 74 3e 65 02 b7 bd
       -0.2518923 0.03392217 0.23828876 -0.089360036
000310 46 87 c4 bc d4 ce 6d 3e 64 ce 02 3c 5b 80 fe 3d
       -0.023990285 0.2322343 0.007983778 0.124268256
000320 f8 22 4f 3e ec 73 a0 3c 2a eb 2a bc 80 ab 86 bc
       0.20228183 0.019586526 -0.010432044 -0.0164392
000330 0b 2c 8f bd 3f 52 d0 bd bd e6 1e be 8c 10 2b 3e
       -0.069908224 -0.10171937 -0.15517707 0.16705531
000340 83 bc 9e 3b 73 15 1d be c8 d7 bb bd ee 5a e4 3d
       0.0048442497 -0.15340213 -0.091720164 0.11150156
000350 86 00 6d bd f1 72 9b 3c e1 c8 56 3d 28 14 a7 bd
       -0.057861827 0.018975707 0.052437667 -0.081581414
000360 fa 3f 5c bd 47 12 2a bd 06 36 61 3d 61 c4 08 bd
       -0.05377195 -0.041521337 0.05498316 -0.033390407
000370 1c b7 0c 3d 38 40 02 3e da e3 d0 bb e5 b9 98 3d
       0.034354314 0.1271981 -0.0063748183 0.074573316
000380 5c 50 3f 3e 86 7f 00 be d1 82 0a be 3e 49 e8 3d
       0.18682998 -0.12548646 -0.13526465 0.11342095
000390 df b3 a1 bd 9f d5 13 bd f7 8f a3 3d de 6e 4f 3b
       -0.07895636 -0.036092397 0.079864435 0.0031651775
0003a0 2f 1e 13 3d 17 27 e0 3d 62 37 e0 3e ec 2a ab be
       0.035917457 0.10944956 0.43792254 -0.33431184
0003b0 5e 1c b1 be ab cb a3 3e f0 7d ac 3e 18 e2 fa be
       -0.34591955 0.31991324 0.33689833 -0.4900062
0003c0 8c 00 fd be 60 26 b9 3e b2 95 9c 3e 09 cf 66 3d
       -0.4941448 0.3616209 0.30582958 0.056349788
0003d0 91 a4 7f 3d cd dc c1 bd 59 67 a8 3d d4 a5 47 3d
       0.062412802 -0.094659425 0.08222837 0.04874213
0003e0 a4 39 c6 bd 44 e2 20 3e c3 ec 32 3e b0 d4 83 bd
       -0.09678963 0.15711313 0.1747313 -0.06437051
0003f0 ca de 81 bd 8e 4d 61 3d eb 3a 05 3e 6b bb 86 be
       -0.06341322 0.055005603 0.13010757 -0.26314864

dense1.2.bn1.weight f4 [48]
000000 27 f7 99 3d 17 3f 31 3c 11 cf 0c 3e 99 e4 fd 3d
       0.07517844 0.010818264 0.13750865 0.12397117
000010 a2 67 96 3b cd c2 0d 3e a6 fd 4a 3e 8a 07 8e 3e
       0.0045899907 0.13843842 0.19823322 0.27740127
000020 4c fe 2b 3e ca 34 01 3e 36 3e 12 3f 8c a9 40 3e
       0.16796225 0.12617794 0.57126176 0.18814677
000030 94 d4 0f 3e 9e a6 84 3d c8 4f 1d 3e eb 6d 94 3e
       0.14045936 0.06477092 0.15362465 0.2899011
000040 d3 09 b8 3a 6e ec 75 3e 2f 2c 1d 3f d3 57 e6 3d
       0.0014041014 0.24015972 0.61395544 0.1124722
000050 96 f2 21 3e 2e dd 2a 3f 08 a3 2c 3e 96 99 c8 3e
       0.15815195 0.66743743 0.16859066 0.39179677
000060 75 9c 18 3e c7 8d 9f 3d 1b d0 3b 3f 71 ec 09 3e
       0.14903434 0.07790714 0.7336442 0.13469101
000070 f0 6f bf 3e 81 b5 cf 3c 98 28 64 3f 03 5b 95 3e
       0.3739009 0.025355102 0.8912444 0.29171
000080 5f e4 6c 3f d3 25 95 3e d5 6b ec 3e d4 45 1c 3f
       0.92535967 0.2913042 0.4617602 0.6104405
000090 9a 5f 77 3f 7a 04 65 3f d7 fb 87 3e 11 d7 01 3f
       0.9663025 0.89459956 0.26559326 0.5071879
0000a0 3c 11 50 3f 7c 93 0b 3f cc 4e 36 3f bc d3 b4 3e
       0.812763 0.5452192 0.71213984 0.3531779
0000b0 d1 a8 5a 3e b8 35 5b 3f d8 61 c1 3e 48 7a 16 3f
       0.21353461 0.85628843 0.3776996 0.58780336

dense1.2.bn1.bias f4 [48]
000000 94 42 de bc 3a c4 84 bd 38 17 87 bd 9a db a1 bd
       -0.027131356 -0.0648274 -0.065962255 -0.07903214
000010 65 f7 8c bd 14 ae 89 bd 86 c2 3b be bb 01 6f 3a
       -0.06883124 -0.06722656 -0.18335924 0.00091173843
000020 3d 62 bf bb bf 7b 0b be 7c 01 0d 3e 76 3c d1 bd
       -0.0058405683 -0.13621424 0.13770097 -0.1021661
000030 a6 f9 a3 bd 29 bf 9e bd 7e 08 18 be 76 73 72 be
       -0.08006601 -0.07751305 -0.1484699 -0.23676857
000040 43 ea 1f bc 54 65 37 bd cb ee 41 3e 99 86 39 be
       -0.009760442 -0.04477437 0.18938749 -0.18117751
000050 dc f8 26 bd ac b9 a2 3d af 6d 09 be 5c 03 70 3c
       -0.040764675 0.0794557 -0.13420747 0.014649238
000060 70 90 f3 bd f1 aa b2 bd 58 e5 3d 3d da 35 07 be
       -0.11892784 -0.08724011 0.046361297 -0.13204136
000070 06 4d 82 be bf 5b 18 be 4f c0 65 3e fd 8f cd bd
       -0.2544939 -0.14878748 0.22436641 -0.10037229
000080 3f 8e 1c 3f 97 91 64 bd 04 0f e6 bd 38 81 4b be
       0.6115455 -0.055802908 -0.11233333 -0.19873512
000090 ad ed 14 3e 90 95 8e be 2b a4 c1 bd 66 5b 51 be
       0.14543791 -0.27848482 -0.09455141 -0.20445022
0000a0 bc d9 8d 3e 21 bb 74 be fe 3c 7c be d3 61 1f 3e
       0.2770518 -0.23899509 -0.24632642 0.1556466
0000b0 df 77 98 3d 61 ad b4 3d 84 ad b5 bc 7e de 5e 3e
       0.074447386 0.08822132 -0.022177465 0.21764562

dense1.2.conv1.weight f4 [12, 48, 3, 3]
000000 1e 96 95 bd 68 fe 77 bc 45 d9 b9 3c 90 f8 cd bc
       -0.07304023 -0.015136339 0.02268661 -0.025142938
000010 7e b0 42 bc f7 1a 04 bb 03 a4 0d bd 73 92 8a 3c
       -0.011882899 -0.0020157674 -0.034580242 0.016915536
000020 19 8f ed 3c d0 2e 42 bd 99 2e 00 3b 76 77 6b bd
       0.028998898 -0.047407925 0.0019559024 -0.057486974
000030 25 88 da 3b 25 74 a5 bc 1a 9c 7b bd 03 49 98 39
       0.0066690617 -0.020196984 -0.061428167 0.00029046097
000040 10 6c f9 bb db 60 12 ba 23 22 03 3d f4 6f e6 3c
       -0.007611759 -0.00055838906 0.032014977 0.028129555
000050 53 ea 6e 3d 21 d0 0e bc 28 19 93 3d 48 0c 92 bb
       0.058328938 -0.008716614 0.071825325 -0.0044570304
000060 7a 1c 37 3d de 05 4d 3d 81 ae 24 3d dc be 71 3c
       0.04470489 0.050054424 0.040205482 0.014754977
000070 a9 f6 ba bc 28 1e d1 bb 73 00 15 bd 28 c3 53 bc
       -0.022822695 -0.0063817687 -0.03637738 -0.012924947
000080 db 07 e8 bc ec e0 63 bc 4f 48 60 bd 47 d3 0f 3b
       -0.028324058 -0.013908606 -0.05475646 0.0021946
000090 d7 f1 e8 3c 7b 83 c0 3b 9c 0f c2 bb 92 5b 93 bc
       0.02843563 0.0058750487 -0.005922271 -0.017988
0000a0 c1 94 e1 b8 5b 83 a5 3c 80 8a c1 bc 03 31 6c 3d
       -0.000107565436 0.020204237 -0.023625612 0.05766393
0000b0 1d 95 cf 3b 84 69 fa bc bb 6f 8b bc fb 2f 7e bb
       0.0063349144 -0.030567892 -0.01702105 -0.0038785923
0000c0 8e e0 b6 bb c6 4f cd bd 34 9f 67 bd b0 0a f9 bc
       -0.005580968 -0.10024981 -0.056548312 -0.030400604
0000d0 3b e6 65 3c 9a 2b 57 3c fb be 7a 3c f9 8e a9 bb
       0.014031942 0.013132954 0.015304322 -0.0051745144
0000e0 15 43 5d bd d1 d0 ee 3a e6 8c 28 bd 37 02 65 bd
       -0.054019053 0.0018220191 -0.041149996 -0.055910315
0000f0 11 55 08 3c 1e 75 75 bc 72 3b 0d bc c4 08 b2 3c
       0.008321063 -0.014981536 -0.00862013 0.021732695
000100 7e 01 68 3b 77 be d9 bc ce af 4e 3d 89 e7 4c 3d
       0.003540128 -0.026580079 0.05046063 0.050025497
000110 4d 0e 21 bc c1 59 4f 3c 85 d5 15 3d 55 df 62 3d
       -0.00983007 0.012655676 0.03658058 0.055388767
000120 2e a8 8d 3c 62 7d d8 3c da 06 ea 3c 16 f8 29 3c
       0.017292108 0.026426975 0.02856772 0.01037409
000130 e5 b3 11 3c c3 c9 77 3c dd 22 7d 3c cc d4 0c bc
       0.008892988 0.015123787 0.015450207 -0.008595657
000140 6c 35 31 3d e1 9a 69 bd 0a 5e 94 bc dc 87 a2 3b
       0.043263838 -0.05703247 -0.018111248 0.0049600434
000150 a2 be ca bc 92 c0 6b bb 07 0d 4f bd 96 1d 2a b8
       -0.024749104 -0.0035972935 -0.050549533 -4.0558712e-05
000160 9f 6e 29 bd 8f 8b c2 38 c8 1c de bd 82 16 b9 bd
       -0.041365262 9.276636e-05 -0.10845333 -0.09037496
000170 d4 45 42 be 46 2e 14 be 78 f1 e5 bd a7 5d 77 be
       -0.1897195 -0.14470777 -0.11227697 -0.2415682
000180 d5 5d 6c be 90 97 02 be cc 7a 17 be 9d f8 33 bd
       -0.23082669 -0.12753129 -0.14792937 -0.043938268
000190 65 25 c3 bc b9 27 3b bd 67 11 36 3d f5 83 4f bd
       -0.023821542 -0.04569218 0.04445019 -0.050662953
0001a0 bc 3f ad bc 6e eb 1d 3d 50 b7 08 bd df db 50 bd
       -0.021148555 0.0385546 -0.033377945 -0.050990935
0001b0 67 d6 d5 bc 71 a9 f1 3b 6a 9c 7c 3d 54 05 2a 3b
       -0.026103212 0.0073749353 0.061672606 0.0025943117
0001c0 fd 30 c2 3a 30 0f 2d bc e6 e9 95 3c fa 51 3c bd
       0.0014815625 -0.010562703 0.018300008 -0.045976616
0001d0 61 08 91 bb 48 20 5a bd 16 40 17 bc bf 58 0a 3d
       -0.0044260477 -0.053253442 -0.009231588 0.03377604
0001e0 b1 8c 23 3c 0d 77 14 bd 33 85 ed bb be 19 0f bb
       0.009982274 -0.03624635 -0.0072485446 -0.0021835412
0001f0 f6 83 e2 bc 63 ac 21 3d 64 bb c9 3c f0 b6 21 bc
       -0.027650815 0.03947104 0.024625488 -0.009870276
000200 32 2d a8 bc f6 0e b3 bc 13 de 78 3c 1a 57 ff bc
       -0.020529363 -0.02185772 0.015189665 -0.031169463
000210 fa ba 3b bd 53 53 98 3c 82 53 62 bd d5 0b 9c 3d
       -0.04583261 0.01859442 -0.05525542 0.07619444
000220 74 0d 6f 3d 72 cf 15 bc 6e 52 1b 3c de 2a 9b bb
       0.05836244 -0.009143697 0.009480102 -0.004735335
000230 cf e5 16 3d c0 44 74 bc 44 d3 82 3b 87 e2 e3 3b
       0.036840256 -0.014908969 0.00399247 0.0069544944
000240 ea 74 16 3d fe 6c db bb 61 b5 95 3b 6b 82 f0 3c
       0.03673259 -0.0066963425 0.004568741 0.029359063
000250 52 95 44 3d ef 75 ee bb 19 22 d1 3c d2 43 74 3d
       0.047993965 -0.0072772424 0.025528954 0.05963499
000260 40 fd 14 3d a4 6d 48 bd e2 1e 00 bc d8 38 21 bc
       0.03637433 -0.048932686 -0.007819863 -0.009840213
000270 19 93 c2 ba 46 96 4e bd 3b f1 71 bc fe 31 1c bd
       -0.0014844864 -0.05043628 -0.0147669865 -0.038133614
000280 dc 1a fc bc 83 88 c9 bb 4a 7b 87 3e af 55 88 3d
       -0.030774526 -0.0061503067 0.2646125 0.06656968
000290 1f 05 5c bd 7f d2 36 3e 6f 66 a8 3c 3b f0 de bc
       -0.05371582 0.17853735 0.020556657 -0.02721416
0002a0 21 3e a7 3d d8 f9 0b bb 16 5e 78 3c db fe 3e bc
       0.08166147 -0.0021358635 0.015159151 -0.011657442
0002b0 46 1a bc 3c 9e b1 9a 3c 2f 22 2d 3d 7f cb 2a bc
       0.022961747 0.018883523 0.04226893 -0.010424494
0002c0 83 25 ad bc 3d a6 16 3c 88 19 1c bc dd 10 22 bd
       -0.021136051 0.009194908 -0.0095275715 -0.039566863
0002d0 38 1e a3 bb 43 6d da 3c ee 78 c8 3c c3 c6 bb 3d
       -0.0049779676 0.026663428 0.024471726 0.0916877
0002e0 c7 37 19 3d 93 ee 25 3c dc 0b d6 3c 6b 46 22 3c
       0.03740671 0.010127681 0.026128702 0.009904484
0002f0 32 92 2a 3c 88 d1 f7 bc 9f b1 5b bc b4 f6 4b bd
       0.010410832 -0.03025128 -0.013409047 -0.04979582
000300 d6 d1 19 bd eb 28 2a bd fb 77 30 bd 98 2f 17 bd
       -0.03755363 -0.04154293 -0.043083172 -0.036910623
000310 4b cb 13 bd 3f 0b de bc fb e7 9b bc a0 f5 24 ba
       -0.036082547 -0.027104972 -0.019031515 -0.00062927045
000320 a7 00 04 bd 31 32 4a bd f6 b1 b9 bc e6 7f 55 bd
       -0.032227185 -0.049364273 -0.022667866 -0.052123927
000330 05 45 46 bc a1 aa 19 3b 31 06 e3 bc 87 ec 81 bd
       -0.0121014165 0.002344765 -0.027712913 -0.06343942
000340 f3 1c 5a bc d4 ec 86 bd 9e 8f 14 bd 4e 44 1e bd
       -0.013312566 -0.0658814 -0.036269777 -0.03863936
000350 b9 5d 49 bd 9c 49 2a bd 1d 1d 51 bd 7c 3f ae 3c
       -0.049161647 -0.041574106 -0.051053155 0.021270506
000360 aa 26 2b bd 8a d9 80 bc 3d 40 f2 bc 72 42 8d bd
       -0.04178492 -0.01572873 -0.029571647 -0.06897439
000370 8b cb 76 3c dd 14 05 bd e1 1b 8b bd 17 fb c2 3c
       0.015063177 -0.0324906 -0.06792427 0.02380137
000380 31 b7 9d 3b 48 cf 8f bc 89 1b e3 bb 3c f0 de bb
       0.004813098 -0.017554894 -0.0069307727 -0.0068035405
000390 3e 66 e0 3a e3 e1 6a bb 01 67 f1 bc a1 a8 f6 3c
       0.0017120314 -0.0035840205 -0.029468061 0.030109705
0003a0 e1 3a 6d bd 02 66 03 bd 3f a2 22 bd 8d 0d 99 3a
       -0.05791748 -0.032079704 -0.03970551 0.0011677012
0003b0 a1 68 17 bd 20 84 3c bb d5 86 b3 bd ce 52 8c bd
       -0.036965016 -0.0028765276 -0.087659515 -0.06851731
0003c0 9c ca 6f bc 35 b6 a0 bd 80 b2 bc bd af e0 03 bc
       -0.014635708 -0.07847253 -0.09213734 -0.008049174
0003d0 95 2b 51 bc a5 aa 02 bc ae 0f b9 39 81 76 cf bc
       -0.012766738 -0.007975255 0.00035297632 -0.025325062
0003e0 d9 ce 52 3c 40 8e f3 bb c0 2b 8e bd 37 48 c3 3c
       0.012866699 -0.007432729 -0.069419384 0.023838146
0003f0 2b 2b 36 3c df 23 2a bd 6e 97 15 bc ad 5d 77 3d
       0.0111186905 -0.041538116 -0.009130342 0.06039207

dense1.3.bn1.weight f4 [60]
000000 f7 9e 4e 3e 26 00 23 3e a4 6d b6 3d b3 cb 72 3e
       0.20177828 0.15918025 0.08907631 0.23710518
000010 ab 54 51 3e 29 0a 86 3e ee 39 78 3e 5e d1 ac 3e
       0.20442455 0.26179627 0.24240848 0.33753484
000020 3d da c0 3e 1a 41 a5 3e d1 0b 19 3f bc a2 6c 3e
       0.37666503 0.3227623 0.59783655 0.23108953
000030 83 45 a6 3e 87 3d 59 3e e5 ff 81 3e 53 15 d2 3e
       0.32474908 0.21214877 0.25390545 0.41031894
000040 15 b8 65 3e c6 89 b7 3e 8d 09 00 3f f7 8a 9f 3e
       0.22433503 0.358473 0.50014573 0.3116071
000050 48 03 03 3f 94 41 92 3e 46 70 b1 3e cf 31 37 3e
       0.5117688 0.28565657 0.3465597 0.17890094
000060 d1 d0 b0 3e c4 1a 87 3e d0 45 13 3f 0b e4 88 3e
       0.34534314 0.26387608 0.575284 0.26736483
000070 2b f4 86 3e eb bb 97 3e 36 b7 e2 3e 3f d8 cb 3e
       0.2635816 0.29635558 0.44280404 0.3981342
000080 fe d4 27 3f b4 33 38 3e f3 66 fe 3e ae d0 be 3e
       0.65559375 0.17988473 0.4968792 0.37268585
000090 ee f2 0c 3f 57 f6 9b 3e 90 90 bc 3e 13 9b 99 3e
       0.5505818 0.3046138 0.36829042 0.30001125
0000a0 53 22 0b 3f 6a 48 01 3f e2 ee 04 3f 67 c1 b0 3e
       0.5434925 0.5050112 0.51927006 0.34522554
0000b0 fa 73 d8 3e 79 05 b3 3e 80 44 81 3e e9 8c 52 3f
       0.42275983 0.34965113 0.25247574 0.8224626
0000c0 89 b3 0c 3f 84 26 57 3f 42 fb 43 3f a6 65 50 3f
       0.5496145 0.84043145 0.76555264 0.81405103
0000d0 36 2a 3e 3f 12 33 15 3f 75 ab c6 3e 0f 8c fd 3e
       0.7428316 0.5828105 0.38802686 0.4952092
0000e0 77 0c 01 3f 46 6c 71 3f de 57 5d 3f c2 04 8e 3f
       0.50409645 0.9430584 0.864622 1.1095202

dense1.3.bn1.bias f4 [60]
000000 d2 c0 13 bc 2b 13 d8 bb cc c0 0b be 25 a5 b1 bd
       -0.00901814 -0.006594082 -0.13647765 -0.08674077
000010 fc 78 ff bc 27 3d 41 be ab 6c 32 be ee f4 a7 3d
       -0.03118562 -0.18870984 -0.17424266 0.082010135
000020 ce de ce bd 81 88 6c be 85 1d ca 3e bd d2 c8 bd
       -0.1010109 -0.23098947 0.39475647 -0.0980582
000030 85 d4 c2 bd fc 28 07 3d 51 78 ca bd 89 05 8a 3e
       -0.09513191 0.03299807 -0.0988623 0.26957348
000040 6b 2f 4e be d3 a8 30 be 0e ce 0a 3d 4e 28 52 be
       -0.20135276 -0.17251901 0.033887915 -0.20523188
000050 2f d7 4d be 50 dd 01 3c bc 58 57 be 7b e4 15 3d
       -0.20101617 0.0079263 -0.21029943 0.03659485
000060 64 a6 15 be 97 65 43 be 08 09 2e bd 5c b7 43 bd
       -0.14614254 -0.19081722 -0.04248908 -0.047782287
000070 af 20 a5 3d 53 a1 b8 be 3a 4d 21 be 4a 70 d0 be
       0.080628745 -0.3606058 -0.15752116 -0.4071067
000080 95 cc b2 bc 2f b2 0c be 6b 5a 78 be 1e 43 9a be
       -0.021826068 -0.13739847 -0.24253242 -0.3012933
000090 bd 01 32 be 0c 7a 62 be 5c ba b3 be 60 ef b9 be
       -0.17383476 -0.2211687 -0.35103118 -0.3631544
0000a0 d2 ca 73 3e 9c 0a 00 be 91 97 71 be ee 43 48 3e
       0.23807839 -0.12504047 -0.23592974 0.19557163
0000b0 49 92 18 be ce 2c a2 3d 9c d7 c7 bd 23 01 a8 3d
       -0.14899553 0.07918702 -0.09757921 0.08203342
0000c0 31 7f a2 bd 11 59 66 be f7 e0 2c be 36 34 80 3d
       -0.07934416 -0.22494914 -0.16882692 0.062599584
0000d0 43 cb 1f 3d bd 6a 19 bd e3 cc ad 3d c2 f9 b5 be
       0.039012205 -0.03745531 0.08486345 -0.35542113
0000e0 03 e9 35 3d 0d 03 68 be 8c c5 f3 3c 7c f7 95 be
       0.04441167 -0.22657414 0.029757284 -0.29290378

dense1.3.conv1.weight f4 [12, 60, 3, 3]
000000 89 e2 c5 3c 5c c5 a2 3c 60 d0 c5 3c 7b 6b 8a 3a
       0.024155872 0.019869499 0.024147213 0.0010560596
000010 ba 12 09 bc fe aa 6a 3c eb cf 2d bd a0 6d 2c bd
       -0.008366281 0.014322994 -0.042434614 -0.042096734
000020 e9 23 12 3d 36 8b 2f bc e1 31 27 3d d5 33 07 3c
       0.035678778 -0.010714343 0.040819053 0.008252104
000030 f6 47 57 3d d0 40 8a 3d a2 c0 ad 3d a3 82 c0 3d
       0.05255886 0.06750643 0.084840074 0.09399917
000040 7f 37 97 3d 5e 11 64 3d ea 22 70 3d d9 42 85 3d
       0.07383632 0.055680625 0.058627047 0.06506891
000050 94 94 64 3b b4 83 e7 bc e3 ea 35 3c f0 e2 7f bb
       0.0034878599 -0.028261043 0.011103365 -0.0039045177
000060 d3 39 bc bc b7 04 9a bc 09 70 cd bc 89 99 d2 bd
       -0.022976791 -0.018801076 -0.025077837 -0.10283191
000070 19 d5 82 bd 1d 96 8a bd e2 86 89 bd ed e4 bc bd
       -0.063883014 -0.06766913 -0.0671518 -0.09223352
000080 b4 37 7a bd 72 9d ae bc e5 26 6c bd f6 65 85 bd
       -0.06108828 -0.02131531 -0.05765428 -0.06513588
000090 3e 70 91 3d 86 7c 51 3d 37 f8 92 3c 29 5e df 3d
       0.071014866 0.051144145 0.017940624 0.109066315
0000a0 19 56 90 3d 36 c9 3d bc 66 98 a8 3d 23 06 7a 3d
       0.07047672 -0.011583617 0.08232193 0.06104101
0000b0 9b 58 c2 3d 71 ea 58 3b 73 63 33 3d e0 a0 5d bd
       0.094895564 0.0033098722 0.043796014 -0.0541085
0000c0 8a 02 f0 ba 42 86 6c bc b4 22 82 bc 90 66 01 3b
       -0.0018311304 -0.014436306 -0.015885688 0.001974497
0000d0 10 68 3c 3c 3f 9b f3 bb ec 2b c2 3c 4e 33 95 3d
       0.01149942 -0.0074342783 0.023702584 0.07285176
0000e0 92 3c 19 3d ff 37 a4 3d 9c ef 18 3d 76 5f be 3c
       0.03741128 0.08018493 0.037337884 0.023238879
0000f0 bd 5b ec 3c f7 22 b0 3c 01 4d 21 bd d2 3e ae bc
       0.028852338 0.021501048 -0.039380077 -0.02127019
000100 47 a0 81 bd ba 75 99 bd e1 53 05 3d cb 3a bf bd
       -0.063293986 -0.07493158 0.032550696 -0.09337386
000110 77 00 c6 bd 64 81 0f 3e c0 2e be 3d 97 d6 a3 3c
       -0.096680574 0.14014202 0.092862606 0.019999785
000120 18 86 e6 3a a2 a8 1a bd ca b8 4a 3d 4c 65 3d 3d
       0.001758757 -0.037758477 0.049492635 0.046239182
000130 7d 7b 7d 3c bd 03 19 3a 50 b8 e4 3c 0a b6 84 ba
       0.015471336 0.0005837044 0.027919918 -0.0010125053
000140 d2 4e b3 3c c5 30 33 3d 0f 65 bc 3d b3 b6 cf 3c
       0.02188817 0.043747682 0.09198963 0.025355672
000150 74 c1 c6 3d 4d f2 af 3d bf de 48 3d a1 67 5d 3d
       0.09704867 0.08591137 0.049040552 0.054053906
000160 e8 26 91 3d d8 d6 29 bd 88 3a 43 bd 42 1d b2 bd
       0.07087499 -0.041464657 -0.04766324 -0.08696987
000170 b9 64 54 be 7a ff 9e bd 37 22 ac bd e7 b0 94 be
       -0.20741548 -0.07763572 -0.084049635 -0.29041216
000180 c4 b2 6c 3c 78 60 fc 3d dc 10 0b be b7 62 71 3c
       0.014446918 0.123230875 -0.1358065 0.014733008
000190 49 c8 36 3d b8 93 35 3c 64 59 3e 3d d9 24 2b 3c
       0.0446246 0.011082582 0.04647197 0.010445797
0001a0 d0 ed 38 3c b3 05 20 3d 6e db 04 3d e4 b7 99 3b
       0.011287168 0.039067935 0.032435827 0.004691111
0001b0 37 55 a2 bc 90 05 b1 3c 86 89 9a 3b 70 ed 34 3c
       -0.019816024 0.021609098 0.004716101 0.011042938
0001c0 af d6 b1 3c a1 69 45 bd 5c ba ed 3c e3 84 45 3d
       0.021708814 -0.04819644 0.029019527 0.048222434
0001d0 dc 95 8d bc 14 0c 23 3c 73 1a 4a 3a b8 e2 16 3d
       -0.017283373 0.00995161 0.000770963 0.03683731
0001e0 5e 8b 9b bc c4 6e 78 bd b5 d2 a9 3b 43 76 e8 bd
       -0.018987354 -0.06065251 0.005182589 -0.11350682
0001f0 47 17 17 3b 1c 34 82 bb ee 0f 1b 3d e3 e9 18 3d
       0.0023054646 -0.003973497 0.03785699 0.037332427
000200 85 13 19 3d 5d f2 1b 3d 2d 5d 76 3d 24 07 86 3d
       0.03737213 0.038072933 0.060147453 0.06544331
000210 83 8e ba 3d 61 fe bb 3d 16 37 3e 3d 65 dc 90 3c
       0.09109213 0.09179378 0.046439253 0.017683217
000220 7d 76 c4 3d dc e0 2d 3e ed 35 ea bd 92 d2 b1 bc
       0.09592912 0.16980308 -0.11436067 -0.021706853
000230 5c 4d de 3d f8 d1 1c be 08 40 c2 bd b2 29 a3 bc
       0.10854599 -0.15314472 -0.09484869 -0.019917343
000240 af ce f9 3c aa ac 38 3c 51 07 fe bc 69 63 07 3d
       0.030494062 0.011271635 -0.031009348 0.03305379
000250 1c 59 5f 3b 8d 3a f5 3b 6e 99 a7 3c 32 53 e2 3c
       0.0034080213 0.0074837864 0.020458903 0.027627561
000260 a5 9b 40 3d 47 25 20 3c 8f f2 2a 3d 23 97 c9 3d
       0.047023434 0.009774513 0.04173523 0.0984328
000270 9d 87 8e 3d 40 6c 9e 3c 0a ba 21 3d 2f c4 48 3d
       0.0695946 0.019338727 0.03948406 0.04901522
000280 4f 4a 8e 3a d6 b2 25 3c e8 11 97 3d aa 0a 8b 3e
       0.0010855886 0.010113439 0.07376462 0.27156574
000290 27 fc d1 3d c7 f7 be bd 45 a2 b3 bc 97 bb 84 3d
       0.10253172 -0.093246035 -0.021927962 0.064810924
0002a0 3b 41 08 be 7a 08 0c be 93 f2 f6 bd e7 96 94 bd
       -0.13306133 -0.13675109 -0.12057986 -0.07255345
0002b0 af e5 5d 3c 3f af a7 3a 4d 00 ec 3b 16 bf be bb
       0.01354353 0.0012793316 0.0072021843 -0.005821119
0002c0 db 0d 11 bd c6 2c 55 bd 07 31 5d bd 45 fa 3a bd
       -0.035413604 -0.052044652 -0.054001834 -0.045648832
0002d0 46 fa 6d 3c f4 82 23 3d 1b 30 bd 3d 59 88 03 3d
       0.014525002 0.03991981 0.09237691 0.032112453
0002e0 fd cd 39 3d 3f 20 90 3d ae 35 c4 bc 82 49 15 bd
       0.04536246 0.070374005 -0.023951378 -0.036447056
0002f0 8a 57 86 bc 1c 4a 50 3c bf 2f 9a 3c b6 ee 1b 3d
       -0.016399164 0.012712982 0.018821595 0.03806945
000300 64 f5 b5 3c aa e8 18 3c f1 bd 10 3c 12 91 25 3d
       0.022211738 0.009332815 0.008834348 0.040421553
000310 d6 9c 9c bc 29 b5 63 bb 11 af 85 bd a9 a2 55 3b
       -0.019117754 -0.003474543 -0.06527532 0.0032598174
000320 f5 cb 0f 3d bf db dd bc 30 c3 95 b9 8a 3d ac 39
       0.035106618 -0.027082322 -0.0002856492 0.00032852247
000330 3f 82 bb 3c 38 34 ba bc 69 e9 b7 3b 4e 1c ce bc
       0.022889255 -0.022729978 0.0056125415 -0.025159981
000340 27 3c dd 3b 44 d6 cc bb ee ed b3 3c f5 73 b1 bd
       0.0067515555 -0.0062511284 0.02196404 -0.08664695
000350 90 1a a8 bc 2a 30 31 3c dd 4a 80 bd e1 f1 62 ba
       -0.020520478 0.010814706 -0.06264279 -0.00086572586
000360 77 a3 0d bd 75 03 ec 3b 3e 0e 38 bd fe 32 23 bd
       -0.03457972 0.0072025605 -0.044935457 -0.03984355
000370 52 b3 43 bb 94 ab 82 bc 2e e8 58 bd 1f 4f ea bb
       -0.0029861522 -0.015950955 -0.0529558 -0.0071505453
000380 78 da 24 3d ff 8e 23 3d 12 ab c7 3c 49 bc 95 bd
       0.04024741 0.039931294 0.024373565 -0.07311303
000390 1a c6 c9 bc cf fc 69 bd bc e2 61 bd 00 bc 67 bb
       -0.024630595 -0.057125863 -0.05514787 -0.003535986
0003a0 3f 9d 2b bd a4 32 9b bd d3 dc e0 3c 85 d5 b8 3c
       -0.04189801 -0.07578018 0.027449047 0.022562752
0003b0 a6 69 be ba 23 8a 22 be 7c c7 06 3d ad 5b 76 bd
       -0.0014527335 -0.15873007 0.032905087 -0.060146023
0003c0 a6 5f 43 be b5 cf c0 bd 6c a0 0e 3d ad 82 6f bd
       -0.19079456 -0.09414617 0.03482096 -0.05847423
0003d0 7e b2 de bc b6 93 f3 bc 94 7c 97 bd 46 e0 45 bd
       -0.027184721 -0.02973352 -0.07396808 -0.048309587
0003e0 a0 ee c6 bd 0c 1f ac b9 99 f2 9e bd 52 d1 bb bd
       -0.09713483 -0.00032829528 -0.077611156 -0.09170784
0003f0 90 c5 00 bd ee 64 0b 3e 2c 77 31 3e e2 5c 34 be
       -0.03143841 0.1361272 0.17330617 -0.17613557

dense1.4.bn1.weight f4 [72]
000000 13 7e d3 3e a3 d3 0d 3e c4 b2 ec 3d 6a 17 09 3f
       0.41307124 0.13850264 0.11557534 0.5355135
000010 c9 e0 c9 3d 29 6b f0 3e 90 f3 84 3e 9e 4d a3 3e
       0.098573275 0.46956757 0.25967073 0.31895155
000020 e2 55 8d 3e 30 f4 4b 3e bb 3e 10 3f 9a de 2b 3e
       0.27604586 0.19917369 0.5634572 0.16784135
000030 99 98 54 3e 71 de b9 3e 98 86 86 3e 44 f2 d0 3e
       0.20761336 0.36302522 0.26274562 0.40809834
000040 d7 a4 90 3e ec 0c 15 3f 54 d0 4d 3f 57 98 85 3e
       0.28250763 0.5822284 0.8039601 0.2609279
000050 aa 2a 6b 3e d5 74 6c 3e 3f b2 9e 3e f6 48 a4 3e
       0.22965494 0.23091443 0.30995366 0.32086915
000060 a0 c6 80 3e ef f1 15 3e 31 d1 6b 3e da fc 7c 3e
       0.2515154 0.14643072 0.23029019 0.2470583
000070 c2 e9 c4 3e 20 d3 62 3e f4 f5 a3 3e a5 e7 19 3e
       0.38459593 0.2215085 0.32023585 0.15029772
000080 38 5d 48 3f 0f 15 cb 3e 55 bb 76 3e 35 7b b5 3e
       0.7826724 0.39664504 0.24094899 0.35445562
000090 44 e7 0b 3f 8c 6e e1 3d 93 80 a1 3e e4 70 67 3e
       0.5464976 0.11007413 0.31543407 0.22601658
0000a0 82 cd 94 3e 21 3a bc 3e 6a e4 b9 3e 4b ae 93 3e
       0.2906304 0.367631 0.3630708 0.28843912
0000b0 65 ab e3 3e 84 a2 99 3e f9 7b 67 3e 44 ae 16 3f
       0.444667 0.30006802 0.22605886 0.5885966
0000c0 21 9a 8d 3e 98 b4 9d 3e 86 78 4d 3f fd 1d 45 3f
       0.27656654 0.30801845 0.8026203 0.76998883
0000d0 ce fc a9 3f cf a1 8a 3e a7 00 8c 3e 81 f8 77 3f
       1.3280275 0.27076575 0.27344248 0.9686356
0000e0 94 94 70 3f ce f1 7d 3f c8 2a 16 3f 7e a6 07 3f
       0.9397671 0.9919709 0.5865903 0.5298842
0000f0 9a b4 cb 3e 7f b8 80 3e 9a fc ad 3e d1 5d 9b 3f
       0.39786226 0.2514076 0.33981782 1.2138005
000100 f3 f8 94 3e f5 c0 3a 3f 1a 2f 1d 3f bf ff 9e 3e
       0.29096183 0.7295068 0.61399996 0.31054494
000110 99 36 00 3f 95 35 a7 3e ef dc d2 3e 3e d4 20 3f
       0.5008331 0.32658067 0.41184184 0.62823856

dense1.4.bn1.bias f4 [72]
000000 b0 67 e4 be cc d4 4b bc 38 f9 13 be 4c 06 91 be
       -0.44610357 -0.012440871 -0.14450538 -0.28325117
000010 55 1f 43 bd 29 76 ba be 76 a2 50 be 84 b4 66 bc
       -0.047637302 -0.36418274 -0.20374474 -0.014081124
000020 89 2a 92 bb 0b 20 1d be 36 0f 96 3c 10 b2 36 3d
       -0.004460637 -0.15344255 0.0183178 0.044603407
000030 52 a1 04 bd e3 75 ea 3c f0 f7 2a be 05 51 95 be
       -0.03238041 0.028620666 -0.16696143 -0.29163375
000040 f2 06 cc be 5b 22 9c be ee ce 53 3c f0 ab 4a be
       -0.3984905 -0.3049496 0.012927754 -0.19792151
000050 b7 b6 1d be b4 44 53 3c b3 cd 6e 3d a7 07 a4 bb
       -0.15401731 0.012894798 0.05830164 -0.005005795
000060 91 f2 b5 3b d4 84 25 be ce 57 9e bd fe 99 5d 3e
       0.005552598 -0.16163951 -0.07731591 0.21640775
000070 1b e9 d2 bd ba 22 95 be 50 e7 f5 bb 5a ec 4e 3d
       -0.102983676 -0.29128057 -0.0075043812 0.05051837
000080 1b 89 21 3d bf 9a f3 3a 43 6e da bc 26 3b 8b 3d
       0.039437395 0.0018585547 -0.026663905 0.06798391
000090 20 b0 2c be 65 eb 0d be 1c 26 2e be f2 d9 30 be
       -0.16864061 -0.13859327 -0.17006725 -0.1727064
0000a0 e3 3e e6 bd 65 9b 2c bd b1 bd a7 3a 40 1a e3 3d
       -0.112424634 -0.042140383 0.0012797621 0.11088991
0000b0 af d5 09 bd fb e1 23 bd 99 6e 41 bd 10 e4 65 be
       -0.03365105 -0.040010434 -0.047224615 -0.2245028
0000c0 02 4e be bd d0 09 a5 bd b4 65 b2 bd f9 76 92 be
       -0.092922226 -0.08058512 -0.087108046 -0.28606394
0000d0 f7 20 80 be fe b0 8c bd c0 97 85 3d 26 c9 a7 be
       -0.2502515 -0.06869696 0.06523085 -0.32770652
0000e0 a7 cd 20 be a5 0b 74 be 82 fb d5 3b 59 ad 66 be
       -0.1570345 -0.23832567 0.006530226 -0.22527064
0000f0 e7 52 48 be 9b 17 bc bd 98 d0 6b 3e 30 83 2d be
       -0.19562875 -0.0918419 0.23028791 -0.16944575
000100 93 bc 98 3d 06 66 7a 3e 13 3a 97 3e 5d bb f2 bd
       0.07457843 0.24452981 0.29536495 -0.11852143
000110 0e 22 1f 3d 8d 11 56 be ef 41 85 3c 81 fa 13 bd
       0.038850836 -0.20905133 0.016266791 -0.03612757
