fedmd_results_0.0/client60/best_model_0.0.pth (torch, 420539 bytes, 98 tensors)

conv1.0.weight f4 [16, 3, 3, 3]
00000000: be4e 933d 93b7 8cbd 156b bb3e 2208 babe
00000010: 59da 53bf 2a13 a0be aa97 23be e825 24bf
00000020: 5e3b 3ebe a55f 8b3d ef22 82be b6eb 883d
00000030: 752c 58bd 83ed 21bf 78dc 66be 30f4 be3e
00000040: 3fd6 44be 2baf 343e c88c c33c 6641 9abc
00000050: 48ae 833e 5efc a4be c009 1bbf 63ba 55be
00000060: a14a 7ebe 283f 0abf b1d0 1fbe 6798 2ebf
00000070: ac40 1fbf 980c 20bf 1cc4 89bf 2964 84bf
00000080: 9c86 6dbf 3ae1 8abf 2885 a0bf 55c7 84bf
00000090: 45cb 613f 7458 873f 7781 4e3f f107 6d3f
000000a0: 7a25 983f f016 813f 5ce1 5f3f 516e 6c3f
000000b0: 10a9 4e3f 8767 52be a576 10be e418 b5be
000000c0: 3a2a 963d 2258 803e b1f4 293c cc71 903e
000000d0: e2ba 913e 449c a93d 2755 a1be 2c63 933e
000000e0: 3e53 82be a1d2 dfbd 6672 6b3f 8399 04bf
000000f0: 7c70 d03e ede7 923f dd64 4dbf dc1d e6be
00000100: 8880 243f 4fc1 45bf a732 62be d953 9e3f
00000110: 5223 96bf 5381 453e 1986 a73f 692c c5bf
00000120: 5442 a9be 80c5 cc3e bce9 aabe 7a84 bfbd
00000130: 27cb 863f f944 41bf bfc7 883e 87f4 853f
00000140: bece 99bf 3bcc 273e 2a81 80bc dea9 cc3d
00000150: 9dae 883d 705f 29bd 6269 1a3e 7f61 d13e
00000160: c3eb 5a3e 473f f83e f7f4 30bf d403 7abf
00000170: a384 38bf a660 85bf 6276 aebf 2696 8dbf
00000180: 794a 55bf 9a25 a1bf 873d 79bf 7685 503f
00000190: b7c4 6e3f 3184 673f 442f 6d3f f56f 8f3f
000001a0: 2218 7a3f 7d0f 603f 5ca2 653f 1694 3d3f
000001b0: 86b9 03bf 2660 223e 19f8 bc3e f1ce b13f
000001c0: d3fe 60bc 0d79 8bbf 0b0a f33f 94f6 35bf
000001d0: 5dbb ccbf 52fa b2be 8f4a 8d3c 5315 5e3d
000001e0: 8123 d53f 157f ecbc aba9 a5bf c529 1140
000001f0: 788d 15bf 272e ccbf 6080 c6be 66d2 1bbd
00000200: b97c a03e 0cc6 c13f f59c 3bbe d538 91bf
00000210: 580b 0540 f3d3 4fbf e7b9 cdbf 1dc5 6c3d
00000220: f349 923d 705f a63c 8774 c53e 37f0 173f
00000230: 5422 cb3e 4d46 8f3d 9dd0 9b3e 667b 533e
00000240: 3d0a 99bd 128e acbd fc1c e1bd 5c1d 953e
00000250: a533 f33e 52df 973e 7db2 54bd 895c 163e
00000260: 2e7e 8a3d 65e3 843d 753f 303c 3803 c73b
00000270: af0f c53e 94f9 073f 8d17 ce3e 5434 30be
00000280: ce9c 57bc a791 0bbd b603 113f 46b5 113f
00000290: b451 5f3e f019 6c3f 02ef 913f c8dc 453f
000002a0: ca01 123f 5038 7c3f 8ca3 273f ef47 a43d
000002b0: 7a26 9dbd 4285 fc3c 59f5 d1bd ac53 87be
000002c0: f1ec dbbd 3818 b2be 7a9b b5be 3d86 14be
000002d0: d875 e7be 083f 14bf ecc2 95be 250c 31bf
000002e0: 4a2a 79bf a35a 0fbf 6870 3bbf e9ff 6ebf
000002f0: 4051 f2be 7ef6 90bf 8ab2 553f 364b 8f3f
00000300: bd9a 853f cc24 b53f b67e 013f 444e 43bd
00000310: 5553 e4bf 274e 26c0 8e66 71bf ab60 5e3f
00000320: de22 a53f 3ee1 8b3f b71b b53f 8db9 3b3f
00000330: e7c3 11be ac53 f1bf 43d1 1ac0 3041 b7bf
00000340: 3fda 533d 5084 0d3f d5a8 853f 82d6 ae3f
00000350: 181b 5c3f 3c4a dd3e d5a1 81bf 25e3 b1bf
00000360: 4e0a 053f f8fd 463f 60bd e73e 167f 593f
00000370: 8980 a63f fcd1 563f b1a2 f73e 9b4d 723f
00000380: fe1e dc3e 8bf2 85bf 5560 9bbf 7140 88bf
00000390: 4ba0 afbf 2442 bbbf 3ff9 a4bf 82a9 a2bf
000003a0: 117a a3bf 6cef 88bf 10a0 df3e 1c71 013f
000003b0: 6d01 d33e eac7 e43e 7a1d 323f 8def 123f
000003c0: d97e 713e f519 fc3e 632a b83e acd3 13bf
000003d0: 3ff5 afbf 8911 42bf fde4 22bf 97b1 21bf
000003e0: 60ef 06bf 4b06 983f 7b60 0040 9784 983f
000003f0: 8883 f4be 4baa abbf 76cc 28bf 8693 09bf
0.07192753 -0.068709515 0.36605135 -0.3633433 -0.8275505 -0.3126462 -0.15975824 -0.6412034
-0.18577334 0.06805352 -0.25417277 0.06685583 -0.052776773 -0.6325304 -0.2254504 0.37295675
-0.19222353 0.17644946 0.02387084 -0.018830013 0.25718904 -0.3222379 -0.6056175 -0.20871882
-0.24833156 -0.5400262 -0.15606953 -0.682013 -0.62208056 -0.62519217 -1.0762973 -1.0343066
-0.9278352 -1.0849984 -1.2540636 -1.0373331 0.8820079 1.0573869 0.806663 0.9259024
1.1886437 1.0085125 0.87453246 0.9235583 0.8072672 -0.20547305 -0.1410776 -0.35370553
0.07332273 0.2506724 0.01037328 0.2821182 0.28462893 0.082817584 -0.3151028 0.287866
-0.25454134 -0.10928846 0.91971433 -0.5179674 0.4071082 1.1477028 -0.8023203 -0.44944656
0.64258623 -0.7724809 -0.22089635 1.2369338 -1.1729529 0.19287615 1.3087798 -1.5404178
-0.33058417 0.3999443 -0.3338145 -0.0935144 1.0530747 -0.7549587 0.26714894 1.0465249
-1.2016218 0.16386501 -0.01568659 0.09993337 0.0667393 -0.041350782 0.15079263 0.40894696
0.21378998 0.48485777 -0.69123787 -0.9766209 -0.7207739 -1.042012 -1.3629878 -1.1061447
-0.8331676 -1.25896 -0.9735951 0.81453645 0.93268913 0.90436083 0.92650247 1.1206042
0.97693074 0.87523633 0.89700866 0.74054086 -0.5145496 0.1585699 0.36908033 1.3891279
-0.01373263 -1.0896317 1.898744 -0.71079373 -1.5994679 -0.34956604 0.017247466 0.054219555
1.665146 -0.028869191 -1.2942404 2.2681744 -0.5841899 -1.5951585 -0.38769817 -0.03804245
0.31345156 1.5138564 -0.18321593 -1.1345469 2.0788174 -0.81182784 -1.6072358 0.05780517
0.07143011 0.02030918 0.38565466 0.59350914 0.39674628 0.06995831 0.30432597 0.20652542
-0.07472656 -0.08425535 -0.109918565 0.29123962 0.4750034 0.29662567 -0.051928032 0.14683737
0.06762348 0.064886846 0.010757317 0.0060733818 0.38488528 0.531152 0.40252343 -0.17207462
-0.013159944 -0.03407445 0.5664629 0.56917226 0.21808511 0.9222708 1.1401064 0.7729001
0.5703398 0.98523426 0.6548393 0.08021533 -0.076733544 0.030825261 -0.102518745 -0.26431024
-0.10738552 -0.34784102 -0.35470182 -0.14504333 -0.45207095 -0.5790868 -0.29250276 -0.69159156
-0.97330153 -0.55997676 -0.73218393 -0.9335924 -0.47327614 -1.1325223 0.83475554 1.1194828
1.0437847 1.4151855 0.5058397 -0.04768206 -1.7837931 -2.59852 -0.9429711 0.86866254
1.2901266 1.0928113 1.4149083 0.73330003 -0.14234887 -1.885366 -2.4190223 -1.4316769
0.051721808 0.5528002 1.0442148 1.3659213 0.8597884 0.432207 -1.0127512 -1.3897444
0.5196885 0.77731276 0.4526167 0.8495954 1.3007976 0.8391416 0.4836631 0.94649667
0.42992395 -1.0464643 -1.2138773 -1.0644666 -1.3720793 -1.462956 -1.2888564 -1.270798
-1.2771627 -1.0698066 0.43676805 0.50563216 0.41212025 0.44683772 0.6957623 0.57396775
0.23583545 0.49238554 0.35969839 -0.5774486 -1.3746718 -0.75808007 -0.6363066 -0.63161606
-0.5270901 1.187692 2.0058887 1.1915463 -0.477566 -1.3411344 -0.6593698 -0.5374073

conv1.1.weight f4 [16]
00000000: 89cc d33f 139a d13f eecc e63f 7217 d63f
00000010: 4616 0a40 558f b13f ab22 ca3f dffd 0e40
00000020: dc09 ac3f 2f9a d43f fb26 dd3f 322b dd3f
00000030: f75a bf3f 5f18 c43f 824e c53f 7fb7 ce3f
1.6546794 1.6375145 1.803129 1.6725905 2.1576095 1.3871866 1.579183 2.234245
1.3440509 1.6609553 1.7277521 1.7278807 1.4949635 1.5319937 1.5414584 1.6149749

conv1.1.bias f4 [16]
00000000: 1ef4 39be 0a1a 173f 4b56 783f dde0 063f
00000010: 2a4c 23be d243 b23e d58b 1a3f 0717 cdbe
00000020: 5bbe 273f c0e8 73be 1e68 093f 99f2 8fbd
00000030: 47b2 473e 1d7b 6a3f f358 0b3d 73c2 3d3e
-0.1815953 0.5902411 0.9700667 0.52686864 -0.15947023 0.34817368 0.60369617 -0.4005663
0.65524834 -0.23819256 0.53674495 -0.07028694 0.19501601 0.91594106 0.034020375 0.18531208

stage2.0.branch1.0.weight f4 [16, 1, 3, 3]
00000000: d850 33bd b9b7 b6bd 8eeb 143f a064 cf3e
00000010: 0eff b9be 4ed8 dd3e 15ad 4c3e 1df1 25bf
00000020: 4fc7 4ebd 6f84 a83e ecd5 48be 35aa 20bf
00000030: 7e07 02bf c89f 2c3e af81 543f 3179 29bf
00000040: 337b 663f d18e e83f 5051 2cbd b434 c93d
00000050: 4e6e 00be 72e4 5a3e 1cbc 9abf e09d 563f
00000060: 56ec 7f3f ce02 35c0 a14c f43f ff25 ab3e
00000070: 5bc8 d2be 1c82 a7be 3eba ffbe 9e19 e5bd
00000080: 0a19 0f3f f06e fbbe 40ae 263f 7311 bf3f
00000090: 9c68 43bc d4d9 743d 2178 9a3a 0759 103f
000000a0: cb09 313f cbde 033f 856e 593e e94f 0b3f
000000b0: 661f 8f3f cb63 dcbc 3069 5fbe b700 1bbf
000000c0: 5487 88bc 034b c13e 76b4 133e cc51 70be
000000d0: 9b18 0c3f a53e 733f 04ba 06bf 1c55 023f
000000e0: 3293 5a3f 5a63 3d3e 9744 07bf 47ec 84bf
000000f0: 4ea2 833f 3006 03bf 34bb 9ebf 4fd5 cbbd
00000100: 2dcf 4c3d a6b9 d03e b161 ba3e f0a9 8c3f
00000110: be18 413f dbf3 ca3e e043 9b3f e5aa 333f
00000120: 77e3 c8be d8e7 8a3e ad64 2e3f 2f76 053f
00000130: 845b f43c ee62 0cbf 7ac9 663f e35d 4bbf
00000140: 5c56 fdbf 0a62 873e 2203 54be 65a8 39bf
00000150: 21a1 c23e e0d4 54bf d2b2 99bf 4b9b 1d3d
00000160: 173f a8bf a585 91bf 3399 983d 0bdd 973f
00000170: 7699 babf c385 e5bf 6eb1 203f 33cd aa3f
00000180: 259f c43f bde3 e7bf 831e 643e 8a38 eebd
00000190: fac0 293d 023f ac3d 1917 24bf 8547 34bf
000001a0: d65d 89be d5ac 07bf 2f0a 2dbf fe01 6cbf
000001b0: f29b 18bc c874 66bd e9b4 3dbb f5f1 0c3e
000001c0: 590d ff3d 8241 123e 3753 e8bc b700 23bc
000001d0: 1f13 a03c 343e 513f 504b e53d 76c6 07bf
000001e0: 608c 933f 732a cd3d 34d3 52bf 1aa2 073f
000001f0: 713b 85be 080e 56bf b0ce cabe d5bc 1b3f
00000200: 9fea 623f c6c1 ff3e 2614 29bd 9679 f4be
00000210: 5b95 283f cd9b 85bf 5093 c4bf 57ff 05bd
00000220: 7cb4 333e 9fed 3d3e fc34 423e 51b8 fcbe
00000230: 5ac9 53bf 493e 2c3f ec59 c7be 7a9d 4fbf
-0.04377827 -0.08921761 0.5817193 0.40506458 -0.36327404 0.4332909 0.199879 -0.64821035
-0.050483044 0.3291354 -0.19612855 -0.62759715 -0.5079268 0.16857827 0.8301038 -0.6620055
0.9003174 1.8168584 -0.042069733 0.098245054 -0.12542078 0.21376207 -1.2088656 0.8383465
0.99969995 -2.8282962 1.9085885 0.33427426 -0.41168484 -0.32716453 -0.4994678 -0.11186527
0.5589758 -0.49108076 0.65109634 1.49272 -0.011926796 0.05977805 0.0011785069 0.56385845
0.6915557 0.5151183 0.21233566 0.5441881 1.1181457 -0.026903054 -0.2181747 -0.60547966
-0.016666092 0.37752542 0.14424309 -0.23468703 0.54725045 0.9501746 -0.5262759 0.50911117
0.8538085 0.18494931 -0.52839035 -1.0384606 1.0283906 -0.51181316 -1.240088 -0.09952795
0.050002266 0.4076664 0.36402658 1.0989361 0.7542838 0.39639172 1.2130089 0.7018264
-0.39236042 0.27130008 0.6812237 0.5213346 0.029828794 -0.54838455 0.9015118 -0.79440135
-1.979198 0.26441985 -0.2070432 -0.72522575 0.38013557 -0.8313732 -1.2007697 0.038478177
-1.3144253 -1.136891 0.074510954 1.1864332 -1.4578083 -1.7931446 0.62770736 1.3343872
1.5361067 -1.8116375 0.22277264 -0.11631878 0.041443802 0.08410455 -0.64097744 -0.7042163
-0.26829404 -0.52998096 -0.67593664 -0.9219054 -0.009314524 -0.056263715 -0.0028946942 0.13764174
0.12453718 0.14282802 -0.028359992 -0.009948901 0.019540368 0.8173554 0.11196005 -0.530372
1.1527214 0.10017862 -0.8235352 0.5298172 -0.26021913 -0.8361516 -0.39610815 0.6083501
0.88639253 0.49952525 -0.04127898 -0.47749013 0.658529 -1.0438172 -1.5357456 -0.032714214
0.17549318 0.18547677 0.18965524 -0.49359372 -0.82729113 0.6728254 -0.38935792 -0.81099665

stage2.0.branch1.1.weight f4 [16]
00000000: e37a 993f 4300 e23f 8172 fc3f 98df d43f
00000010: d938 cb3f b562 a33f aded cf3f c64b af3f
00000020: 7e96 e13f 57ed 9a3f 57b5 1140 b74e c23f
00000030: 5cd9 c23e 0b43 6f3f bf67 c73f 857d bd3f
1.1990627 1.765633 1.9722444 1.6630735 1.5876724 1.2764498 1.6244408 1.3694999
1.7624052 1.210368 2.276693 1.5180272 0.38056457 0.93461674 1.5578536 1.480393

stage2.0.branch1.1.bias f4 [16]
00000000: d29f 323e eaf5 abbe 469f 773f b9c0 ba3d
00000010: 028f b3be aa72 a9bd da86 b43f e9fc d3be
00000020: 1f7b 1ebe f683 423f 8af6 84bf afbb 983e
00000030: fe4a 3ebe fb7e cebe 63c4 bbbe a41e d03d
0.17443779 -0.33586055 0.96727407 0.0911879 -0.35070044 -0.082738236 1.4103653 -0.41403893
-0.15476654 0.75982606 -1.0387738 0.2983069 -0.18583295 -0.40331253 -0.3667327 0.10162094

stage2.0.branch1.2.weight f4 [16, 16, 1, 1]
00000000: 3332 183e d233 483f 816b b73d 5d65 8c3f
00000010: 58f4 9cbe bbef b53e 4f82 3e3f 96f3 f83e
00000020: 0461 cb3e bc51 5ebf bdfb 563d fad4 02bd
00000030: 61f8 56be b9e0 ffbe 3672 b6bf 1574 a53f
00000040: 7fbc 31bf 9551 1cbe 4101 293c 2ad7 b93d
00000050: 932e 2cbe 08c9 0cbe ea28 ae3d 046f 0a40
00000060: 68b3 99bd ca0e 48bf 2349 5bbe c5e6 d3ba
00000070: 9f21 b83d 5197 393e 7678 fe3e c019 c3bd
00000080: c12e 473d eefa 1c3f eee5 923c 848c 93bf
00000090: 1d81 a0bd 9d45 71be 4085 1fbf 6376 283e
000000a0: 53fe 0240 d4b2 a93d 332d b23d dbcb 6c3e
000000b0: b904 753e dc35 ae3c 8d79 6d3e 6559 84bf
000000c0: 8b7d 05be 020a 90bf 4806 a4bd baaa 36bf
000000d0: db51 20bd c664 93bf 9a45 74bf 1394 20be
000000e0: bbf9 863e 2366 0a3f 8972 963d e0d2 663e
000000f0: 668e 0dba 2b03 2b3e afb2 f4bc 6d78 5f3f
00000100: e1bd de3e 3c6e 143e 90a8 37be 8252 c33e
00000110: 0b93 423f bdb7 963e 4c1d c43e 4238 6dba
00000120: 06c2 ffbd 41c2 1540 3f56 9e3e aeed 9abe
00000130: 8fde 3bbe 2049 9c3e 936d 5dbe 2911 193d
00000140: 5c24 9bbe 50cd 4fbe 937e 0140 3ffb 2abd
00000150: d829 b5bd 04ba e3bd 478d 783e 53d7 87be
00000160: 9610 d23d 476b 7d3d 3d9b 61be 6808 23be
00000170: 7f6e a03d 5e92 adbf fbc9 74be a3f5 2b3e
00000180: ac58 1e3e 6f35 b33c 5dc1 863d cf47 0c3e
00000190: 396e e03c e601 d43e 84be 06bd 2872 43be
000001a0: d466 9f3d 3eec 3c3e 0805 2c40 bb34 2b3e
000001b0: 0517 093e 2da9 03bd b83a b93d 9c53 f8bc
000001c0: d7c0 5f3e 233f d5bf 1bf1 5c3c 6ea2 e43d
000001d0: 7af4 06bd 4b74 1e3f e494 b6bf 0aaa 193e
000001e0: 73bf 54bf b38e 4cbd 5552 bc3c 9573 09be
000001f0: 340b 0e3e 1e5d 77bd 6aee 313f b3c0 7fbe
00000200: b1d9 fabe 4813 703d 8a55 67be 1821 92bc
00000210: 72a3 413e d75f 5ebf 95dd 81be 9aca e63d
00000220: bbed 203f 1dac 883f 8932 2fbd bd57 213e
00000230: 0493 68bc dd6c 3b3e bac2 dc3d 69b6 dfbd
00000240: e2b5 20be ac18 aabd 6ecf 25bf bece 9abd
00000250: 0991 11bf 52d3 cabd 9c13 aa3d 1cc7 27bd
00000260: f40e b33d 2c31 25be bc68 fb3c 2209 2340
00000270: 9c76 33be e070 56be b2b9 d6be 236e 21bd
00000280: 10bc 19be 54fe b3be f216 a6be ad09 d93c
00000290: 1204 633f 0785 45be f7b4 7a3e 2774 6bbf
000002a0: 51fe 9c3e 3f50 57be a2d6 9fbe 60a4 063d
000002b0: 0f81 e0bb 89ab 4ebf 5a63 5a3e 3c92 f93e
000002c0: 22e1 ffbe 3ffc 2fbf 8e66 413e 9ad0 e1bd
000002d0: 0950 af3c 09c5 2abf 6ddf 6fbf 8e25 8fbe
000002e0: f958 d5be 0212 6d3e e707 4ebd af8a ecbd
000002f0: a59f dd3c edd6 9a3d e091 e53e f4b5 b0be
00000300: 1abb 7cbe 9827 243f 3c54 053f 746c 9c3e
00000310: 3544 a23e 551b af3e 707d 073f 98ca 77be
00000320: cd09 db3e b2f3 983e ab29 083c cb36 09bf
00000330: b844 df3d f15c 1a3e 77cb 5bbf 3b0a bf3c
00000340: f678 0c3f 2d7d ae3d 7e32 0cc0 191f 8f3d
00000350: a244 27be 8a3a ad3e bc1f 48bc 22c0 f4bc
00000360: 39a8 85bc a8d5 4b3e 815e 81bd 84a7 bfbd
00000370: a22f 3a3e edac c9bd 9040 60bd f9dd 1abe
00000380: 3f80 c63e 3e4d 83bc f78f dbbe 7d99 d93e
00000390: 2de9 2ec0 d9b1 343e c18f 00be 3626 133e
000003a0: a558 8bbe 75cb 3b3c 1441 583d d459 783d
000003b0: a1f4 b8bc b8ff fa3d 4d8a 2a3e 14b8 5fbe
000003c0: da97 b63e 0931 653f 72fd b03c f7bf 2bbf
000003d0: c267 28be 93b5 fb3c aa40 553f eb2f 9ebe
000003e0: 4d75 e13e 7313 98be 4455 ebba 4b54 013e
000003f0: d478 b1bc b619 39be a16c febe 0f8b 3fbf
0.148629 0.7820407 0.089560516 1.0968434 -0.3065517 0.35534462 0.74417585 0.4862334
0.39722455 -0.86843467 0.05248617 -0.03194139 -0.20993187 -0.49976137 -1.4253604 1.292605
-0.6942825 -0.15265496 0.01031524 0.090742424 -0.16814642 -0.13748562 0.085038975 2.1630259
-0.07504922 -0.78147566 -0.21414618 -0.0016166797 0.08990788 0.18124129 0.4970128 -0.09526396
0.048628572 0.6132039 0.017931905 -1.1527257 -0.078371264 -0.23561712 -0.623127 0.16451411
2.0467727 0.08286062 0.08700027 0.2312464 0.23927583 0.021265917 0.23190899 -1.0339781
-0.13036172 -1.1253054 -0.080090106 -0.7135426 -0.039140563 -1.1515129 -0.95418704 -0.15681486
0.26362404 0.540621 0.073460646 0.2254138 -0.0005399942 0.16700427 -0.02987036 0.8729313
0.4350424 0.14495176 -0.17935395 0.38148886 0.7600562 0.29437056 0.38303602 -0.00090492156
-0.12488179 2.3399813 0.30925176 -0.3025946 -0.18346618 0.3052454 -0.2162383 0.03736988
-0.30301178 -0.20293164 2.0233505 -0.041743513 -0.08845872 -0.11119464 0.24272643 -0.26531467
0.1025707 0.061869886 -0.22031875 -0.15921175 0.078335755 -1.3560293 -0.23905174 0.16792922
0.15463513 0.021876065 0.0657985 0.13699268 0.027396308 0.41407698 -0.032896534 -0.19086516
0.07783285 0.18449494 2.687807 0.16719334 0.13387688 -0.03214376 0.09044403 -0.030313306
0.21850906 -1.6659893 0.013485218 0.111637935 -0.032947995 0.618962 -1.4264188 0.15006271
-0.8310463 -0.049940776 0.022988478 -0.13422997 0.13871461 -0.060391538 0.69504416 -0.24975853
-0.4899421 0.058612138 -0.22591224 -0.017838046 0.18910006 -0.8686499 -0.25364366 0.11269112
0.6286275 1.0677525 -0.042772803 0.15756126 -0.0141952075 0.18303247 0.10779329 -0.10923464
-0.15694383 -0.08305487 -0.6476964 -0.07558964 -0.5686193 -0.099035874 0.083045214 -0.04096137
0.087430865 -0.16132039 0.03068959 2.5474324 -0.17525715 -0.20941496 -0.4193855 -0.039411675
-0.15013146 -0.35154974 -0.3243938 0.026493872 0.88678086 -0.19289027 0.24483095 -0.9197411
0.30662778 -0.21026705 -0.3121844 0.032871604 -0.0068513225 -0.8073049 0.21326962 0.4874438
-0.4997645 -0.6874427 0.18886778 -0.11026116 0.021400468 -0.667069 -0.93700296 -0.2795834
-0.41669443 0.231514 -0.050300505 -0.11549889 0.027053664 0.07560525 0.44837856 -0.3451382
-0.24680749 0.64122915 0.52081656 0.30551493 0.31692663 0.3420054 0.5292578 -0.24198377
0.42780915 0.29873425 0.008310716 -0.5359923 0.10901779 0.15074517 -0.8585734 0.023320308
0.5487207 0.08519969 -2.1905818 0.06988353 -0.16334775 0.33833724 -0.012214597 -0.029876772
-0.016315566 0.19905722 -0.06316853 -0.09358123 0.18182233 -0.09847436 -0.05474907 -0.15123738
0.3876972 -0.016028043 -0.42883274 0.42499915 -2.732982 0.17645968 -0.12554838 0.14370045
-0.27216068 0.011462082 0.05279644 0.06063254 -0.022577586 0.12255806 0.1665432 -0.21847564
0.3566273 0.89527947 0.021605227 -0.6708979 -0.1644583 0.03072623 0.83301795 -0.30895934
0.44034806 -0.2970234 -0.0017954488 0.12629811 -0.02166406 -0.18076214 -0.49692252 -0.7482156

stage2.0.branch1.3.weight f4 [16]
00000000: 9e83 d63f a34b b83f 69aa fd3f 680c 0240
00000010: 7362 da3f 9ab2 f73f 6ef7 f73f 6c51 d83f
00000020: a3fa 863f 2a33 aa3f fd32 7f3f 927b 863f
00000030: d4ec 6c3f 0b3a ce3f 48a6 b23f 7d09 883f
1.6758916 1.4398082 1.981763 2.0320072 1.7061294 1.935138 1.9372385 1.6899848
1.0545238 1.3296864 0.99687177 1.0506461 0.9254887 1.6111463 1.3956995 1.0627896

stage2.0.branch1.3.bias f4 [16]
00000000: 2af3 153c a733 6c3f df04 343d a201 063f
00000010: b51b a23e 81ef cfbe 35ac 12be df2f ce3d
00000020: 7f19 013f 0742 993e 0667 173f a459 af3e
00000030: bca2 b23e fb20 a3bc 5bcc db3d 542a d63e
0.009152213 0.92266315 0.043949958 0.5234624 0.31661764 -0.40612414 -0.14323504 0.100677244
0.5042953 0.29933187 0.59141576 0.34248078 0.3488978 -0.019913187 0.10732337 0.4182917

stage2.0.branch2.0.weight f4 [16, 16, 1, 1]
00000000: 7c55 183d 0177 2dbe 7a8d 153e da3b ab3e
00000010: 813e 9fbd d3b4 c43f 2662 f73e 64cc 01bf
00000020: f47c cebe 9162 33ba 268f 503c 96d6 69bd
00000030: 53de 6d3f 0f0e 163f 9a58 503f 2111 40be
00000040: d097 f03e e74c 243e 5456 83bf 3ada 18bc
00000050: 711d 4cbf 9881 d63c 4486 db3e f0dd 503f
00000060: 2af6 c83e 43fa c93e 894d d53e 578c f9be
00000070: bc7f ee3e 75c4 f33e de43 e73e 5ac9 c1bd
00000080: e6a5 bb3f 73b6 58be 9636 853e 337f 2e3d
00000090: 4ece b43d aecb dabd 1b37 1bbf 665d ab3e
000000a0: b516 f93d 451e 183f 6e85 2bbe e592 b2bd
000000b0: 7220 123e ff31 28be 675c 8abd 5fee f63e
000000c0: 5d35 853f 9e9d b53d 68ec 88bc df2b a23e
000000d0: 8cac 703e 3f81 a7bd d76f 20bf 5927 27bf
000000e0: 31e7 f4be 8f3a 12bf 1763 1b3e b4e8 0c3f
000000f0: e02b 18be 5043 70bd 0f09 1c3f 8533 4ebe
00000100: dd3d ae3f 1699 f3be a92e 5abf bc7a c1bd
00000110: f55e 5f3f 0463 953d 57d3 093f 9c2b 1a3d
00000120: f7f0 433e 346d 273e 0414 fdbd fabe 6f3f
00000130: 0269 8c3c 6610 cdbe d934 febd 7f6c c13e
00000140: 9601 61bc 5a77 853e 16c3 f53e 0f0d dabd
00000150: 6307 693f ec2d 0f3f 4dad de3d 5d70 003e
00000160: fb40 1f3f d2cc 083d 076f 80be d41c 5c3f
00000170: 2e7b 2c3f 0248 713e c68f 3bbe 98d5 c83d
00000180: 36f8 813e 5bb5 c43e a10b 543e 0313 ebbe
00000190: 9d57 4a3e adc2 8d3f b2af 883f f64a 5e3d
000001a0: 4e05 db3e 1d4a c13d bb60 4f3e 555f 6c3d
000001b0: 9ffa 863f 1215 0fbd d876 f8be 2b45 7b3f
000001c0: d03f 533f 9b22 2cbf b705 843e 5b06 053c
000001d0: 07a5 d53e 90f2 8abf fe9f 143f 09b1 3b3f
000001e0: ef0d 6ebd 99c3 d33d 91e6 6a3e 0f60 8ebd
000001f0: a003 47bf e549 62bf 2e71 453e 74dd 67bf
00000200: 609c 0dbe 2b30 9bbd a6d0 30bf 65aa 4dbe
00000210: d522 f9bf b32e 60be d4c5 e03e fa0c b43f
00000220: 0215 00be 23ce 39be 98c5 b4be 0975 b8bf
00000230: 51b0 c93e 6e4f c4be 6011 983d b922 9e3e
00000240: b621 7e3f e3f0 983d e9e1 313e e101 abbe
00000250: c2c0 50be 4954 08bf 7f97 4a3d 313d 8bbb
00000260: 9c52 33bf 995d 2b3f 4548 c93e d7e5 d6be
00000270: 97a0 8dbd a03c 283d b1a3 5f3e 11c7 643f
00000280: 2fdb e93e 2a85 51bc 3636 f6bb dd14 5a3e
00000290: 037f aebd 7df5 e33e 2dba 0abd 56fb 8dbe
000002a0: aa42 393d 0669 39be dd58 ea3e 9ce5 fabd
000002b0: 212c 233e 846a bebd 2f14 c9be 6df1 a1be
000002c0: f6df 663d 81de 31be dbaa 2abe d707 babf
000002d0: 4f0e 393d 51e1 953e 27c1 643f 34ef 19bd
000002e0: 4105 52bf 592d 543e acdb 38be 816a edbd
000002f0: 0361 cc3e 0cc7 b03d d21b 97bf 9700 923f
00000300: 3d5c 36be 71d4 b53f 24f5 30bd 62e4 5f3e
00000310: 7f12 1abe c901 213d da82 5fbe 9773 81be
00000320: 4a34 6dbf 5850 27be 9e7e d13d 926e 02bc
00000330: 8591 babe 7156 62be abe9 913f 4aaf a03e
00000340: 02e4 e73e d0b1 053f 5f0d 3a3f 218a c63d
00000350: 6226 1fbd a5d8 db3d 8e8e fa3e 67fe 753d
00000360: 8bde ef3e 078c fe3e c663 483e 7311 c9be
00000370: 350d c93e 1362 e0bf 61ef d6bc 53d2 933e
00000380: c5d9 063e 8ac3 16bf b044 a4bd 6147 da3f
00000390: 7f2c 803d a8f6 2dbe 55f7 823f 489d 2dbd
000003a0: 7fde a33f bc03 e73c 107c 01be e08d 2abe
000003b0: 8c29 30bf d9f6 d63d 1459 ad3e 6af9 3cbf
000003c0: 7a27 91bd d226 2b3e 3a3b f1bc 61b4 33bf
000003d0: 4e04 253f 4bc7 c8be 06d8 3b3f 802e d9be
000003e0: 746f 7fbf a3a8 cdbe 902b f4be b79e 3b3f
000003f0: a062 2dbe 0db7 6bbd 8082 b4be 9b85 e7be
0.0371909 -0.16939928 0.1460475 0.334441 -0.077755935 1.5367683 0.4831707 -0.507025
-0.40329707 -0.00068429956 0.012729442 -0.05708941 0.92917365 0.586152 0.81385195 -0.18756534
0.46990824 0.16044961 -1.026072 -0.009329373 -0.79732424 0.026184842 0.42875874 0.8158865
0.39250308 0.39448747 0.41660717 -0.48739883 0.4658183 0.47610822 0.45168966 -0.09462233
1.4660003 -0.21163349 0.26018208 0.042601775 0.08828412 -0.1068338 -0.6063096 0.33469695
0.12162534 0.5942119 -0.16750118 -0.08719424 0.1427019 -0.16425322 -0.067559056 0.48228738
1.040691 0.08867954 -0.01671429 0.31674096 0.23503321 -0.081789486 -0.62670654 -0.65294415
-0.47832635 -0.57120603 0.15174519 0.55042577 -0.14860487 -0.058657944 0.6095132 -0.2013684
1.3612629 -0.47577733 -0.8522745 -0.09447238 0.8725427 0.07294276 0.53838104 0.037639245
0.1913489 0.16350251 -0.12357333 0.9365078 0.017139915 -0.40051574 -0.12412424 0.37778088
-0.013733288 0.2606762 0.480004 -0.10647022 0.91026896 0.55929446 0.10872898 0.12542863
0.6220853 0.033398457 -0.25084707 0.8598149 0.6737546 0.23562625 -0.18316564 0.09806365
0.25384682 0.38419613 0.20707561 -0.45912942 0.19759984 1.1075035 1.0678618 0.054270707
0.42777485 0.09437964 0.20251743 0.057708103 1.0545233 -0.034932204 -0.4852817 0.98152417
0.82519245 -0.67240304 0.2578561 0.008119191 0.41727468 -1.0855274 0.5805663 0.7331701
-0.058118757 0.10340042 0.22939517 -0.069519155 -0.77739906 -0.88394004 0.19281456 -0.90572286
-0.13829184 -0.07577547 -0.6906837 -0.20084532 -1.9463755 -0.21892814 0.4390093 1.406646
-0.12508014 -0.18145041 -0.35307002 -1.4410716 0.3939233 -0.3834185 0.07425189 0.30885866
0.9927019 0.074678205 0.17371334 -0.3339987 -0.20386031 -0.5325361 0.049460884 -0.004249238
-0.70047927 0.66939694 0.3931295 -0.4197223 -0.06915396 0.04107344 0.21839787 0.8936625
0.45675036 -0.012788096 -0.0075137867 0.21297021 -0.08520319 0.4452323 -0.033868957 -0.27730817
0.04522959 -0.1810647 0.45770922 -0.12250826 0.15934803 -0.0929766 -0.3927321 -0.31629506
0.05636593 -0.17370035 -0.16666739 -1.4533643 0.04517966 0.29273465 0.8935723 -0.037581638
-0.82039267 0.20720424 -0.18052548 -0.1159258 0.39917764 0.08631715 -1.1805365 1.140643
-0.17808624 1.4205457 -0.043202534 0.21864465 -0.15046118 0.039308343 -0.2182726 -0.252835
-0.9265791 -0.16339242 0.102292284 -0.007960932 -0.36439148 -0.22103287 1.1399435 0.31383735
0.45291144 0.52224445 0.7267665 0.09694315 -0.038854964 0.10734681 0.48936886 0.06005707
0.46849474 0.49716207 0.1956931 -0.39271125 0.3926789 -1.752993 -0.026237192 0.28871402
0.1316901 -0.5889212 -0.080209136 1.7053033 0.06258487 -0.16988623 1.023173 -0.042386323
1.2802275 0.028200023 -0.12644982 -0.16655684 -0.68813396 0.10496301 0.33857024 -0.73818076
-0.07087608 0.16714028 -0.029447187 -0.7019711 0.64459693 -0.39214548 0.733765 -0.4241829
-0.9977944 -0.40167722 -0.47689486 0.73289055 -0.16932154 -0.057547618 -0.35255814 -0.4521912

stage2.0.branch2.1.weight f4 [16]
00000000: 628a 903f e8f6 763f 24c8 893f 28b5 7e3f
00000010: 9d6a dd3f 92ab 903f 95f6 713f 5c61 933f
00000020: 74ae d93f 45c3 953f d764 ee3e 3d24 9e3f
00000030: 5b3d b73f 498a 893f 6cfa b23f e021 9a3f
1.1292231 0.964705 1.0764203 0.9949517 1.7298161 1.1302359 0.9451688 1.1514087
1.7006364 1.1700217 0.4656131 1.2354809 1.4315599 1.0745326 1.3982673 1.2041588

stage2.0.branch2.1.bias f4 [16]
00000000: 8d76 88bf 146f 153f 4bd3 e23e e80c ae3e
00000010: e581 033e cdfa 95be 6ac4 0ebd 9423 973f
00000020: c6e3 af3e 09e4 b83e b91f 883f 3305 643f
00000030: b378 13bf 1747 513e 71ee 99bf 15de 983f
-1.0661179 0.58372617 0.4430183 0.33994222 0.1284252 -0.29292908 -0.034855284 1.1807733
0.34353465 0.36111477 1.0634681 0.89070433 -0.5760605 0.20437275 -1.2025892 1.1942774

stage2.0.branch2.3.weight f4 [16, 1, 3, 3]
00000000: 8afa bebd 8baf a43e 0420 c13e 64f5 013e
00000010: 8af6 d1be f2db 20bf 9fd6 0e3e 8dc9 74bf
00000020: 2ae1 51bf 27b6 a93e fc8e 083f 67ab 6f3e
00000030: 7e31 00bf 71a0 81be 03e2 f43d 7b68 26bf
00000040: 83e3 73bf 0262 fbbe 7ac8 003d 591d 8bbe
00000050: 8d41 f4be 0c9a 3abe 3df5 c23e 0b9a ed3e
00000060: 90da ccbe 72e6 5a3f 456c 683f fb29 09be
00000070: ec9b ecbd 4b0d 30be 4072 1dbc c63f ac3e
00000080: 0848 163f f0e7 15bd 5bc1 043f e4fd 563f
00000090: c093 45bd 964e 7e3e 9efb a23e 5ca7 cc3d
000000a0: 054a e0be 70f4 4cbf 1211 5abe 0183 36bf
000000b0: 1c33 b2bf 737d 2fbe 3560 c73c 8232 17bf
000000c0: b3e3 8bbd f201 2cbf ee57 76bf 5f67 613e
000000d0: a60d 863d 10d3 fcbd 795f a8be 7482 bb3d
000000e0: 5c61 233f f53e ae3e 141c d8bd 4da2 09bf
000000f0: eed2 373f fde0 c2be 581b d7bf 5a0c 97bd
00000100: 4c90 1a3e 59a5 b9be af79 81be ecb7 06bf
00000110: 7a7e ebbe 86a3 07bf 9883 56bf cd74 02bf
00000120: 4f52 0fbe 96a4 913e 52b7 ec3e e0b6 c3bd
00000130: 92f4 283f 8a9a 863f c37d 173e d66c 193f
00000140: 8b8a 603f 2adc 46be 7fa0 e13d 3cb4 c1bd
00000150: 3c68 54be 77bc 143f 7ed3 1f3f 6389 85bd
00000160: b56e 243f 5550 883f 2617 563f eafc 883e
00000170: 8cb0 af3e 73cf 403f 9093 61be c6f2 d4bd
00000180: 6333 413f d04b a1be 900e a8bd b893 d5bd
00000190: b84e 73be 1b16 36bf 18aa dfbe a394 573e
000001a0: bbe0 953e 9e8f c7be 7c94 8f3f 142b df3f
000001b0: a359 983b 4f0a 52be abd1 7ebf 1ef1 9cbe
000001c0: 4fbc 823e 1686 de3e 75aa e6be caeb 143f
000001d0: 63dc cc3f 2253 623e e3b7 153f 49a1 bb3e
000001e0: 9262 e5be 079e afbe dcc4 adbb 2b63 acbe
000001f0: 23a5 8abf a627 7abf 86f7 ffbd 396c ae3e
00000200: 4a11 783f df9b 963e 4f31 a1be a2b6 edbe
00000210: 3203 363f f609 1abf ef5b b7bf 1c54 c3bd
00000220: 7b08 3bbe ae3a 0bbf fefb 1fbe 715a 823e
00000230: 5aa1 253f 7ea2 eebb 7023 203f 974d b53f
-0.0932513 0.3216518 0.37719738 0.12691265 -0.41008407 -0.6283561 0.13949059 -0.9562004
-0.819842 0.33146784 0.53343177 0.23405229 -0.5007552 -0.2531772 0.11957171 -0.65003175
-0.9526903 -0.49098212 0.03144119 -0.27170828 -0.4770626 -0.18222827 0.38077727 0.46406588
-0.400105 0.8550788 0.90790206 -0.1339492 -0.11553177 -0.17192571 -0.009609759 0.33642405
0.5870366 -0.036598146 0.5185754 0.83981156 -0.04823661 0.24834666 0.31832594 0.09992859
-0.43806472 -0.8006048 -0.21295574 -0.71293646 -1.3921847 -0.17137699 0.024337867 -0.59061444
-0.068305396 -0.6719047 -0.9622792 0.22012089 0.06545572 -0.123449445 -0.3288534 0.09155741
0.63820434 0.34032407 -0.105522305 -0.53763276 0.7180623 -0.38062277 -1.680522 -0.07375403
0.15094107 -0.36258963 -0.2528815 -0.5262439 -0.4599493 -0.5298389 -0.83794546 -0.50959474
-0.13996242 0.28445882 0.46233612 -0.09556365 0.65998185 1.0515912 0.14794068 0.59931695
0.877114 -0.19419923 0.1101694 -0.09458205 -0.20742887 0.58100075 0.62432086 -0.06520345
0.64231426 1.0649515 0.8362907 0.26755458 0.34314382 0.7531654 -0.22028947 -0.10397868
0.75469035 -0.31503153 -0.082059026 -0.10428566 -0.23760498 -0.7112748 -0.4368446 0.21052794
0.29273018 -0.3897676 1.1217189 1.7435021 0.0046493574 -0.20511745 -0.9953868 -0.30652708
0.25534293 0.43461674 -0.45051923 0.58172286 1.6004757 0.22102025 0.58483714 0.36646488
-0.44801766 -0.34300253 -0.0053030085 -0.3366941 -1.0831646 -0.9771675 -0.12498383 0.34066942
0.9690138 0.29415795 -0.31482932 -0.464284 0.71098626 -0.6017145 -1.4324931 -0.09537527
-0.18264954 -0.54386413 -0.15623471 0.25459626 0.6469933 -0.007282554 0.62554073 1.4164304

stage2.0.branch2.4.weight f4 [16]
00000000: 3613 b23f 2c97 ac3f 6063 aa3f cf17 bf3f
00000010: a576 4b3f 6880 903f cd64 b73f f03e 903f
00000020: 1b3e b73f ba1b 973f a2ee 7d3f 3ec2 aa3f
00000030: 31c7 c23f 537a a83f 2b42 ac3f a7d8 913f
1.3912113 1.3483634 1.3311577 1.4929141 0.7947791 1.1289186 1.4327637 1.1269207
1.4315828 1.1805336 0.9919225 1.3340528 1.5217038 1.316233 1.3457693 1.1394242

stage2.0.branch2.4.bias f4 [16]
00000000: 3430 e5bd d776 173d d679 84bf 1d66 b7bf
00000010: cd67 463f 965e df3e f220 bcbd bd7f 4a3f
00000020: e3a6 81be 7335 48bf e37c 0dbf 627f e8be
00000030: 9f79 0abd f488 813f 4095 5d3f b168 91be
-0.11190835 0.03697857 -1.0349681 -1.4328038 0.7750214 0.4362685 -0.09185971 0.79101163
-0.25322637 -0.7820656 -0.55268687 -0.45409685 -0.033807393 1.011992 0.8655586 -0.28400186

stage2.0.branch2.5.weight f4 [16, 16, 1, 1]
00000000: b4fe a53e 20ff 003f b272 483f cf6c 223f
00000010: 1b98 55be 79ea ccbd 0964 a83f d9dd 54bf
00000020: 20be 963e 5f5b a43c 7d72 e9be b822 39bf
00000030: cb90 57bf 208d 4c3e 6bb3 263f 5b85 15be
00000040: 38a8 2b3f 4146 ad3d 59c6 a5be e035 f9be
00000050: 3118 573e ff53 103e 2d73 083f 837b 63be
00000060: 4ddb b7be d91c 54bf f489 4dbf 01da c0be
00000070: 29a3 b1be 2605 cb3e 2a5a 603e c0fd 1e3f
00000080: fc8b f83d 7181 c13e 2c46 403f 035f f5bd
00000090: 30f8 2ebf d905 4c3f 0cb3 923e 53a3 6abf
000000a0: 773f ebbe 72ee 663e 7255 b4be fa7c df3e
000000b0: b403 983d 13ab ecbe 8b5b d83c d478 363d
000000c0: 4e22 9dbf 8aae 18bd f9fa a2bd 0431 0ebf
000000d0: 12bd 993e 0207 62be 9218 19be fc04 343f
000000e0: 7981 c7be 2eb5 7dbf e45a bbbe 3b28 00be
000000f0: fe73 a63e d3fe 0b3e 3ecf 553e 7ce2 efbe
00000100: fca9 0b3f fdc4 b83e 7c7d 40bf 246e 7dbf
00000110: f712 223e 7f7c 013e 432b c4bc f8b5 05be
00000120: 6cb5 3cbd 8df1 483e afc2 d5be b324 6b3f
00000130: dff6 31bf 48a3 9abd 83e3 d13e ebc5 e13e
00000140: 1427 773d f40b c53d 3986 e53e 3cbe 19bf
00000150: 5e4a 963f f8cb a83f 23bc c93e cd1d 293f
00000160: cc6f 5f3e 5853 793f e830 bebe 0dfe 8c3e
00000170: f9a5 67be 4031 98bd 3feb d63e 889d d1be
00000180: 99ed 013f 7836 fe3c 07ae c8bc c05d 2c3e
00000190: d229 ff3e 167a 233e 2f60 163f c2cf 8fbe
000001a0: de0b 00bf bc54 84be ec3e 78be 4233 35bf
000001b0: 44d4 493f d595 eebe b31a abbf c72e dbbe
000001c0: cf3e 833e f1aa 97bf 8a05 a3bd ae99 ccbe
000001d0: 7782 873e 5da7 063e 6a7f e83d 6891 21bf
000001e0: 28cc b33f dfaa 4dbe 9e7f dabe c76a 68bf
000001f0: b306 c13c c518 76be 29cc 893e ae5d e0be
00000200: a179 42be 80da 043e e86a 533d 4ff7 61bf
00000210: e57c 1ebb 3c43 e8be fe6a 0cbf 32ff d8be
00000220: 1950 12bf a34e 1dbe 7dd9 403e 1bef b2be
00000230: f246 7ebf 648d 8cbf 108c e7be b063 d73e
00000240: 726f e03e 5ba4 3ebe 4040 763f 6177 313f
00000250: 0a12 93be 7835 11bf 1a86 ec3d 9abc 00bf
00000260: a21f a6be 416a 023f f086 483e ae96 c1bd
00000270: c00c 22be 9c2c 9bbe 6da1 9dbe 1686 ffbe
00000280: 6447 03bf 28e2 fdbd cbc5 93be f579 c63d
00000290: 1725 19be c97b f8bd 49eb 16be 1436 993e
000002a0: 7b98 9f3e 4ae8 af3e 4448 a43e b9df 243f
000002b0: 8d77 263f 9ed7 a03e f719 983e 4d46 bcbc
000002c0: 4f20 2abf f7d0 1bbd 1f6d 1c3e 2be2 bc3c
000002d0: 948b fcbd d08c 963d 1327 2dbf cc97 06be
000002e0: d010 753e 956a 63be d690 45be d8e3 45bf
000002f0: 4528 403c 0b23 1abe b074 4ebf 8fc7 19bf
00000300: 0e3b bd3d feb4 59bf 3bf1 db3e e239 0abf
00000310: 40b3 b03e 2493 c7be c04a 48be 204b 6abd
00000320: 23b2 dbbe cc1f 713e f880 be3e 5649 5c3e
00000330: c348 d83e 96bf 733f b827 c7bc aae4 cabe
00000340: 0637 ec3e 0b7f c43e e992 883d 8a27 bcbd
00000350: 95ad 653e 0f1e d7be 8cdd 4f3e f207 e8be
00000360: e7e5 26bf 942f 063f c003 80bd 032c 19bb
00000370: f462 363f 18a3 d8be c96c 123f 1d00 3a3f
00000380: e302 143e 0dee 72bd a120 f5bd 4fa0 1e3c
00000390: 6f26 853e 3528 b23b 39f7 233f 4c0a 383e
000003a0: 7022 f03d 22fb 9a3e b100 c93d 80fe 06bf
000003b0: 5798 883e b2f3 43bf ebf3 683e cef1 77bd
000003c0: 1a94 893d e5c7 dc3e 13a9 203e 96d6 c6be
000003d0: bba5 d63e 596a a43d 02bc 82be 6f49 1a3d
000003e0: c49d 883e a8e6 e03e c801 3f3f 512c 033f
000003f0: 5922 013f 1665 5fbf b40d 3ebe fed8 1abf
0.32420886 0.5038929 0.7830001 0.6344728 -0.20858805 -0.100056596 1.3155528 -0.8315101
0.2944193 0.0200631 -0.4559516 -0.723186 -0.8420531 0.1997571 0.6511752 -0.14601652
0.67053556 0.084606655 -0.3237789 -0.48673916 0.21005322 0.14094542 0.53300744 -0.22215085
-0.359095 -0.8285652 -0.80288625 -0.37666324 -0.34694794 0.39652365 0.21909395 0.6210594
0.12136075 0.37794068 0.75107074 -0.11981013 -0.68347454 0.7969642 0.28652227 -0.91655463
-0.45946857 0.22551897 -0.3522144 0.43650037 0.07422581 -0.4622427 0.026410839 0.044548824
-1.2276094 -0.03727583 -0.079580255 -0.5554354 0.30027062 -0.22072986 -0.14950779 0.70320106
-0.38965967 -0.99104583 -0.36592782 -0.12515347 0.3251037 0.13671426 0.20879838 -0.4685248
0.5455625 0.3608779 -0.75191474 -0.98996186 0.15827547 0.12645148 -0.02394641 -0.13057697
-0.046071455 0.19623394 -0.41750094 0.91852874 -0.6951732 -0.07550675 0.4099389 0.44096312
0.060340002 0.096214205 0.44828966 -0.600559 1.1741445 1.3187246 0.3940135 0.660611
0.21819991 0.973928 -0.37146688 0.27537575 -0.22621907 -0.07431269 0.41976354 -0.409405
0.5075317 0.031031832 -0.024497045 0.16832638 0.49836594 0.15964541 0.58740515 -0.28088194
-0.5001811 -0.25845897 -0.24242753 -0.7078134 0.78839517 -0.46598688 -1.3367523 -0.42809126
0.25633857 -1.1849042 -0.07960041 -0.39960998 0.26466724 0.13149782 0.11352427 -0.631125
1.4046679 -0.20084713 -0.4267549 -0.9078793 0.023562765 -0.24032886 0.26913574 -0.43821472
-0.1899171 0.12973976 0.051615626 -0.8826799 -0.002418333 -0.45363796 -0.5485076 -0.423822
-0.5715347 -0.15362029 0.18832965 -0.34948048 -0.99327004 -1.0980649 -0.45224047 0.42068243
0.43835026 -0.18617384 0.9619179 0.6932278 -0.287247 -0.5672221 0.11549015 -0.50287783
-0.3244601 0.5094338 0.19582725 -0.09452568 -0.15825176 -0.30307472 -0.3078722 -0.49906987
-0.5128081 -0.123966515 -0.28861842 0.0969123 -0.14955555 -0.12132985 -0.14738192 0.2992407
0.3117102 0.3435691 0.32086384 0.64403874 0.6502617 0.31414503 0.2970731 -0.02298274
-0.6645555 -0.03804108 0.15276001 0.023057064 -0.1233131 0.073510766 -0.6763775 -0.13143843
0.23932195 -0.22208627 -0.19293532 -0.77300787 0.011728351 -0.1505243 -0.806468 -0.6007013
0.092397794 -0.850418 0.42957482 -0.5399457 0.34511757 -0.38979447 -0.19559765 -0.05720055
-0.42909345 0.23547286 0.3720777 0.2151235 0.42243013 0.9521421 -0.024310932 -0.39627582
0.4613573 0.38378176 0.06668646 -0.09187229 0.22429498 -0.4201512 0.20299357 -0.45318562
-0.65194553 0.5241635 -0.06250715 -0.002337218 0.7124474 -0.4231193 0.5719724 0.7265642
0.14454226 -0.059309054 -0.11969114 0.009681775 0.26005885 0.005436922 0.64049107 0.17972678
0.117253184 0.30269724 0.09814585 -0.52732086 0.26678726 -0.76543725 0.22749297 -0.060533337
0.06717701 0.43121257 0.15689497 -0.3883559 0.41923317 0.08028097 -0.25534064 0.037667688
0.26682866 0.43925977 0.7461209 0.51239496 0.50443035 -0.8726362 -0.18559915 -0.60487354

stage2.0.branch2.6.weight f4 [16]
00000000: 7097 ce3f c8b6 b33f fff2 da3f a1d0 ad3f
00000010: 2974 c13f 30df aa3f 031f c03f 425c b23f
00000020: ae63 1e3f ffe9 7a3f 7d71 783f cf98 673f
00000030: 4a60 403f 16ab 373f e8fc 2c3f e2cf 423f
1.6139965 1.4040155 1.7105407 1.3579293 1.5113574 1.3349361 1.5009464 1.3934405
0.6187085 0.980133 0.9704817 0.9046754 0.75146925 0.7174543 0.67573404 0.76098454

stage2.0.branch2.6.bias f4 [16]
00000000: d938 1abe c06d 083f fd58 933d ff3e d83e
00000010: cb00 4abd d725 a13f 02da 393f b58f f43d
00000020: 8c10 2d3f cf19 b1bd 0968 38bf 044c 0ebe
00000030: 2fd2 403f 6eaf e23e 20ea f03e 8779 fe3e
-0.15060748 0.53292465 0.071947075 0.42235562 -0.049317162 1.2589673 0.7259828 0.119414724
0.67603374 -0.08647501 -0.72033745 -0.13896185 0.75320715 0.44274467 0.47053623 0.49702093

stage2.1.branch2.0.weight f4 [16, 16, 1, 1]
00000000: 5905 83bd 883e 97be 720e b63f 7e26 df3e
00000010: 8c99 05be ddf1 a83c 6efa 78be 5e35 0c3e
00000020: 479a dbbe e2c0 6e3d e0b2 edbf 420f 5cbe
00000030: 1909 ba3f a8e2 833c 2c72 9e3e 6c93 c4ba
00000040: 25a3 5bbf 14a2 273f bad4 01bf f64e d7be
00000050: e7dc afbd 6a97 213f ad4d 073e 4720 1f3f
00000060: 6925 e73e 8238 7d3d 4095 b43d 7dd9 a2be
00000070: 4619 8fbe 17fb 1abe 56ae de3d 9614 1c3e
00000080: 4a16 6dbe bb11 033f 1ce6 ad3c 7f00 703e
00000090: 6436 24be 0eb4 0c3f 4628 8f3f 50fb 713e
000000a0: 874d b7be 059a 863d ba47 793e 5e44 f5be
000000b0: d5b8 a1bd 766d 9cbd 1268 dfbe e98b b7be
000000c0: 547b 9fbe 6308 a1be 1da3 3bbf 92ba 23be
000000d0: 8b0c b63d e5e3 523e 52f4 9c3e 298b c73e
000000e0: b0c7 043f a1a6 8b3f 7f77 a5be bcf1 8f3d
000000f0: 2e5b c93e bd7c 03bf 1193 0a3f 5dca 673e
00000100: f398 2dbe 814c 2ebe 7034 1bbe 1d9f 47bd
00000110: 36c9 3a3c 3800 dfbd eac5 e0bd b941 eb3c
00000120: 32b9 97bc 0da0 afbc 45f6 4a3e 1913 2ebd
00000130: c881 eabd 7e56 79bd 5048 8c3d 3c52 b7bc
00000140: ffed 2ebe 196e 2ebe 7ecd 1bbe 853f 4abd
00000150: f22b 363c 8752 debd 50df e0bd 11b9 e33c
00000160: d146 98bc 2f5d b1bc 8665 4b3e 9a80 2fbd
00000170: e4e6 e9bd f172 7abd 1b4f 8c3d cf43 aebc
00000180: 7ef8 0cbd c802 51bd 6825 3abe f178 a9be
00000190: a917 f43d 6270 a93e 91b3 9f3e 28a4 c93e
000001a0: 6af0 493f 07b5 3e3f c487 64bf 1905 fd3d
000001b0: db70 2f3f 21b0 14bf dd08 ca3e 0571 9abe
000001c0: ce03 30be d8d2 2fbe 70df 1dbe 1a19 4ebd
000001d0: 0ca9 1f3c bcd9 debd 54c9 e3bd 0786 e93c
000001e0: 753e 8dbc 7328 a7bc 2113 4c3e 8aad 32bd
000001f0: 6644 e5bd c7c6 77bd 1100 8b3d 869a b9bc
00000200: 537e 59be d5db 04bf 58f5 76be 779a babe
00000210: 0383 a8be b2ea 7e3d 8f23 51be 2cef 97be
00000220: 7076 cebe 7bfd c0be 6214 5abf 1b4d 63be
00000230: 9168 1bbe d0de 1dbe aaf9 f5bd 1a79 bdbe
00000240: 2451 a43d dab5 dc3e ff49 083f 8663 e63e
00000250: 2117 923f f295 f8bd 17d3 8d3e 0f61 1ebb
00000260: f0b1 5abd 38a8 32bf 8534 1ebe a726 f33e
00000270: 3e16 5fbe b57f e13e f0fc 5bbe fe70 0f3f
00000280: 740a 2e3f 979a 683f 409f debc 3736 1c3f
00000290: 1bbd 80bf 09ab 92be d677 193e 4ac0 94be
000002a0: 6b39 b4bd 389e bd3e 92a3 fcbc 86d6 413f
000002b0: 8ce3 81bd 4d60 03be 97f4 2cbf ac08 833e
000002c0: 5442 983f 6a7e a2be 9884 40be 13e8 613f
000002d0: 85f4 34be be3d c2be fcca d63e e52b 8fbe
000002e0: 91e9 003e 6616 20bf 8110 92ba ae92 7a3e
000002f0: 9290 2cbe 57fe 0bbe cacc 60be 8354 a2be
00000300: 5315 82be d7e2 11be 278d 4dbe ff6c a9be
00000310: 279e 1a3e 598c 47be d06b 593c 7628 4b3a
00000320: 6a87 96be b616 81be 272f c23f 9e34 febe
00000330: ec36 74be 064c 7dbd 5aca 163e 8ead 77be
00000340: 63a2 d13d ba7f 0fbf 2f3b 1abd 2034 ad3e
00000350: 4eb5 82bd 78d7 bebe eb35 30bf 8004 993e
00000360: e295 0e3f 7dad be3d d745 d6bb 5281 873e
00000370: 593b 1e3e 28e0 e33e 485f 953f 5f40 333f
00000380: 8c53 073b 8cf4 69bf 258f 61be b9c2 3bbf
00000390: b4de ddbe 8876 9ebe 1a23 f0bd 8357 0bbe
000003a0: d021 4a3f 1dc9 95bd 406c d13e be3f 7c3f
000003b0: 8f7e 85be fe49 8d3e a29a 5f3e 27a2 e3be
000003c0: 2012 de3e bc07 663d 46f3 2dbe fabc 863e
000003d0: 0b1f 39be 58d6 243f d78f 423f 64e2 593f
000003e0: eb90 493c 85a7 b2be ae84 84bc 8a47 0cbe
000003f0: 492c 903e d99d 3ebf 71a2 fe3e fdad a13f
-0.06397504 -0.29539895 1.4223158 0.43584055 -0.13046855 0.020623142 -0.24314281 0.13692233
-0.42891142 0.058289416 -1.8570213 -0.21490195 1.4534026 0.016099289 0.3094648 -0.0014997548
-0.85795814 0.65481687 -0.5071522 -0.4205243 -0.08587056 0.63121665 0.13213225 0.62158626
0.4514573 0.06182147 0.0881753 -0.31806555 -0.2794897 -0.15134846 0.10873096 0.15242228
-0.23153034 0.5119893 0.021227889 0.23437689 -0.16036373 0.5496224 1.1184165 0.23631024
-0.35801336 0.06572346 0.24343768 -0.47903723 -0.07896582 -0.076380655 -0.43634087 -0.3584893
-0.3114878 -0.3145171 -0.73295766 -0.1598914 0.08889111 0.20594747 0.30655152 0.38973358
0.518672 1.0910226 -0.3231773 0.07028529 0.39327377 -0.5136221 0.54130656 0.22635789
-0.16952877 -0.17021371 -0.15156722 -0.048735727 0.0114005115 -0.108887136 -0.10975249 0.028717862
-0.018520925 -0.021438623 0.19820507 -0.04249868 -0.11450535 -0.0608735 0.0684973 -0.02237808
-0.17082976 -0.17034186 -0.15215108 -0.049376983 0.011118876 -0.108555846 -0.109800935 0.027798207
-0.018588455 -0.021650879 0.19862947 -0.042847253 -0.11420992 -0.061144773 0.06851026 -0.021272568
-0.034416668 -0.051028043 -0.18178332 -0.33100083 0.11918575 0.33093554 0.31191686 0.39383054
0.7888247 0.74494976 -0.8926966 0.12354488 0.6853158 -0.5808125 0.39459887 -0.30164352
-0.17188951 -0.17170274 -0.15417266 -0.050316907 0.009744894 -0.10881373 -0.11122385 0.028506292
-0.017241696 -0.02040503 0.19929172 -0.04362253 -0.111946866 -0.060492303 0.06787122 -0.02265669
-0.21239595 -0.5189794 -0.24117029 -0.36445972 -0.32912454 0.06223554 -0.20423721 -0.2967466
-0.40324736 -0.3769339 -0.8518735 -0.22197382 -0.15176608 -0.15417027 -0.1201051 -0.37006456
0.08023289 0.43107492 0.5323791 0.44997805 1.1413308 -0.12137975 0.2770011 -0.0024166738
-0.05339235 -0.6978793 -0.15449722 0.47490427 -0.21785828 0.44042745 -0.21483207 0.5603179
0.679847 0.90860885 -0.027175546 0.61020225 -1.005771 -0.28646114 0.1498712 -0.29052955
-0.08800014 0.37034774 -0.030839715 0.7571796 -0.06342229 -0.12829705 -0.67560714 0.25592554
1.1895242 -0.3173707 -0.1880058 0.8824474 -0.17671402 -0.3793773 0.4195174 -0.27963176
0.12589099 -0.6253418 -0.0011143835 0.24470016 -0.16852024 -0.13671242 -0.21953121 -0.31705102
-0.25406894 -0.14246689 -0.20073377 -0.3309097 0.15099393 -0.19487132 0.013270333 0.00077498646
-0.29400188 -0.2521264 1.517064 -0.4964952 -0.23849076 -0.06184008 0.14725628 -0.241873
0.10236051 -0.5605427 -0.037654098 0.3382883 -0.063822374 -0.37273765 -0.6883227 0.29886246
0.55697453 0.09310434 -0.0065390873 0.2646585 0.15452327 0.44506955 1.1669703 0.700201
0.0020649163 -0.91388774 -0.22027262 -0.73344 -0.43333972 -0.30949807 -0.11725445 -0.13607602
0.78957844 -0.0731375 0.409029 0.9853476 -0.2607312 0.27595514 0.21836331 -0.4445965
0.43373203 0.05615972 -0.16987333 0.26316053 -0.18078248 0.6438956 0.7600073 0.8511107
0.012302618 -0.34893432 -0.016176548 -0.13699165 0.28158787 -0.74459606 0.49733308 1.2631222

stage2.1.branch2.1.weight f4 [16]
00000000: dcb8 763f 7c0e 8b3f 322c 8f3f 2361 ae3f
00000010: 74d0 82bd ee3b 84bd 41b3 a13f e3d7 7bbd
00000020: 9b0c 9a3c 3a87 913f b17c a03f 430b 8e3f
00000030: 1136 543f 6751 893f b0af 8b3f 6122 9c3f
0.96375823 1.0863795 1.1185362 1.3623394 -0.063874155 -0.06456743 1.2632829 -0.061485182
0.018804839 1.1369393 1.2538053 1.1097187 0.82895 1.0727967 1.091299 1.2197992

stage2.1.branch2.1.bias f4 [16]
00000000: 155b a53e da82 5c3f 0059 413f 4d59 ff3e
00000010: 9f44 0fba 9c70 dbb9 25d0 b43e 58e9 23ba
00000020: 256f 93ba fa8e e63e 454f a63e 9d5f 8d3f
00000030: 49ae 013f fb70 343f 88c3 973f 2115 bf3d
0.32296053 0.86137164 0.7552643 0.4987282 -0.00054652424 -0.00041854836 0.35315052 -0.00062527275
-0.0011248334 0.45030957 0.32482353 1.1044804 0.50656563 0.70484895 1.1856546 0.09330202

stage2.1.branch2.3.weight f4 [16, 1, 3, 3]
00000000: 448f c03e e9b4 d5be b9ef 8a3e 6410 213e
00000010: 00c7 ccbf 3182 4cbf 7abd 163f c1ce 15bf
00000020: e3b1 473d 0cc4 41bd cb19 aebd 5a91 b8be
00000030: a52a 5ebd 736d bcbf d38c a13e 9d3c 5c3e
00000040: 64d2 b63f 721e 41be b807 84be 93ce 80be
00000050: a44f 28be 8e36 afbe c634 babf 1001 86bd
00000060: 2ebb e73e 7d65 b23f 720e e6bc d50a 123e
00000070: 66c7 05bf 4f8d 8c3e 46f3 4a3f 9fd1 96bf
00000080: 2a2b 4bbe 7b99 a5be 96eb 4bbf 28f7 b53f
00000090: 5f64 063d e608 023d 440e 073d 124d ff3c
000000a0: 954f 003d d693 0a3d 1a59 043d 5db4 043d
000000b0: eeda 093d b785 fc3c 85c1 053d a3c0 033d
000000c0: eccf 063d 8f1c 093d 0fe2 0b3d 7e0d 043d
000000d0: 6e5d 023d bd8f 023d 4a39 92be aa9c fa3d
000000e0: ea88 543e bbbd 973d bd9c 9ebf 33d8 cf3f
000000f0: c67b 5f3e 0a87 6c3e aa13 55bf 988d 133d
00000100: 2932 0d3d 652d 133d f74f 123d 4394 0a3d
00000110: 8705 173d e586 093d 5065 0f3d c938 133d
00000120: 8d8a b3bb 9523 31bb 957f 36bb 357a 38bb
00000130: 343e 84ba 891c 88ba d04b 39bb 1cb2 ae38
00000140: fdec 31bb 032e 7e3e d78c d1be 2d33 6ebe
00000150: 3596 923e 11c6 9d3f 0410 01c0 9ab8 bdbe
00000160: 6506 01be dc59 8c3f 2629 433c b216 e83e
00000170: 7bbe 72be af5b 133f 94c2 e23c a4d6 87bf
00000180: fcab 88be 0101 97bf 364d ce3f 5ed4 253d
00000190: 866d 65be a5cd 3ebe c73d 573f b9c6 773f
000001a0: b47c 6f3f 73b9 82bf 4fb4 74bf 63ef 2dbf
000001b0: 9864 b4bd acda 763b 9f18 66be 6af4 21be
000001c0: 0771 66bf 9c15 15bf ca3d 6ebe 43db e5bd
000001d0: 36ff a6be 517c 40be 2aa2 ef3e 12f2 8bbe
000001e0: a6f1 2bbf 7d3d 0b40 da9c acbf b756 843c
000001f0: 65c3 8a3e 4ad5 29bd 1679 033e 7a55 0abe
00000200: 1a1e c2bd a3f9 9b3e ccd8 cf3f 7701 8e3e
00000210: 4d47 1dbf 9546 a8bf ef0d f4be 07b6 2dbd
00000220: ccfe a1be 54b7 7c3e 70af 0a3f 2225 e4bf
00000230: e603 9a3f 1688 953e 8e36 0cbf a9a9 303e
0.37609303 -0.41739586 0.2713602 0.15728909 -1.599823 -0.79886156 0.5888287 -0.58518606
0.04875363 -0.047306105 -0.08501013 -0.36048394 -0.054239888 -1.4720901 0.31552753 0.21507497
1.4282956 -0.1885927 -0.2578714 -0.25157604 -0.1643663 -0.3422131 -1.4547355 -0.065431714
0.45259994 1.3937222 -0.02808306 0.14261945 -0.5225738 0.2745156 0.79277456 -1.1782721
-0.19840685 -0.3234366 -0.7965635 1.4216051 0.032810565 0.031746767 0.03297259 0.03116468
0.031325895 0.033832394 0.032311536 0.03239857 0.033656053 0.030825479 0.032655258 0.032166135
0.032913134 0.0334745 0.034151133 0.03223943 0.031827383 0.03187536 -0.28559333 0.122369125
0.20755354 0.07409235 -1.2391583 1.6237854 0.2182456 0.23098388 -0.8323313 0.036023706
0.034471665 0.035931963 0.03572079 0.0338328 0.036870506 0.03357591 0.03500873 0.035942826
-0.005479163 -0.0027029265 -0.002784704 -0.0028149013 -0.0010089339 -0.0010384481 -0.0028273948 8.330142e-05
-0.0027149313 0.2482224 -0.40927765 -0.2326171 0.28630224 1.232607 -2.0166025 -0.37054902
-0.12600096 1.0964923 0.011911666 0.45329815 -0.23705475 0.57561773 0.027680673 -1.0612378
-0.26693714 -1.1797181 1.6117313 0.040485732 -0.22405061 -0.18633135 0.8407864 0.967876
0.93549657 -1.0212845 -0.9558763 -0.679434 -0.08808249 0.003766696 -0.2247033 -0.15815893
-0.90016216 -0.582361 -0.23265758 -0.112234615 -0.32616585 -0.18797423 0.4680341 -0.27333122
-0.671656 2.175628 -1.3485367 0.01615463 0.271022 -0.041463174 0.1283916 -0.13509169
-0.09478398 0.30463895 1.6238036 0.27735493 -0.6143692 -1.314654 -0.4766688 -0.042409923
-0.31639707 0.24679309 0.54173946 -1.7823832 1.203244 0.29205388 -0.54770744 0.1725222

stage2.1.branch2.4.weight f4 [16]
00000000: dac1 ba3f ed04 a43f 1572 993f 5b60 853f
00000010: d0d7 a53d 0f40 ac3d 4577 a63f fd09 a83d
00000020: 647b 943d f412 ad3f b25f bd3f 86be b23f
00000030: 0076 a73f 931e ae3f 469d b53f 3450 ad3f
1.4590409 1.2814003 1.198794 1.042003 0.080978036 0.08410656 1.3005148 0.0820503
0.072500974 1.3521409 1.4794829 1.3964393 1.3082886 1.360308 1.4188621 1.3540101

stage2.1.branch2.4.bias f4 [16]
00000000: 4c57 753f 8460 d0be 3948 86be 7468 863e
00000010: e7ce 753d 614d 6c3d ff5a 1dbe e403 4c3d
00000020: ba82 713d 0bff 1dbe 7377 5f3e 2d17 fa3d
00000030: 123f 943e 51e3 bcbe 6dc9 983d f7e6 323e
0.9583633 -0.40698636 -0.26226977 0.26251566 0.06001177 0.05769098 -0.15366744 0.049808398
0.05896256 -0.15429322 0.2182291 0.12211452 0.2895437 -0.3689218 0.07460294 0.17470919
