independent_train/client84/best_model_1000.0.pth (torch, 225067 bytes, 29 tensors)

conv1.weight f4 [24, 3, 3, 3]
0	0x3d6d57de	0.057945125
1	0x3f050378	0.5195842
2	0xbe06966d	-0.1314332
3	0x3f22fd45	0.6366771
4	0x3f9c83dd	1.2227741
5	0x3e9a85f4	0.30180323
6	0x3e90d0ea	0.2828439
7	0x3f4215c4	0.7581446
8	0x3e1cfc01	0.15330507
9	0xbf0292cb	-0.5100524
10	0xbf2f335b	-0.6843774
11	0xbef5e51c	-0.4802636
12	0xbf877b05	-1.0584418
13	0xbfacbd24	-1.3495221
14	0xbf8b928f	-1.0904101
15	0xbf08ae69	-0.5339113
16	0xbf5ff07b	-0.8747632
17	0xbeef206f	-0.46704432
18	0x3ec827ab	0.39092764
19	0x3f124d6c	0.57149386
20	0x3f0d9be4	0.55315995
21	0x3e923c5f	0.28561684
22	0x3ea0e774	0.31426585
23	0x3ea87a71	0.32905915
24	0x3e4abcff	0.19798659
25	0x3e2930e4	0.16522557
26	0x3e8f9535	0.28043523
27	0xbf4f1c3c	-0.8090246
28	0xbee64391	-0.44973424
29	0xbf59532e	-0.8489255
30	0xbe9cf63c	-0.30656612
31	0x3f46a22d	0.7759121
32	0xbe4a0fd8	-0.19732606
33	0xbe6596a4	-0.22420746
34	0x3f121ba5	0.5707343
35	0xbe16640b	-0.14686601
36	0x3e55232d	0.208142
37	0x3f2b26d3	0.66856116
38	0x3df94d52	0.12172951
39	0x3e99c016	0.30029362
40	0x3fc233a5	1.5172011
41	0x3ef577ee	0.47943062
42	0xbe4fb0e0	-0.20282316
43	0x3f26265e	0.64902294
44	0xbdcc03a7	-0.09961634
45	0x3e9d768f	0.30754516
46	0xbd6b07eb	-0.057380598
47	0x3e1f581e	0.15560958
48	0xbf103e7a	-0.5634533
49	0xbebb0bdb	-0.36532483
50	0xbf00358c	-0.50081706
51	0xbf19fa69	-0.6014772
52	0xbf05db3e	-0.5228766
53	0xbed3b0b2	-0.41345745
54	0x3e7c6978	0.24649608
55	0x3edd4009	0.43212917
56	0x3e99651a	0.29959947
57	0x3ebbfafe	0.3671493
58	0x3f2d0a3f	0.6759376
59	0x3eed0b76	0.46297807
60	0x3e10725b	0.14106123
61	0x3eb18795	0.34673753
62	0x3dd66618	0.104686916
63	0xbe280721	-0.1640897
64	0xbe012335	-0.12611087
65	0xbe2a9879	-0.16659726
66	0xbe11b3ef	-0.14228795
67	0xbe068a49	-0.13138689
68	0xbe18e72a	-0.14931932
69	0xbdbddc5b	-0.09270545
70	0xbe092ed9	-0.13396777
71	0xbe4dd4de	-0.20100734
72	0x3d4cd80c	0.050010726
73	0xbbe5faea	-0.0070184367
74	0x3c86876f	0.016422002
75	0xbd8e2f08	-0.06942564
76	0xbe189ac2	-0.14902785
77	0xbe16e5ac	-0.1473605
78	0x3ce39865	0.027782628
79	0xbd308519	-0.04309568
80	0xbe0187c3	-0.12649445
81	0x3f7a5a4c	0.9779403
82	0x3f6cbe0b	0.9247748
83	0xbe536972	-0.20645693
84	0x3f8aefeb	1.0854467
85	0xbe7fa1f4	-0.24964124
86	0x3e92c631	0.28666833
87	0x3dcb2273	0.0991868
88	0xbf12adb6	-0.5729631
89	0xbfc00bdf	-1.5003623
90	0xbeeaa2f3	-0.45827445
91	0xbeded83c	-0.4352435
92	0xbe07b53b	-0.13252728
93	0xbf0d06aa	-0.55088294
94	0xbfc72d87	-1.5560769
95	0x3f134245	0.57522994
96	0x3f0858db	0.5326058
97	0x3ed5219c	0.41627204
98	0x3f484439	0.782291
99	0xbe2daf26	-0.16961345
100	0x3d919695	0.07108799
101	0x3d9ec940	0.07753229
102	0xbefdfae3	-0.49605474
103	0xbf95ad46	-1.1693504
104	0x3ef9b94f	0.48774192
105	0x3eb5c9a5	0.35505405
106	0x3edeb444	0.43496907
107	0x3f11ea63	0.5699827
108	0xbe8070b0	-0.25085974
109	0xbe9c2477	-0.3049657
110	0xbe4a9a51	-0.1978543
111	0xbee5e8b1	-0.44904092
112	0xbef6df41	-0.48217204
113	0xbedfe759	-0.43731192
114	0xbea45d48	-0.32102418
115	0xbead4fbd	-0.33849898
116	0xbe9be4f2	-0.3044811
117	0x3e960a19	0.2930458
118	0x3eaddc1d	0.33956996
119	0x3e95735a	0.2918957
120	0x3e8b54c9	0.27213123
121	0x3ed084af	0.4072623
122	0x3e813133	0.2523285
123	0x3e03dae8	0.12876475
124	0x3e879af9	0.26485422
125	0x3e26cb68	0.16288531
126	0xbdfff292	-0.124974385
127	0x3d71ad89	0.059003387
128	0xbe3c1829	-0.18368591
129	0x3df4cdcf	0.119533174
130	0x3ece9259	0.4034603
131	0x3dc42b83	0.09578612
132	0xbc74e61f	-0.014947443
133	0x3e8c27be	0.2737407
134	0xbc23a1f8	-0.009987347
135	0x3d881a96	0.06645696
136	0x3f475272	0.77860177
137	0xbe5ae555	-0.21376546
138	0x3e98da7d	0.29854193
139	0x3f8ade56	1.0849102
140	0x3eed66cb	0.46367487
141	0xbf30527b	-0.68875855
142	0xbf26c42a	-0.6514307
143	0xbe328d7f	-0.17436789
144	0xbea8fd89	-0.33005932
145	0x3e4d68d0	0.20059514
146	0xbf074409	-0.5283819
147	0x3e680173	0.22656803
148	0x3f2dd0ed	0.6789692
149	0x3e651331	0.22370602
150	0xbed1846e	-0.40921348
151	0xbf38b268	-0.72147226
152	0xbe8ed231	-0.27894738
153	0xbece98ce	-0.40350956
154	0xbe35e5c4	-0.1776343
155	0xbefe2c93	-0.49643382
156	0x3e81eadd	0.253745
157	0x3ecd8edc	0.40148056
158	0x3e51df56	0.20495352
159	0x3e55319a	0.20819703
160	0xbe9fe220	-0.31227207
161	0x3e2df8af	0.16989397
162	0x3e07964e	0.1324093
163	0x3cf64974	0.030064322
164	0xbcc1a30e	-0.02363732
165	0x3e5bb09a	0.21454087
166	0x3e5c7c05	0.21531685
167	0x3dbfd502	0.093668
168	0xbd3c16ba	-0.04592011
169	0xba5d333c	-0.00084381155
170	0xbdf1ef0d	-0.118131734
171	0x3e950b9c	0.2911042
172	0x3eafb68a	0.34318954
173	0x3e2f69af	0.17130159
174	0x3ebe9985	0.372265
175	0x3f04006a	0.5156313
176	0x3e872852	0.2639795
177	0x3ea7001d	0.32617274
178	0x3ed00099	0.40625456
179	0x3e17427c	0.14771456
180	0xbe14485e	-0.14480731
181	0xbeef1a2f	-0.46699664
182	0xbdc6fa14	-0.09715667
183	0xbf1a026d	-0.6015995
184	0xbf650da7	-0.89473957
185	0xbf04d71f	-0.5189075
186	0xbe4ce264	-0.20008236
187	0xbf013049	-0.504643
188	0xbe4e440d	-0.20143147
189	0x3e12c732	0.143338
190	0x3ee9ba35	0.45649877
191	0x3de508a8	0.11183292
192	0x3ef08eaf	0.4698386
193	0x3f7281f1	0.94729525
194	0x3f123db0	0.5712538
195	0x3d61c51a	0.05511961
196	0x3f173c6b	0.59076566
197	0x3e678cca	0.226123
198	0xbed2c469	-0.41165474
199	0xbf032654	-0.5123036
200	0xbeef1dbf	-0.46702382
201	0xbf30ec43	-0.69110507
202	0xbf35ad2c	-0.70967364
203	0xbf206b76	-0.6266397
204	0xbe961998	-0.293164
205	0xbeab9531	-0.33512262
206	0xbe7ef4ba	-0.24898043
207	0x3ea87836	0.32904214
208	0x3ecb8cd6	0.39755887
209	0x3dd19998	0.10234374
210	0x3da6c919	0.08143825
211	0x3e0ffd80	0.14061546
212	0xbe062f1f	-0.13103913
213	0x3d076d85	0.03306343
214	0x3dae0f80	0.0849905
215	0xbe2356a0	-0.15951014
216	0x3e044f5a	0.12920895
217	0x3f01073c	0.50401664
218	0x3e41203b	0.18859951
219	0x3e45bd0a	0.19310394
220	0x3f2b44e9	0.66902024
221	0x3e91da1b	0.28486714
222	0xbe147b36	-0.14500126
223	0x3e8333a0	0.25625324
224	0x3be16976	0.006879027
225	0xbe65f35c	-0.22456115
226	0xbe2954cb	-0.16536252
227	0xbe4fbb2c	-0.20286244
228	0xbe5ec469	-0.21754612
229	0xbdf3c186	-0.11902146
230	0xbe06c49f	-0.13160942
231	0xbd6b05da	-0.057378627
232	0xbb022a66	-0.0019861697
233	0x3d9dafbe	0.07699536
234	0x3e7440a4	0.23852783
235	0xbd7037e7	-0.058647063
236	0x3c85d434	0.016336538
237	0xbe52390d	-0.20529576
238	0xbf02b8af	-0.51063055
239	0xbebfc112	-0.37451988
240	0xbdd0650f	-0.101755254
241	0xbed52fda	-0.4163807
242	0xbe71cd3b	-0.23613445
243	0x3d17555e	0.036946647
244	0x3f03cf32	0.5148803
245	0x3e97f411	0.29678395
246	0x3dbd9c34	0.09258309
247	0x3f2a7c4d	0.6659592
248	0x3ecace1d	0.39610377
249	0xbe930525	-0.28714862
250	0x3ead86f4	0.33892024
251	0x3cf7430d	0.03018334
252	0xbec1ca4c	-0.37849653
253	0xbec444fe	-0.38333887
254	0xbeae460f	-0.34037825
255	0xbf08d264	-0.5344603

dense1.0.bn1.weight f4 [24]
0	0x3f6de4e8	0.9292741
1	0x3f2a39aa	0.6649424
2	0x3e96fc09	0.29489163
3	0x3f9e040d	1.2344986
4	0x3ebac48a	0.36478072
5	0x3f4e7ebf	0.8066215
6	0x3e5f1bb9	0.21787919
7	0x3e9e7a39	0.30952623
8	0x3f246748	0.64220095
9	0x3f14afa1	0.5808049
10	0x3fc9da96	1.5769832
11	0x3ea3d885	0.3200113
12	0x3f803a7a	1.0017846
13	0x3f33fd57	0.7030844
14	0x3f614ac7	0.88004726
15	0x3f02f94c	0.51161647
16	0x3f5ec069	0.87012345
17	0x3ec7651b	0.38944325
18	0x3eb7e3c5	0.35915962
19	0x3f0fbc6e	0.56146896
20	0x3ee48ad1	0.4463716
21	0x3f770e2b	0.96505994
22	0x3ee760ad	0.45190945
23	0x3f05f548	0.52327394

dense1.0.bn1.bias f4 [24]
0	0xbf4721d3	-0.77785987
1	0x3f1d2ecd	0.6139954
2	0xbe0096aa	-0.12557474
3	0x3f2ba0fc	0.6704252
4	0xbdf8d326	-0.12149648
5	0x3eea2136	0.45728463
6	0x3ea1aba4	0.31576264
7	0x3e9d3876	0.3070714
8	0xbe1c0fef	-0.15240453
9	0x3e6012a3	0.2188211
10	0x3f3af6d3	0.73032874
11	0x3ea45ddd	0.32102862
12	0x3edfa0fa	0.43677503
13	0x3eb038bb	0.34418282
14	0x3eed1785	0.46307006
15	0x3d699699	0.057028387
16	0x3e3d7f45	0.1850558
17	0x3e6129ba	0.21988574
18	0xbd386ce6	-0.04502573
19	0xbe97f2d7	-0.2967746
20	0xbed3cfe9	-0.4136956
21	0x3ef98f15	0.48741975
22	0xbc25e7a6	-0.01012603
23	0xbeb0d158	-0.34534717

dense1.0.conv1.weight f4 [12, 24, 3, 3]
0	0xbe20dcae	-0.15709183
1	0xbe107815	-0.14108308
2	0xbd9db790	-0.077010274
3	0xbe1a0029	-0.15039124
4	0xbe20f275	-0.1571749
5	0x3c249ff7	0.010047904
6	0xbe076cfb	-0.13225166
7	0xbd59c4a3	-0.053166043
8	0x3de719a5	0.11284188
9	0x3e00ee8c	0.12590998
10	0x3dc8a0cd	0.09796295
11	0x3dd81eea	0.105527714
12	0x3de7bb88	0.113150656
13	0x3e28a6c6	0.16469869
14	0x3dd72850	0.10505736
15	0x3d7e579b	0.062095266
16	0x3e0011f4	0.12506849
17	0x3abac5ca	0.001424962
18	0x3dc8c871	0.09803856
19	0x3d8742f7	0.066045694
20	0x3dbb1b31	0.09136046
21	0x3d8b9a81	0.06816579
22	0x3dec6d13	0.11544242
23	0x3dedba59	0.116078086
24	0x3e007360	0.12544012
25	0x3dda66b2	0.10664119
26	0x3d98af19	0.07455272
27	0xbe88a37a	-0.26687223
28	0x3d45394b	0.048150342
29	0x3db55ff5	0.08856193
30	0x3d8d91ba	0.06912561
31	0x3eb31daa	0.3498357
32	0x3e1c6715	0.15273698
33	0x3d5cfc1e	0.053951375
34	0x3d932596	0.07184903
35	0x3dd40b04	0.103536636
36	0x3e01d71e	0.12679717
37	0x3d0a155d	0.03371178
38	0x3dcf8682	0.10133077
39	0x3d012eb0	0.031538665
40	0xbc03f178	-0.008053176
41	0x3d55d58f	0.05220562
42	0x3da4a637	0.080395155
43	0x3ce33f1a	0.02774005
44	0x3e04f617	0.12984501
45	0x3e05c574	0.13063604
46	0x3b92c379	0.0044788686
47	0xbe215f1f	-0.15758942
48	0x3dd5fe3c	0.10448882
49	0x3d48add6	0.048993908
50	0x3d017b9f	0.031612035
51	0x3d16e8bf	0.036843058
52	0x3de8caee	0.11366831
53	0x3e5ce0ae	0.21570083
54	0x3d46e8d9	0.048561905
55	0x3d6c8f9a	0.057754137
56	0x3d9d73db	0.07688113
57	0x3daef079	0.0854196
58	0x3dc2e13c	0.09515616
59	0x3db32fa5	0.08749322
60	0x3d281733	0.04103775
61	0x3d10e4f9	0.035374615
62	0xb8601108	-5.3421623e-05
63	0x3da9d6c4	0.082929164
64	0x3dcd75b7	0.10032218
65	0x3dc09d65	0.094050206
66	0x3d43d4bd	0.047810305
67	0x3d73af9d	0.05949365
68	0x3e174da2	0.14775708
69	0x3ced32f6	0.028954964
70	0x3d4c559d	0.049886335
71	0x3d4c3d8b	0.04986338
72	0x3c9eb6cd	0.019374276
73	0x3d6a5d9b	0.057218175
74	0x3ce7de6d	0.028304303
75	0x3cef7ff6	0.029235821
76	0x3d39e3e2	0.04538334
77	0x3d65c46e	0.056095533
78	0x3a269d8e	0.0006355875
79	0x3cf51cf7	0.029921038
80	0x3c34d253	0.011036473
81	0x3ddac7dd	0.10682652
82	0x3d8cc041	0.06872607
83	0x3da43324	0.08017567
84	0x3e323914	0.17404586
85	0x3dec3e70	0.115353465
86	0x3e014e9f	0.12627648
87	0x3dd62027	0.10455351
88	0x3e10abe2	0.14128068
89	0x3da2bc71	0.079460986
90	0x3e0cec66	0.13762054
91	0x3e63dd65	0.22252424
92	0xbdd1a711	-0.102369435
93	0x3e9c5ef7	0.30541202
94	0xbb1661e3	-0.0022946529
95	0xbe336e5e	-0.1752257
96	0x3dae41d9	0.08508653
97	0x3e3f6afd	0.18693157
98	0x3e1981e0	0.1499095
99	0x3e42878d	0.18997021
100	0x3d1c6ba0	0.038188577
101	0xbe523a70	-0.20530105
102	0x3d56c225	0.052431244
103	0x3c9a70e1	0.018852653
104	0xbb0392ea	-0.0020076581
105	0x3c706118	0.014671586
106	0x3c8b8631	0.01703176
107	0x3df99066	0.12185745
108	0xbd8ea82e	-0.069656715
109	0xbdd434f9	-0.10361666
110	0x3e256e0b	0.1615526
111	0xbd925023	-0.07144191
112	0xbca0d5a6	-0.019633126
113	0x3d577f93	0.0526119
114	0x3e09b3f8	0.13447559
115	0x3df27522	0.118387476
116	0xbcf97584	-0.030451544
117	0xbd2b1f55	-0.041777927
118	0xbe1c53ef	-0.15266393
119	0xbe83a731	-0.25713494
120	0xbe7321a4	-0.23743302
121	0xbe9eb1ae	-0.30994934
122	0xbea3ba1c	-0.31977928
123	0xbea78ec0	-0.32726097
124	0xbea57fd5	-0.3232409
125	0xbe9ffdac	-0.31248224
126	0xbe2cedf5	-0.16887648
127	0xbd6b6da1	-0.057477597
128	0x3ba7d3af	0.00512167
129	0xbd58fdf7	-0.052976575
130	0x3e15f97c	0.14645952
131	0xbc82fb8a	-0.015989084
132	0x3da08207	0.07837301
133	0xbe57c04a	-0.21069446
134	0xbe26ee00	-0.16301727
135	0x3e3aa604	0.18227392
136	0x3e3eeb8a	0.18644539
137	0x3e87b143	0.26502427
138	0x3e1ed319	0.15510215
139	0x3d7a9488	0.061176807
140	0x3e355d8c	0.17711467
141	0x3dfceffe	0.123504624
142	0x3e10142d	0.14070196
143	0x3e517662	0.20455316
144	0x3cf7abed	0.030233348
145	0xbd2174a3	-0.039417874
146	0x3cfcaf2e	0.030845251
147	0xbccf60bc	-0.025314681
148	0xbdc98a7a	-0.098408654
149	0xbd13004e	-0.035888962
150	0x3ceff214	0.029290237
151	0x3bc70bc9	0.006074403
152	0x3be050d3	0.0068455725
153	0xbd19b4fe	-0.037526123
154	0xbce7fe3d	-0.028319472
155	0x3cbeeb50	0.023305565
156	0xbd34a472	-0.04410214
157	0x3bfeca26	0.007775563
158	0xbac4c149	-0.0015011217
159	0x3d33e162	0.043916114
160	0xbbc50ee0	-0.006013736
161	0xbdcfb34e	-0.101416215
162	0xbd57c675	-0.052679498
163	0xbcdc1086	-0.026863348
164	0xbd95444c	-0.07288417
165	0xbd5c8619	-0.053838823
166	0xbd1b0d36	-0.037854396
167	0xbd9d490c	-0.07679948
168	0xbd993477	-0.0748071
169	0xbd69031b	-0.056887727
170	0xbda1a69e	-0.07893108
171	0xbc447cb5	-0.011992623
172	0xbd868f8e	-0.0657035
173	0xbd35a3eb	-0.044345777
174	0xbd3a74bd	-0.045521487
175	0xbd797fb1	-0.06091279
176	0xbd1d5727	-0.038413193
177	0xbdf4193a	-0.11918874
178	0xbd22f269	-0.03978196
179	0xbd826735	-0.063673414
180	0x3d41e6af	0.047339138
181	0xbb7e81c0	-0.0038834661
182	0x3d2b3154	0.04179509
183	0x3c2e518a	0.010639558
184	0x3d858ef8	0.0652141
185	0x3d87e2d2	0.066350594
186	0x3d9ac4bb	0.075570546
187	0x3d7909af	0.06080025
188	0x3ddf5f78	0.10906881
189	0x3dfe0175	0.12402622
190	0x3df0e713	0.11762824
191	0xbbac168a	-0.0052517103
192	0x3c34ed86	0.011042958
193	0xbe269e36	-0.1627129
194	0xbe14d027	-0.14532529
195	0xbe91daaf	-0.28487155
196	0xbdbd556d	-0.09244809
197	0x3d49839b	0.049197774
198	0x3d81af23	0.06332233
199	0x3d8d66d6	0.0690438
200	0xbd236843	-0.039894354
201	0x3ca9ef84	0.020744093
202	0x3bd6c331	0.0065540303
203	0x3ac7c7ca	0.0015242037
204	0x3da39e53	0.07989182
205	0x3d6ec50d	0.05829339
206	0x3c94ba36	0.018155199
207	0x3dbd10e9	0.09231741
208	0x3dad6061	0.084656484
209	0x3dde8142	0.10864498
210	0x3c18f3e5	0.009335493
211	0x3d4e739a	0.050403215
212	0x3dae9d76	0.08526127
213	0x3d6dec98	0.05808696
214	0xbc33f259	-0.010983073
215	0x3d8eaa24	0.069660455
216	0xbe7876d6	-0.24264082
217	0xbe9a8976	-0.30183
218	0xbe5e1213	-0.21686582
219	0x3cf9b371	0.030481072
220	0x3d784947	0.060616758
221	0x3d852eed	0.06503091
222	0x3e67dc81	0.2264271
223	0x3e816f3e	0.25280184
224	0x3e087208	0.1332475
225	0x3e055dc6	0.13024053
226	0x3dc5d19e	0.09659122
227	0x3ddf270c	0.108961195
228	0xbec6ee22	-0.38853556
229	0xbeef27df	-0.46710107
230	0xbec67c61	-0.3876677
231	0x3eb38466	0.3506195
232	0x3eaaff29	0.33397797
233	0x3e8b0081	0.27148822
234	0x3e0e5efc	0.13903421
235	0x3e0a85da	0.13527623
236	0x3ddd92fd	0.108190514
237	0x3cf62f08	0.030051723
238	0x3da3977e	0.07987879
239	0x3cb5fbf7	0.022214873
240	0x3d00a13a	0.031403758
241	0x385b9108	5.234874e-05
242	0xbcdc7e58	-0.026915714
243	0xbec136e1	-0.37737182
244	0xbeab5272	-0.33461338
245	0xbf1b66c9	-0.6070371
246	0x3e147432	0.1449745
247	0x3f18d4e6	0.5969986
248	0x3ee5f89c	0.44916236
249	0xbdb84eea	-0.08999427
250	0xbc0e7bf2	-0.008696543
251	0xbcd44451	-0.025911482
252	0x3dbf127e	0.09329699
253	0x3dd8fe2d	0.10595355
254	0x3d6f0800	0.05835724
255	0xbc1b804e	-0.009491039

dense1.1.bn1.weight f4 [36]
0	0x3e97866b	0.2959474
1	0x3e995201	0.29945377
2	0x3eb1da22	0.34736735
3	0x3f8ed718	1.1159391
4	0x3f02431f	0.5088367
5	0x3f368d80	0.7130966
6	0x3e6629a2	0.22476819
7	0x3ee8b4ba	0.45450383
8	0x3ef8ae0c	0.48570287
9	0x3ea2cb45	0.31795707
10	0x3f3e1f21	0.7426625
11	0x3eb429dd	0.3518819
12	0x3eb7a122	0.35865122
13	0x3eb8889d	0.36041728
14	0x3f2ed5ca	0.68294966
15	0x3e88f781	0.2675133
16	0x3e89f5de	0.26945394
17	0x3f17030c	0.58989024
18	0x3f40ae9d	0.7526644
19	0x3f987af5	1.1912524
20	0x3f29fa53	0.6639759
21	0x3f988443	1.1915363
22	0x3f2385cb	0.63876027
23	0x3f55c293	0.8350002
24	0x3f35fff3	0.7109367
25	0x3f8135d8	1.0094557
26	0x3f58bf06	0.8466648
27	0x3fa7c8ab	1.3108114
28	0x3fa35a07	1.2761849
29	0x3f42c1cd	0.76076967
30	0x3f37fe81	0.7187272
31	0x3f301bf6	0.68792665
32	0x3f134f06	0.57542455
33	0x3f8b10e4	1.086453
34	0x3fa99954	1.3249917
35	0x3f3bf2c1	0.7341729

dense1.1.bn1.bias f4 [36]
0	0x3eac5b0b	0.3366321
1	0x3da1725c	0.078831404
2	0xbdc269ef	-0.094928615
3	0xbdef9af4	-0.11699477
4	0xbe7165dd	-0.23574014
5	0xbe50f788	-0.20406926
6	0x3dd74ef0	0.10513103
7	0x3e9b5a96	0.3034255
8	0xbe91ea1a	-0.28498918
9	0x3e1f278f	0.15542434
10	0xbc7dbc9d	-0.015486863
11	0x3e80251c	0.25028312
12	0x3e60ccad	0.21953078
13	0x3e1b4913	0.15164594
14	0xbd678380	-0.056521893
15	0xbe2409cc	-0.16019362
16	0xbcbf9ed9	-0.023391174
17	0xbec53ea1	-0.38524345
18	0xbed4dc96	-0.41574544
19	0xbf2ce28c	-0.67533183
20	0xbec836f4	-0.39104426
21	0xbdd14583	-0.102183364
22	0xbd43e743	-0.04782797
23	0xbe079aef	-0.13242696
24	0xbe335038	-0.1751107
25	0x3e58088a	0.21097007
26	0xbe33231e	-0.17493865
27	0x3f327496	0.69709146
28	0x3ecef168	0.40418553
29	0x3d8381e8	0.06421262
30	0xbe86f50c	-0.2635883
31	0x3d7b3445	0.061329145
32	0x3cb54b34	0.022130586
33	0x3eb0722a	0.344621
34	0x3edb9576	0.42887467
35	0xbe94e4a8	-0.290807

dense1.1.conv1.weight f4 [12, 36, 3, 3]
0	0xbd1d89c3	-0.038461458
1	0xbe17349a	-0.1476616
2	0xbd2f4256	-0.042787872
3	0xbce556cb	-0.027995488
4	0x3cbff098	0.023430154
5	0xbd7b84c7	-0.061405923
6	0x3e69270f	0.22768806
7	0x3e086527	0.13319837
8	0x3ce4ab01	0.027913572
9	0x3dceef6a	0.10104258
10	0x3e1bcecc	0.15215605
11	0x3ddd980a	0.10820015
12	0x3df1448f	0.11780655
13	0x3d50c890	0.05097252
14	0xbb0ee057	-0.0021801197
15	0xbca04f3a	-0.019569028
16	0xbd5d7603	-0.054067623
17	0xbd99c6d7	-0.07508629
18	0xbd0f7089	-0.03501943
19	0xbd41403b	-0.047180396
20	0x3a83cd16	0.0010055627
21	0xbcdb9a08	-0.026806846
22	0xbbc6e311	-0.006069549
23	0x3d683ac8	0.056696683
24	0x3de53e7d	0.11193559
25	0x3cdc10ae	0.026863422
26	0x3d8eede2	0.06978966
27	0x3ddbb37d	0.10727594
28	0x3de80d56	0.11330669
29	0x3dcd03e6	0.10010509
30	0x3b0116e2	0.0019697477
31	0xbd14f618	-0.036367506
32	0x3e437525	0.19087656
33	0x3e16bc28	0.14720213
34	0x3e41f983	0.18942837
35	0x3e6a0c5b	0.22856276
36	0xbaf1d508	-0.0018450329
37	0x3d3f100e	0.04664617
38	0xbd0a09fc	-0.033700928
39	0x3c2b0628	0.0104384795
40	0x3cc42471	0.023943158
41	0xbc634e5f	-0.013873666
42	0xbb78a3c9	-0.003793942
43	0xbcc5fb5d	-0.02416771
44	0xbd94b303	-0.07260706
45	0xbe1eef82	-0.15521052
46	0xbda8c4e8	-0.08240682
47	0xbca8e3b5	-0.020616392
48	0xbe22a4e9	-0.1588322
49	0xbd876a11	-0.066120274
50	0xbd7ac679	-0.061224435
51	0xbdd67b21	-0.10472704
52	0xbe2aa43f	-0.16664217
53	0xbe9a1278	-0.30092216
54	0x3dc006b0	0.093762755
55	0x3e07b87b	0.13253967
56	0x3e0bda66	0.13657531
57	0x3ca97180	0.020684004
58	0x3d135e2a	0.035978474
59	0x3bc6a34c	0.006061947
60	0x3ca025a6	0.019549202
61	0xbd294fcd	-0.04133587
62	0xbd27f290	-0.04100281
63	0xbddd51a2	-0.10806586
64	0xbdd6f47e	-0.10495852
65	0xbd90fa04	-0.07078937
66	0xbdbc1cfb	-0.09185215
67	0xbd201286	-0.039080165
68	0xbc9fcc76	-0.019506674
69	0x3cd636f7	0.026149256
70	0x3d2babbe	0.041911833
71	0x3d6077ca	0.05480174
72	0xbcb30e2c	-0.021857344
73	0x3d9d8273	0.07690897
74	0x3d935e1c	0.07195684
75	0xbdad3a54	-0.08458391
76	0x3a7c3f58	0.0009622476
77	0x3dddc325	0.108282365
78	0xbcb6e1cd	-0.022324467
79	0x3d7e3550	0.06206256
80	0x3d24fc65	0.040279765
81	0xbd2d44db	-0.042301994
82	0x3c98e492	0.018663678
83	0xbc372d6d	-0.011180264
84	0xbccac4e6	-0.024752092
85	0xbd37e23f	-0.0448935
86	0x3ad8b14c	0.0016532331
87	0x3d816556	0.063181564
88	0x3d43cad7	0.047800865
89	0x3d68cb58	0.05683455
90	0xbdb2f17b	-0.08737465
91	0xbe550a63	-0.20804743
92	0xbdcbb9ee	-0.09947573
93	0xbdb257d8	-0.08708161
94	0x3d484594	0.04889448
95	0x3d6dc2fd	0.058047283
96	0x3d85949a	0.06522484
97	0x3d9ad39f	0.07559895
98	0xbcd2f3f6	-0.025751095
99	0xbef2eb33	-0.47445068
100	0xbeaf8ffd	-0.34289542
101	0x3d8a1ebb	0.067441426
102	0xbe99c723	-0.30034742
103	0x3e233a8e	0.15940306
104	0x3ecc36b8	0.39885497
105	0x3d9a52bd	0.07535312
106	0x3e8ac539	0.27103594
107	0x3d219bde	0.039455287
108	0x3e14b190	0.1452086
109	0x3e6bbe16	0.23021731
110	0x3c36388d	0.011121881
111	0x3e5b2a3f	0.21402834
112	0xbdbed4bc	-0.093179196
113	0xbe710c3f	-0.23539828
114	0xbe188a4a	-0.14896503
115	0xbeb1c432	-0.34719998
116	0xbeaf7446	-0.34268397
117	0xbe9ced86	-0.30649966
118	0xbe855c78	-0.2604711
119	0xbe228e8e	-0.15874693
120	0xbe5c847b	-0.21534912
121	0x3a192343	0.0005841741
122	0x3dc13bd4	0.094352394
123	0x3e16f277	0.1474093
124	0x3e39b254	0.18134433
125	0x3e01788e	0.12643644
126	0x3e99b1c9	0.30018452
127	0x3e8a6843	0.2703267
128	0xbe7b94af	-0.24568437
129	0xbcf7e076	-0.030258399
130	0xbe7dbb96	-0.2477859
131	0xbe494e41	-0.19658758
132	0xbe026518	-0.12733877
133	0x3dd35619	0.10319156
134	0x3e50fc5a	0.20408764
135	0x3d021874	0.0317616
136	0x3da9bfc6	0.08288531
137	0x3d6579fe	0.056024544
138	0x3d1c5661	0.038168315
139	0x3d9ac74c	0.07557544
140	0x3da098d2	0.07841648
141	0x3d120b0d	0.03565507
142	0x3c0238f6	0.007948151
143	0x3cecf682	0.028926138
144	0x3d1130e7	0.035447028
145	0x3c71d583	0.014760378
146	0x3dbec447	0.09314781
147	0x3ce9a370	0.028520316
148	0x3d21b1f7	0.03947636
149	0x3c231be5	0.009955381
150	0xbc9f0e56	-0.019416016
151	0x3c9cd2c4	0.01914347
152	0xbb3d6162	-0.0028897156
153	0xbd3c46ff	-0.045966145
154	0xbda37174	-0.07980624
155	0xbd10787b	-0.03527115
156	0xbd6fe1b0	-0.05856484
157	0xbd69310f	-0.05693155
158	0xbd85a5e9	-0.065257855
159	0xbd6b3220	-0.05742085
160	0xbcb7cf2a	-0.02243765
161	0xbda776e4	-0.081769735
162	0x3e0c399f	0.13693856
163	0x3c0cc34a	0.008591482
164	0xbdbff460	-0.09372783
165	0xbd2b2745	-0.041785497
166	0xbd996da9	-0.07491619
167	0xbdb87225	-0.09006146
168	0xbd947809	-0.072494574
169	0xbca1d2f6	-0.019753914
170	0x3bc150f7	0.0058995443
171	0xbe608ae2	-0.2192798
172	0xbe2e6947	-0.17032348
173	0xbe472ee5	-0.19451483
174	0x3d483a9c	0.04888402
175	0x3e2fadb5	0.17156108
176	0x3e37d5ae	0.17952606
177	0x3e455edf	0.19274472
178	0x3e5db3e3	0.21650653
179	0x3e1b21bc	0.15149587
180	0xbcafcd1a	-0.021460105
181	0x3d92eea1	0.07174421
182	0x3d48ff7e	0.04907178
183	0x3d45f2b1	0.04832715
184	0x3df43842	0.11924793
185	0x3cfc29c4	0.030781634
186	0x3d8a9cb8	0.06768173
187	0x3de97077	0.11398404
188	0x3ce3b2fb	0.027795305
189	0xbeb26ea7	-0.34850046
190	0xbf2b3a48	-0.66885805
191	0xbe224dad	-0.15849943
192	0xbedb8cbb	-0.42880806
193	0xbd880e00	-0.06643295
194	0xbc77b996	-0.015119931
195	0x3d9b4c65	0.075829305
196	0x3f2c72e4	0.6736281
197	0xbdba9135	-0.09109727
198	0xbcdc252e	-0.026873197
199	0x3d5b4d99	0.0535408
200	0xbca631a8	-0.02028735
201	0x3a5a3abc	0.0008324792
202	0x3d1b5e51	0.037931744
203	0xbd80f8a3	-0.06297424
204	0x3da31de6	0.07964687
205	0x3d855281	0.06509877
206	0x3cbdfafa	0.023190964
207	0x3e0ad01f	0.13555954
208	0x3e02bc01	0.1276703
209	0x3ca8f787	0.020625843
210	0x3d2bc12e	0.041932277
211	0xbd40fb72	-0.047114797
212	0xbdd1a8b2	-0.10237254
213	0x3c50a23e	0.012733994
214	0xbd94782d	-0.07249484
215	0xbd3a05c5	-0.04541566
216	0x3e965491	0.29361394
217	0x3ebd6f41	0.36998942
218	0x3dc6fb03	0.097158454
219	0x3d5db017	0.05412301
220	0xbe566727	-0.20937787
221	0xbe626827	-0.22110043
222	0xbe990bd3	-0.29891834
223	0xbe675d1b	-0.2259411
224	0x3cc8ad83	0.0244968
225	0x3edd5b2e	0.43233627
226	0x3e57685b	0.21035902
227	0xbe031dab	-0.12804286
228	0xbeb8970c	-0.3605274
229	0xbedcf3ca	-0.43154746
230	0xbef3ce1a	-0.4761818
231	0xbd481c3e	-0.04885506
232	0x3e0f679e	0.1400437
233	0x3e33ecce	0.17570803
234	0xbe8d7258	-0.276263
235	0xbe5a96dd	-0.21346612
236	0x3c69cd7a	0.014270181
237	0xbd9cc027	-0.07653838
238	0x3e74c76d	0.239042
239	0x3e6bae79	0.23015775
240	0x3e331885	0.17489822
241	0x3de3429c	0.11096689
242	0xbe8de65c	-0.27714813
243	0x3d396c01	0.045269016
244	0xbf54fb4c	-0.8319595
245	0xbd963061	-0.07333446
246	0xbf5bc3f7	-0.85845894
247	0xbe905dae	-0.28196472
248	0x3ef76b03	0.4832383
249	0x3eee1ddb	0.46507153
250	0x3f1fb0d2	0.6237918
251	0xbe31fa6d	-0.17380686
252	0x3efd899e	0.49519056
253	0xbe1de704	-0.15420157
254	0xbe84057d	-0.25785437
255	0xbf039298	-0.5139556

trans1.bn1.weight f4 [48]
0	0x3f507775	0.81432277
1	0x3fabdf99	1.3427612
2	0x3f694bc7	0.9113125
3	0x3fa263a0	1.2686653
4	0x3f4b4b0c	0.7941139
5	0x3f8b5b68	1.088727
6	0x3f2d8f85	0.6779712
7	0x3f3d72b1	0.7400313
8	0x3f8e415b	1.1113695
9	0x3f4ab927	0.7918877
10	0x3f8e6572	1.1124709
11	0x3f951cff	1.1649474
12	0x3f5eb171	0.86989504
13	0x3f70666b	0.9390628
14	0x3f6d794b	0.92763203
15	0x3f57bff3	0.84277266
16	0x3f43d394	0.7649472
17	0x3f522406	0.8208622
18	0x3f22785d	0.6346491
19	0x3f4aff36	0.7929567
20	0x3f28f4d9	0.6599861
21	0x3f42a04c	0.76025844
22	0x3f2c9499	0.6741424
23	0x3f5903e6	0.84771574
24	0x3f53eed5	0.82786304
25	0x3fe0434c	1.7520537
26	0x3fa61138	1.2974005
27	0x3fde23e1	1.7354699
28	0x3fb1663e	1.3859327
29	0x3f8e5426	1.111943
30	0x3fad961d	1.3561436
31	0x3fabaa5d	1.3411366
32	0x3fa202a9	1.2657062
33	0x3fb9a76f	1.4504222
34	0x3fe5730b	1.7925733
35	0x3f97e76e	1.1867502
36	0x3fea0132	1.8281615
37	0x3f96d90c	1.1784987
38	0x3fcf8e9f	1.62154
39	0x3fa11fa7	1.2587785
40	0x3fd6835b	1.6758837
41	0x3f95277e	1.1652677
42	0x3f8a5cc5	1.0809561
43	0x3fae5fc4	1.3622975
44	0x3f3f2434	0.74664617
45	0x3fb84fab	1.4399313
46	0x3f9f0838	1.2424383
47	0x3f995ee8	1.1982088

trans1.bn1.bias f4 [48]
0	0x3e105a8b	0.1409704
1	0xbf021dee	-0.5082692
2	0xbf0e460c	-0.55575633
3	0xbeaee361	-0.3415785
4	0x3cf760c1	0.030197503
5	0xbe57dba0	-0.21079874
6	0x3e8679ff	0.2626495
7	0x3dc865f1	0.09785069
8	0xbf029cb7	-0.5102038
9	0xbe91a3f4	-0.284454
10	0xbd0b0335	-0.033938605
11	0xbd171d69	-0.036893282
12	0xbdcbdee3	-0.09954622
13	0xbda0fbe5	-0.07860545
14	0xbdb51bd3	-0.08843198
15	0xbd8dd64c	-0.069256395
16	0xbe38a1b4	-0.18030435
17	0x3defbfb8	0.11706489
18	0x3e003667	0.12520753
19	0xbeef03d0	-0.46682596
20	0xbd39129c	-0.045183763
21	0xbd8fe8a2	-0.07026793
22	0xbf07a464	-0.52985215
23	0xbe08bf8e	-0.13354322
24	0xbebd872b	-0.37017187
25	0xbdd54c90	-0.10414994
26	0xbf029db7	-0.51021904
27	0xbee89955	-0.45429483
28	0xbf0b387a	-0.5438305
29	0x3ef171bc	0.47157085
30	0xbf2cc32f	-0.67485327
31	0xbef34a31	-0.4751754
32	0x3b2628f9	0.0025354011
33	0xbedb2b84	-0.42806637
34	0xbf28caf4	-0.6593468
35	0x3d49b197	0.04924163
36	0x3e1a324b	0.15058248
37	0xbdab7f4d	-0.0837389
38	0xbca1f084	-0.019768007
39	0xbd6312f5	-0.055438
40	0x3d3b8387	0.04577973
41	0xbf7104e4	-0.9414809
42	0xbe78d22e	-0.24298927
43	0x3f775a53	0.966222
44	0xbeb6a9a5	-0.35676304
45	0xbed96086	-0.42456454
46	0x3ea83fb5	0.32861105
47	0x3f088607	0.5332951

trans1.conv1.weight f4 [48, 48, 1, 1]
0	0xbe555376	-0.20832619
1	0x3eb7e484	0.3591653
2	0x3e264b77	0.16239725
3	0x3ec3b001	0.38220218
4	0xbbcd6ae4	-0.006268846
5	0x3e86eeb9	0.26354006
6	0x3e1717cf	0.14755176
7	0xbd9e3054	-0.077240616
8	0x3e882bd2	0.26595932
9	0x3e81dfd1	0.2536607
10	0x3db0041d	0.085945345
11	0x3f1973d2	0.5994235
12	0xbe9eb941	-0.31000713
13	0x3ed9d16d	0.42542592
14	0x3ea7985c	0.32733428
15	0xbea63707	-0.32463858
16	0xbe148a82	-0.14505962
17	0xbeebafc4	-0.46032536
18	0xbe59a54a	-0.21254459
19	0xbe02c333	-0.12769775
20	0xbe07bf59	-0.13256587
21	0x3e0ada8b	0.1355993
22	0xbe47c528	-0.19508803
23	0xbeb7c243	-0.35890397
24	0x3d3e9d5d	0.046536792
25	0xbf0082f9	-0.5019985
26	0x3e3786a9	0.17922463
27	0x3ed7db67	0.42159578
28	0x3ddab2ff	0.10678672
29	0x3e52f1c9	0.20600046
30	0x3ec2edc5	0.3807203
31	0x3ec804cc	0.3906616
32	0x3e84df86	0.25951785
33	0x3e4a47f6	0.19754013
34	0x3e1fb0d4	0.15594798
35	0xbe8cb1db	-0.27479443
36	0x3e161c50	0.14659238
37	0x3df4e32b	0.11957391
38	0xbd6ab936	-0.057305537
39	0xbf07193b	-0.52772874
40	0xbea5e128	-0.32398343
41	0xbe9316ba	-0.28728276
42	0xbe79bfa5	-0.24389513
43	0xbdbb41b0	-0.09143388
44	0xbc90eac9	-0.01769008
45	0x3d5e24b2	0.054234214
46	0x3e8a43c1	0.27004817
47	0xbeb129b0	-0.34602118
48	0x3bab01df	0.005218729
49	0xbde1d836	-0.11027567
50	0x3e157f21	0.14599277
51	0xbce094f2	-0.027414773
52	0xbd714fcd	-0.058913995
53	0xbe173246	-0.14765272
54	0x3ef758df	0.4830999
55	0x3e84ac97	0.25912926
56	0xbd96b405	-0.07358555
57	0xbe087a56	-0.13327917
58	0x3d56e38b	0.052463096
59	0xbf0751fc	-0.52859473
60	0xbebd4898	-0.36969447
61	0xbeeb8bce	-0.460051
62	0x3f5c0703	0.859482
63	0xbdffed1c	-0.12496397
64	0x3de7cd34	0.11318436
65	0xbf22790f	-0.6346597
66	0xbe8d3d85	-0.27585998
67	0xbe2736d6	-0.16329512
68	0x3e74a17f	0.23889731
69	0x3f65e8c8	0.8980832
70	0x3dfc376a	0.12315257
71	0xbe3df33f	-0.18549822
72	0xbdb2f8a4	-0.08738831
73	0x3f0c5d0f	0.54829496
74	0x3e97c76b	0.2964433
75	0xbe0e59ba	-0.13901415
76	0x3d98ad4e	0.0745493
77	0x3de97c2d	0.11400638
78	0x3cdd4d8e	0.02701452
79	0x3e913f04	0.2836839
80	0x3ec18684	0.3779794
81	0x3ec570c8	0.38562608
82	0xbea150b0	-0.31506872
83	0xbe3837f0	-0.17990088
84	0xbdb6ca4c	-0.08925304
85	0x3e125c45	0.1429301
86	0xbf0c6d1f	-0.54854006
87	0x3da7fd71	0.08202637
88	0x3d339626	0.043844365
89	0x3df389ac	0.11891493
90	0xbe833ecd	-0.2563385
91	0xbebb1043	-0.36535844
92	0x3da66951	0.08125556
93	0xbf18958e	-0.596032
94	0xbe2c3541	-0.1681719
95	0x3e1b5eb7	0.1517285
96	0xbd800d8b	-0.06252583
97	0x3d5802c4	0.052737013
98	0x3c866e06	0.016409885
99	0xbe4a7819	-0.19772376
100	0x3d1fdae4	0.03902711
101	0x3e819425	0.25308338
102	0x3e3b2eb4	0.18279535
103	0x3dcea601	0.100902565
104	0xbd09c4f6	-0.033635102
105	0x3dc6839a	0.0969307
106	0xbed739a5	-0.42036167
107	0x3e971589	0.29508618
108	0x3ec19898	0.37811732
109	0x3efea408	0.4973452
110	0xbea20d65	-0.31650844
111	0x3db70fb9	0.08938546
112	0x3d753538	0.059865206
113	0x3e9cc665	0.30620113
114	0x3dbea8f7	0.09309571
115	0xbe880065	-0.265628
116	0x3dca2d04	0.09871867
117	0xbea07b2b	-0.3134397
118	0x3c4e0664	0.012574766
119	0x3d5b72da	0.053576328
120	0xbdfbdb15	-0.12297646
121	0x3ec806de	0.3906774
122	0xbce27415	-0.027643243
123	0xbec16ecc	-0.37779844
124	0xbf5125cb	-0.8169829
125	0x3e633adf	0.22190426
126	0xbf14dac7	-0.5814633
127	0x3e08a4c7	0.13344108
128	0x3e3265d3	0.17421655
129	0x3d3299b2	0.043603607
130	0xbf3b2866	-0.7310852
131	0xbe42b786	-0.19015321
132	0xbdd1b1a6	-0.10238962
133	0xbe173fce	-0.14770433
134	0xbf9cb376	-1.2242267
135	0xbc3ef7bc	-0.011655744
136	0xbe357730	-0.17721248
137	0xbe3ae90b	-0.18252961
138	0x3e6afe9c	0.22948688
139	0xbe94c0d2	-0.2905336
140	0x3ce509c7	0.027958764
141	0xbffb8cf7	-1.9652394
142	0x3ea0bd40	0.31394386
143	0x3db32e9d	0.08749125
144	0x3da18303	0.078863166
145	0xbcdc815a	-0.026917148
146	0xbec9238d	-0.39284936
147	0xbebce45c	-0.36892974
148	0xbdc4b841	-0.09605456
149	0xbe8e0afa	-0.2774275
150	0x3e8b37cd	0.2719101
151	0xbe9d47c2	-0.3071881
152	0xbed95323	-0.4244624
153	0xbda331a3	-0.07968452
154	0xbeb07914	-0.34467375
155	0xbd2bfcb1	-0.041989032
156	0xbf053552	-0.52034485
157	0x3c15be41	0.009139598
158	0x3c8f8c25	0.01752288
159	0xbdee2c07	-0.11629491
160	0xbc55534f	-0.013020351
161	0xbf013db3	-0.5048477
162	0x3e9252f6	0.2857892
163	0x3e420062	0.18945459
164	0xbd8c0423	-0.068367265
165	0x3de238c1	0.11045981
166	0x3e10e34a	0.14149204
167	0xbe9e432d	-0.30910626
168	0xbac5f000	-0.0015101433
169	0xbeb9dfa4	-0.36303437
170	0xbe0cf209	-0.13764204
171	0xbde2f41a	-0.11081715
172	0x3d7a239e	0.061069123
173	0x3e865846	0.26239222
174	0xbec07b1d	-0.37593928
175	0x3e71d3ca	0.23615947
176	0x3e09e392	0.13465717
177	0x3c1fd0d3	0.009754377
178	0x3e0edb17	0.13950764
179	0x3ead8610	0.33891344
180	0xbcb99610	-0.022654563
181	0xbe1aa298	-0.15101087
182	0x3e38e1fa	0.18054953
183	0x3ec59051	0.38586667
184	0xbd918de2	-0.0710714
185	0x3e242e27	0.1603323
186	0x3f491ce5	0.78559715
187	0xbe5bf8fd	-0.214817
188	0x3d3a52c9	0.045489106
189	0x3e82c977	0.2554433
190	0x3de93eee	0.11388956
191	0x3ea3fa15	0.32026735
192	0x3c50d3df	0.0127458265
193	0x3e1f4c7d	0.15556522
194	0x3de4060d	0.111339666
195	0x3bd2b74f	0.0064305435
196	0x3df4c297	0.119511776
197	0x3d963e79	0.073361345
198	0x3d5cf930	0.05394858
199	0x3e398deb	0.18120544
200	0xbdc6d6a5	-0.09708909
201	0xbd089531	-0.033345405
202	0xbbd2c4ed	-0.006432167
203	0x3ae35610	0.0017344374
204	0x3bf9ba40	0.0076210797
205	0x3de1558c	0.11002645
206	0xbe76b807	-0.24093638
207	0xbeb90cbe	-0.36142534
208	0xbdf01a39	-0.117237516
209	0xbe8375c6	-0.25675792
210	0xbe88eabc	-0.26741588
211	0xbe0b13bf	-0.13581751
212	0x3efa188e	0.4884686
213	0xbcbcb4ce	-0.023035433
214	0x3eb9de2b	0.36302313
215	0xbe279f34	-0.16369325
216	0x3dc03090	0.093842626
217	0x3b8e2058	0.004337352
218	0x3ec2c1ce	0.38038486
219	0x3e9c9628	0.3058331
220	0x3d9eda3c	0.07756469
221	0x3e8e221b	0.27760395
222	0xbdf9d684	-0.12199119
223	0x3d443180	0.04789877
224	0x3ed642b4	0.41847765
225	0x3db57886	0.08860879
226	0xbcb9c8ad	-0.022678697
227	0xbeca90df	-0.39563653
228	0x3d7609c5	0.06006791
229	0xbf09634e	-0.5366715
230	0x3dc5a8ee	0.096513614
231	0x3f08ae50	0.5339098
232	0x3da59a05	0.080860175
233	0x3e9c1f87	0.30492803
234	0xbd2b0823	-0.041755807
235	0x3e3bfd0f	0.18358253
236	0x3e778075	0.24170096
237	0xbec91da3	-0.39280424
238	0x3c0e81c3	0.00869793
239	0x3ec45d14	0.38352263
240	0xbd75d7c1	-0.060020212
241	0xbf1d8cf4	-0.615432
242	0xbec1fcb6	-0.37888116
243	0x3dae4019	0.085083194
244	0xbee77f95	-0.45214525
245	0xbe5fd33e	-0.21857926
246	0x3f6a4346	0.915089
247	0x3dd873fb	0.105689965
248	0x3e5ea5a4	0.21742874
249	0xbd282219	-0.041048143
250	0xbd059c18	-0.032619566
251	0xbf29b402	-0.66290295
252	0xbc01d7ee	-0.007925017
253	0x3d442168	0.04788342
254	0xbd122aca	-0.035685338
255	0xbf8b78a3	-1.089619

dense2.0.bn1.weight f4 [48]
0	0x3f3dc27a	0.7412487
1	0x3f06bc96	0.5263151
2	0x3f3b22f8	0.73100233
3	0x3ed4c6eb	0.41558012
4	0x3f2bcd94	0.6711056
5	0x3f6a2819	0.91467434
6	0x3f8b2891	1.0871755
7	0x3f27bc6a	0.6552187
8	0x3f4c4613	0.79794425
9	0x3f2fc1b0	0.6865492
10	0x3ef19cd5	0.47189966
11	0x3f233ea7	0.63767475
12	0x3f2e31d8	0.68044806
13	0x3f612c0f	0.87957853
14	0x3f284315	0.6572736
15	0x3f398ee4	0.7248366
16	0x3f5384fc	0.82624793
17	0x3f19a860	0.60022545
18	0x3f340238	0.70315886
19	0x3f266da2	0.65011036
20	0x3f92723e	1.1441114
21	0x3f2e2d6d	0.68038064
22	0x3f16f264	0.5896361
23	0x3f270022	0.6523458
24	0x3f13015d	0.57423955
25	0x3f20fba9	0.62884
26	0x3f3c3233	0.735141
27	0x3f3a8a9c	0.7286775
28	0x3f1dfc02	0.6171266
29	0x3f16e1ac	0.589381
30	0x3f18ebfa	0.5973507
31	0x3f083212	0.532014
32	0x3f2e6c7a	0.6813427
33	0x3f1fdc79	0.6244579
34	0x3ecc5f47	0.3991644
35	0x3f16efff	0.58959955
36	0x3f2a6ad6	0.6656927
37	0x3f1c5bb2	0.61077416
38	0x3f8d0e68	1.1020021
39	0x3f13c882	0.57727826
40	0x3f28dbce	0.65960395
41	0x3ed57542	0.41691023
42	0x3f141c5b	0.57855767
43	0x3f41f940	0.7577095
44	0x3f247a38	0.6424899
45	0x3f31e842	0.6949502
46	0x3f225bbc	0.63421226
47	0x3f3b039b	0.73052377

dense2.0.bn1.bias f4 [48]
0	0xbf01e7e5	-0.5074447
1	0xbde6f3cc	-0.11276969
2	0x3ef4f324	0.47841752
3	0xbe726dfe	-0.23674771
4	0xbe89495e	-0.26813787
5	0xbf02a3eb	-0.5103137
6	0x3c8143b1	0.015779348
7	0x3bb71f79	0.0055884686
8	0x3d1df32c	0.038561985
9	0xbee1d535	-0.44107977
10	0xbe826e52	-0.25474793
11	0xbe2cdfc3	-0.16882233
12	0x3f339e6d	0.70163614
13	0x3e562055	0.20910771
14	0xbe5bdc9a	-0.21470872
15	0xbcb1ad87	-0.02168919
16	0xbeb66474	-0.35623515
17	0x3e854048	0.26025605
18	0x3d9e75a3	0.07737281
19	0xbd5645bf	-0.05231261
20	0x3ed71c94	0.4201399
21	0x3afeca9e	0.0019439047
22	0xbe685cdb	-0.22691672
23	0xbe000a30	-0.12503886
24	0x3eb9feb5	0.3632714
25	0xbe295974	-0.1653803
26	0xbe6bae93	-0.23015814
27	0x3e954004	0.29150403
28	0xbeec4f4e	-0.46154255
29	0xbf4863df	-0.7827739
30	0xbe76a34d	-0.24085732
31	0xbf18d78a	-0.59703887
32	0xbe8d5d57	-0.27610275
33	0xbcb24114	-0.021759547
34	0xbe850962	-0.2598372
35	0xbe8ad0d3	-0.27112445
36	0x3da19606	0.07889943
37	0xbd498e80	-0.049208164
38	0xbe7b0094	-0.2451194
39	0xbe80a93f	-0.25129125
40	0xbeca21f4	-0.3947903
41	0xbe325d11	-0.17418315
42	0x3e600913	0.21878462
43	0xbf35d4ed	-0.71028024
44	0xbe876927	-0.26447412
45	0x3e9a0ef6	0.3008954
46	0xbe87ecc8	-0.26547837
47	0x3d5264a6	0.051365517

dense2.0.conv1.weight f4 [12, 48, 3, 3]
0	0x3caa51c7	0.020790948
1	0x3e820f0c	0.25402105
2	0x3d80e4f0	0.06293666
3	0xbd838099	-0.064210124
4	0x3dda39fb	0.1065559
5	0xbdec3969	-0.115343876
6	0xbdba3e21	-0.090938814
7	0xbe90d378	-0.28286338
8	0xba52445f	-0.00080210523
9	0x3d3c9fc5	0.046050806
10	0x3e7fa575	0.2496546
11	0x3e0b5599	0.13606872
12	0xbd5fd594	-0.054647043
13	0xbdb0ca13	-0.086322926
14	0xbdedd503	-0.116128944
15	0xbd9b6231	-0.07587088
16	0xbe94aa50	-0.29036188
17	0xbe603504	-0.21895224
18	0xbd036943	-0.032082807
19	0xbe7f910f	-0.24957679
20	0xbd39792a	-0.045281567
21	0xbd9b1b0d	-0.07573519
22	0xbdc02e6c	-0.09383854
23	0xbcfe4b50	-0.031041771
24	0x3dc8aca6	0.09798555
25	0x3e07e904	0.13272482
26	0x3e49c92d	0.19705649
27	0x3dad1e76	0.084530756
28	0xbd233117	-0.039841738
29	0x3c972e00	0.018454552
30	0x3bc63bf9	0.0060496298
31	0x3cbb5895	0.022869388
32	0xbdaf0a2a	-0.085468605
33	0x3d072cc5	0.03300168
34	0x3dac5878	0.084153116
35	0xbc528abc	-0.01285046
36	0xbbee5bc7	-0.0072741243
37	0xbd20c256	-0.039247833
38	0x39833e67	0.0002503276
39	0x3cb5fad8	0.022214338
40	0xbd60a66f	-0.054846223
41	0xbdf283b9	-0.1184153
42	0x3c8e23af	0.017351
43	0xbddfc2a3	-0.10925796
44	0xbe386bd8	-0.18009889
45	0x3ec65b7d	0.38741675
46	0x3ecdd39a	0.40200502
47	0x3f016de8	0.5055833
48	0xbe99845e	-0.299838
49	0xbed2a6b1	-0.411428
50	0xbde6710b	-0.1125203
51	0xbe0b0be2	-0.13578752
52	0xbea8505d	-0.32873812
53	0xbe487a78	-0.19577968
54	0x3dede210	0.116153836
55	0x3dc5029b	0.096196376
56	0x3d800a31	0.06251944
57	0xbe08c651	-0.13356902
58	0xbe5acd55	-0.2136739
59	0xbde75b47	-0.11296707
60	0x3dd2c385	0.10291199
61	0x3e33560c	0.17513293
62	0x3d404f9c	0.04695092
63	0xbc37ab79	-0.011210316
64	0xbde3311f	-0.110933535
65	0x3cce3527	0.02517183
66	0xbbaa1321	-0.0051902686
67	0xbc578150	-0.013153389
68	0xbd93c253	-0.07214799
69	0x3d229213	0.03969009
70	0x3cbbe5c2	0.022936705
71	0x3d0273ad	0.0318486
72	0xbd50bc74	-0.050960973
73	0xbe8541e8	-0.26026845
74	0xbe22c178	-0.15894115
75	0xbe806c48	-0.25082612
76	0xbeb11d82	-0.34592825
77	0xbe9ce88e	-0.30646175
78	0x3e04570e	0.12923834
79	0x3f2e5335	0.68095714
80	0x3e9a85ec	0.301803
81	0x3c97abd2	0.018514547
82	0x3ec7326e	0.38905662
83	0x3e765c78	0.24058712
84	0xbdd0d34f	-0.10196554
85	0xbe67b356	-0.22627005
86	0xbdf7bc1e	-0.120964274
87	0xbdf2efa6	-0.118621156
88	0xbea335ed	-0.3187708
89	0xbe8b575d	-0.2721509
90	0x3d0bf963	0.03417338
91	0x3dbb11c8	0.09134251
92	0x3d3ab44c	0.0455821
93	0xbdff27d5	-0.12458769
94	0xbdeb4d47	-0.11489349
95	0x3d993168	0.074801266
96	0x3cd1341c	0.025537543
97	0xbdb1f565	-0.086893834
98	0xbd963fea	-0.073364094
99	0x3e239873	0.15976124
100	0x3d69334c	0.056933686
101	0x3d80c224	0.062870294
102	0xbd0b9fff	-0.03408813
103	0xbe208c20	-0.15678453
104	0x3d107559	0.03526816
105	0xbd92c222	-0.07165934
106	0xbd21f5f8	-0.039541215
107	0xbd3432d7	-0.043993797
108	0x3dbd45bd	0.09241817
109	0xbc796946	-0.015222853
110	0x3ded69fb	0.1159248
111	0xbdb6a10b	-0.08917435
112	0xbe443728	-0.19161665
113	0xbdddab6f	-0.10823714
114	0xbbcd6513	-0.0062681525
115	0xbd0afe70	-0.033934057
116	0x3d0f69f8	0.03501317
117	0x3d97529c	0.07388803
118	0x3e12e0f1	0.14343621
119	0x3e4c243b	0.19935696
120	0xbdf6add3	-0.12044873
121	0xbda3f534	-0.08005753
122	0x3da8b8d6	0.0823838
123	0x3da01c6c	0.07817921
124	0x3d13123c	0.03590606
125	0x3d9356a3	0.07194259
126	0x3e1d5a8e	0.15366575
127	0x3e56ebc3	0.20988373
128	0x3e0f0457	0.139665
129	0xbe3be6b9	-0.18349732
130	0xbe83647c	-0.256626
131	0xbe84611f	-0.25855348
132	0x3d991720	0.07475114
133	0xbd3624f2	-0.044468828
134	0xbd20e3d9	-0.039279792
135	0xbd875636	-0.0660824
136	0xbe263b66	-0.16233596
137	0xbe54d12f	-0.20782922
138	0x3ce5358a	0.027979631
139	0xbdc42716	-0.095777676
140	0xbb612204	-0.003435255
141	0x3db3d786	0.08781342
142	0x3d8adbd3	0.067802094
143	0x3dce041b	0.10059377
144	0x3e0bf8c9	0.13669123
145	0x3e3f6934	0.18692476
146	0x3e0e1826	0.138764
147	0xbe09e9d9	-0.13468112
148	0xbe9daaa6	-0.30794257
149	0xbdc7c04c	-0.097534746
150	0x3d7835ac	0.06059806
151	0xbe6f5815	-0.23373444
152	0xbd16c581	-0.03680945
153	0x3e19983b	0.14999478
154	0x3eef3d36	0.46726388
155	0x3ea4a112	0.32154137
156	0xbe5b9eef	-0.21447347
157	0xbeaf10d7	-0.34192535
158	0xbe273f0a	-0.16332641
159	0xbd6c1d67	-0.057645228
160	0xbeaf9a73	-0.34297523
161	0xbe213166	-0.157415
162	0xbca1fdec	-0.0197744
163	0xbb8bd77a	-0.00426763
164	0xbc8e3865	-0.017360875
165	0x3c856eb2	0.016288135
166	0xbdb36847	-0.08760124
167	0xbcc3c3c2	-0.023897056
168	0x3d42dd66	0.047574423
169	0xbbf05b59	-0.0073351082
170	0xbcc89b79	-0.024488198
171	0x3df88e4c	0.12136516
172	0x3d8d404c	0.06897029
173	0x3dec75e4	0.11545923
174	0xbd2df4fb	-0.04246996
175	0xbdbf7aa9	-0.093495674
176	0x3cdb2a44	0.026753552
177	0x3da05eaa	0.07830556
178	0x3de2699a	0.11055298
179	0x3b8b5dd3	0.004253128
180	0x3e3ea389	0.18617071
181	0x3e4f542b	0.20246951
182	0x3e8f6011	0.2800298
183	0xbc13ca5c	-0.009020414
184	0xbd88d102	-0.0668049
185	0xbc122b1d	-0.008921412
186	0xbdd2545c	-0.102699965
187	0xbd0f5eec	-0.035002634
188	0xbd15cd12	-0.036572523
189	0xbdccf4d8	-0.10007638
190	0x3b371c0a	0.0027940297
191	0x3d1beecb	0.038069528
192	0x3c6b7fdf	0.014373749
193	0xbe118be0	-0.14213514
194	0xbd8d4cf0	-0.0689944
195	0x3e2d440a	0.16920486
196	0x3d015c8e	0.031582408
197	0x3df68e0e	0.120388135
198	0x3e1f0e2a	0.15532747
199	0x3e7f1ad2	0.24912575
200	0x3e64fa8e	0.22361204
201	0xbeb7427a	-0.35792905
202	0xbe901dcb	-0.2814773
203	0xbe390032	-0.18066481
204	0xbe42ca5b	-0.19022505
205	0x3deaf4d4	0.114724785
206	0x3dc07b1b	0.093984805
207	0xbe22a8c0	-0.15884686
208	0xbdf98ba7	-0.1218484
209	0x3d83137d	0.064002015
210	0xbdb52933	-0.08845749
211	0xbd93e0c0	-0.07220602
212	0xbd80f022	-0.06295802
213	0xbd8689a1	-0.065692194
214	0xbd82e28d	-0.063908674
215	0x3d510a00	0.051034927
216	0x3e15c421	0.14625598
217	0x3fa74425	1.3067671
218	0x3ebf7849	0.37396458
219	0xbed80cb6	-0.42197198
220	0xbf0ad9ce	-0.54238594
221	0xbe9bbcd0	-0.3041749
222	0xbe44f694	-0.19234687
223	0xbf18e907	-0.5973057
224	0xbea0fd75	-0.31443372
225	0x3da2f757	0.079573326
226	0xbd107e22	-0.03527654
227	0xbc78cbf7	-0.015185348
228	0x3c309801	0.010778428
229	0x3c008850	0.007844999
230	0xbd81763c	-0.063213795
231	0xbac1d586	-0.0014788366
232	0x3e4aead8	0.19816148
233	0x3dfe2db6	0.124110624
234	0x3d90ba34	0.070667654
235	0xbe20dbb3	-0.15708809
236	0xbd8fba62	-0.070179716
237	0xbc0d3b2c	-0.008620065
238	0x3d444b9b	0.047923665
239	0x3deda189	0.11603076
240	0x3d73b9cd	0.059503365
241	0x3d88782b	0.06663545
242	0x3d60fd21	0.054928903
243	0xbe921fec	-0.2853998
244	0xbf358191	-0.7090083
245	0xbee2aadd	-0.44270983
246	0x3e039982	0.12851527
247	0x3d4747d8	0.0486525
248	0xbcdd832c	-0.027040087
249	0xbd4301b3	-0.047609042
250	0x3f179bd6	0.5922216
251	0x3e5a5574	0.2132166
252	0xbe05638f	-0.1302626
253	0x3e55bcdb	0.20872824
254	0x3e21dbf2	0.15806559
255	0x3d9f4cda	0.0777833

dense2.1.bn1.weight f4 [60]
0	0x3f2f1e02	0.68405163
1	0x3edb7540	0.42862892
2	0x3f48b63a	0.78403056
3	0x3f153063	0.5827696
4	0x3f15f9cc	0.58584285
5	0x3f1977f2	0.5994865
6	0x3f6be0a2	0.9213964
7	0x3f03ca93	0.5148098
8	0x3f69b051	0.9128466
9	0x3ef34f21	0.47521308
10	0x3f1bd2fa	0.608688
11	0x3f76b572	0.96370614
12	0x3fae61f0	1.3623638
13	0x3f47d058	0.7805228
14	0x3efb6b8b	0.49105486
15	0x3f1f5297	0.622354
16	0x3df7561a	0.120769694
17	0x3f1fac68	0.62372446
18	0x3f4059ec	0.7513721
19	0x3f7a2de6	0.97726285
20	0x3f8f6d30	1.1205196
21	0x3f457059	0.77124554
22	0x3f1b4196	0.6064695
23	0x3f7bdd6e	0.9838475
24	0x3f19101c	0.59790206
25	0x3eabdeaf	0.33568332
26	0x3f52da0f	0.8236398
27	0x3f3bb8cd	0.7332886
28	0x3f220636	0.6329073
29	0x3ee4bab8	0.44673705
30	0x3e971495	0.2950789
31	0x3ee33597	0.44376823
32	0x3f4c1b9c	0.7972963
33	0x3f5cdb7b	0.862724
34	0x3ed692b5	0.41908804
35	0x3f31a506	0.6939243
36	0x3f0813a7	0.5315499
37	0x3f20eec1	0.6286431
38	0x3eea1ca3	0.45724973
39	0x3f143346	0.5789074
40	0x3edf06fc	0.43560016
41	0x3ea8f78c	0.33001363
42	0x3f38677c	0.72032905
43	0x3f23e97a	0.6402813
44	0x3ed8988e	0.4230389
45	0x3f2e5d58	0.6811118
46	0x3f074aef	0.52848715
47	0x3f15b2eb	0.5847613
48	0x3f79c54a	0.97566664
49	0x3f3db9f6	0.7411188
50	0x3f6bcc71	0.9210883
51	0x3f304bec	0.6886585
52	0x3f2d1dd2	0.6762363
53	0x3f00a95a	0.5025841
54	0x3f14d956	0.5814413
55	0x3f2747bf	0.6534385
56	0x3f647880	0.8924637
57	0x3f68f9bf	0.9100608
58	0x3f60029b	0.87503976
59	0x3f804263	1.002026

dense2.1.bn1.bias f4 [60]
0	0xbec6ae13	-0.38804683
1	0xbe7e3e27	-0.24828397
2	0x3ed39f38	0.41332412
3	0xbe8ec206	-0.27882403
4	0xbe35664b	-0.17714803
5	0xbeab786c	-0.33490312
6	0xba2767c3	-0.0006386006
7	0x3e3a2768	0.18179095
8	0xbe856602	-0.26054388
9	0xbebd7b31	-0.3700805
10	0xbeb18e6a	-0.34678966
11	0xbecc9409	-0.39956692
12	0x3e7ca4b5	0.24672206
13	0x3e2fa573	0.17152958
14	0xbde33e8b	-0.110959135
15	0xbc0674cf	-0.00820656
16	0xbc4dd929	-0.012563982
17	0xbd6e6d8b	-0.058209937
18	0x3e16dbb0	0.14732242
19	0x3a81e37f	0.0009909718
20	0x3edb492e	0.4282927
21	0xbe6dc47e	-0.23219487
22	0xbe40fcc8	-0.18846428
23	0xbea0596d	-0.31318226
24	0xbeb79d15	-0.35862032
25	0xbdf0c5ab	-0.11756452
26	0xbece44d9	-0.40286902
27	0xbe653af1	-0.22385766
28	0xbf11c479	-0.5694042
29	0xbf263fe1	-0.6494122
30	0xbe60e4ba	-0.21962252
31	0xbf0e60ec	-0.5561664
32	0xbd92c23a	-0.07165952
33	0x3dbbdbaa	0.09172757
34	0xbea308c6	-0.3184263
35	0xbef99f68	-0.4875443
36	0x3e0be855	0.13662846
37	0xbdccd9c6	-0.100024745
38	0x3db4355d	0.08799241
39	0xbebbe823	-0.36700544
40	0xbebeb55a	-0.37247735
41	0xbe5ba31e	-0.21448943
42	0xbe4cdcd7	-0.20006119
43	0xbe812496	-0.25223225
44	0xbddfcedb	-0.109281264
45	0xbd48bdb0	-0.049009025
46	0xbe9a0dcd	-0.30088654
47	0x3e3f894c	0.18704718
48	0xbe04f7ab	-0.12985103
49	0x3e1be919	0.15225638
50	0x3d423784	0.047416225
51	0xbde1c230	-0.110233665
52	0x3eb90ce9	0.36142662
53	0xbdce0533	-0.100595854
54	0x3e6b3f88	0.22973454
55	0x3e198e14	0.14995605
56	0xbd17ac34	-0.03702946
57	0x3d945504	0.07242778
58	0xbe4fe09a	-0.20300522
59	0x3da97ba1	0.082755335
