independent_train/client75/best_model_0.0.pth (torch, 225067 bytes, 29 tensors)

conv1.weight f4 [24, 3, 3, 3]
0	0xbe2146de	-0.1574969
1	0xbe40906b	-0.18805091
2	0x3d7946a7	0.060858395
3	0x3cab09c4	0.02087868
4	0xbd4abd07	-0.049496677
5	0x3d125cb3	0.035732936
6	0xbe19df7c	-0.15026659
7	0xbe200f0c	-0.1563074
8	0xbd737e6e	-0.059446745
9	0x3e6427ce	0.2228081
10	0xbd6d24f1	-0.05789656
11	0xbbaa0515	-0.005188594
12	0x3b9e704c	0.004835164
13	0x3de42212	0.11139311
14	0x3c9925eb	0.018694839
15	0x3e132900	0.14371109
16	0xbe0f33d4	-0.13984615
17	0xbe170c72	-0.14750841
18	0xbd4882df	-0.048952933
19	0x3ca18c9b	0.019720366
20	0x3dd885d1	0.105723985
21	0xbd9cd4d5	-0.07657782
22	0xbd31522a	-0.04329125
23	0x3d9ea727	0.077467255
24	0xbdd427be	-0.10359143
25	0x3cb0c248	0.021577016
26	0x3e637b28	0.22214949
27	0x3c13fb09	0.009032019
28	0x3d31189f	0.04323637
29	0xbd3a0573	-0.045415353
30	0x3d8dc9fe	0.069232926
31	0xbe1ecb21	-0.15507175
32	0x3cc4032e	0.023927297
33	0xbdbc7bd7	-0.09203308
34	0xbdc2924e	-0.09500562
35	0xbdb9c723	-0.090711854
36	0x3d2fa892	0.04288537
37	0xbe694e1b	-0.22783701
38	0x3ceda929	0.029011326
39	0x3e1130af	0.14178728
40	0xbd05362e	-0.032522373
41	0x3d71ce34	0.05903454
42	0x3dea3c68	0.11437303
43	0x3e2784d9	0.16359271
44	0xbe47a03b	-0.19494717
45	0x3db3764f	0.087628
46	0xbdeaa703	-0.11457636
47	0x3e2b3105	0.16717918
48	0x3cde4079	0.027130352
49	0xbce527cf	-0.027973084
50	0xbca59575	-0.020212868
51	0x3d841ef4	0.06451216
52	0x3ddbb201	0.10727311
53	0xbd920725	-0.07130269
54	0xbe1d2236	-0.15345082
55	0xbd836808	-0.06416327
56	0x3cf482a2	0.029847447
57	0x3d954a77	0.07289594
58	0xbc90f4e3	-0.017694896
59	0x3d733339	0.05937502
60	0xbdf5fb1b	-0.12010785
61	0x3c8bdf88	0.017074361
62	0x3c57b4ed	0.013165695
63	0x3d1b943f	0.037983175
64	0xbe185aa7	-0.14878331
65	0xbdfa4c6f	-0.1222161
66	0xbd85ed66	-0.06539421
67	0x3d58412b	0.052796524
68	0xbc1518b4	-0.009100128
69	0x3da30bf8	0.07961267
70	0x3e28533b	0.16438
71	0xbe06a914	-0.13150436
72	0x3dae1620	0.08500314
73	0x3d000a59	0.03125987
74	0xbc5d764e	-0.013516976
75	0x3d51a884	0.0511861
76	0xbd27ff4a	-0.041014947
77	0x3e0cb8c6	0.1374236
78	0x3dc24e5c	0.09487602
79	0xbdde35eb	-0.10850128
80	0xbd6ea956	-0.05826696
81	0x3dcf1940	0.10112238
82	0x3cf5695b	0.029957464
83	0xbe25948d	-0.16169949
84	0xbd32b09d	-0.043625463
85	0xbd8956b7	-0.06705993
86	0x3d245e28	0.040128857
87	0xbdfae3db	-0.12250491
88	0x3dd295a5	0.10282449
89	0xbc8350b5	-0.016029695
90	0xbdf67c89	-0.12035472
91	0x3dbce14a	0.09222658
92	0xbd966651	-0.07343734
93	0xbe05fc80	-0.13084602
94	0xbcea5e4a	-0.028609414
95	0x3d317681	0.043325905
96	0xbe440c45	-0.19145305
97	0xbe0e60d6	-0.13904127
98	0x3e0a8c2b	0.13530032
99	0x3dfbba26	0.12291364
100	0xbd389fcb	-0.045074265
101	0x3d4c9866	0.049950026
102	0x3e0e9716	0.13924822
103	0xbe1930b5	-0.14959987
104	0xbde5f4eb	-0.11228355
105	0xbca3796d	-0.019955361
106	0x3b7d9f88	0.0038699824
107	0x3a26774d	0.00063501747
108	0x3e74d23b	0.23908322
109	0x3cb41b7f	0.021985767
110	0xbe16b43f	-0.14717196
111	0x3da44ed4	0.08022848
112	0xbe0c5ca1	-0.1370721
113	0x3de147e6	0.11000042
114	0xbe22aca4	-0.1588617
115	0x3d372874	0.044716313
116	0xbd516976	-0.051125966
117	0xbe002d80	-0.12517357
118	0x3cc7e7ff	0.024402617
119	0xbe4af3b1	-0.19819523
120	0x3d55a43b	0.052158576
121	0x3ddb07dd	0.10694859
122	0x3d119575	0.035542924
123	0x3c03007b	0.00799572
124	0x3cbaad22	0.022787634
125	0x3d28fd95	0.04125746
126	0x3c1318d7	0.00897809
127	0xbd4225b2	-0.04739923
128	0x3e11b95d	0.14230867
129	0xbdc0f4ad	-0.09421668
130	0x3dd2cdf2	0.10293187
131	0xbd87574e	-0.06608449
132	0x3cfdfb31	0.031003566
133	0xbdacc331	-0.08435667
134	0x3d15579e	0.03646051
135	0xbcede800	-0.02904129
136	0x3d0a4bb7	0.033763614
137	0x3dff7ae0	0.124746084
138	0x3deb41d2	0.114871636
139	0xbd946a6c	-0.07246861
140	0xbcf2c4b7	-0.029634817
141	0xbcb164f5	-0.021654585
142	0x3d90c0ce	0.070680246
143	0xbdd53b1c	-0.10411665
144	0x3dcdf295	0.100560345
145	0x3dc2afb8	0.09506172
146	0xbe00ab4b	-0.12565343
147	0xbd6f656a	-0.058446325
148	0xbd3e6d2e	-0.04649084
149	0x3c197f3c	0.009368714
150	0xbd0fbfbc	-0.03509496
151	0xbd8fdb69	-0.07024271
152	0xbcc6e585	-0.024279365
153	0x3d319065	0.043350596
154	0xbdbce9e8	-0.092243016
155	0xbe3ab865	-0.18234403
156	0xbda59080	-0.08084202
157	0xbd5bb0fd	-0.053635586
158	0xbdad4a9b	-0.084614955
159	0xbdc7920a	-0.097446516
160	0xbce8b984	-0.028408773
161	0x3e078488	0.1323415
162	0x3e38add7	0.18035065
163	0xbcfb6d01	-0.030691626
164	0xbd3b83a9	-0.045779858
165	0xbd81fde9	-0.06347258
166	0x3d930211	0.071781285
167	0x3d36f9dd	0.044671882
168	0x3de520cb	0.111878954
169	0xbdbbc4ed	-0.0916842
170	0x3cd4019f	0.02587968
171	0xbdcad7e6	-0.099044606
172	0xbc48caae	-0.012255354
173	0xbe02ef5f	-0.12786625
174	0x3e261f46	0.16222867
175	0x3c8f85f8	0.017519936
176	0xbc169ae8	-0.009192206
177	0x3e32814d	0.17432137
178	0xbdcd3986	-0.10020737
179	0xbd3f6e4f	-0.046736058
180	0x3da9a57e	0.08283518
181	0x3e3fe289	0.1873876
182	0xbd8a6355	-0.06757227
183	0x3da0f610	0.07859433
184	0xbe0f061c	-0.13967174
185	0xbdd92f81	-0.10604764
186	0xbcbc333a	-0.022973645
187	0x3de25607	0.11051565
188	0x3dbf46dd	0.09339688
189	0x3de486d8	0.11158532
190	0x3c679f88	0.014137156
191	0xbcb2f14f	-0.02184358
192	0x3d6f35a2	0.058400758
193	0xbd934dee	-0.07192598
194	0x3ccfd9b7	0.02537237
195	0x3e2f8d87	0.17143832
196	0xbd0c5d97	-0.03426894
197	0xbd0696a2	-0.0328585
198	0xbd215fba	-0.039397933
199	0x3b92ea80	0.004483521
200	0xbb1d45fd	-0.0023998015
201	0xbd2590dc	-0.04042135
202	0x3d643742	0.05571676
203	0x3dcfa92b	0.10139688
204	0xbdbcb2d1	-0.09213794
205	0xbc4d2322	-0.012520583
206	0x3d99cf3a	0.075102285
207	0xbd4a243f	-0.049350973
208	0xbe3f871a	-0.18703881
209	0xbd892787	-0.06696992
210	0x3d510968	0.05103436
211	0x3de7783e	0.11302231
212	0x3e3cf5d1	0.18453147
213	0x3bffb09a	0.007803035
214	0xbc9cfe03	-0.019164091
215	0xbd854f8d	-0.06509314
216	0xbce33a94	-0.027737893
217	0x3d953193	0.07284846
218	0x3d65c79a	0.056098558
219	0x3c0d8a90	0.008638993
220	0x3d50be9d	0.050963033
221	0x3e340268	0.17579043
222	0x3df13a37	0.11778682
223	0xbe1a7915	-0.15085252
224	0xbe206cfb	-0.15666573
225	0x3d91e0d2	0.07122959
226	0x3c0f7df2	0.008758055
227	0xbbe3bdab	-0.0069501004
228	0x3dc330e7	0.09530812
229	0x3cb231d9	0.021752285
230	0x3a716edb	0.0009209939
231	0xbd0a3b98	-0.03374824
232	0x3b0da2e7	0.002161199
233	0x3de76cb8	0.11300033
234	0xbdb03bce	-0.08605157
235	0xbd06f77d	-0.032950867
236	0x3e344464	0.17604214
237	0x3e327a8b	0.17429559
238	0xbd2b3ddc	-0.04180704
239	0x3dd24f0e	0.10268985
240	0x3c9a10e8	0.01880689
241	0x3e1f5c8d	0.15562649
242	0xbdbc027a	-0.0918016
243	0xbdbb21c6	-0.09137301
244	0xbda79e99	-0.08184547
245	0x3d907536	0.07053606
246	0x3e51bd20	0.20482302
247	0xbd8ba3f9	-0.06818385
248	0x3d39e3f7	0.04538342
249	0x3d98eb60	0.07466769
250	0xbda30372	-0.079596415
251	0x3dfc2e93	0.12313571
252	0x3e036b55	0.12833913
253	0xbb5a7fdc	-0.003334037
254	0x3d848373	0.064703844
255	0x3c29719f	0.010342031

dense1.0.bn1.weight f4 [24]
0	0x3f800000	1.0
1	0x3f800000	1.0
2	0x3f800000	1.0
3	0x3f800000	1.0
4	0x3f800000	1.0
5	0x3f800000	1.0
6	0x3f800000	1.0
7	0x3f800000	1.0
8	0x3f800000	1.0
9	0x3f800000	1.0
10	0x3f800000	1.0
11	0x3f800000	1.0
12	0x3f800000	1.0
13	0x3f800000	1.0
14	0x3f800000	1.0
15	0x3f800000	1.0
16	0x3f800000	1.0
17	0x3f800000	1.0
18	0x3f800000	1.0
19	0x3f800000	1.0
20	0x3f800000	1.0
21	0x3f800000	1.0
22	0x3f800000	1.0
23	0x3f800000	1.0

dense1.0.bn1.bias f4 [24]
0	0x00000000	0.0
1	0x00000000	0.0
2	0x00000000	0.0
3	0x00000000	0.0
4	0x00000000	0.0
5	0x00000000	0.0
6	0x00000000	0.0
7	0x00000000	0.0
8	0x00000000	0.0
9	0x00000000	0.0
10	0x00000000	0.0
11	0x00000000	0.0
12	0x00000000	0.0
13	0x00000000	0.0
14	0x00000000	0.0
15	0x00000000	0.0
16	0x00000000	0.0
17	0x00000000	0.0
18	0x00000000	0.0
19	0x00000000	0.0
20	0x00000000	0.0
21	0x00000000	0.0
22	0x00000000	0.0
23	0x00000000	0.0

dense1.0.conv1.weight f4 [12, 24, 3, 3]
0	0x3ef55e6a	0.47923595
1	0x3cc13272	0.023583625
2	0xbbf7c84b	-0.0075617186
3	0x3d2b1e6b	0.041777056
4	0x3e2b77ea	0.16744962
5	0x3c3460c8	0.011009403
6	0x3d9301e6	0.071780965
7	0x3ccf1f90	0.025283605
8	0xbd0d2ec3	-0.034468424
9	0x3c82168f	0.015879897
10	0x3d915d54	0.07097879
11	0xbe8b4674	-0.2720219
12	0x3e43a819	0.19107093
13	0x3e4fbef7	0.20287691
14	0x3db21e35	0.08697168
15	0xbe422760	-0.18960333
16	0x3e8ee564	0.27909386
17	0x3ce51049	0.027961867
18	0x3e5e8da6	0.21733722
19	0xbd768afc	-0.06019114
20	0x3d9b0e52	0.07571091
21	0x3c998a7d	0.018742794
22	0x3d9be30d	0.07611666
23	0x3cdf9620	0.027293265
24	0xbdda74df	-0.10666823
25	0x3e6faca4	0.23405701
26	0x3d864690	0.065564275
27	0xbe079649	-0.13240923
28	0x3d38b9bf	0.045099016
29	0x3bb793b1	0.005602323
30	0x3d3ceb3b	0.04612277
31	0xbd759253	-0.059954
32	0xbcd2aff4	-0.025718667
33	0x3e11967a	0.14217559
34	0xbd28442b	-0.041080635
35	0xbe161571	-0.14656617
36	0xbda6e1e9	-0.08148558
37	0xbd5a233c	-0.05325626
38	0x3dce8472	0.10083856
39	0x3dc54006	0.09631352
40	0xbd9e15a4	-0.07718971
41	0xbddafd34	-0.10692826
42	0xbc803c67	-0.015653802
43	0xbbb87730	-0.0056294426
44	0xbd9fa442	-0.077950016
45	0x3df61104	0.12014964
46	0xbe2dd454	-0.16975528
47	0xbd84980b	-0.064743124
48	0xbe304b85	-0.17216308
49	0xbdb14349	-0.08655412
50	0x3e36fb66	0.17869338
51	0xbd9b2791	-0.07575906
52	0xbdc0cf4d	-0.094145395
53	0x3d8e3aec	0.06944832
54	0xbd9d23e7	-0.076728635
55	0xbd4f00da	-0.05053792
56	0xbea63dfa	-0.3246916
57	0xbd88a867	-0.06672745
58	0x3d9190ba	0.071076825
59	0x3c5c7b1c	0.013457086
60	0xbd576278	-0.05258414
61	0x3da456a8	0.08024341
62	0x3c97cea7	0.018531157
63	0xbda4d6c3	-0.08048775
64	0xbd5670bd	-0.05235361
65	0xbe9048fb	-0.2818068
66	0x3e25ff93	0.16210775
67	0x3e0f4505	0.13991173
68	0xbbc3f7e7	-0.00598048
69	0x3d65d7a2	0.056113847
70	0xbd95627c	-0.07294175
71	0xbc2d3033	-0.010570574
72	0x3d82bafb	0.0638332
73	0xbe191a0c	-0.14951342
74	0x3d015ec5	0.03158452
75	0xbd4482db	-0.047976356
76	0xbdb10df9	-0.08645243
77	0x3e290ecb	0.1650955
78	0x3e2fec05	0.17179878
79	0xbdae9e2a	-0.08526261
80	0xbe0ca075	-0.13733084
81	0x3d0042fe	0.03131389
82	0x3d0d21cf	0.03445607
83	0x3d1ce4d8	0.03830418
84	0x3da20427	0.07910948
85	0x3e00e8e6	0.12588844
86	0xbe47abeb	-0.19499175
87	0xbd9e871c	-0.07740614
88	0xbd8fcb1d	-0.07021163
89	0xbd40c89c	-0.047066316
90	0x3e41f6e8	0.18941844
91	0xbcf4f82f	-0.0299035
92	0xbd986bd2	-0.0744244
93	0xbe3033b1	-0.17207219
94	0x3d8ee51b	0.06977292
95	0x3e70ddb9	0.2352208
96	0xbb973caf	-0.0046153883
97	0x3d4d6e56	0.050154053
98	0x3e02c004	0.1276856
99	0x3c181c9e	0.009284167
100	0x3db9ebb2	0.090781584
101	0xbc2e403a	-0.01063543
102	0xbb13d1d4	-0.0022555487
103	0x3d4634c0	0.04839015
104	0x3e051470	0.12996078
105	0x3d42a8e8	0.047524363
106	0x3ddb319b	0.10702821
107	0x3e1ee5c2	0.15517333
108	0x3db6dd7b	0.08928963
109	0xbd2749a6	-0.04084172
110	0xbdfb0232	-0.12256278
111	0x3dbaac0d	0.09114847
112	0xbbbad634	-0.0057018045
113	0x3da167e0	0.07881141
114	0xbdf49dbf	-0.1194415
115	0xbcc8998c	-0.02448728
116	0xbbb32823	-0.005467431
117	0xbda6e81f	-0.08149742
118	0x3dd73eb7	0.10510009
119	0x3e40304e	0.18768427
120	0x3d5f1590	0.054463923
121	0xbdce61c6	-0.100772426
122	0xbcce02da	-0.025147844
123	0xbdf18858	-0.11793584
124	0xbdcfde32	-0.10149802
125	0x3e0567b9	0.13027848
126	0x3e26cb72	0.16288546
127	0xbb60e8e3	-0.0034318499
128	0x3aef0fc1	0.0018238948
129	0xbe02c10f	-0.12768959
130	0xbe62d9d1	-0.22153403
131	0x3daffb97	0.08592909
132	0x3d38984a	0.04506711
133	0x3ec7481f	0.38922212
134	0xbdf65d7a	-0.12029548
135	0x3e629234	0.22126085
136	0x3df548e8	0.119767964
137	0xbd1d51f5	-0.03840824
138	0x3d3c8d3a	0.04603312
139	0xbe0d2f4c	-0.13787574
140	0xbe04f9a9	-0.12985863
141	0xbe13a296	-0.1441749
142	0x3deeb7ee	0.116561756
143	0xbd99533a	-0.07486577
144	0x3dd86048	0.10565239
145	0xbe7939bb	-0.24338429
146	0x3dbbe198	0.09173888
147	0x3e622b1b	0.22086756
148	0xbdeae2af	-0.11469018
149	0xbdec830c	-0.11548433
150	0xbcab8a4d	-0.02093997
151	0xbb0f6a41	-0.00218834
152	0xbe9be03f	-0.30444524
153	0xbd26442b	-0.040592354
154	0xbe7fb879	-0.24972714
155	0xbcbf136c	-0.02332469
156	0x3df964f7	0.12177461
157	0xbe701fa9	-0.23449577
158	0xbd9cefac	-0.07662901
159	0x3c297e1f	0.010345011
160	0x3dc45545	0.09586576
161	0x3db7c53d	0.08973167
162	0xbd76cf01	-0.060256008
163	0xbd874bf4	-0.06606284
164	0x3dcf4d58	0.10122174
165	0x3e01ec26	0.1268774
166	0x3ccef3d2	0.025262747
167	0x3d82db85	0.06389526
168	0x3cc93455	0.024561087
169	0xbd28505e	-0.04109227
170	0x3da178f9	0.07884402
171	0x3e0d5e83	0.13805585
172	0xbd7c4832	-0.06159229
173	0xbdc747f5	-0.097305216
174	0x3d10bffe	0.035339348
175	0xbe126777	-0.14297281
176	0xbe8afa92	-0.27144295
177	0xbde45dc1	-0.11150695
178	0xbeab4d10	-0.33457232
179	0x3db46f6b	0.08810314
180	0x3d42e32c	0.04757993
181	0xbe1138ba	-0.14181796
182	0xbd8dda36	-0.06926386
183	0x3e292150	0.16516614
184	0xbcd27de6	-0.025694799
185	0xbdc075a6	-0.0939744
186	0x3df341d0	0.11877787
187	0xbde26afc	-0.11055562
188	0x3e9de1b7	0.3083627
189	0xbd723257	-0.05913004
190	0x3e16064d	0.14650841
191	0x3d1a2f4c	0.037642762
192	0x3d31325d	0.04326092
193	0xbae38fab	-0.0017361542
194	0xbd1fd2ec	-0.03901951
195	0x3d999a45	0.07500128
196	0xbdf3be4f	-0.11901533
197	0xbe1c090f	-0.1523783
198	0x3e8129da	0.25227243
199	0x3c379438	0.011204772
200	0x3d3fd263	0.0468315
201	0xbe149631	-0.14510418
202	0x3c68c793	0.014207738
203	0x3e515f96	0.2044662
204	0xbd10fbc7	-0.035396364
205	0x3c4e0b7c	0.01257598
206	0x3dbcce8c	0.09219083
207	0x3be8c82d	0.007103941
208	0xbe4e8579	-0.20168103
209	0xbe2c29c5	-0.16812809
210	0xbdd82e70	-0.10555732
211	0xbd3f4377	-0.0466952
212	0xbe19fb36	-0.15037236
213	0xbd82f326	-0.06394033
214	0x3e81ae55	0.25328317
215	0xbdc79209	-0.09744651
216	0x3d924d7a	0.07143684
217	0xbd9615f4	-0.07328406
218	0xbdf949f5	-0.12172309
219	0x3d034bf6	0.032054864
220	0x3c00eaeb	0.007868509
221	0x3db350ee	0.087556705
222	0x3e45cf3f	0.1931734
223	0x3de22fa4	0.11044243
224	0xbdc4c7ac	-0.09608397
225	0x3d097c46	0.033565782
226	0x3df166f3	0.11787214
227	0x3d3a8bdf	0.045543548
228	0x3d34b63f	0.044119116
229	0x3e30f5a5	0.17281206
230	0xbc9515fd	-0.018198961
231	0x3d0f970e	0.035056166
232	0x3d664650	0.0562194
233	0xbd6f070b	-0.058356326
234	0x3d7a72e7	0.061144736
235	0xbe3b0626	-0.18264064
236	0x3d58253a	0.052769877
237	0xbc458a77	-0.012056938
238	0x3d43a781	0.047767166
239	0xbc98885e	-0.018619712
240	0x3ed96cf1	0.42465928
241	0xbdb993af	-0.090613715
242	0x3ddb4796	0.10707013
243	0x3d749cfd	0.05972003
244	0xbd47bd34	-0.048764423
245	0xbd0eca59	-0.034860943
246	0x3e4f5906	0.20248803
247	0x3ca41b7d	0.020032639
248	0x3d59b0b9	0.05314705
249	0x3ddc4785	0.10755829
250	0x3e244771	0.16042878
251	0x3cf9cde9	0.030493693
252	0x3e55d487	0.20881854
253	0x3c15f3b0	0.009152338
254	0xbdcd15c9	-0.10013921
255	0xbd636a7a	-0.055521466

dense1.1.bn1.weight f4 [36]
0	0x3f800000	1.0
1	0x3f800000	1.0
2	0x3f800000	1.0
3	0x3f800000	1.0
4	0x3f800000	1.0
5	0x3f800000	1.0
6	0x3f800000	1.0
7	0x3f800000	1.0
8	0x3f800000	1.0
9	0x3f800000	1.0
10	0x3f800000	1.0
11	0x3f800000	1.0
12	0x3f800000	1.0
13	0x3f800000	1.0
14	0x3f800000	1.0
15	0x3f800000	1.0
16	0x3f800000	1.0
17	0x3f800000	1.0
18	0x3f800000	1.0
19	0x3f800000	1.0
20	0x3f800000	1.0
21	0x3f800000	1.0
22	0x3f800000	1.0
23	0x3f800000	1.0
24	0x3f800000	1.0
25	0x3f800000	1.0
26	0x3f800000	1.0
27	0x3f800000	1.0
28	0x3f800000	1.0
29	0x3f800000	1.0
30	0x3f800000	1.0
31	0x3f800000	1.0
32	0x3f800000	1.0
33	0x3f800000	1.0
34	0x3f800000	1.0
35	0x3f800000	1.0

dense1.1.bn1.bias f4 [36]
0	0x00000000	0.0
1	0x00000000	0.0
2	0x00000000	0.0
3	0x00000000	0.0
4	0x00000000	0.0
5	0x00000000	0.0
6	0x00000000	0.0
7	0x00000000	0.0
8	0x00000000	0.0
9	0x00000000	0.0
10	0x00000000	0.0
11	0x00000000	0.0
12	0x00000000	0.0
13	0x00000000	0.0
14	0x00000000	0.0
15	0x00000000	0.0
16	0x00000000	0.0
17	0x00000000	0.0
18	0x00000000	0.0
19	0x00000000	0.0
20	0x00000000	0.0
21	0x00000000	0.0
22	0x00000000	0.0
23	0x00000000	0.0
24	0x00000000	0.0
25	0x00000000	0.0
26	0x00000000	0.0
27	0x00000000	0.0
28	0x00000000	0.0
29	0x00000000	0.0
30	0x00000000	0.0
31	0x00000000	0.0
32	0x00000000	0.0
33	0x00000000	0.0
34	0x00000000	0.0
35	0x00000000	0.0

dense1.1.conv1.weight f4 [12, 36, 3, 3]
0	0x3e59cfb4	0.21270639
1	0x3d63fed9	0.055662964
2	0x3d443aa7	0.047907498
3	0x3c9a1565	0.01880903
4	0x3dc34e58	0.09536427
5	0xbd6666db	-0.056250434
6	0x3e5e4275	0.21705039
7	0x3d87b86a	0.06626971
8	0xbbe15035	-0.0068760165
9	0xbdb6e3c9	-0.08930165
10	0x3c7c1867	0.015386677
11	0x3e0543ed	0.13014193
12	0xbe55fa47	-0.20896254
13	0xbe3195ae	-0.17342255
14	0x3e2481f9	0.16065206
15	0x3d6d4c47	0.057934072
16	0xbd5fd17e	-0.054643147
17	0xbb9e0e71	-0.004823499
18	0x3c90a871	0.017658444
19	0xbd1c486a	-0.038154997
20	0x3e56ac9a	0.2096428
21	0x3dbda2a7	0.09259539
22	0x3e0247bc	0.12722677
23	0xbc24273c	-0.01001912
24	0xbc9405ed	-0.018069232
25	0x3e34deb0	0.17663074
26	0xbd7049d7	-0.05866417
27	0xbdebaacc	-0.11507186
28	0x3d960710	0.07325566
29	0x3d90872a	0.070570305
30	0xbdd6933a	-0.104773
31	0x3e3454f2	0.17610529
32	0x3d9fd96e	0.07805143
33	0x3e75d288	0.24006093
34	0xbd7273a2	-0.059192307
35	0xbdff1ee2	-0.12457062
36	0xbde0f1ae	-0.10983597
37	0xbd3da716	-0.046301924
38	0x3e9eeb79	0.31039026
39	0x3d8da630	0.069164634
40	0xbdcef8e3	-0.10106065
41	0xbdcd3824	-0.100204736
42	0xbd9b79f5	-0.07591621
43	0xbd47e52f	-0.04880255
44	0xbd92124f	-0.07132398
45	0x3e2658c8	0.16244805
46	0x3e0d4d18	0.1379894
47	0xbdc15da8	-0.09441692
48	0x3e7241dc	0.23657936
49	0xbc4eddde	-0.012626139
50	0x3e00785d	0.12545915
51	0xbd47a6f0	-0.04874319
52	0xbdb47b0a	-0.0881253
53	0x3ec3a6fc	0.38213336
54	0x3e78756a	0.2426354
55	0xbe702e12	-0.23455074
56	0xbe0b48e0	-0.13602018
57	0x3dd02f1f	0.10165238
58	0x3b86eb32	0.004117393
59	0xbe9306e6	-0.287162
60	0x3e912eb4	0.28355944
61	0xbe043b25	-0.12913187
62	0x3dc099a1	0.094043024
63	0x3ddd6a3d	0.10811279
64	0x3db76f0b	0.08956727
65	0xbc66b186	-0.014080411
66	0x3d43eff8	0.047836274
67	0xbeb773c3	-0.35830507
68	0xbdc8ab41	-0.09798289
69	0x3dfac91e	0.12245391
70	0x3e50f4c3	0.20405869
71	0x3e741b64	0.23838574
72	0xb9230a7b	-0.00015548796
73	0xbd622ea0	-0.055220246
74	0x3e02970b	0.12752931
75	0x3dac56ad	0.084149696
76	0xbcf39963	-0.029736226
77	0xbd8cd08e	-0.06875716
78	0xbd1a3c30	-0.037655056
79	0x3b6c9d8b	0.0036104645
80	0xbd153548	-0.036427766
81	0x3e0ccfae	0.13751099
82	0xbdd083d9	-0.10181398
83	0x3ea336b2	0.31877667
84	0x3d4b4f90	0.049636424
85	0x3e0e4c8d	0.1389639
86	0xbdbc950e	-0.092081174
87	0xbde3309c	-0.11093256
88	0xbddfd830	-0.10929906
89	0x3b594695	0.0033153642
90	0xbd9a7003	-0.07540896
91	0xbe8abcd2	-0.27097183
92	0x3be66efb	0.007032273
93	0xbd977f48	-0.07397324
94	0xbe4d63fd	-0.20057674
95	0xbe338902	-0.17532733
96	0xbd92fbfd	-0.07176969
97	0x3eae032c	0.33986795
98	0xbe2c0382	-0.16798213
99	0xbe6b7e3d	-0.22997375
100	0x3dd62cd5	0.1045777
101	0x3e2a797a	0.16647902
102	0x3e4da40b	0.20082109
103	0x3e35743d	0.17720123
104	0xbe0e4c86	-0.13896379
105	0xbe5b1da2	-0.21398023
106	0xbe4b9523	-0.1988111
107	0xbd3e89dc	-0.04651819
108	0xbe453765	-0.19259413
109	0x3d48b3a5	0.048999447
110	0x3e4a5097	0.19757305
111	0x3e5cf087	0.21576129
112	0x3c9a6ba9	0.018850164
113	0x3e07d567	0.13265
114	0xbdbd3ff2	-0.09240712
115	0x3e15e28b	0.146372
116	0x3c7c6890	0.015405789
117	0xbe11dc8b	-0.14244287
118	0xbe22502e	-0.15850899
119	0x3b6547ff	0.003498554
120	0x3e10e583	0.14150052
121	0x3dbcffae	0.092284545
122	0xbd977a56	-0.073963806
123	0x3d01509a	0.03157101
124	0xbdadab8e	-0.08479987
125	0x3cc6adb4	0.02425275
126	0x3da03feb	0.078246914
127	0x3c8fb183	0.017540699
128	0x3d902a6c	0.07039341
129	0x3d03a79a	0.03214226
130	0xbe24ebc0	-0.16105556
131	0xbdf61ca8	-0.120171845
132	0x3e183f42	0.14867881
133	0xbdc3bc62	-0.095574155
134	0xbda0d3f2	-0.07852925
135	0xbd92c598	-0.07166594
136	0x3e8a9f5d	0.2707471
137	0xbe2f6889	-0.17129721
138	0x3de51949	0.111864634
139	0x3d68a404	0.056797042
140	0x3d63b274	0.055590108
141	0xbe07f20c	-0.13275927
142	0x3dd176e6	0.10227756
143	0x3e81626b	0.252704
144	0x3c8e6d52	0.017386112
145	0xbe896ca5	-0.26840702
146	0xbe25ba3a	-0.16184321
147	0xbe422196	-0.18958125
148	0xbde4780f	-0.11155712
149	0x3e3df95f	0.18552159
150	0x3e38bb29	0.18040146
151	0xbbb71a5d	-0.0055878595
152	0x3e6d4f38	0.23174751
153	0x3e4965fd	0.19667812
154	0xbe43653f	-0.19081591
155	0x3e92893d	0.2862033
156	0xbd1dc43f	-0.038517233
157	0xbdefa50d	-0.11701403
158	0x3d1d0c4d	0.03834181
159	0x3e2e884b	0.17044179
160	0x3e27556f	0.16341184
161	0x3b3c01f6	0.0028687692
162	0xbce79164	-0.02826757
163	0xbe3f6d01	-0.18693925
164	0xbdc3ecc6	-0.09566645
165	0xbda7280f	-0.081619374
166	0x3e40b482	0.18818858
167	0x3de5c9ff	0.11220168
168	0x3e6e25a8	0.23256552
169	0x3e64858d	0.2231657
170	0x3e0f2861	0.13980247
171	0xbd38736c	-0.04503195
172	0xbbc0a691	-0.0058792313
173	0x3eb6f36a	0.35732585
174	0xbe6b018b	-0.22949807
175	0xbe1806de	-0.1484637
176	0xbdd5ad66	-0.10433464
177	0xbe42a7cb	-0.1900932
178	0x3da3e316	0.080022976
179	0xbe6bd6bb	-0.23031132
180	0x3e7a648a	0.24452415
181	0x3e163cd6	0.14671645
182	0xbe6e66ac	-0.23281354
183	0xbc4356d1	-0.011922554
184	0xbdd909eb	-0.10597595
185	0x3e6161d8	0.2200998
186	0xbe41dbd3	-0.18931513
187	0x3e01bc48	0.1266948
188	0xbcf9e100	-0.030502796
189	0xbc111efc	-0.008857485
190	0xbe11a46b	-0.14222877
191	0xbe61f005	-0.22064216
192	0xbc32d15d	-0.010914174
193	0x3cbc1fbd	0.022964353
194	0x3c027ac2	0.007963838
195	0xbe1f990d	-0.15585728
196	0xbdab3d82	-0.08361341
197	0xbc9071c6	-0.017632376
198	0x3db0cedf	0.086332075
199	0xbd16a26f	-0.036776002
200	0x3dc4d6ea	0.09611304
201	0x3d544e69	0.05183259
202	0xbdfbaa90	-0.122883916
203	0x3ec3946f	0.38199183
204	0xbe143174	-0.1447199
205	0x3d0407d0	0.032234013
206	0xbe9ab9c9	-0.30219868
207	0x3e374c41	0.17900182
208	0x3d9eef5f	0.077605
209	0x3e5e2028	0.21691954
210	0x3d0e90f6	0.034806214
211	0x3e72935f	0.2368903
212	0xbdfa6f1f	-0.12228226
213	0xbe28e772	-0.1649454
214	0xbde744df	-0.11292433
215	0x3ca6d65b	0.020365885
216	0xbddbf424	-0.107399255
217	0x3d0fb81e	0.035087697
218	0xbe68f826	-0.22750911
219	0x3eaa02b7	0.33205196
220	0x3dea530f	0.114416234
221	0xbdcf459b	-0.10120698
222	0x3df38997	0.118914776
223	0xbdcc214c	-0.099672884
224	0x3c75dd11	0.01500632
225	0x3e6aa90a	0.22916046
226	0xbbaacf64	-0.005212711
227	0xbd7cf31a	-0.061755277
228	0x3e100ea0	0.14068079
229	0x3ec2d483	0.3805276
230	0x3e79922c	0.24372166
231	0xbe25b7d2	-0.16183403
232	0x3c8670cd	0.01641121
233	0xbccd771d	-0.025081212
234	0xbd6a3bef	-0.057186063
235	0x3dc9fa6c	0.09862217
236	0x3e0c8ddc	0.1372599
237	0xbe4caa2c	-0.1998679
238	0xbe998ae5	-0.2998878
239	0x3e11fcd7	0.14256607
240	0x3e1e9187	0.15485202
241	0xbe3bac87	-0.18327533
242	0xbd692182	-0.05691672
243	0x3cd863b8	0.026414737
244	0x3e0c5e87	0.13707934
245	0xbd9f3828	-0.07774383
246	0x3eb8cc0d	0.36093178
247	0xbdc94721	-0.0982802
248	0x3e88776d	0.26653615
249	0xbe9438e4	-0.28949654
250	0xbc38f43b	-0.011288698
251	0x3d6d6f8b	0.057967704
252	0xbbec3974	-0.0072089974
253	0x3e2d2b87	0.16911136
254	0xbd40a9bd	-0.047036875
255	0x3e15e2b6	0.14637265

trans1.bn1.weight f4 [48]
0	0x3f800000	1.0
1	0x3f800000	1.0
2	0x3f800000	1.0
3	0x3f800000	1.0
4	0x3f800000	1.0
5	0x3f800000	1.0
6	0x3f800000	1.0
7	0x3f800000	1.0
8	0x3f800000	1.0
9	0x3f800000	1.0
10	0x3f800000	1.0
11	0x3f800000	1.0
12	0x3f800000	1.0
13	0x3f800000	1.0
14	0x3f800000	1.0
15	0x3f800000	1.0
16	0x3f800000	1.0
17	0x3f800000	1.0
18	0x3f800000	1.0
19	0x3f800000	1.0
20	0x3f800000	1.0
21	0x3f800000	1.0
22	0x3f800000	1.0
23	0x3f800000	1.0
24	0x3f800000	1.0
25	0x3f800000	1.0
26	0x3f800000	1.0
27	0x3f800000	1.0
28	0x3f800000	1.0
29	0x3f800000	1.0
30	0x3f800000	1.0
31	0x3f800000	1.0
32	0x3f800000	1.0
33	0x3f800000	1.0
34	0x3f800000	1.0
35	0x3f800000	1.0
36	0x3f800000	1.0
37	0x3f800000	1.0
38	0x3f800000	1.0
39	0x3f800000	1.0
40	0x3f800000	1.0
41	0x3f800000	1.0
42	0x3f800000	1.0
43	0x3f800000	1.0
44	0x3f800000	1.0
45	0x3f800000	1.0
46	0x3f800000	1.0
47	0x3f800000	1.0

trans1.bn1.bias f4 [48]
0	0x00000000	0.0
1	0x00000000	0.0
2	0x00000000	0.0
3	0x00000000	0.0
4	0x00000000	0.0
5	0x00000000	0.0
6	0x00000000	0.0
7	0x00000000	0.0
8	0x00000000	0.0
9	0x00000000	0.0
10	0x00000000	0.0
11	0x00000000	0.0
12	0x00000000	0.0
13	0x00000000	0.0
14	0x00000000	0.0
15	0x00000000	0.0
16	0x00000000	0.0
17	0x00000000	0.0
18	0x00000000	0.0
19	0x00000000	0.0
20	0x00000000	0.0
21	0x00000000	0.0
22	0x00000000	0.0
23	0x00000000	0.0
24	0x00000000	0.0
25	0x00000000	0.0
26	0x00000000	0.0
27	0x00000000	0.0
28	0x00000000	0.0
29	0x00000000	0.0
30	0x00000000	0.0
31	0x00000000	0.0
32	0x00000000	0.0
33	0x00000000	0.0
34	0x00000000	0.0
35	0x00000000	0.0
36	0x00000000	0.0
37	0x00000000	0.0
38	0x00000000	0.0
39	0x00000000	0.0
40	0x00000000	0.0
41	0x00000000	0.0
42	0x00000000	0.0
43	0x00000000	0.0
44	0x00000000	0.0
45	0x00000000	0.0
46	0x00000000	0.0
47	0x00000000	0.0

trans1.conv1.weight f4 [48, 48, 1, 1]
0	0xbd74cffd	-0.059768666
1	0x3e2416c6	0.16024312
2	0xbd2b65ba	-0.04184506
3	0xbe40f2c3	-0.18842606
4	0xbc869261	-0.01642722
5	0xbd8c4683	-0.068493865
6	0xbf212107	-0.6294102
7	0x3e3a3e16	0.18187746
8	0xbd3d76a1	-0.04625571
9	0x3e52fac4	0.20603472
10	0xbe70f39f	-0.23530434
11	0xbe17b2e0	-0.14814329
12	0x3ea39d46	0.31955928
13	0xbda5962d	-0.080852844
14	0xbefab234	-0.48964083
15	0x3e8766a7	0.26445505
16	0x3e8f0539	0.27933672
17	0x3d7afeec	0.06127827
18	0xbdec1b51	-0.11528648
19	0xbe0c8407	-0.1372224
20	0x3d60cf18	0.054885
21	0x3be0b5f6	0.006857629
22	0x3dc50c95	0.096215405
23	0xbef81193	-0.48450908
24	0x3cee075a	0.02905624
25	0x3e80989d	0.25116435
26	0xbe4be950	-0.1991322
27	0xbe28cb72	-0.16483858
28	0x3e2e4860	0.17019796
29	0x3e58f090	0.21185517
30	0xbd981543	-0.0742593
31	0xbdb5b2be	-0.08871983
32	0xbe2858f1	-0.16440178
33	0x3e4fff2a	0.20312181
34	0x3e013a2e	0.1261985
35	0x3dd5803b	0.10424849
36	0xbbdff644	-0.006834777
37	0x3df221f8	0.11822885
38	0x3db9da1e	0.09074806
39	0x3dd9f993	0.10643306
40	0x3e7d3814	0.24728423
41	0x3ea0a7f5	0.3137814
42	0xbe9995cf	-0.29997107
43	0xbee32db8	-0.44370818
44	0xbe15bb23	-0.14622168
45	0xbdfae082	-0.12249853
46	0xbdc67bdb	-0.09691592
47	0x3cba9703	0.022777086
48	0xbdcfb077	-0.1014108
49	0xbd3a0a9c	-0.045420274
50	0xbe4dc7d5	-0.20095761
51	0xbda318d7	-0.07963722
52	0xbe83a67d	-0.25712958
53	0xbd77bcf7	-0.060482945
54	0xbe179667	-0.14803468
55	0x3e02c447	0.12770186
56	0xbdd12fa5	-0.102141656
57	0xbe44fe61	-0.19237663
58	0x3db0fed8	0.086423576
59	0xbd421419	-0.047382448
60	0xbe6c9887	-0.2310506
61	0xbd4339cd	-0.047662545
62	0x3e64d8ac	0.22348279
63	0x3ed58436	0.4170243
64	0x3dd9107d	0.10598848
65	0xbe7c5538	-0.24641883
66	0xbbf422f2	-0.007450455
67	0x3daf53d0	0.08560908
68	0xbe0ef092	-0.13958958
69	0xbdd823d8	-0.10553712
70	0x3d089616	0.033346258
71	0x3dee42ad	0.11633811
72	0xbe8396c8	-0.25700974
73	0xbe18232f	-0.14857171
74	0x3eb4b567	0.3529465
75	0x3b882ccb	0.0041557304
76	0xbd7a8523	-0.061162125
77	0x3e616c2e	0.22013924
78	0xbd105edb	-0.03524671
79	0x3ea96f0f	0.33092543
80	0x3e1ca9a1	0.15299083
81	0x3e6f54e9	0.23372234
82	0x3e8b364e	0.2718987
83	0xbdee40c8	-0.1163345
84	0xbd6d9b69	-0.05800954
85	0x3d203cab	0.039120357
86	0xbd11328d	-0.0354486
87	0xbdfe6c68	-0.124230206
88	0x3dc983bc	0.098395795
89	0x3d6f11e3	0.058366667
90	0xbdd93bb9	-0.10607094
91	0x3e306b82	0.17228511
92	0x3dfa60ae	0.122254714
93	0xbdb4e350	-0.08832419
94	0x3e80a336	0.2512452
95	0x3e962075	0.29321638
96	0x3e5c0181	0.21484949
97	0x3d9b4fba	0.07583566
98	0xbd65d6d0	-0.056113064
99	0xbd2381e0	-0.03991878
100	0x3e53a87f	0.20669745
101	0xbe910d1a	-0.28330308
102	0xbd8baee1	-0.06820465
103	0xbe459096	-0.19293436
104	0xbc067c2a	-0.008208314
105	0x3d1a2941	0.037637
106	0xbea689b3	-0.3252693
107	0xbebe8aa1	-0.3721514
108	0x3e844492	0.25833565
109	0x3ea1af14	0.31578887
110	0xbd8cee18	-0.0688135
111	0xbe9820bc	-0.29712474
112	0x3c9611b1	0.018318983
113	0xbcaf9012	-0.021431003
114	0xbdeccc49	-0.11562402
115	0x3e862514	0.26200163
116	0x3dcfdca5	0.101495065
117	0xbe658d40	-0.22417164
118	0x3dff8922	0.12477328
119	0x3d7a6574	0.06113191
120	0x3f0c8346	0.5488781
121	0x3cd6f791	0.026241096
122	0x3e928e2e	0.286241
123	0xbc362145	-0.0111163305
124	0xbe0c16a6	-0.13680515
125	0xbe920614	-0.28520262
126	0xbe8d83c0	-0.2763958
127	0x3b9f1e68	0.0048559196
128	0x3e537925	0.20651682
129	0x3e14b271	0.14521195
130	0xbe78ae6d	-0.24285288
131	0xbe935635	-0.28776708
132	0x3bf2572c	0.0073956456
133	0xbe1f312a	-0.15546098
134	0xbe781315	-0.24226029
135	0xbdad8b71	-0.08473862
136	0x3d95cc61	0.07314373
137	0xbc4bf5e6	-0.0124487635
138	0x3f2f5ae5	0.6849807
139	0x3e235f49	0.15954317
140	0x3d60656f	0.054784235
141	0xbcab9398	-0.020944402
142	0xbd7b1221	-0.061296586
143	0x3d6a3d65	0.057187457
144	0x3dab3a7d	0.08360765
145	0xbe960939	-0.2930391
146	0xbda032fb	-0.07822224
147	0x3e4c6b49	0.19962801
148	0xbe5321e7	-0.20618401
149	0x3c501a88	0.012701638
150	0x3dbe8f07	0.09304624
151	0x3cfaa4a6	0.030596089
152	0x3e5bedf8	0.21477497
153	0xbe30b623	-0.1725698
154	0x3e854e73	0.26036415
155	0x3d455873	0.048180055
156	0x3ebe42eb	0.3716043
157	0xbecf7c0d	-0.4052433
158	0xbe8e073f	-0.27739903
159	0x3ba82fbe	0.0051326444
160	0xbe8d30b7	-0.2757623
161	0x3d793d53	0.0608495
162	0x3d9cb1e0	0.076511145
163	0xbdfe2722	-0.12409808
164	0xbe096912	-0.13418987
165	0x3d4395c6	0.047750257
166	0x3db3bd74	0.0877637
167	0x3da1a8f5	0.07893554
168	0x3d66be7b	0.056334
169	0x3e9160e2	0.28394228
170	0x3e8e558c	0.27799642
171	0x3c849e22	0.016188685
172	0xbdba73c7	-0.09104114
173	0x3d037200	0.03209114
174	0x3a22dfd7	0.00062131643
175	0xbdeb0f88	-0.11477572
176	0xbe80b234	-0.25135958
177	0x3cb29d3f	0.021803496
178	0xbe7b1cff	-0.2452278
179	0x3e2612a4	0.16218048
180	0x3db2ca14	0.087299496
181	0x3ea0cce4	0.3140632
182	0xbda13ac6	-0.07872538
183	0x3e224515	0.15846665
184	0x3e5a5f30	0.21325374
185	0x3e3c2e21	0.18376972
186	0xbe7f80a3	-0.24951415
187	0x3ec88f95	0.39172044
188	0x3e4b8f85	0.19878967
189	0xbe818eee	-0.2530436
190	0xbdbb80d7	-0.091554336
191	0xbd26fc5f	-0.040768024
192	0xbde86b67	-0.1134861
193	0x3e195c02	0.14976504
194	0x3e25f3b9	0.16206254
195	0xbdee36c9	-0.11631543
196	0x3d985b6b	0.074393116
197	0x3e549cd2	0.20762947
198	0xbe43822e	-0.19092628
199	0xbe077db6	-0.13231549
200	0xbdef8884	-0.1169596
201	0x3f1a329a	0.6023346
202	0x3d6059d0	0.054773152
203	0xbeaf54b3	-0.34244308
204	0x3c26128c	0.010136258
205	0xbe0dbecf	-0.13842319
206	0xbe9c8d3e	-0.3057651
207	0xbe4f262c	-0.20229405
208	0x3d1de835	0.038551528
209	0xbcb9d1f3	-0.02268312
210	0x3d8dd953	0.06926217
211	0xbe2f1033	-0.17096023
212	0x3e21272a	0.15737596
213	0xbeb8adb5	-0.36070028
214	0xbd7986cf	-0.06091958
215	0xba587869	-0.00082576886
216	0xbd0af22f	-0.03392237
217	0xbe8b8ab6	-0.27254266
218	0xbb744ffc	-0.003727912
219	0x3d9e9e66	0.07745056
220	0x3d8994ec	0.06717858
221	0xbe79b022	-0.24383596
222	0x3e838187	0.2568476
223	0xbe88a416	-0.26687688
224	0x3e0264b2	0.12733725
225	0x3c88d9db	0.016705444
226	0x3d6f5140	0.058427095
227	0x3eb31034	0.349733
228	0xbf193c99	-0.5985809
229	0xbcc09c6a	-0.023512084
230	0xbeb15d4f	-0.346415
231	0xbded8e39	-0.115993924
232	0xbcc1cd5f	-0.023657499
233	0xbeca0ef9	-0.39464548
234	0xbe7a01ba	-0.24414721
235	0x3f01d92b	0.50722
236	0xbe8c1ddb	-0.27366528
237	0xbe5a3bd0	-0.21311879
238	0xbcca435b	-0.02469032
239	0xbdcb5178	-0.09927648
240	0x3de2b83f	0.110702984
241	0xbe8b8d92	-0.27256447
242	0x3ea677ff	0.32513425
243	0xbe8a4238	-0.27003646
244	0x3e0ce7ed	0.13760348
245	0x3ee329d6	0.44367856
246	0xbe82c378	-0.25539756
247	0x3c803fd2	0.015655432
248	0x3dbbf3d0	0.09177363
249	0xbbbe85be	-0.005814283
250	0xbe4a71ad	-0.19769926
251	0xbe6781a0	-0.22608042
252	0xbea3bbb2	-0.31979138
253	0x3e5aaca4	0.2135492
254	0xbe379188	-0.1792661
255	0xbebbdfc3	-0.36694154

dense2.0.bn1.weight f4 [48]
0	0x3f800000	1.0
1	0x3f800000	1.0
2	0x3f800000	1.0
3	0x3f800000	1.0
4	0x3f800000	1.0
5	0x3f800000	1.0
6	0x3f800000	1.0
7	0x3f800000	1.0
8	0x3f800000	1.0
9	0x3f800000	1.0
10	0x3f800000	1.0
11	0x3f800000	1.0
12	0x3f800000	1.0
13	0x3f800000	1.0
14	0x3f800000	1.0
15	0x3f800000	1.0
16	0x3f800000	1.0
17	0x3f800000	1.0
18	0x3f800000	1.0
19	0x3f800000	1.0
20	0x3f800000	1.0
21	0x3f800000	1.0
22	0x3f800000	1.0
23	0x3f800000	1.0
24	0x3f800000	1.0
25	0x3f800000	1.0
26	0x3f800000	1.0
27	0x3f800000	1.0
28	0x3f800000	1.0
29	0x3f800000	1.0
30	0x3f800000	1.0
31	0x3f800000	1.0
32	0x3f800000	1.0
33	0x3f800000	1.0
34	0x3f800000	1.0
35	0x3f800000	1.0
36	0x3f800000	1.0
37	0x3f800000	1.0
38	0x3f800000	1.0
39	0x3f800000	1.0
40	0x3f800000	1.0
41	0x3f800000	1.0
42	0x3f800000	1.0
43	0x3f800000	1.0
44	0x3f800000	1.0
45	0x3f800000	1.0
46	0x3f800000	1.0
47	0x3f800000	1.0

dense2.0.bn1.bias f4 [48]
0	0x00000000	0.0
1	0x00000000	0.0
2	0x00000000	0.0
3	0x00000000	0.0
4	0x00000000	0.0
5	0x00000000	0.0
6	0x00000000	0.0
7	0x00000000	0.0
8	0x00000000	0.0
9	0x00000000	0.0
10	0x00000000	0.0
11	0x00000000	0.0
12	0x00000000	0.0
13	0x00000000	0.0
14	0x00000000	0.0
15	0x00000000	0.0
16	0x00000000	0.0
17	0x00000000	0.0
18	0x00000000	0.0
19	0x00000000	0.0
20	0x00000000	0.0
21	0x00000000	0.0
22	0x00000000	0.0
23	0x00000000	0.0
24	0x00000000	0.0
25	0x00000000	0.0
26	0x00000000	0.0
27	0x00000000	0.0
28	0x00000000	0.0
29	0x00000000	0.0
30	0x00000000	0.0
31	0x00000000	0.0
32	0x00000000	0.0
33	0x00000000	0.0
34	0x00000000	0.0
35	0x00000000	0.0
36	0x00000000	0.0
37	0x00000000	0.0
38	0x00000000	0.0
39	0x00000000	0.0
40	0x00000000	0.0
41	0x00000000	0.0
42	0x00000000	0.0
43	0x00000000	0.0
44	0x00000000	0.0
45	0x00000000	0.0
46	0x00000000	0.0
47	0x00000000	0.0

dense2.0.conv1.weight f4 [12, 48, 3, 3]
0	0xbe15df82	-0.14636043
1	0x3dd7cc11	0.105369695
2	0x3e0135ad	0.12618132
3	0x3dc27576	0.0949506
4	0xbe95e9df	-0.29279992
5	0x3e257b58	0.16160333
6	0x3dbf26d8	0.09333581
7	0x3e80d084	0.25159085
8	0x3e01650c	0.12636203
9	0xbe3f2570	-0.18666625
10	0xbce6664b	-0.028124949
11	0x3dd74abd	0.10512302
12	0x3d5c61cb	0.0538042
13	0xbd97279f	-0.07380604
14	0x3e279a48	0.16367447
15	0xbe78a2f1	-0.24280907
16	0x3ded5f4d	0.11590443
17	0x3da70303	0.08154871
18	0xbdd7647c	-0.10517213
19	0x3d3948cf	0.04523545
20	0xbdb4ef8c	-0.088347524
21	0xbddda148	-0.108217776
22	0xbd9da10e	-0.07696734
23	0x3e493848	0.19650376
24	0x3d5c6656	0.053808533
25	0x3e08ed79	0.13371839
26	0x3dbc3938	0.09190601
27	0xbd586090	-0.052826464
28	0x3e71c36a	0.23609701
29	0x3de70315	0.11279885
30	0xbe6bdd27	-0.23033582
31	0x3c0ac84d	0.008470607
32	0x3d829be7	0.06377392
33	0xbe9a40c3	-0.30127534
34	0xbd029449	-0.031879697
35	0x3dd236d1	0.10264362
36	0x3e4e50e2	0.20148042
37	0xbc559d40	-0.01303798
38	0x3dc3668e	0.09541045
39	0xbda09e01	-0.07842637
40	0xbda73e63	-0.08166196
41	0x3da68a01	0.08131791
42	0xbe1e8014	-0.15478545
43	0x3da87161	0.0822475
44	0x3e4791ef	0.19489263
45	0xbd011bc2	-0.031520613
46	0x3e3dba5c	0.18528122
47	0x3e154502	0.14577106
48	0x3e5751ee	0.21027347
49	0x3e3aa257	0.1822599
50	0xbe005eea	-0.12536207
51	0x3e662b73	0.22477512
52	0x3e580616	0.21096072
53	0xbda005a4	-0.07813576
54	0x3e6fc45d	0.2341475
55	0xbe002131	-0.12512662
56	0xbe22ecf5	-0.15910704
57	0xbcf22ad2	-0.029561434
58	0xbc3136b4	-0.010816265
59	0x3dbc1ea6	0.09185533
60	0x3e4ea2f2	0.20179346
61	0x3d82d59f	0.06388401
62	0xbe152a98	-0.1456703
63	0x3d9e4e05	0.07729725
64	0x3d02568c	0.03182082
65	0x3d6e923d	0.058244932
66	0x3e22a13e	0.15881822
67	0xbde8e668	-0.113720715
68	0x3e2d4875	0.16922171
69	0xbe85ee91	-0.26158574
70	0xbe34b856	-0.17648444
71	0x3de10795	0.10987774
72	0x3dcf9b91	0.10137094
73	0xbcfa52eb	-0.030557116
74	0x3e39b6c4	0.18136126
75	0xbc54e12e	-0.01299314
76	0x3cd531cb	0.02602472
77	0x3e159e43	0.14611153
78	0x3cd3115d	0.025765115
79	0x3e1ddb9a	0.15415803
80	0x3bce40ad	0.006294331
81	0x3cab1170	0.020882338
82	0x3de58c83	0.11208441
83	0x3e323ea9	0.17406715
84	0xbdf772a9	-0.120824166
85	0x3d18970f	0.037253436
86	0xbd958cde	-0.07302259
87	0xbe1a494e	-0.15067026
88	0xbd0ed4b8	-0.034870833
89	0xbd6a644a	-0.05722455
90	0x3e89c2b6	0.26906365
91	0x3e37b5d9	0.17940463
92	0xbe5a6069	-0.2132584
93	0x3df6fc2e	0.12059818
94	0xbe00d4f7	-0.1258124
95	0xbc9d0690	-0.019168168
96	0xbe8546f8	-0.26030707
97	0x3d3ae236	0.045625888
98	0xbd99f1dc	-0.07516834
99	0x3e032980	0.128088
100	0x3d2111cb	0.03932361
101	0xbd55ee6f	-0.05222934
102	0x3cd48f93	0.025947368
103	0xbdbd5047	-0.09243827
104	0x3d9a4ec0	0.075345516
105	0x3db4455e	0.08802293
106	0x3d931bc3	0.071830295
107	0x3e0497b7	0.129485
108	0x3cfa96c5	0.03058947
109	0xbde5cde4	-0.11220911
110	0x3cff7caa	0.031187374
111	0xbc6c3ea4	-0.014419232
112	0x3e4b9f9d	0.19885106
113	0x3dceee16	0.10104005
114	0xbd035103	-0.03205968
115	0xbdedc095	-0.11608998
116	0xbd866527	-0.06562262
117	0xbd87da6d	-0.06633458
118	0x3e08bb8d	0.13352795
119	0x3dfdc276	0.12390606
120	0x3e8fac12	0.28060967
121	0x3dccf35e	0.10007356
122	0xbdc2af28	-0.09506065
123	0x3db2a965	0.08723716
124	0x3dc80ffc	0.09768674
125	0xbe1165ff	-0.14199065
126	0x3eb7fb9c	0.3593415
127	0xbe466419	-0.19374122
128	0x3de38b50	0.11110556
129	0xbbb8d883	-0.0056410446
130	0x3dbb6021	0.091491945
131	0x3cecf901	0.028927328
132	0x3d0d4c37	0.034496512
133	0xbd20b6b2	-0.03923673
134	0x3e48e917	0.19620167
135	0x3c9f6632	0.01945791
136	0x3e57ab1a	0.21061364
137	0x3d9e96a2	0.07743575
138	0x3d7b3e5c	0.061338767
139	0x3cf0ca01	0.029393198
140	0x3df6dee2	0.1205423
141	0x3ad93af9	0.0016573361
142	0xbd909843	-0.070602916
143	0x3dde196e	0.10844694
144	0x3e57bcc6	0.21068105
145	0x3d9a2dab	0.07528242
146	0x3e25278f	0.16128372
147	0x3e1c143a	0.15242091
148	0x3e350ca8	0.17680609
149	0x3d2a22c3	0.041537058
150	0x3e3a186b	0.18173377
151	0x3da85909	0.08220107
152	0x3e49d652	0.19710663
153	0xbe702231	-0.23450543
154	0xbde063a2	-0.109565035
155	0x3d7b6b76	0.06138178
156	0xbd1c4eaf	-0.038160976
157	0xbd402156	-0.04690679
158	0x3cc91935	0.024548152
159	0xbe1628db	-0.14664023
160	0x3e5956eb	0.21224563
161	0xbd9951ae	-0.07486282
162	0xbb2d0bef	-0.0026404818
163	0xbdb01ad5	-0.08598868
164	0x3d362150	0.044465363
165	0x3cd57215	0.026055375
166	0xbc6f50a8	-0.014606632
167	0xbd8620aa	-0.06549199
168	0xbc3a1733	-0.01135807
169	0xbc5213df	-0.01282212
170	0xbe0ad9b3	-0.13559608
171	0x3d51e6f3	0.05124564
172	0xbcac5862	-0.021038238
173	0xbd4b5045	-0.049637098
174	0x3def7140	0.116915226
175	0x3e37ddac	0.17955655
176	0x3e2154fd	0.15755077
177	0x3ce03937	0.027371032
178	0x3d4d614e	0.050141625
179	0x3d535591	0.051595274
180	0xbde1e597	-0.11030119
181	0xbc6af6f8	-0.0143411085
182	0xbd78dd44	-0.06075789
183	0x3d9c3b08	0.07628447
184	0x3e195557	0.14973961
185	0xbee44a2e	-0.44587845
186	0xbc65a4ec	-0.014016371
187	0xbd4c7eff	-0.0499258
188	0x3d92da2d	0.0717052
189	0x3dd560d1	0.10418857
190	0x3db8105f	0.089874975
191	0xbe2b0a75	-0.16703208
192	0xbdfb1202	-0.12259294
193	0x3be85421	0.007090107
194	0xbd99678d	-0.07490454
195	0x3d13e03f	0.03610253
196	0xbd2c5145	-0.042069692
197	0xbdfec186	-0.124392554
198	0x3cebfa71	0.028805943
199	0xbd53dd03	-0.051724445
200	0xbdcfdc25	-0.10149411
201	0xbe184264	-0.14869076
202	0x3de58562	0.112070814
203	0x3d9cdd83	0.076594375
204	0x3c777fc0	0.015106142
205	0xbdeb240d	-0.114814855
206	0xbdb939b9	-0.09044213
207	0x3d72fc1d	0.059322465
208	0x3cd9d9b9	0.026593076
209	0x3e52d930	0.20590663
210	0xbdc9bc46	-0.098503634
211	0x3d941725	0.07230977
212	0xbcce06c2	-0.025149707
213	0xbdb9a56a	-0.09064753
214	0x3e0127ca	0.12612835
215	0x3c890e48	0.016730443
216	0xbe85c980	-0.26130295
217	0x3dec1b82	0.11528684
218	0x3d348c9c	0.044079408
219	0x3d6e19e5	0.058130164
220	0x3c08bf2e	0.008346362
221	0xbe902cab	-0.2815908
222	0xbd75db6d	-0.060023714
223	0xbd6601d2	-0.05615408
224	0xbdf6bffc	-0.12048337
225	0x3d43e4b3	0.047825526
226	0xbd31fe7f	-0.043455597
227	0x3e8bebf1	0.27328447
228	0x3caca9ce	0.021077063
229	0x3de0f471	0.109841235
230	0x3deeb24f	0.116551034
231	0xbc87bf19	-0.016570615
232	0x3e6751c9	0.22589792
233	0x3e2e63af	0.17030214
234	0x3e2f63dd	0.17127939
235	0x3dc1f986	0.09471421
236	0xbdd324d2	-0.10309757
237	0x3d3d9880	0.046288013
238	0x3e4ec6cb	0.20193021
239	0x3cf6bbb8	0.030118808
240	0xbe2b71e9	-0.16742672
241	0x3e1a8f13	0.15093641
242	0xbe2a3ff0	-0.16625953
243	0x3c157116	0.0091212
244	0xbda2def6	-0.07952683
245	0xbdb12068	-0.08648759
246	0x3d9e962b	0.07743486
247	0x3d6bd298	0.057573885
248	0xbdcc3108	-0.099702895
249	0xbe68dc3d	-0.22740264
250	0x3da9c9b1	0.08290423
251	0xbd9eade9	-0.077480145
252	0xbe10084a	-0.14065662
253	0xbc32fcba	-0.0109245125
254	0xbe1e7157	-0.15472923
255	0x3e2b880a	0.16751114

dense2.1.bn1.weight f4 [60]
0	0x3f800000	1.0
1	0x3f800000	1.0
2	0x3f800000	1.0
3	0x3f800000	1.0
4	0x3f800000	1.0
5	0x3f800000	1.0
6	0x3f800000	1.0
7	0x3f800000	1.0
8	0x3f800000	1.0
9	0x3f800000	1.0
10	0x3f800000	1.0
11	0x3f800000	1.0
12	0x3f800000	1.0
13	0x3f800000	1.0
14	0x3f800000	1.0
15	0x3f800000	1.0
16	0x3f800000	1.0
17	0x3f800000	1.0
18	0x3f800000	1.0
19	0x3f800000	1.0
20	0x3f800000	1.0
21	0x3f800000	1.0
22	0x3f800000	1.0
23	0x3f800000	1.0
24	0x3f800000	1.0
25	0x3f800000	1.0
26	0x3f800000	1.0
27	0x3f800000	1.0
28	0x3f800000	1.0
29	0x3f800000	1.0
30	0x3f800000	1.0
31	0x3f800000	1.0
32	0x3f800000	1.0
33	0x3f800000	1.0
34	0x3f800000	1.0
35	0x3f800000	1.0
36	0x3f800000	1.0
37	0x3f800000	1.0
38	0x3f800000	1.0
39	0x3f800000	1.0
40	0x3f800000	1.0
41	0x3f800000	1.0
42	0x3f800000	1.0
43	0x3f800000	1.0
44	0x3f800000	1.0
45	0x3f800000	1.0
46	0x3f800000	1.0
47	0x3f800000	1.0
48	0x3f800000	1.0
49	0x3f800000	1.0
50	0x3f800000	1.0
51	0x3f800000	1.0
52	0x3f800000	1.0
53	0x3f800000	1.0
54	0x3f800000	1.0
55	0x3f800000	1.0
56	0x3f800000	1.0
57	0x3f800000	1.0
58	0x3f800000	1.0
59	0x3f800000	1.0

dense2.1.bn1.bias f4 [60]
0	0x00000000	0.0
1	0x00000000	0.0
2	0x00000000	0.0
3	0x00000000	0.0
4	0x00000000	0.0
5	0x00000000	0.0
6	0x00000000	0.0
7	0x00000000	0.0
8	0x00000000	0.0
9	0x00000000	0.0
10	0x00000000	0.0
11	0x00000000	0.0
12	0x00000000	0.0
13	0x00000000	0.0
14	0x00000000	0.0
15	0x00000000	0.0
16	0x00000000	0.0
17	0x00000000	0.0
18	0x00000000	0.0
19	0x00000000	0.0
20	0x00000000	0.0
21	0x00000000	0.0
22	0x00000000	0.0
23	0x00000000	0.0
24	0x00000000	0.0
25	0x00000000	0.0
26	0x00000000	0.0
27	0x00000000	0.0
28	0x00000000	0.0
29	0x00000000	0.0
30	0x00000000	0.0
31	0x00000000	0.0
32	0x00000000	0.0
33	0x00000000	0.0
34	0x00000000	0.0
35	0x00000000	0.0
36	0x00000000	0.0
37	0x00000000	0.0
38	0x00000000	0.0
39	0x00000000	0.0
40	0x00000000	0.0
41	0x00000000	0.0
42	0x00000000	0.0
43	0x00000000	0.0
44	0x00000000	0.0
45	0x00000000	0.0
46	0x00000000	0.0
47	0x00000000	0.0
48	0x00000000	0.0
49	0x00000000	0.0
50	0x00000000	0.0
51	0x00000000	0.0
52	0x00000000	0.0
53	0x00000000	0.0
54	0x00000000	0.0
55	0x00000000	0.0
56	0x00000000	0.0
57	0x00000000	0.0
58	0x00000000	0.0
59	0x00000000	0.0

dense2.1.conv1.weight f4 [12, 60, 3, 3]
0	0x3e246e29	0.16057648
1	0x3e7c2c20	0.24626207
2	0x3d5f44bd	0.054508913
3	0xbc1b5f4a	-0.009483168
4	0xbdd11664	-0.10209349
5	0xbd0b9d68	-0.03408566
6	0xbdfe9f1b	-0.12432691
7	0xbd2cef0e	-0.042220168
8	0x3ecb15fb	0.39665207
9	0xbd421238	-0.047380656
10	0xbce30f95	-0.027717391
11	0x3ddabea5	0.10680894
12	0xbe8ac533	-0.27103576
13	0xbd5eb45c	-0.054371223
14	0xbe8997a6	-0.2687351
15	0x3d88a462	0.066719785
16	0x3db797a4	0.0896447
17	0x3cc6dc76	0.024275046
18	0x3d2d2de3	0.04228009
19	0x3e398646	0.18117628
20	0xbeb91796	-0.36150807
21	0x3e7bbbad	0.24583311
22	0xbd95f8c3	-0.07322838
23	0xbe0f27f8	-0.1398009
24	0x3eae4c96	0.34042805
25	0x3e0dbd4b	0.13841741
26	0x3d8df234	0.06930962
27	0xbe1f7f10	-0.15575814
28	0xbe474a04	-0.19461828
29	0xbe278a09	-0.1636125
30	0x3d09fb66	0.033687018
31	0xbdd8e70f	-0.10590946
32	0x3d3b2a8c	0.045694873
33	0xbd28c7fb	-0.04120634
34	0xbe4c9143	-0.19977288
35	0x3e9baf8f	0.30407378
36	0xba9c92af	-0.0011945571
37	0xbd80cabb	-0.06288668
38	0x3ce18c2e	0.027532663
39	0x3d9a4b66	0.07533912
40	0x3e293011	0.16522242
41	0x3cd30e1a	0.02576356
42	0x3c9ecb41	0.019384028
43	0xbd2168bd	-0.039406527
44	0xbd05f365	-0.032702822
45	0xbd9b0c82	-0.07570745
46	0x3e1aa401	0.15101625
47	0x3dc364b4	0.09540692
48	0x3cef1526	0.029184889
49	0xbddef178	-0.108859
50	0x3e86dcae	0.2634024
51	0xbc111e83	-0.008857372
52	0xbe811104	-0.25208294
53	0x3e22dfa4	0.15905625
54	0x3dd7e6e0	0.10542083
55	0x3c5490a3	0.012973937
56	0xbd6bd3ee	-0.05757516
57	0x3e24b785	0.16085632
58	0x3e7d8af5	0.24760039
59	0xbe035d78	-0.12828624
60	0x3cc7a673	0.024371361
61	0xbe4e93a3	-0.20173506
62	0xbe53592a	-0.20639482
63	0x3e1313cd	0.14363022
64	0x3d6ea526	0.058262967
65	0xbd29e871	-0.04148144
66	0xbdad66fa	-0.08466907
67	0xbe4d30ee	-0.20038196
68	0xbe704ccc	-0.23466796
69	0x3d044785	0.03229477
70	0x3ca81478	0.020517573
71	0x3c11efa8	0.008907236
72	0xbd3dfaae	-0.046381645
73	0x3ca26112	0.019821677
74	0x3da07047	0.07833915
75	0xbd456395	-0.048190672
76	0xbd1f7fd0	-0.03894025
77	0x3e24236f	0.16029142
78	0x3d73d277	0.059526887
79	0xbd8f396d	-0.06993375
80	0x3dc69e62	0.09698178
81	0x3d408ed7	0.047011223
82	0xbddcbca5	-0.107781686
83	0xbdf50a85	-0.11964897
84	0x3db057d4	0.08610502
85	0xbd1fb2a5	-0.038988728
86	0x3e25349a	0.16133347
87	0xbe382419	-0.1798252
88	0xbd156853	-0.036476444
89	0x3dab8b72	0.083762065
90	0x3e2a2e71	0.16619278
91	0xbdbfbc42	-0.09362079
92	0x3ca2fd4a	0.019896168
93	0xbe1d55f6	-0.15364823
94	0x3dd36329	0.10321648
95	0xbcfbc129	-0.030731754
96	0x3db5812c	0.08862528
97	0xbdb0632d	-0.08612666
98	0x3e92652f	0.28592822
99	0xbd8a6a95	-0.0675861
100	0xbe375ce8	-0.17906535
101	0x3c51e915	0.012811919
102	0x3e268a68	0.16263735
103	0x3e3ceb04	0.18449026
104	0x3cf0c051	0.029388579
105	0x3b3bd802	0.0028662686
106	0x3dbc60d1	0.09198154
107	0xbd80ccc7	-0.06289058
108	0xbe1538a8	-0.14572394
109	0x3d851ce7	0.06499653
110	0xba5dd4f9	-0.00084622164
111	0xbdc82a26	-0.09773664
112	0x3d84b554	0.06479898
113	0xbe820add	-0.25398913
114	0xbdd5e2df	-0.10443663
115	0x3d5e18f9	0.054223035
116	0x3e974e2d	0.2955183
117	0x3e815ccf	0.2526612
118	0x3e0cc8b0	0.13748431
119	0xbe4eedd5	-0.20207913
120	0xbe39bd39	-0.18138589
121	0x3c6b8046	0.0143738445
122	0x3e34c0af	0.17651628
123	0x3da3feeb	0.08007606
124	0x3cf9ab9a	0.030477334
125	0xbe4624c2	-0.1934996
126	0x3c474ca6	0.0121642705
127	0xbe932149	-0.28736332
128	0xbe16e9ac	-0.14737576
129	0xbae6c8e1	-0.0017607474
130	0xbb9d4879	-0.004799899
131	0xbd45feba	-0.04833863
132	0x3dd167fd	0.10224912
133	0x3e33d299	0.17560805
134	0xbebc44c3	-0.3677121
135	0x3c62b3ff	0.01383686
136	0x3d5bf783	0.053702842
137	0x3e2dd590	0.16975999
138	0xbe0e5533	-0.13899688
139	0x3dbde92a	0.09272988
140	0xbc7ca40e	-0.015419973
141	0x3e668949	0.22513308
142	0x3e67797c	0.22604936
143	0x3e25813f	0.16162585
144	0xbe4d9ad9	-0.20078601
145	0xbd9ff2dc	-0.078099936
146	0x3daa9cd3	0.08330693
147	0xbe2a3e43	-0.16625313
148	0x3c36fd73	0.011168825
149	0x3df68c6a	0.120385006
150	0x39e9e592	0.00044612266
151	0xbd52c457	-0.051456776
152	0xbe6b88e0	-0.23001432
153	0x3de7618d	0.11297903
154	0x3c4ddf94	0.012565512
155	0xbc880b41	-0.016606929
156	0xbcac14e6	-0.021006059
157	0x3e81e85b	0.25372586
158	0x3de62789	0.112380095
159	0xbcf80346	-0.030274998
160	0x3e12d3f9	0.14338674
161	0x3ad22823	0.001603369
162	0xbe3508eb	-0.17679183
163	0x3e8eeb6a	0.27913982
164	0x3e641582	0.2227383
165	0x3ec56b83	0.38558587
166	0x3df95a00	0.12175369
167	0x3be84c9b	0.00708921
168	0xbd41ca0d	-0.04731183
169	0x3d94d123	0.07266452
170	0x3c7ba86f	0.015359982
171	0xbdbc6c51	-0.09200347
172	0x3c6e9ec1	0.014564217
173	0x3ddc8603	0.10767748
174	0xbd846476	-0.06464474
175	0x3dbb6aa3	0.09151199
176	0x3e63891d	0.22220273
177	0x3d0272b9	0.03184769
178	0x3da8e7fe	0.08247374
179	0x3ca660d6	0.020309847
180	0xbe0edfb0	-0.13952518
181	0x3e14cc25	0.14531
182	0x3e197906	0.14987573
183	0x3c2a2abb	0.010386164
184	0xbe010d1e	-0.1260266
185	0x3dcf5433	0.101234816
186	0xbe058a13	-0.13040952
187	0x3aea9869	0.0017898205
188	0x3e3d6a4a	0.18497577
189	0x3e7f9253	0.24958162
190	0xbe077552	-0.13228348
191	0x3d9b8974	0.075945765
192	0x3e6da9de	0.2320933
193	0x3c221a0b	0.009893904
194	0xbe3c4426	-0.18385372
195	0xbcad3c82	-0.021147016
196	0x3d292473	0.041294526
197	0x3eb6259a	0.35575563
198	0xbe42c175	-0.1901911
199	0xbe28f8e4	-0.16501194
200	0xbdadbb9b	-0.084830485
201	0x3bac1c45	0.0052523934
202	0xbdec2ac0	-0.115315914
203	0x3c80f91b	0.015743783
204	0x3e7a9175	0.2446955
205	0x3b6aad62	0.003580891
206	0xbe155f6c	-0.14587182
207	0x3d99ed17	0.075159244
208	0x3cd81a2c	0.026379667
209	0xbdba9315	-0.09110085
210	0xbc1c6124	-0.0095446445
211	0xbd649870	-0.05580944
212	0xbe1ae3ab	-0.15125911
213	0xbda472a0	-0.080296755
214	0xbe46709a	-0.19378892
215	0x3ccc9093	0.024971282
216	0xbdf9bda6	-0.12194376
217	0xbce6413c	-0.028107278
218	0xbc25ee44	-0.010127608
219	0xbe2390bd	-0.15973182
220	0x3db0db39	0.086355634
221	0xbcfcc062	-0.030853454
222	0x3d33338a	0.043750323
223	0x3e19f72d	0.15035696
224	0x3dcffe70	0.10155952
225	0xbe111284	-0.1416722
226	0x3db7cb1e	0.089742884
227	0xbc8f849e	-0.017519291
228	0x3e04045a	0.12892285
229	0x3cc2ac7e	0.023763891
230	0xbd9827c8	-0.07429463
231	0xbb7fd0ab	-0.0039034288
232	0xbe345bfe	-0.17613217
233	0x3e61d22d	0.22052832
234	0xbe3c134f	-0.1836674
235	0xbe3100f9	-0.17285527
236	0xbc2a6e70	-0.010402307
237	0xbca9c186	-0.020722162
238	0xbe30a7d9	-0.17251529
239	0xbe412543	-0.1886187
240	0xbdf04283	-0.11731436
241	0xbdc6d98f	-0.09709465
242	0x3e4d5c7c	0.20054811
243	0xbd9dc524	-0.07703617
244	0xbd82b8b4	-0.063828856
245	0xbd79773d	-0.06090473
246	0x3df8ee4f	0.12154829
247	0x3c763efc	0.015029665
248	0x3e030f27	0.12798749
249	0x3e1945c6	0.14968023
250	0x3e40f93f	0.1884508
251	0xbde4bfd7	-0.11169403
252	0xbe0d2735	-0.13784488
253	0xbd32e470	-0.043674886
254	0x3db8ef17	0.09029978
255	0xbe41c40c	-0.18922442

trans2.bn1.weight f4 [72]
0	0x3f800000	1.0
1	0x3f800000	1.0
2	0x3f800000	1.0
3	0x3f800000	1.0
4	0x3f800000	1.0
5	0x3f800000	1.0
6	0x3f800000	1.0
7	0x3f800000	1.0
8	0x3f800000	1.0
9	0x3f800000	1.0
10	0x3f800000	1.0
11	0x3f800000	1.0
12	0x3f800000	1.0
13	0x3f800000	1.0
14	0x3f800000	1.0
15	0x3f800000	1.0
16	0x3f800000	1.0
17	0x3f800000	1.0
18	0x3f800000	1.0
19	0x3f800000	1.0
20	0x3f800000	1.0
21	0x3f800000	1.0
22	0x3f800000	1.0
23	0x3f800000	1.0
24	0x3f800000	1.0
25	0x3f800000	1.0
26	0x3f800000	1.0
27	0x3f800000	1.0
28	0x3f800000	1.0
29	0x3f800000	1.0
30	0x3f800000	1.0
31	0x3f800000	1.0
32	0x3f800000	1.0
33	0x3f800000	1.0
34	0x3f800000	1.0
35	0x3f800000	1.0
36	0x3f800000	1.0
37	0x3f800000	1.0
38	0x3f800000	1.0
39	0x3f800000	1.0
40	0x3f800000	1.0
41	0x3f800000	1.0
42	0x3f800000	1.0
43	0x3f800000	1.0
44	0x3f800000	1.0
45	0x3f800000	1.0
46	0x3f800000	1.0
47	0x3f800000	1.0
48	0x3f800000	1.0
49	0x3f800000	1.0
50	0x3f800000	1.0
51	0x3f800000	1.0
52	0x3f800000	1.0
53	0x3f800000	1.0
54	0x3f800000	1.0
55	0x3f800000	1.0
56	0x3f800000	1.0
57	0x3f800000	1.0
58	0x3f800000	1.0
59	0x3f800000	1.0
60	0x3f800000	1.0
61	0x3f800000	1.0
62	0x3f800000	1.0
63	0x3f800000	1.0
64	0x3f800000	1.0
65	0x3f800000	1.0
66	0x3f800000	1.0
67	0x3f800000	1.0
68	0x3f800000	1.0
69	0x3f800000	1.0
70	0x3f800000	1.0
71	0x3f800000	1.0
