fedmd_results_1000.0/client76/checkpoint_1000.0.pth (torch, 420839 bytes, 98 tensors)

conv1.0.weight f4 [16, 3, 3, 3]
0.050573133 -0.10177685 0.3437101 -0.36423633 -0.84053266 -0.29943475 -0.16239333 -0.65525764
-0.1681433 0.0329503 -0.28040093 0.039313994 -0.06072972 -0.63271713 -0.20793787 0.36198068
-0.19381118 0.1987207 -0.019180948 -0.07409242 0.21501736 -0.32318932 -0.61317927 -0.1970949
-0.24047187 -0.5348567 -0.13547273 -0.6507131 -0.57938117 -0.5554073 -1.0362227 -0.9977561
-0.8654503 -1.0663347 -1.2586308 -1.0265822 0.87211365 1.0545037 0.8361301 0.9287067
1.1844339 1.0314771 0.85819715 0.8751265 0.777894 -0.24539304 -0.16302253 -0.3409189
0.044037838 0.23010603 0.030918911 0.22587672 0.22319618 0.061035376 -0.2988981 0.32364553
-0.3286191 -0.14291406 0.8564225 -0.53186005 0.34880948 1.046017 -0.7619883 -0.4159688
0.66643095 -0.8028616 -0.22533543 1.1661425 -1.172026 0.16552015 1.2010716 -1.5007819
-0.28825477 0.47780383 -0.24710827 -0.07751253 1.0538076 -0.6469206 0.2305075 1.0043296
-1.1156838 0.17158164 -0.046593107 0.07900854 0.07164288 -0.0620421 0.15460563 0.41524145
0.22124459 0.50518334 -0.6640827 -0.9817615 -0.70452625 -1.0309991 -1.3705038 -1.0862615
-0.8324711 -1.2565101 -0.9550276 0.83928794 0.921787 0.9120088 0.9253276 1.0923222
0.9759622 0.8609581 0.8746613 0.73997927 -0.52067506 0.12270227 0.36225536 1.3811818
-0.032852516 -1.0864905 1.9070297 -0.72037214 -1.5891585 -0.36609602 0.0017136533 0.05562951
1.6462766 -0.045083847 -1.2993356 2.2620807 -0.59540296 -1.5876316 -0.38285467 -0.03715413
0.34753826 1.5220333 -0.17134136 -1.1019992 2.0956674 -0.7917113 -1.5752091 0.04908454
0.08392544 0.025642123 0.40278497 0.63321644 0.42893085 0.1161438 0.37030512 0.26124823
-0.10578844 -0.091534905 -0.11298901 0.2861932 0.49488345 0.30967033 -0.026377166 0.18638566
0.09662415 0.026686337 -0.01645875 -0.0149939135 0.38737345 0.5406315 0.41380322 -0.13477403
0.017935153 -0.0042650984 0.5669946 0.5741053 0.21762118 0.8956491 1.1440198 0.7846264
0.5557278 1.0013644 0.67855877 0.079508804 -0.07149169 0.024004195 -0.116134405 -0.25135398
-0.088718735 -0.35258195 -0.3292205 -0.10339227 -0.47262058 -0.56743515 -0.29228985 -0.7064672
-0.95137584 -0.5308535 -0.74006855 -0.9105692 -0.44001704 -1.1875334 0.8141186 1.1589059
1.0120969 1.4033384 0.53275573 0.011579557 -1.7447897 -2.5610223 -0.9654171 0.87944835
1.3495665 1.0889732 1.4361587 0.77895623 -0.105384104 -1.8534867 -2.3933952 -1.506503
0.007887796 0.54933137 0.98140156 1.32187 0.82800186 0.42819694 -1.0255983 -1.4128686
0.58834296 0.7932071 0.48940095 0.85012245 1.266338 0.8416159 0.5118138 0.95073706
0.44652322 -0.9957375 -1.1822407 -0.9950817 -1.3671979 -1.4812902 -1.2583585 -1.2636458
-1.2879814 -1.0645381 0.4270395 0.50002766 0.44609943 0.42390767 0.661975 0.58789116
0.21933834 0.46211502 0.35090882 -0.5747024 -1.3862901 -0.76870936 -0.6414931 -0.62041694
-0.529371 1.177402 2.045639 1.1637242 -0.51630807 -1.3733364 -0.66617227 -0.5651122
00000000: c625 4f3d 6270 d0bd c5fa af3e 2f7d babe
00000010: 262d 57bf 834f 99be 704a 26be f7be 27bf
00000020: c22d 2cbe e5f6 063d b690 8fbe b607 213d
00000030: babf 78bd c0f9 21bf aaed 54be 8855 b93e
00000040: 7076 46be 707d 4b3e 5d21 9dbc c4bd 97bd
00000050: 832d 5c3e 1279 a5be 51f9 1cbf 3fd3 49be
00000060: 423e 76be 5eec 08bf 5db9 0abe 2295 26bf
00000070: 5352 14bf 2c2f 0ebf f2a2 84bf f26c 7fbf
00000080: 278e 5dbf a87d 88bf d01a a1bf 0c67 83bf
00000090: d742 5f3f faf9 863f 9f0c 563f b9bf 6d3f
000000a0: 889b 973f 7107 843f cfb2 5b3f 4a08 603f
000000b0: 1024 473f 5048 7bbe 61ef 26be ec8c aebe
000000c0: 0561 343d eaa0 6b3e a849 fd3c 3a4c 673e
000000d0: 8a8d 643e 3b00 7a3d 2c09 99be deb4 a53e
000000e0: c340 a8be 1058 12be 813e 5b3f fb27 08bf
000000f0: 2897 b23e e3e3 853f aa11 43bf ddf9 d4be
00000100: 389b 2a3f 5688 4dbf 55be 66be 2844 953f
00000110: f304 96bf 1d7e 293e b7bc 993f 9f19 c0bf
00000120: 2196 93be b4a2 f43e f309 7dbe e4be 9ebd
00000130: 2be3 863f 979c 25bf 280a 6c3e df8d 803f
00000140: bace 8ebf 19b3 2f3e 6ad8 3ebd 3bcf a13d
00000150: 81b9 923d db1f 7ebd f050 1e3e 879a d43e
00000160: f18d 623e b253 013f 5301 2abf b954 7bbf
00000170: d55b 34bf c7f7 83bf ab6c afbf 9e0a 8bbf
00000180: d31c 55bf 53d5 a0bf b07c 74bf 93db 563f
00000190: 3cfa 6b3f 6979 693f 45e2 6c3f 37d1 8b3f
000001a0: a9d8 793f c067 5c3f cee9 5f3f 486f 3d3f
000001b0: f64a 05bf 544b fb3d 8979 b93e 91ca b03f
000001c0: 5c90 06bd 1f12 8bbf 8d19 f43f 4f6a 38bf
000001d0: 8c69 cbbf f070 bbbe aa9c e03a c5db 633d
000001e0: 31b9 d23f d7a9 38bd a150 a6bf eec5 1040
000001f0: 546c 18bf 8337 cbbf 8705 c4be ee2e 18bd
00000200: 89f0 b13e fdd1 c23f 1c74 2fbe 4f0e 8dbf
00000210: 6a1f 0640 97ad 4abf 74a0 c9bf df0c 493d
00000220: 1ae1 ab3d 6e0f d23c d539 ce3e 791a 223f
00000230: d39c db3e cddc ed3d a298 bd3e 54c2 853e
00000240: 9ca7 d8bd a776 bbbd c866 e7bd ea87 923e
00000250: 5d61 fd3e 1c8d 9e3e ed14 d8bc e2db 3e3e
00000260: e2e2 c53d 4e9d da3c 80d4 86bc 08a9 75bc
00000270: d055 c63e d366 0a3f 04de d33e 3402 0abe
00000280: beec 923c 3dc2 8bbb 8f26 113f 91f8 123f
00000290: 16d8 5e3e 4249 653f 3e6f 923f 47dd 483f
000002a0: 2d44 0e3f b52c 803f 07b6 2d3f 83d5 a23d
000002b0: 3c6a 92bd 72a4 c43c e0d7 edbd 78b1 80be
000002c0: 2bb2 b5bd 9f85 b4be 978f a8be 54bf d3bd
000002d0: 53fb f1be 6e43 11bf 04a7 95be 09db 34bf
000002e0: 5e8d 73bf 04e6 07bf 2275 3dbf 101b 69bf
000002f0: ea49 e1be 1801 98bf 146a 503f 0757 943f
00000300: 648c 813f 98a0 b33f ae62 083f 2fb8 3d3c
00000310: 4555 dfbf cae7 23c0 9325 77bf 8723 613f
00000320: 98be ac3f 7963 8b3f 0cd4 b73f ad69 473f
00000330: 9fd3 d7bd 0d3f edbf 632d 19c0 17d5 c0bf
00000340: d03b 013c fba0 0c3f 223d 7b3f 0933 a93f
00000350: eef7 533f a13c db3e ce46 83bf e1d8 b4bf
00000360: a59d 163f 9f0f 4b3f c392 fa3e a0a1 593f
00000370: 5d17 a23f 2474 573f 3b06 033f 8163 733f
00000380: b19e e43e a7e8 7ebf aa53 97bf adbd 7ebf
00000390: 5700 afbf eb9a bdbf e411 a1bf 25bf a1bf
000003a0: 93dc a4bf c942 88bf eca4 da3e d001 003f
000003b0: 2567 e43e 6d0a d93e 3277 293f 0980 163f
000003c0: 3b9a 603e 579a ec3e 52aa b33e b21f 13bf
000003d0: f471 b1bf 23ca 44bf e438 24bf a5d3 1ebf
000003e0: dc84 07bf 1cb5 963f c0eb 0240 eaf4 943f
000003f0: c42c 04bf 7dc9 afbf 448a 2abf 31ab 10bf

conv1.1.weight f4 [16]
1.670365 1.5717427 1.6544747 1.656642 2.218141 1.4039599 1.5576057 2.2495492
1.5046673 1.6353337 1.6607715 1.7264926 1.4868274 1.576045 1.5300443 1.6512034
00000000: 85ce d53f dd2e c93f d4c5 d33f d80c d43f
00000010: 06f6 0d40 f5b4 b33f a05f c73f 9df8 0f40
00000020: f098 c03f 9d52 d13f 2994 d43f b6fd dc3f
00000030: 5c50 be3f d8bb c93f 7ed8 c33f a25a d33f

conv1.1.bias f4 [16]
-0.10403903 0.70015365 1.151919 0.36266458 -0.19368131 0.4602746 0.47073627 -0.15032202
0.53394324 -0.13324687 0.43827742 -0.08798149 0.25165418 0.87408084 0.073577374 0.17024532
00000000: 6a12 d5bd 453d 333f 1572 933f 2caf b93e
00000010: 6554 46be 1da9 eb3e 5804 f13e 04ee 19be
00000020: 81b0 083f de71 08be e665 e03e a42f b4bd
00000030: d1d8 803e c3c3 5f3f bcaf 963d ca54 2e3e

stage2.0.branch1.0.weight f4 [16, 1, 3, 3]
-0.099585414 -0.16254252 0.4919984 0.34930986 -0.4538562 0.3510375 0.13529845 -0.7409045
-0.16169852 0.25997967 -0.2878748 -0.7221416 -0.48466697 0.1658901 0.82106745 -0.64389455
0.9055976 1.8266186 -0.020232702 -0.046265215 -0.005613033 0.1697182 -1.3012717 0.91253793
0.90681326 -2.720461 1.9217511 0.36535448 -0.42409855 -0.37321365 -0.40680394 -0.081355125
0.5474995 -0.38440314 0.6842982 1.4755241 -0.0064642727 0.11347445 0.08168972 0.5524989
0.70716655 0.5401921 0.1651413 0.6002017 1.1237941 -0.06483541 -0.25939637 -0.65059024
-0.0519039 0.36082575 0.12611642 -0.28501388 0.5663852 1.0113506 -0.58172214 0.4527597
0.7920242 0.14448553 -0.5268264 -1.0282658 0.9807672 -0.50385505 -1.2268988 -0.049431708
0.0745659 0.40137818 0.4199531 1.1374625 0.8194123 0.4215589 1.1994689 0.7414163
-0.3185962 0.32177916 0.7185006 0.536598 0.025072098 -0.53975725 0.8795304 -0.81949055
-2.0071595 0.29959992 -0.14613074 -0.6026161 0.33094117 -0.91291565 -1.2604413 0.03621575
-1.3358403 -1.1059096 0.03554126 1.1857363 -1.3970051 -1.8064448 0.6100201 1.3311107
1.4756682 -1.8488522 0.277391 -0.07877024 0.073495105 0.11376918 -0.53509825 -0.6929523
-0.2715313 -0.48775327 -0.68268067 -0.7650859 0.051037427 0.011440019 0.06536759 0.22141394
0.21359736 0.23299494 0.037131906 0.059506956 0.09024708 0.8273062 0.049908984 -0.53397053
1.1006742 0.08561492 -0.83074284 0.45759162 -0.28684673 -0.83606213 -0.33169594 0.68565005
0.92676336 0.45653623 -0.032636583 -0.4819018 0.61135375 -1.0302508 -1.5418298 -0.05277736
0.1786155 0.20577946 0.15644056 -0.52334523 -0.836785 0.608866 -0.440744 -0.8514921
00000000: 70f3 cbbd 8c71 26be 37e7 fb3e bed8 b23e
00000010: d75f e8be 30bb b33e ad8b 0a3e ebab 3dbf
00000020: 4c94 25be 0e1c 853e 5364 93be 46de 38bf
00000030: 4526 f8be 18df 293e 7a31 523f 46d6 24bf
00000040: 3fd5 673f a3ce e93f 0dbf a5bc 9880 3dbd
00000050: 89ed b7bb 9cca 2d3e 1290 a6bf 169c 693f
00000060: ea24 683f 081c 2ec0 f1fb f53f be0f bb3e
00000070: 7223 d9be dc15 bfbe 9b48 d0be 849d a6bd
00000080: ed28 0c3f 7dd0 c4be 2b2e 2f3f f9dd bc3f
00000090: 40d2 d3bb 4b65 e83d f14c a73d 9170 0d3f
000000a0: de08 353f 084a 0a3f cd1a 293e d2a6 193f
000000b0: 7cd8 8f3f 6dc8 84bd 9acf 84be 158d 26bf
000000c0: 2f99 54bd 27be b83e aa24 013e 57ed 91be
000000d0: 9ffe 103f f073 813f beeb 14bf 1fd0 e73e
000000e0: 19c2 4a3f 04f4 133e 18de 06bf 379e 83bf
000000f0: 8f13 7b3f a5fc 00bf 050b 9dbf e778 4abd
00000100: 02b6 983d 7181 cd3e 1804 d73e 5f98 913f
00000110: 01c5 513f 91d6 d73e 3288 993f 75cd 3d3f
00000120: 0b1f a3be 3dc0 a43e a8ef 373f 7d5e 093f
00000130: 0064 cd3c 882d 0abf e728 613f 22ca 51bf
00000140: 4d75 00c0 2965 993e 4ca3 15be 0c45 1abf
00000150: 1f71 a93e d7b4 69bf 2456 a1bf f756 143d
00000160: d1fc aabf 728e 8dbf b693 113d 35c6 973f
00000170: 10d1 b2bf 9539 e7bf 472a 1c3f d661 aa3f
00000180: b2e2 bc3f 30a7 ecbf 3106 8e3e 4b52 a1bd
00000190: 9a84 963d d1ff e83d 33fc 08bf 5265 31bf
000001a0: 2706 8bbe ccba f9be 29c4 2ebf abdc 43bf
000001b0: 9f0c 513d eb6e 3b3c 71df 853d 56ba 623e
000001c0: 44b9 5a3e 3a96 6e3e a017 183d 91bd 733d
000001d0: 76d3 b83d 57ca 533f 5d6d 4c3d 4bb2 08bf
000001e0: e4e2 8c3f e056 af3d 90ab 54bf 7349 ea3e
000001f0: 93dd 92be 2b08 56bf 0dd4 a9be c386 2f3f
00000200: 5d40 6d3f 1ebf e93e f0ad 05bd d5bb f6be
00000210: ae81 1c3f 42df 83bf ae5a c5bf 132d 58bd
00000220: fbe6 363e dab7 523e f431 203e f4f9 05bf
00000230: 8b37 56bf a4de 1b3f 33a9 e1be 63fb 59bf

stage2.0.branch1.1.weight f4 [16]
1.2867877 1.5845428 1.8569251 1.6394696 1.4741063 1.3433229 1.7652907 1.3698655
1.7056867 1.2738026 2.2611616 1.49937 0.37887362 0.99433744 1.5736156 1.5157722
00000000: 76b5 a43f 4cd2 ca3f b9af ed3f 24da d13f
00000010: 84af bc3f 01f2 ab3f 0cf5 e13f c157 af3f
00000020: f153 da3f f70b a33f dfb6 1040 5beb bf3f
00000030: b9fb c13e e68c 7e3f 3c6c c93f d304 c23f

stage2.0.branch1.1.bias f4 [16]
0.116088025 -0.3482813 0.9412039 0.101467654 -0.4032278 -0.08817374 1.4165044 -0.41632935
-0.11183544 0.69588596 -1.0222211 0.2728186 -0.18225977 -0.36683172 -0.3615626 0.14061067
00000000: 8fbf ed3d ed51 b2be bdf2 703f 46ce cf3d
00000010: e073 cebe 6f94 b4bd 0450 b53f 1f29 d5be
00000020: fb09 e5bd 9525 323f 24d8 82bf e1ae 8b3e
00000030: 4ea2 3abe 5ed1 bbbe bc1e b9be 3efc 0f3e

stage2.0.branch1.2.weight f4 [16, 16, 1, 1]
0.19150357 0.7412386 0.113549 1.0307883 -0.19612904 0.50847375 0.67275584 0.43313065
0.45444757 -0.80285496 0.13385518 -0.040550843 -0.20352188 -0.48283252 -1.4941291 1.2410855
-0.76720524 -0.22507897 0.05726858 0.1014899 -0.07071948 -0.17929292 0.032736316 2.1824925
-0.11630369 -0.78952765 -0.18201932 0.021016149 -0.024159903 0.20082603 0.34760645 -0.075386204
0.023756338 0.5865724 0.100193195 -1.1739202 0.03553179 -0.33254814 -0.7261358 0.21181856
1.9276496 0.11963444 0.04710017 0.21929239 0.16472372 0.031650245 0.31788412 -1.0470132
-0.17943063 -1.1375227 -0.0748395 -0.80662477 0.020267317 -1.0566787 -1.0297112 0.029569866
0.32541975 0.54679036 0.018543815 0.18470022 0.030620495 0.23146953 0.055349313 0.9152087
0.43312773 0.19727375 -0.16833107 0.3882079 0.72256345 0.31972697 0.360281 -0.07103614
-0.082241036 2.3634942 0.3052802 -0.30738813 -0.13977 0.31547236 -0.09250666 -0.100305006
-0.31332383 -0.21346124 1.9229066 -0.27023086 -0.0064631505 -0.17444646 0.24857095 -0.2175569
0.21745345 0.023998115 -0.19550946 -0.27260864 0.13103662 -1.2927889 -0.13920087 0.15832758
0.07298294 -0.082167335 0.05438023 0.14218739 0.07811168 0.32317582 -0.066626236 -0.16833626
0.084965296 0.30304083 2.6567948 0.13502344 0.10624157 -0.0072287736 -0.042399283 0.058083635
0.26796824 -1.5997188 -0.036510233 0.24292655 -0.052496944 0.552223 -1.4629799 0.14101088
-0.77620333 -0.22242655 0.059050534 -0.08417132 0.091221124 -0.15799192 0.6985544 -0.29599473
-0.54852074 0.07596297 -0.26790705 0.035973914 0.23440333 -0.9523346 -0.16478315 0.15474185
0.70538163 0.88626313 -0.1318951 0.091614045 -0.057943735 0.33281165 0.034533244 -0.12461401
-0.13083161 -0.045727476 -0.6541255 -0.09585797 -0.4636883 -0.2196796 0.08440197 0.024551459
0.09545405 -0.19778281 -0.0030512582 2.5512078 -0.25407168 -0.2741748 -0.44104025 -0.006923187
-0.31340498 -0.2987482 -0.2334265 -0.016710106 0.8644174 -0.3628925 0.1781767 -0.9331963
0.35589716 -0.23557171 -0.26177868 0.08655632 0.03128477 -0.8827175 0.25324014 0.4541212
-0.3660547 -0.6705587 0.13380961 0.06987955 -0.017922502 -0.682858 -0.9649842 -0.33544382
-0.50784886 0.24368307 -0.09266249 0.08083998 0.076780155 0.1426829 0.5293213 -0.4333916
-0.27858913 0.61876065 0.545688 0.42734256 0.21416155 0.37137723 0.49189538 -0.36612624
0.26909187 0.3489757 -0.01558431 -0.5436498 0.16792537 0.08805302 -0.86768895 0.09557277
0.5272942 -0.0036940887 -2.169275 0.0068309675 -0.3103729 0.3792723 0.0056072916 0.040184118
0.027274631 0.1051384 0.019407151 -0.10775869 0.15304665 -0.23025559 -0.026078604 -0.14703241
0.47931907 0.003171129 -0.45738244 0.35394788 -2.676831 0.14987834 -0.05291117 0.21202706
-0.2198823 0.01767331 0.08219463 0.037604082 -0.025237372 0.1606735 0.25329664 -0.1635335
0.38235095 0.89031065 -0.015352414 -0.62770754 -0.14313336 0.11314893 0.912888 -0.26808196
0.43304357 -0.33729872 -0.012368926 0.1191281 -0.039330892 -0.21301197 -0.41704458 -0.6897843
00000000: 8319 443e d0c1 3d3f 618c e83d dff0 833f
00000010: 0dd6 48be 562b 023f ba39 2c3f 4dc3 dd3e
00000020: 5aad e83e e787 4dbf 5511 093e a418 26bd
00000030: 0a68 50be d335 f7be 9f3f bfbf e4db 9e3f
00000040: 9067 44bf 1a7b 66be 7592 6a3d f0d9 cf3d
00000050: 60d5 90bd 9098 37be 8416 063d f5ad 0b40
00000060: a130 eebd 7c1e 4abf 4663 3abe 0f2a ac3c
00000070: fdea c5bc 57a5 4d3e 79f9 b13e 1564 9abd
00000080: a79c c23c 9c29 163f 1732 cd3d 0443 96bf
00000090: c889 113d c043 aabe 09e4 39bf f7e6 583e
000000a0: 39bd f63f e702 f53d 1cec 403d 2f8e 603e
000000b0: 56ad 283e b0a3 013d b5c1 a23e 8704 86bf
000000c0: aabc 37be 589a 91bf 7445 99bd f67e 4ebf
000000d0: a507 a63c 3f41 87bf 94cd 83bf 813c f23c
000000e0: 6b9d a63e 74fa 0b3f 33e9 973c 0e22 3d3e
000000f0: d5d7 fa3c 5906 6d3e f6b5 623d 1e4b 6a3f
00000100: ebc2 dd3e 2102 4a3e fb5e 2cbe 30c3 c63e
00000110: ebf9 383f 41b3 a33e c076 b83e 657b 91bd
00000120: fd6d a8bd 7d43 1740 b04d 9c3e fa61 9dbe
00000130: de1f 0fbe 9885 a13e 2274 bdbd b66c cdbd
00000140: fb6b a0be 9595 5abe ce21 f63f b35b 8abe
00000150: d6c8 d3bb 18a2 32be 6289 7e3e 3cc7 5ebe
00000160: 1eac 5e3e b297 c43c a233 48be 5c93 8bbe
00000170: 772e 063e 1b7a a5bf ac8a 0ebe a020 223e
00000180: 1478 953d 5947 a8bd cebd 5e3d 9299 113e
00000190: 04f9 9f3d 4d77 a53e 5673 88bd 5760 2cbe
000001a0: 4902 ae3d 2b28 9b3e ed08 2a40 9643 0a3e
000001b0: 2e95 d93d 59df ecbb dfaa 2dbd 1be9 6d3d
000001c0: 2233 893e 96c3 ccbf c18b 15bd bdc1 783e
000001d0: 0907 57bd 7d5e 0d3f ed42 bbbf 2865 103e
000001e0: 43b5 46bf c9c3 63be f9de 713d 0362 acbd
000001f0: 24d2 ba3d a2c8 21be 76d4 323f 9f8c 97be
00000200: db6b 0cbf 7992 9b3d 1d2b 89be 6259 133d
00000210: 6d07 703e 33cc 73bf eabc 28be a674 1e3e
00000220: e493 343f 24e2 623f 820f 07be 25a0 bb3d
00000230: 6956 6dbd 4a66 aa3e bb72 0d3d a135 ffbd
00000240: b9f8 05be bc4c 3bbd c574 27bf 2f51 c4bd
00000250: 8e68 edbe b0f3 60be f1da ac3d 2420 c93c
00000260: 6a7d c33d 9487 4abe 9ef7 47bb fd46 2340
00000270: af15 82be a460 8cbe 07d0 e1be e7db e2bb
00000280: 9e76 a0be 86f5 98be 5b07 6fbe a2e3 88bc
00000290: 754a 5d3f 0ccd b9be f473 363e f4e5 6ebf
000002a0: 2738 b63e b639 71be db07 86be 7144 b13d
000002b0: 7624 003d c6f9 61bf b1a8 813e 9382 e83e
000002c0: 866b bbbe bca9 2bbf 6305 093e 021d 8f3d
000002d0: 36d2 92bc c8cf 2ebf 3409 77bf 4bbf abbe
000002e0: 6202 02bf 0e88 793e d5c5 bdbd 6e8f a53d
000002f0: ea3e 9d3d 771b 123e 9a81 073f 81e5 ddbe
00000300: 3ca3 8ebe 1967 1e3f 35b2 0b3f a5cc da3e
00000310: 2a4d 5b3e 2825 be3e b6d9 fb3e e674 bbbe
00000320: 69c6 893e f1ac b23e 5555 7fbc a22c 0bbf
00000330: a1f4 2b3e 2455 b43d dd20 5ebf a8bb c33d
00000340: c1fc 063f 8618 72bb 67d5 0ac0 4fd6 df3b
00000350: 32e9 9ebe fb2f c23e 5fbd b73b 1a98 243d
00000360: 0c6f df3c cd52 d73d bffb 9e3c 97b0 dcbd
00000370: 43b8 1c3e 1fc8 6bbe cca2 d5bc aa8f 16be
00000380: 4f69 f53e b7d2 4f3b 082e eabe a838 b53e
00000390: 3351 2bc0 b579 193e 62b9 58bd 9f1d 593e
000003a0: d328 61be 9ec7 903c a855 a83d bd06 1a3d
000003b0: 9bbe cebc 9887 243e 19b0 813e 5375 27be
000003c0: 81c3 c33e 66eb 633f b188 7bbc 71b1 20bf
000003d0: 8d91 12be a0ba e73d 07b3 693f 0a42 89be
000003e0: e3b7 dd3e 6bb2 acbe 09a7 4abc 6ff9 f33d
000003f0: 6e19 21bd cf1f 5abe de86 d5be b495 30bf

stage2.0.branch1.3.weight f4 [16]
1.715486 1.4929678 2.0398455 1.9681914 1.7244234 1.9025865 1.9175469 1.8002906
0.9882939 1.30244 0.991224 1.0549145 0.9041609 1.6082788 1.3946027 1.0108542
00000000: 0c95 db3f 9219 bf3f d48c 0240 b2ed fb3f
00000010: e8b9 dc3f f487 f33f 2d72 f53f ec6f e63f
00000020: d400 7d3f 5bb6 a63f dbc0 7d3f 7007 873f
00000030: 1777 673f 14dc cd3f 5782 b23f ac63 813f

stage2.0.branch1.3.bias f4 [16]
-0.043980114 0.945839 0.120261595 0.53724015 0.31512183 -0.35792157 -0.07813215 0.095461786
0.4640915 0.28864545 0.6348737 0.28462023 0.3830695 0.037786096 0.14253668 0.4530013
00000000: 7e24 34bd 8122 723f b64b f63d 9288 093f
00000010: a657 a13e 7f41 b7be c003 a0bd 7881 c33d
00000020: 679d ed3e 56c9 933e 1587 223f beb9 913e
00000030: af21 c43e 98c5 1a3d 23f5 113e c9ef e73e

stage2.0.branch2.0.weight f4 [16, 16, 1, 1]
0.054915197 -0.19320226 0.119128264 0.3317303 -0.07496938 1.5285722 0.42827836 -0.54134053
-0.40253222 0.056392148 -0.009368837 -0.013939493 0.8633576 0.58232766 0.7764951 -0.32061636
0.5215045 0.18092293 -1.0483345 -0.02013951 -0.8363996 -0.019890046 0.40147182 0.8521929
0.38110355 0.42855558 0.48154998 -0.43242565 0.44582295 0.47335202 0.45657277 -0.035066
1.4490378 -0.29330954 0.25328314 -0.03738181 0.111731745 -0.0718371 -0.65308726 0.4922447
0.081672296 0.63877016 -0.22932011 0.03985104 0.13939676 -0.12880233 -0.11842696 0.29571983
1.0528861 0.08545077 0.035498578 0.32377762 0.3026187 -0.034324676 -0.6043682 -0.4978647
-0.50653964 -0.40793145 0.1908499 0.44579172 -0.16914976 -0.09762297 0.6345726 -0.30673912
1.4025923 -0.42720732 -0.860248 -0.19962147 0.91535735 -0.022958715 0.51395124 -0.028813062
0.122449316 0.1654828 -0.10566244 0.9159052 0.03735661 -0.42421547 -0.25722817 0.59277344
-0.15623671 0.30473083 0.47431546 -0.041914713 0.9265471 0.5832319 0.18070948 0.034549147
0.59600425 0.064609066 -0.29027778 0.8868546 0.74104184 0.28311503 -0.11874919 0.21469952
0.12791885 0.3870758 0.24906045 -0.41504067 0.14807843 1.0242949 1.1434264 0.082762524
0.54140395 0.17969035 0.22350125 0.06835174 0.93187577 -0.037108876 -0.45268226 0.9481505
0.8087943 -0.69537294 0.259396 0.059705883 0.3532793 -1.0338848 0.48988917 0.6312298
0.0015207753 0.030343438 0.1582042 0.015296105 -0.7702568 -0.76013654 0.1970591 -0.90347487
-0.09022007 -0.14051436 -0.65142184 -0.25471357 -2.00705 -0.215717 0.41775164 1.4057457
-0.127088 -0.2055574 -0.38156843 -1.5442381 0.42448178 -0.41741496 -0.058805432 0.3556227
0.98526835 0.11664886 0.18065643 -0.31716526 -0.19699484 -0.55258125 0.09477736 0.06398577
-0.6245335 0.63366866 0.38952935 -0.41055435 -0.07586355 0.058593467 0.20729493 0.9743065
0.24420018 -0.16697553 -0.088979535 0.13153398 -0.18231739 0.5013292 0.07391233 -0.37663847
0.07504199 -0.23051393 0.37343648 -0.16047835 0.27602136 -0.137616 -0.6765835 -0.40058994
0.07476937 -0.109719165 -0.14755136 -1.4370649 -0.06560425 0.3716916 0.8753152 -0.010307242
-0.65379375 0.19469364 -0.22612931 0.022233626 0.36645535 0.21406816 -1.1847717 1.0688964
-0.08926854 1.3482808 -0.065264806 0.2607714 -0.11318251 0.12900119 -0.2687879 -0.14094612
-0.85692877 -0.14940156 0.1003523 -0.095026985 -0.32324862 -0.2801662 1.0438017 0.28014103
0.41871145 0.45369142 0.72880447 0.0038263455 -0.08707003 0.13399102 0.5165487 0.10921929
0.40821472 0.52251816 0.16823636 -0.42519227 0.39324182 -1.7829055 -0.16998933 0.16927941
0.1351113 -0.48967755 -0.13977517 1.7702634 0.03661603 -0.22384933 1.0567741 -0.1441456
1.2375448 -0.0060858517 -0.120536305 -0.14871912 -0.69165075 0.08688871 0.46752506 -0.6868065
-0.10840463 0.27580726 -0.05132268 -0.7040243 0.61150557 -0.44677788 0.6866983 -0.4887691
-0.96174026 -0.44342205 -0.505044 0.6892805 -0.1624589 -0.08610416 -0.29526916 -0.31002447
00000000: c2ee 603d d0d6 45be 85f9 f33d 8ed8 a93e
00000010: 8c89 99bd 41a8 c33f 4d47 db3e 4b95 0abf
00000020: b418 cebe 74fb 663d c07f 19bc 7962 64bc
00000030: 0105 5d3f 6d13 153f 62c8 463f d427 a4be
00000040: 5281 053f dc43 393e d32f 86bf 9dfb a4bc
00000050: 491e 56bf 73f0 a2bc b78d cd3e 5029 5a3f
00000060: 0120 c33e a36b db3e b88d f63e e566 ddbe
00000070: e842 e43e 325b f23e e8c3 e93e 5ea1 0fbd
00000080: 127a b93f ab2c 96be 54ae 813e ab1d 19bd
00000090: 9dd3 e43d 541f 93bd ba30 27bf 7f07 fc3e
000000a0: ce43 a73d 7186 233f e4d2 6abe d83a 233d
000000b0: 06be 0e3e c2e4 03be d689 f2bd 9768 973e
000000c0: f9c4 863f d000 af3d f566 113d 2ec6 a53e
000000d0: d7f0 9a3e 0898 0cbd e0b7 1abf 1fe8 febe
000000e0: 95ac 01bf 64dc d0be 286e 433e d03e e43e
000000f0: 9835 2dbe 8dee c7bd 5a73 223f e90c 9dbe
00000100: 2588 b33f ebba dabe 3739 5cbf 9269 4cbe
00000110: dc54 6a3f ea13 bcbc 4f92 033f 5f09 ecbc
00000120: b5c6 fa3d 5374 293e 8d65 d8bd c378 6a3f
00000130: 3f03 193d c532 d9be 69b3 83be 00c0 173f
00000140: 84fc 1fbe ae05 9c3e 7ad9 f23e c3ae 2bbd
00000150: 3132 6d3f b04e 153f e80b 393e 6883 0d3d
00000160: bc93 183f c251 843d 4a9f 94be e708 633f
00000170: ebb4 3d3f 74f4 903e c632 f3bd 31da 5b3e
00000180: 29fd 023e cd2e c63e b409 7f3e 3680 d4be
00000190: dfa1 173e 181c 833f cc5b 923f 667f a93d
000001a0: 7399 0a3f bf00 383e 83dd 643e fffb 8b3d
000001b0: 698f 6e3f 7aff 17bd f8c5 e7be feb9 723f
000001c0: 250d 4f3f f603 32bf 8dcf 843e 288e 743d
000001d0: 06e1 b43e 5656 84bf c1d2 fa3e 4798 213f
000001e0: c054 c73a cd92 f83c 4800 223e 849c 7a3c
000001f0: 8d2f 45bf 4f98 42bf dcc9 493e 214a 67bf
00000200: 4dc5 b8bd ffe2 0fbe 95c3 26bf d169 82be
00000210: 8273 00c0 ebe4 5cbe 8be3 d53e 7aef b33f
00000220: 5b23 02be a47d 52be f05c c3be 98a9 c5bf
00000230: ad55 d93e 6ab7 d5be f7dd 70bd 2e14 b63e
00000240: 8c3a 7c3f 99e5 ee3d 00fe 383e 7c63 a2be
00000250: 04b9 49be f775 0dbf a21a c23d f90a 833d
00000260: 6de1 1fbf 1c38 223f 6470 c73e 2e34 d2be
00000270: 595e 9bbd b4ff 6f3d 1f45 543e 276c 793f
00000280: 9d0f 7a3e a2fb 2abe e73a b6bd d8b0 063e
00000290: 69b1 3abe 1c57 003f 595f 973d c2d6 c0be
000002a0: 9daf 993d d80b 6cbe 1133 bf3e 7054 24be
000002b0: ac52 8d3e 35eb 0cbe 9434 2dbf 201a cdbe
000002c0: af20 993d 71b4 e0bd b417 17be bef1 b7bf
000002d0: 855b 86bd 5d4e be3e a814 603f b5df 28bc
000002e0: 075f 27bf c55d 473e 718e 67be 4b23 b63c
000002f0: 09a0 bb3e af34 5b3e 99a6 97bf 99d1 883f
00000300: 6dd2 b6bd 7794 ac3f 8ea9 85bd d483 853e
00000310: 3bcc e7bd e318 043e 919e 89be 2e54 10be
00000320: af5f 5bbf b9fc 18be 8285 cd3d 829d c2bd
00000330: d880 a5be f271 8fbe 4b9b 853f a56e 8f3e
00000340: 5961 d63e 3e4a e83e ee92 3a3f 6dc3 7a3b
00000350: c651 b2bd f134 093e 893c 043f 5dae df3d
00000360: 8501 d13e c0c3 053f 2746 2c3e cdb2 d9be
00000370: fe56 c93e 3f36 e4bf af11 2ebe 9557 2d3e
00000380: 9e5a 0a3e 04b7 fabe 3921 0fbe fe97 e23f
00000390: b1fa 153d c238 65be 6044 873f e79a 13be
000003a0: de67 9e3f d36b c7bb bddb f6bd d349 18be
000003b0: 0610 31bf b5f2 b13d 725f ef3e 8dd2 2fbf
000003c0: 3f03 debd 9c36 8d3e bb37 52bd f03a 34bf
000003d0: a18b 1c3f 12c0 e4be 76cb 2f3f f23f fabe
000003e0: 9c34 76bf 3708 e3be 904a 01bf b074 303f
000003f0: a05b 26be 6157 b0bd 852d 97be 87bb 9ebe

stage2.0.branch2.1.weight f4 [16]
1.211817 1.0474453 1.163116 1.0470213 1.764747 1.188913 0.8325402 1.0702173
1.6839702 1.2181113 0.50383 1.1676433 1.3905925 1.1010903 1.4092904 1.173081
00000000: d21c 9b3f b012 863f fce0 943f cb04 863f
00000010: 3be3 e13f 4d2e 983f 5b21 553f e1fc 883f
00000020: 568c d73f 12eb 9b3f 01fb 003f 5675 953f
00000030: effe b13f 87f0 8c3f a163 b43f 8527 963f

stage2.0.branch2.1.bias f4 [16]
-0.9732984 0.59173346 0.44289184 0.3576654 0.120351195 -0.21691848 -0.0061802575 1.1809909
0.39985296 0.31354648 0.9907495 0.82364774 -0.61380416 0.29178888 -1.2081139 1.1264049
00000000: 152a 79bf d87b 173f b8c2 e23e eb1f b73e
00000010: b07a f63d e11f 5ebe c283 cabb b62a 973f
00000020: 87b9 cc3e 2a89 a03e c2a1 7d3f 94da 523f
00000030: 4522 1dbf 5a65 953e 7aa3 9abf 092e 903f

stage2.0.branch2.3.weight f4 [16, 1, 3, 3]
-0.104198374 0.38279736 0.43079096 0.14395069 -0.33855143 -0.5535337 0.12302466 -0.9258677
-0.793964 0.3534773 0.594129 0.31686616 -0.47676885 -0.23363562 0.14830041 -0.61868614
-0.9694952 -0.47819167 -0.004793347 -0.3141308 -0.50300944 -0.18336864 0.3758995 0.4372181
-0.37981576 0.8881 0.903784 -0.22548988 -0.1549409 -0.21317525 -0.07136216 0.30982608
0.608671 -0.06396735 0.52779603 0.8486773 -0.00394013 0.17706382 0.3027932 0.13548692
-0.48208573 -0.84412616 -0.18425332 -0.75642604 -1.3873936 -0.13137574 0.02557458 -0.58445114
-0.13956302 -0.68695647 -0.98841214 0.1642199 0.035625566 -0.107987754 -0.26631683 0.19006042
0.7416034 0.36063546 -0.067481585 -0.47329128 0.79868776 -0.26452556 -1.5760565 -0.06430053
0.089345835 -0.3997358 -0.23141435 -0.5625293 -0.44632676 -0.45631865 -0.8460289 -0.41153234
-0.17450248 0.25487494 0.44063812 -0.055178043 0.6789862 1.0708282 0.11611986 0.57696545
0.81742114 -0.17383698 0.108078614 -0.08115427 -0.17678747 0.6083241 0.6643476 -0.00040956162
0.70990646 1.1033818 0.76922596 0.18900168 0.2609355 0.72681975 -0.26221138 -0.14710969
0.7293372 -0.35792312 -0.14119206 0.03240768 -0.15502186 -0.65289634 -0.3613592 0.23700537
0.29951656 -0.3511307 1.0862833 1.7082428 0.06992671 -0.14525 -0.91527385 -0.27329314
0.29800072 0.49631748 -0.46948886 0.54033816 1.5882137 0.23939967 0.484352 0.26584786
-0.4197726 -0.4096174 -0.09974169 -0.36551407 -1.1563542 -0.95895046 -0.17444175 0.1907555
0.82709074 0.28687704 -0.40844765 -0.5445032 0.7862241 -0.6273454 -1.4676077 -0.052090704
-0.13501371 -0.5033707 -0.09846096 0.28873155 0.7027154 0.013140201 0.6500905 1.421469
00000000: f565 d5bd 04fe c33e a290 dc3e cf67 133e
00000010: 9d56 adbe 62b4 0dbf 5af4 fb3d aa05 6dbf
00000020: 3a41 4bbf fafa b43e d718 183f 483c a23e
00000030: 0c1b f4be 2d3e 6fbe 10dc 173e 3762 1ebf
00000040: d630 78bf 8ad5 f4be 8211 9dbb c1d5 a0be
00000050: 3ac5 00bf fdc4 3bbe e675 c03e 0ddb df3e
00000060: 3677 c2be 865a 633f 635e 673f d2e6 66be
00000070: d4a8 1ebe 9d4a 5abe 5326 92bd 86a1 9e3e
00000080: ddd1 1b3f 5001 83bd a41d 073f ea42 593f
00000090: 351c 81bb 3850 353e b607 9b3e 15bd 0a3e
000000a0: f1d3 f6be a718 58bf e7ac 3cbe 23a5 41bf
000000b0: 1d96 b1bf 5d87 06be c881 d13c 979e 15bf
000000c0: 9ce9 0ebe 61dc 2fbf 9408 7dbf 4329 283e
000000d0: 1dec 113d af28 ddbd ae5a 88be 339f 423e
000000e0: b8d9 3d3f 36a5 b83e c933 8abd 3c53 f2be
000000f0: cd76 4c3f e56f 87be 38bc c9bf ffaf 83bd
00000100: f3fa b63d 2caa ccbe e2f7 6cbe ec01 10bf
00000110: f184 e4be 99a2 e9be 5a95 58bf 5eb4 d2be
00000120: c7b0 32be f87e 823e 529b e13e 5f02 62bd
00000130: 0ad2 2d3f e610 893f 40d0 ed3d 02b4 133f
00000140: 8342 513f 5202 32be 5258 dd3d 3634 a6bd
00000150: c607 35be 21bb 1b3f af12 2a3f 6eba d6b9
00000160: 6ebc 353f 9d3b 8d3f feeb 443f a889 413e
00000170: 5699 853e dc10 3a3f 9240 86be eca3 16be
00000180: d8b5 3a3f b341 b7be a794 10be eabd 043d
00000190: 0dbe 1ebe 3724 27bf 1304 b9be 89b1 723e
000001a0: 3c5a 993e 67c7 b3be 550b 8b3f b3a7 da3f
000001b0: bc35 8f3d 6abc 14be 634f 6abf 14ed 8bbe
000001c0: 8d93 983e 531d fe3e d860 f0be 9a53 0a3f
000001d0: 964a cb3f 3025 753e fcfc f73e 361d 883e
000001e0: 6fec d6be 5fb9 d1be 5f45 ccbd a924 bbbe
000001f0: 6a03 94bf c77d 75bf dca0 32be 6955 433e
00000200: 38bc 533f 8ce1 923e 0d20 d1be 9064 0bbf
00000210: fc45 493f b599 20bf 92da bbbf 105d 55bd
00000220: 0941 0abe e7dc 00bf e6a5 c9bd 9fd4 933e
00000230: 28e5 333f ff49 573c 556c 263f b2f2 b53f

stage2.0.branch2.4.weight f4 [16]
1.3101459 1.2485865 1.2913297 1.4787413 0.8172789 1.0547508 1.4454601 1.0513127
1.4602531 1.2599199 0.8896907 1.34258 1.52092 1.2814046 1.4079956 1.1523263
00000000: dcb2 a73f afd1 9f3f 4b4a a53f 6547 bd3f
00000010: 3139 513f 1302 873f d604 b93f 6a91 863f
00000020: 93e9 ba3f 0e45 a13f c5c2 633f a9d9 ab3f
00000030: 82ad c23f 1105 a43f 3339 b43f 6e7f 933f

stage2.0.branch2.4.bias f4 [16]
-0.06281524 0.085336864 -0.994581 -1.411898 0.75319946 0.48313785 -0.069659844 0.73043936
-0.30671814 -0.75738794 -0.53722453 -0.46679097 -0.028559973 1.0081881 0.86797035 -0.24700159
00000000: 47a5 80bd 18c5 ae3d dc9c 7ebf 13b9 b4bf
00000010: aed1 403f d85d f73e d2a9 8ebd 13fe 3a3f
00000020: 290a 9dbe 2de4 41bf 8c87 09bf 3aff eebe
00000030: 9bf6 e9bc 4f0c 813f 4e33 5e3f fced 7cbe

stage2.0.branch2.5.weight f4 [16, 16, 1, 1]
0.28277352 0.5677173 0.82003284 0.74594355 -0.2659197 -0.030902386 1.2872659 -0.8096855
0.105356194 -0.0073966184 -0.39455992 -0.76561457 -0.83784354 0.20152795 0.524352 -0.07764086
0.7331027 -0.031004706 -0.35544273 -0.504928 0.30400038 0.20763224 0.5794171 -0.1035636
-0.51792264 -0.746317 -0.70446783 -0.44883105 -0.25220305 0.3403642 0.30076015 0.49578643
0.08242387 0.23665039 0.6784223 -0.1840447 -0.6933395 0.7856635 0.14355586 -0.8707659
-0.27249408 0.2461599 -0.24661721 0.42795157 0.26171097 -0.39502227 0.01192213 0.08031113
-1.1149696 0.0595042 -0.06359334 -0.47347638 0.34637114 -0.28604266 -0.11611493 0.64589274
-0.19578563 -1.1484475 -0.26272556 0.030227907 0.17697224 0.20406505 0.44365466 -0.537297
0.56324846 0.31801444 -0.78090775 -0.96452993 0.12568308 0.13327587 0.06953656 -0.2379049
0.030811053 0.26174888 -0.40012184 0.9576566 -0.78803194 -0.028842522 0.40938625 0.35203704
0.082151055 0.15076545 0.45004514 -0.60117394 1.0587766 1.2017273 0.43862334 0.60468006
0.28584418 1.0574406 -0.43190777 0.23280185 -0.23171443 -0.19290675 0.44277292 -0.41609162
0.4160099 -0.13151993 -0.044153467 0.38299286 0.60254705 0.108329274 0.5463083 -0.37786594
-0.45000562 -0.21519499 -0.37987792 -0.81746227 0.89273816 -0.42323875 -1.2979385 -0.51191556
0.32278228 -0.98150724 -0.09412548 -0.45031682 0.24947403 0.2827714 0.0023717375 -0.5034102
1.4577132 -0.22409551 -0.46486166 -0.7600013 -0.11012422 -0.22812371 0.34922552 -0.46924764
-0.19067693 0.086892165 0.031236041 -0.78784543 -0.045979273 -0.50951755 -0.53685933 -0.5218421
-0.60546464 -0.105254956 0.09478978 -0.2846022 -0.85188705 -1.1800468 -0.45308882 0.4870356
0.47374895 -0.09294931 0.8044403 0.6780449 -0.33122015 -0.32223988 0.19537473 -0.49976653
-0.3708266 0.4487001 0.13493814 -0.10067755 0.016557747 -0.22899006 -0.43497446 -0.49270606
-0.5560844 -0.091643035 -0.27538118 0.12504221 -0.17388308 -0.12482321 -0.24256176 0.3030909
0.11490694 0.4011697 0.36834338 0.6437281 0.7476328 0.27356425 0.2971837 0.054235052
-0.6901297 -0.1029143 0.15365341 -0.013585902 -0.16813357 0.078808606 -0.7642233 -0.21841688
0.27344227 -0.1872073 -0.2100593 -0.7043713 0.042382944 -0.10862968 -0.75632334 -0.58201337
0.03882959 -0.9174688 0.51497936 -0.47101638 0.2804203 -0.36684337 -0.12635908 -0.17080116
-0.4715146 0.17855728 0.4568714 0.13353102 0.39071304 0.9313428 0.009275284 -0.4708466
0.37332332 0.4613246 0.1261397 -0.070455514 0.2892219 -0.5230574 0.26409635 -0.2259788
-0.78477985 0.51961184 0.002866767 -0.008080565 0.6545329 -0.37667173 0.5231351 0.72155267
0.25660577 0.023432244 -0.074916065 -0.006965213 0.21575972 0.023316542 0.71162504 0.13078958
0.16921222 0.28040978 0.013519865 -0.6014933 0.15323088 -0.7393706 0.21209355 0.006831687
0.15512177 0.45340574 0.12164179 -0.46566486 0.5003244 0.05009831 -0.23175707 0.060813893
0.34658623 0.35022774 0.66811603 0.58601665 0.4805661 -0.8377399 -0.22060618 -0.5673546
00000000: b1c7 903e ec55 113f aced 513f 28f6 3e3f
00000010: a026 88be 0027 fdbc 21c5 a43f 8d47 4fbf
00000020: fdc4 d73d 555f f2bb c203 cabe 51ff 43bf
00000030: ea7c 56bf 585d 4e3e ef3b 063f 2c02 9fbd
00000040: 9eac 3b3f 95fd fdbc 97fc b5be f642 01bf
00000050: f0a5 9b3e 8c9d 543e ae54 143f 2719 d4bd
00000060: 9496 04bf a20e 3fbf 0158 34bf 2fcd e5be
00000070: c220 81be 3744 ae3e 3cfd 993e b8d7 fd3e
00000080: d9cd a83d 7b54 723e 15ad 2d3f 3776 3cbe
00000090: b37e 31bf 3e21 493f 4f00 133e 84ea 5ebf
000000a0: 5884 8bbe 5711 7c3e 3989 7cbe 781c db3e
000000b0: fbfe 853e 5c40 cabe 0a55 433c 297a a43d
000000c0: 53b7 8ebf adba 733d 3a3d 82bd 7f6b f2be
000000d0: 8f57 b13e 2f74 92be aacd edbd 3a59 253f
000000e0: 077c 48be 5400 93bf f783 86be 84a0 f73c
000000f0: 3638 353e 6ef6 503e b426 e33e 4c8c 09bf
00000100: 0d31 103f cad2 a23e 92e9 47bf 6feb 76bf
00000110: 11b3 003e 7879 083e 2f69 8e3d 589d 73be
00000120: 7667 fc3c f303 863e c5dc ccbe fc28 753f
00000130: 76bc 49bf 2747 ecbc 139b d13e 333e b43e
00000140: d03e a83d 4262 1a3e 516c e63e 89e6 19bf
00000150: fe85 873f 33d2 993f 3d93 e03e 50cc 1a3f
00000160: 2b5a 923e 375a 873f 0423 ddbe 9c63 6e3e
00000170: 8c46 6dbe 5989 45be 22b3 e23e f609 d5be
00000180: 40ff d43e 29ad 06be 44da 34bd a417 c43e
00000190: 8640 1a3f bddb dd3d dcda 0b3f a577 c1be
000001a0: 2367 e6be 135c 5cbe 5c7f c2be 3545 51bf
000001b0: 7d8a 643f c0b2 d8be d922 a6bf e60c 03bf
000001c0: b843 a53e 0f44 7bbf dcc4 c0bd ed8f e6be
000001d0: 1f76 7f3e 6ac7 903e 276f 1b3b 7edf 00bf
000001e0: 5996 ba3f 4b79 65be 5902 eebe 728f 42bf
000001f0: cf88 e1bd 4399 69be b0cd b23e 3a41 f0be
00000200: d040 43be 85f4 b13d bae2 ff3c 3db0 49bf
00000210: c354 3cbd be6f 02bf 9d6f 09bf 7297 05bf
00000220: bbff 1abf e98f d7bd 2521 c23d 61b7 91be
00000230: 4515 5abf c60b 97bf 42fb e7be bb5c f93e
00000240: 398f f23e 355c bebd cdef 4d3f 5a94 2d3f
00000250: b095 a9be a0fc a4be 5010 483e 66e1 ffbe
00000260: fcdc bdbe 05bc e53e 392d 0a3e 0830 cebd
00000270: 1da4 873c 5f7c 6abe f9b4 debe f843 fcbe
00000280: 8c5b 0ebf 58af bbbd c3fe 8cbe 110b 003e
00000290: 680e 32be 50a3 ffbd 1c62 78be bb2e 9b3e
000002a0: 5454 eb3d 1d66 cd3e 8197 bc3e 5dcb 243f
000002b0: dd64 3f3f 9d10 8c3e 7628 983e 9325 5e3d
000002c0: 57ac 30bf bcc4 d2bd 5257 1d3e 6797 5ebc
000002d0: 352b 2cbe 6866 a13d 23a4 43bf ada8 5fbe
000002e0: a000 8c3e 45b3 3fbe c919 57be ad51 34bf
000002f0: bd99 2d3d 3d79 debd 689e 41bf d4fe 14bf
00000300: c70b 1f3d 3cdf 6abf b0d5 033f 0f29 f1be
00000310: 4093 8f3e e5d2 bbbe 4664 01be 80e6 2ebe
00000320: 5d6a f1be b8d7 363e 0ceb e93e 5bbc 083e
00000330: 8a0b c83e 7b6c 6e3f 5cf7 173c ce12 f1be
00000340: 3c24 bf3e bd32 ec3e c42a 013e fb4a 90bd
00000350: e514 943e 17e7 05bf a337 873e fd66 67be
00000360: 55e7 48bf 4805 053f 5fe0 3b3b 5964 04bc
00000370: 788f 273f 1edb c0be 2fec 053f adb7 383f
00000380: d561 833e faf4 bf3c 986d 99bd 713c e4bb
00000390: 1ef0 5c3e 5502 bf3c 0f2d 363f b4ed 053e
000003a0: f845 2d3e df91 8f3e 6d82 5d3c 77fb 19bf
000003b0: 8ee8 1c3e 6447 3dbf 0d2f 593e 58dc df3b
000003c0: 3ed8 1e3e cc24 e83e 551f f93d a06b eebe
000003d0: 4315 003f e333 4d3d ba51 6dbe fd17 793d
000003e0: c073 b13e 0d51 b33e a709 2b3f 3005 163f
000003f0: c30c f63e 1f76 56bf 96e6 61be 273e 11bf

stage2.0.branch2.6.weight f4 [16]
1.6038004 1.4761811 1.7288085 1.3780625 1.5357252 1.2328861 1.59649 1.2923098
0.6036194 0.9168696 1.0062952 0.92681974 0.7803889 0.67621684 0.63557214 0.8385535
00000000: 5549 cd3f 81f3 bc3f 9949 dd3f 5a64 b03f
00000010: a592 c43f 36cf 9d3f c959 cc3f 686a a53f
00000020: cd86 1a3f f7b7 6a3f 48ce 803f 0f44 6d3f
00000030: 91c7 473f 8c1c 2d3f dbb4 223f 71ab 563f

stage2.0.branch2.6.bias f4 [16]
-0.1426913 0.5614627 0.13560425 0.35467514 -0.059905503 1.2121679 0.6395387 0.025054421
0.72422624 -0.10003054 -0.6603665 -0.091652334 0.7984422 0.49281067 0.390935 0.6165999
00000000: ab1d 12be 05bc 0f3f d7db 0a3e fb97 b53e
00000010: 795f 75bd 5128 9b3f cfb8 233f ee3e cd3c
00000020: e466 393f d0dc ccbd c70d 29bf 38b4 bbbd
00000030: b566 4c3f ae51 fc3e a228 c83e 7ed9 1d3f

stage2.1.branch2.0.weight f4 [16, 16, 1, 1]
-0.13627478 -0.2628122 1.3691256 0.37531906 -0.12916218 -0.052617483 -0.23537557 0.17661011
-0.4545596 0.055604275 -1.8316514 -0.20814241 1.4192448 0.02654664 0.3187864 0.12728226
-0.8096771 0.600667 -0.42092937 -0.441691 -0.09375027 0.6653181 0.19050422 0.53685564
0.47505143 0.15759775 0.018019507 -0.23989114 -0.18791965 -0.100895405 0.13292235 0.18868949
-0.19080627 0.40893245 0.06416253 0.28100666 -0.27636197 0.55597365 1.1213042 0.20770323
-0.38125074 -0.06509312 0.20279272 -0.49182004 -0.08838088 -0.018205341 -0.52656627 -0.43438748
-0.32436985 -0.42016935 -0.6171629 -0.15885067 0.09763061 0.08501181 0.27036142 0.36813974
0.53458655 1.1195611 -0.33850074 0.047625635 0.4436951 -0.4669455 0.54740816 0.22846197
-0.19211875 -0.19880927 -0.16938645 -0.07676457 -0.010067599 -0.14403327 -0.17636949 -0.022880843
-0.030855007 -0.048000336 0.22083962 -0.03093289 -0.13041204 -0.067627504 0.10648563 -0.032265257
-0.19341084 -0.19895172 -0.16995889 -0.077406876 -0.010365268 -0.14366409 -0.17645575 -0.023780338
-0.030911285 -0.04821222 0.22125843 -0.03128978 -0.13011366 -0.06789945 0.106509596 -0.03117854
0.010973031 -0.043662533 -0.24240156 -0.25377214 0.06846031 0.3444762 0.3733993 0.40769103
0.73521006 0.76847726 -0.8845433 0.1471297 0.73378783 -0.69080544 0.23237628 -0.36559892
-0.11665461 -0.13824037 -0.12536351 0.021546733 0.045191806 -0.12175115 -0.104918204 0.012883938
0.028624214 -0.008445419 0.2758976 0.03091104 -0.09397238 -0.003907155 0.14722571 0.017267933
-0.14202225 -0.46875727 -0.2077237 -0.2969949 -0.2716361 0.049502105 -0.12393657 -0.2323813
-0.31735182 -0.28460926 -0.83246124 -0.177979 -0.10727093 -0.13448216 -0.06591018 -0.3198973
0.10348747 0.41724974 0.583982 0.4120512 1.1798867 -0.17210943 0.1603999 0.0029118557
0.04276917 -0.7032151 -0.14445524 0.46840036 -0.17525151 0.44884688 -0.02241644 0.5569778
0.709344 0.8798951 0.054125953 0.63559496 -0.9463811 -0.22218318 0.12068679 -0.30398786
-0.08788482 0.30417663 -0.011984036 0.80786246 -0.18861575 -0.049951408 -0.6896525 0.24539822
1.1391251 -0.395961 -0.22560802 0.84354156 -0.11423111 -0.3321358 0.3933136 -0.30488822
0.092205904 -0.6447416 -0.034920156 0.2631033 -0.12436782 -0.05760051 -0.16531578 -0.26859263
-0.23988369 -0.16335101 -0.1701323 -0.28836632 0.16886851 -0.16689524 0.002744164 -0.044325393
-0.35160255 -0.31812817 1.4992565 -0.4933167 -0.2183012 -0.07338219 0.19535156 -0.20444165
0.1141573 -0.6847462 -0.11063814 0.28635046 -0.040047944 -0.32678354 -0.72243017 0.24523304
0.5647669 0.061556507 -0.10219811 0.2688402 0.15085107 0.41402194 1.1107793 0.69268066
-0.09585648 -0.91178775 -0.3010262 -0.6562536 -0.41388816 -0.28729513 -0.19053967 -0.021562373
0.81482846 -0.058207605 0.41681477 0.941002 -0.21616344 0.221389 0.25190163 -0.42562103
0.34714764 0.098425046 -0.216398 0.24022089 -0.16425344 0.68921274 0.7807821 0.8736579
-0.038842767 -0.31397933 -0.03005264 -0.15635476 0.2709044 -0.69177246 0.516375 1.3184547
00000000: 9e8b 0bbe 528f 86be 823f af3f d229 c03e
00000010: 1743 04be 6e85 57bd 4b06 71be 48d9 343e
00000020: 09bc e8be 4fc1 633d 8e73 eabf 4923 55be
00000030: d0a9 b53f 5778 d93c f937 a33e 4856 023e
00000040: 0047 4fbf 50c5 193f 0e84 d7be 5325 e2be
00000050: 2400 c0bd 4952 2a3f 8a13 433e 5f6f 093f
00000060: f139 f33e 4e61 213e a59d 933c 06a6 75be
00000070: 026e 40be 40a2 cebd cc1c 083e d137 413e
00000080: b862 43be 985f d13e a567 833d 1be0 8f3e
00000090: 517f 8dbe 4a54 0e3f e586 8f3f 28b0 543e
000000a0: 4c33 c3be 8b4f 85bd e5a8 4f3e d6cf fbbe
000000b0: 0901 b5bd 5e23 95bc 0ccd 06bf 0968 debe
000000c0: ce13 a6be 7020 d7be 63fe 1dbf c0a9 22be
000000d0: 8ff2 c73d ac1a ae3d d06c 8a3e d07c bc3e
000000e0: aada 083f c74d 8f3f f84f adbe 1913 433d
000000f0: 012c e33e 7b13 efbe f122 0c3f eff1 693e
00000100: c7ba 44be a894 4bbe a473 2dbe be36 9dbd
00000110: 92f2 24bc 757d 13be 349a 34be 9b70 bbbc
00000120: a4c3 fcbc 009c 44bd c823 623e f966 fdbc
00000130: bc8a 05be 4a80 8abd 2315 da3d 9328 04bd
00000140: 7e0d 46be 00ba 4bbe b409 2ebe 7f87 9ebd
00000150: 16d3 29bc ae1c 13be d1b0 34be fcce c2bc
00000160: aa39 fdbc 2d7a 45bd 9291 623e b629 00bd
00000170: 843c 05be de0e 8bbd b421 da3d 236a ffbc
00000180: 3ac8 333c 7cd7 32bd 1d38 78be 6cee 81be
00000190: eb34 8c3d 2f5f b03e 312e bf3e e1bc d03e
000001a0: ba36 3c3f edba 443f 6e71 62bf 2ba9 163e
000001b0: 85d9 3b3f a0d8 30bf 0cf4 6d3e c82f bbbe
000001c0: 9de8 eebd e28e 0dbe 4b5f 00be c682 b03c
000001d0: 0b1b 393d ab58 f9bd 5bdf d6bd 2717 533c
000001e0: 547d ea3c a85e 0abc 7342 8d3e 2639 fd3c
000001f0: 9774 c0bd 9707 80bb 56c2 163e 7b75 8d3c
00000200: 486e 11be f400 f0be 86b5 54be b70f 98be
00000210: e313 8bbe b8c2 4a3d 75d2 fdbd 5df5 6dbe
00000220: f07b a2be 4eb8 91be 2e1c 55bf 2140 36be
00000230: ddb0 dbbd b1b5 09be ebfb 86bd 94c9 a3be
00000240: 3df1 d33d c2a1 d53e d87f 153f 60f8 d23e
00000250: 8706 973f 743d 30be df3f 243e d5d4 3e3b
00000260: ba2e 2f3d e805 34bf 13ec 13be 2cd2 ef3e
00000270: 2275 33be 42cf e53e afa2 b7bc 1996 0e3f
00000280: 9297 353f ce40 613f 2db3 5d3d 5ab6 223f
00000290: 0846 72bf fd83 63be a32a f73d 4ca4 9bbe
000002a0: f5fc b3bd 0abd 9b3e b158 44bc 13d0 4e3f
000002b0: 7d24 41be d999 4cbd 118d 30bf ac49 7b3e
000002c0: dace 913f 66bb cabe ca05 67be 57f2 573f
000002d0: 00f2 e9bd b40d aabe 6660 c93e 4f1a 9cbe
000002e0: 73d6 bc3d c90d 25bf 7008 0fbd 7ab5 863e
000002f0: 8eb4 febd 83ee 6bbd 8a48 29be f984 89be
00000300: 12a4 75be 7d45 27be 2937 2ebe c0a4 93be
00000310: deeb 2c3e 96e6 2abe 6fd7 333b 8b8e 35bd
00000320: 4005 b4be b2e1 a2be a3e7 bf3f 0294 fcbe
00000330: 5a8a 5fbe 6749 96bd 3d0a 483e 2759 51be
00000340: 4dcb e93d 874b 2fbf 4096 e2bd 879c 923e
00000350: 5009 24bd 2c50 a7be 2ff1 38bf 5f1e 7b3e
00000360: 9094 103f ad22 7c3d 3e4d d1bd 6ca5 893e
00000370: b478 1a3e affa d33e 042e 8e3f 8553 313f
00000380: 6750 c4bd ec6a 69bf 1b20 9abe 3c00 28bf
00000390: 26e9 d3be 5918 93be d51c 43be 93a3 b0bc
000003a0: 9998 503f 196b 6ebd bf68 d53e 82e5 703f
000003b0: f359 5dbe ccb3 623e 40f9 803e 00eb d9be
000003c0: 56bd b13e 1293 c93d 7097 5dbe 77fc 753e
000003d0: 0e32 28be 3f70 303f 56e1 473f 0ba8 5f3f
000003e0: 9819 1fbd e6c1 a0be f430 f6bc 761b 20be
000003f0: fbb3 8a3e 0018 31bf 2731 043f 20c3 a83f

stage2.1.branch2.1.weight f4 [16]
0.8750726 1.0372733 1.1505318 1.3428526 0.0015707378 0.0013700487 1.2905902 0.53874516
0.016497798 1.1780729 1.2120072 1.0571544 0.74929976 1.0881947 1.0819966 1.1842179
00000000: c204 603f 5fc5 843f a044 933f 98e2 ab3f
00000010: 37e1 cd3a 3593 b33a 0f32 a53f 34eb 093f
00000020: 6426 873c 18cb 963f 0d23 9b3f d650 873f
00000030: 1cd2 3f3f f749 8b3f dd7e 8a3f 7494 973f

stage2.1.branch2.1.bias f4 [16]
0.32573894 0.8737643 0.6812584 0.52250683 -0.006270947 -0.0060998746 0.32169563 0.119333476
0.0014935696 0.5093998 0.35780343 1.1380959 0.5466299 0.72357696 1.1926882 0.10995361
00000000: 41c7 a63e 04af 5f3f f366 2e3f 02c3 053f
00000010: 847c cdbb 75e1 c7bb 4ab5 a43e 1c65 f43d
00000020: e1c3 c33a 0668 023f 0332 b73e 20ad 913f
00000030: f0ef 0b3f 573c 393f 02aa 983f 5c2f e13d

stage2.1.branch2.3.weight f4 [16, 1, 3, 3]
0.4361172 -0.36386383 0.26925492 0.16625887 -1.5504884 -0.79583955 0.62510204 -0.5637934
0.044371128 -0.039506614 -0.026452292 -0.30825245 0.024871994 -1.4114761 0.33176872 0.24734388
1.4209057 -0.23151839 -0.20669952 -0.19871034 -0.119919606 -0.35911876 -1.4245988 -0.064005576
0.5349575 1.399343 0.027023828 0.15133378 -0.5407734 0.23935255 0.7240293 -1.1838651
-0.2998367 -0.39247432 -0.8661635 1.3932341 -0.007056125 -0.00832924 -0.007942701 -0.008884956
-0.008970694 -0.0072151953 -0.0075736106 -0.007664615 -0.007096646 -0.00914406 -0.007565447 -0.008858083
-0.0072949473 -0.0069939503 -0.0070269783 -0.0077687064 -0.00836174 -0.008965927 -0.25379795 0.052840695
0.18303429 0.007205949 -1.2690822 1.5622339 0.112518966 0.27522686 -0.96417344 -0.27513438
-0.29097107 -0.30203182 -0.2790818 -0.29479954 -0.30290106 -0.27620578 -0.28993052 -0.29945812
-0.0055423165 -0.002216327 -0.002744344 -0.0026697766 -0.0003828637 -0.0008307568 -0.0033918621 4.364961e-05
-0.0030718376 0.249848 -0.31824085 -0.18143785 0.28464735 1.301606 -1.9730606 -0.36225584
-0.113882996 1.1496401 0.07839528 0.44872034 -0.34186488 0.4667664 -0.0079442095 -1.1104985
-0.32715538 -1.2176125 1.5829861 0.065035924 -0.23636022 -0.18667789 0.7682154 0.90466225
0.88904995 -1.044848 -0.97359866 -0.7087395 -0.08921381 0.038321193 -0.22597876 -0.15755098
-0.87068665 -0.5570153 -0.2132669 -0.11226696 -0.32058254 -0.17934796 0.37273416 -0.37325746
-0.6245673 2.1753573 -1.3763192 -0.035744965 0.17962602 -0.080783 0.22714143 -0.1275581
-0.08165236 0.32181168 1.611665 0.23457384 -0.5925101 -1.3289073 -0.4675385 0.06559046
-0.3361978 0.30235076 0.5590087 -1.7916869 1.1595466 0.30390587 -0.52043253 0.17949952
00000000: c14a df3e 5c4c babe c8db 893e c43f 2a3e
00000010: 6776 c6bf 24bc 4bbf b006 203f c454 10bf
00000020: 80be 353d b0d1 21bd 7ab2 d8bc 44d3 9dbe
00000030: 5ac0 cb3c 40ab b4bf 97dd a93e b747 7d3e
00000040: 3de0 b53f 2813 6dbe 0aa9 53be b97a 4bbe
00000050: 6998 f5bd 6ade b7be 4159 b6bf 5b15 83bd
00000060: faf2 083f ac1d b33f 1361 dd3c 3ef7 1a3e
00000070: 2070 0abf d618 753e fc59 393f e488 97bf
00000080: 3284 99be 65f2 c8be e4bc 5dbf 7f55 b23f
00000090: 1137 e7bb 5d77 08bc 1a22 02bc 3592 11bc
000000a0: d1f9 12bc 726d ecbb 0d2c f8bb 7327 fbbb
000000b0: fb8a e8bb f8d0 15bc 92e7 f7bb 7e21 11bc
000000c0: 740a efbb 822d e5bb 9142 e6bb a290 febb
000000d0: aeff 08bc d3e5 12bc cef1 81be 7c6f 583d
000000e0: 576d 3b3e e21f ec3b 4971 a2bf 48f7 c73f
000000f0: 5870 e63d 89ea 8c3e 12d4 76bf 6ade 8cbe
00000100: 29fa 94be eaa3 9abe cfe3 8ebe f7ef 96be
00000110: d915 9bbe d86a 8dbe c671 94be 9352 99be
00000120: 529c b5bb cc3f 11bb 74da 33bb 6bf7 2ebb
00000130: 19bb c8b9 25c7 59ba 014a 5ebb 6914 3738
00000140: e250 49bb 27d8 7f3e 77f0 a2be d8ca 39be
00000150: 4cbd 913e 079b a63f 408d fcbf 9979 b9be
00000160: 7d3b e9bd 6827 933f b48d a03d acbe e53e
00000170: ea08 afbe 01fc ee3e 6e28 02bc d124 8ebf
00000180: e980 a7be bada 9bbf 4a9f ca3f 8e31 853d
00000190: 6a08 72be 7d28 3fbe c4a9 443f f297 673f
000001a0: c798 633f 94bd 85bf c33d 79bf f46f 35bf
000001b0: bbb5 b6bd aff6 1c3d fa66 67be 0b55 21be
000001c0: 52e5 5ebf 8e98 0ebf a362 5abe 38ec e5bd
000001d0: 6523 a4be fea6 37be 03d7 be3e 9a1b bfbe
000001e0: a4e3 1fbf 0e39 0b40 3a2b b0bf 5069 12bd
000001f0: e2ef 373e 8f71 a5bd c397 683e 979e 02be
00000200: 5a39 a7bd 80c4 a43e 0a4b ce3f 2034 703e
00000210: beae 17bf a219 aabf 3561 efbe 4b54 863d
00000220: 1e22 acbe b8cd 9a3e 321b 0f3f ff55 e5bf
00000230: 066c 943f 8d99 9b3e 113b 05bf b9ce 373e

stage2.1.branch2.4.weight f4 [16]
1.3648481 1.3075447 1.2876086 0.98023695 0.019868895 0.026588261 1.3259149 0.09369219
0.10447326 1.3807876 1.4411154 1.3707461 1.2988223 1.3939753 1.4350578 1.335261
00000000: 58b3 ae3f a05d a73f 5cd0 a43f cff0 7a3f
00000010: 18c4 a23c a0cf d93c 94b7 a93f b1e1 bf3d
00000020: 14f6 d53d a6bd b03f 7876 b83f 9c74 af3f
00000030: cf3f a63f c86d b23f f9af b73f d5e9 aa3f

stage2.1.branch2.4.bias f4 [16]
0.9881883 -0.32539496 -0.23078683 0.33569607 -0.0059991265 -0.007486551 -0.109901115 -0.0014840716
-0.009723355 -0.11912258 0.22549698 0.13239712 0.22776558 -0.38892713 0.10013743 0.20909914
00000000: e9f9 7c3f 2b9a a6be 6253 6cbe 5be0 ab3e
00000010: 5294 c4bb be51 f5bb d613 e1bd 2e85 c2ba
00000020: b54e 1fbc 8af6 f3bd aee8 663e 1c93 073e
00000030: 613b 693e 7521 c7be da14 cd3d 161e 563e
