fedmd_results_1000.0/client48/best_model_1000.0.pth (torch, 930817 bytes, 56 tensors)

conv1.weight f4 [24, 3, 3, 3]
0	0x3e3a7158	0.182073
1	0xbed02f39	-0.40661028
2	0x3e9effdf	0.3105459
3	0xbf88cdcf	-1.0687808
4	0xbfda47bd	-1.7053143
5	0xbf57ab8f	-0.8424615
6	0xbf4d9e05	-0.80319244
7	0xbfbeebd7	-1.4915723
8	0xbf1f72f1	-0.6228476
9	0x3e804490	0.2505231
10	0x3ec5b947	0.38617918
11	0x3e89ef46	0.26940364
12	0x3ee33fc0	0.44384575
13	0x3f2fd9ac	0.68691516
14	0x3f061aff	0.5238494
15	0x3e87f60a	0.265549
16	0x3edd0b0f	0.431725
17	0x3eb61a04	0.35566723
18	0xbf1318ea	-0.5745989
19	0xbdb27d35	-0.087152876
20	0xbf429763	-0.7601225
21	0x3f0a2158	0.5395713
22	0x3f9e4a48	1.2366419
23	0x3ec905c8	0.39262223
24	0x3eb71031	0.3575454
25	0x3f7ac5c5	0.9795802
26	0x3e6896cb	0.22713773
27	0x3da1cf47	0.07900863
28	0x3ed3c6aa	0.41362506
29	0x3e43d404	0.19123846
30	0xbf703dea	-0.93844473
31	0x3e869d9c	0.2629212
32	0x3ea20faa	0.31652576
33	0xbf5d883d	-0.8653601
34	0xbbe2497a	-0.0069057317
35	0x3e97a1a3	0.29615507
36	0xbe8335ad	-0.2562689
37	0x3eca73f8	0.39541602
38	0xbe1673f9	-0.14692678
39	0xbf57eb13	-0.8434307
40	0x3f429071	0.7600165
41	0x3ef26f57	0.4735057
42	0xbf5907dd	-0.84777623
43	0x3ee77f5e	0.4521436
44	0x3ee631b7	0.44959804
45	0xbe9ad0f3	-0.3023754
46	0x3df07fd6	0.11743133
47	0xbeeb89bf	-0.4600353
48	0xbefc88a1	-0.4932299
49	0x3f41f1fe	0.75759876
50	0x3e867189	0.26258495
51	0xbeea77ae	-0.45794433
52	0x3f2706c3	0.6524469
53	0x3ebba428	0.3664868
54	0x3cc2f8ed	0.023800338
55	0xbe89fd0a	-0.26950866
56	0xbc3f660a	-0.011682043
57	0xbeee7afc	-0.46578205
58	0xbf445b81	-0.76702124
59	0xbef593a4	-0.47964203
60	0xbe8dcec2	-0.27696806
61	0xbf13fc7e	-0.5780715
62	0xbea38cd6	-0.31943387
63	0x3e8156a8	0.25261426
64	0x3eaa34da	0.33243448
65	0x3e894561	0.26810744
66	0x3e586fd9	0.21136416
67	0x3eaa86a8	0.3330586
68	0x3e869987	0.26289007
69	0x3e556987	0.20841037
70	0x3e98ecdd	0.29868212
71	0x3e79d243	0.24396615
72	0x3cad4b81	0.021154167
73	0x3e931df0	0.28733778
74	0x3c042d23	0.008067402
75	0x3e9e6a2b	0.30940375
76	0x3f2a3de6	0.665007
77	0x3e9d21b3	0.30689773
78	0x3e31e883	0.17373852
79	0x3ef56d16	0.47934788
80	0x3e0ed9f4	0.1395033
81	0xbe71f83f	-0.23629855
82	0xbf923847	-1.1423424
83	0xbf0b884c	-0.5450485
84	0x3d8d4fc5	0.068999805
85	0x3c597704	0.013273004
86	0x3e9138d4	0.2836367
87	0xb993138b	-0.00028052586
88	0x3f250504	0.6446078
89	0x3f051611	0.51986796
90	0xbe84474d	-0.25835648
91	0xbf9710d3	-1.1802009
92	0xbf4562ad	-0.7710369
93	0x3e94b554	0.29044592
94	0x3e6f74c6	0.2338439
95	0x3e9a60f5	0.30152097
96	0x3e610fe6	0.21978721
97	0x3f681fbb	0.90673417
98	0x3f0f7501	0.5603791
99	0xbe7ed7a9	-0.24886955
100	0xbf90f32a	-1.1324208
101	0xbf45a108	-0.7719884
102	0x3e869b75	0.2629048
103	0x3dbfbec4	0.093625575
104	0x3e2da80d	0.16958638
105	0x3ecb9fb3	0.39770278
106	0x3f64f6b7	0.89438957
107	0x3f21512d	0.6301449
108	0xbf49d40b	-0.78839177
109	0xbf2ec7af	-0.68273443
110	0xbf7a229d	-0.97709066
111	0x3da453ee	0.08023821
112	0x3f201b4b	0.62541646
113	0xbe1f1f9a	-0.15539399
114	0x3f28d0db	0.6594369
115	0x3f92f2ca	1.1480343
116	0x3ed1ce93	0.40977916
117	0x3e256dc7	0.16155158
118	0x3edec366	0.43508452
119	0x3cc0f34c	0.023553513
120	0x3ed7864a	0.42094642
121	0x3f845485	1.0338293
122	0x3e752a85	0.23942001
123	0x3e72b73c	0.23702711
124	0x3f31b585	0.694176
125	0x3d9837ac	0.074324936
126	0x3f1a4dfb	0.6027524
127	0x3e55d8c8	0.20883477
128	0x3f59707b	0.84937257
129	0xbf33eb99	-0.7028137
130	0xbf79b79d	-0.97545797
131	0xbea9c299	-0.3315628
132	0xbf654d61	-0.89571196
133	0xbfabd97d	-1.3425747
134	0xbf0843f6	-0.532287
135	0xbd372c09	-0.04471973
136	0xbeeb446a	-0.45950633
137	0xbbce3afa	-0.0062936516
138	0xbdb00dda	-0.08596392
139	0x3e305a3a	0.17221919
140	0x3e6e2210	0.23255181
141	0xbe83f95a	-0.25776178
142	0xbead3efb	-0.33837113
143	0xbe80a1d7	-0.25123474
144	0xbe76962b	-0.24080722
145	0xbec1c2c7	-0.37843916
146	0xbe84c288	-0.25929666
147	0x3e502075	0.20324881
148	0x3f5c4e8b	0.8605735
149	0x3f0b1bfa	0.54339564
150	0xbdc1ec54	-0.09468904
151	0x3e7440be	0.23852822
152	0xbd600591	-0.05469281
153	0xbf13b595	-0.5769895
154	0xbf37728e	-0.7165917
155	0xbf386b3e	-0.7203864
156	0x3e0d7bf9	0.13816823
157	0x3f3b75d8	0.7322669
158	0x3ea37beb	0.3193048
159	0x3defb77f	0.11704921
160	0x3ef832d1	0.4847627
161	0x3e065dfb	0.13121788
162	0x3f286dcb	0.6579253
163	0x3df5663a	0.11982389
164	0xbe913b19	-0.283654
165	0x3fa0c26d	1.2559334
166	0xbe351327	-0.17683087
167	0xbfb9f507	-1.4527901
168	0x3e372293	0.17884283
169	0xbd0d4bd6	-0.03449615
170	0xbde99de6	-0.1140707
171	0x3f8260d0	1.0185795
172	0x3c5c5e40	0.013450205
173	0xbf6993a4	-0.91240907
174	0x3fe7ed74	1.811934
175	0xbdcf7aa1	-0.101308115
176	0xbffde035	-1.9834048
177	0x3f22ce0c	0.6359565
178	0x3d226d87	0.039655235
179	0xbf00c2a1	-0.5029698
180	0x3ee9d184	0.4566766
181	0xbc21571a	-0.009847427
182	0xbf060b04	-0.5236056
183	0x3f98832b	1.1915029
184	0xbda26bd4	-0.07930723
185	0xbfbf40bd	-1.4941632
186	0x3ea748f8	0.32672858
187	0x3da33a29	0.079700775
188	0xbe8a96d3	-0.27068195
189	0xbf17c16d	-0.5927952
190	0xbdd522e3	-0.10407045
191	0xbee97c0f	-0.45602462
192	0xbe7874b8	-0.24263275
193	0x3e2e8c31	0.17045666
194	0x3dd34fd4	0.103179604
195	0xbe5ddef1	-0.21667077
196	0xbe984d68	-0.29746556
197	0x3ebc5a91	0.36787847
198	0x3e965848	0.29364228
199	0x3f65abd5	0.8971532
200	0x3db63c7b	0.088982545
201	0x3e9a753e	0.30167574
202	0x3f54f26e	0.8318242
203	0x3eb95d2e	0.36203903
204	0xbf23ddb5	-0.64010173
205	0xbf1e5129	-0.6184259
206	0xbe2cf980	-0.16892052
207	0x3eaf4396	0.3423125
208	0x3f48c880	0.7843094
209	0xbc75e6e6	-0.015008664
210	0x3ef5e7c0	0.48028374
211	0x3f53baff	0.8270721
212	0x3e4d526f	0.20050977
213	0xbf2a7666	-0.6658691
214	0xbf456d5e	-0.77120006
215	0xbf1a15e7	-0.6018967
216	0x3f656fe5	0.8962386
217	0x3febaf75	1.841292
218	0x3f9ea20b	1.2393202
219	0xbbd3d60e	-0.0064647263
220	0xbe50f1c6	-0.20404729
221	0xbca995e4	-0.020701356
222	0xbf5d81bd	-0.8652609
223	0xbfeee7a6	-1.8664443
224	0xbf67b4c0	-0.9051018
225	0x3f0de721	0.554308
226	0x3fafa291	1.3721486
227	0x3f18e85d	0.5972956
228	0x3dbfabf3	0.093589686
229	0xbe1b5029	-0.15167297
230	0xbe4c589b	-0.19955675
231	0xbf12deaf	-0.5737104
232	0xbfc7a7cb	-1.5598081
233	0xbf44d320	-0.7688465
234	0xbe30192c	-0.17197102
235	0x3f32c527	0.6983208
236	0x3d3ddb8e	0.04635196
237	0x3e1848e1	0.14871551
238	0x3e7120f5	0.23547728
239	0x3e0eb186	0.13934907
240	0xbd2ee02b	-0.042694252
241	0xbf11d4b5	-0.5696519
242	0x39bd0651	0.00036053595
243	0xbeaf2b5a	-0.34212762
244	0xbd584286	-0.052797817
245	0x3f321db9	0.69576603
246	0x3ef00653	0.46879825
247	0x3e8067ff	0.25079343
248	0xbfee15c6	-1.8600395
249	0xbdf7d90b	-0.121019445
250	0x3f51fe77	0.8202891
251	0xbedd2457	-0.43191788
252	0xbf0bf70f	-0.54673856
253	0x3e65eb68	0.22453082
254	0x3f489e23	0.783663
255	0x3f0a8f88	0.5412526

dense1.0.bn1.weight f4 [24]
0	0x3ec0f7f8	0.37689185
1	0x3f7fbea5	0.99900275
2	0x3f29fe21	0.66403395
3	0x3f4d9a7d	0.80313855
4	0x3f28dfdd	0.6596659
5	0x3f8997a8	1.0749407
6	0x3f18121a	0.5940262
7	0x3f847e03	1.0350956
8	0x3f43e33e	0.7651862
9	0x3fd6abf1	1.6771222
10	0x3ff07b8a	1.8787701
11	0x3f194df9	0.598846
12	0x3f79cbd7	0.9757666
13	0x3ec04f4f	0.37560508
14	0x3f2c94ae	0.6741437
15	0x3f209e97	0.6274199
16	0x3ee0b44c	0.43887556
17	0x3ecb89b2	0.3975349
18	0x3f2a51a8	0.6653085
19	0x3efd724b	0.4950126
20	0x3f535bba	0.8256184
21	0x3f38754d	0.72053987
22	0x3eecdfb2	0.46264416
23	0x3eff7275	0.4989201

dense1.0.bn1.bias f4 [24]
0	0xbe846a81	-0.25862506
1	0x3f1a820f	0.60354704
2	0xbeb836b6	-0.3597924
3	0x3f067755	0.52525836
4	0x3eb0d272	0.34535557
5	0x3eac2a71	0.3362613
6	0x3f17efdd	0.5935038
7	0x3ef6a2df	0.48171136
8	0x3f25c8bb	0.64759415
9	0x3f668275	0.9004281
10	0x3f801ce2	1.0008814
11	0x3c4462fb	0.011986489
12	0x3e33014d	0.17480965
13	0x3e3d5e64	0.18493038
14	0x3e937ffe	0.28808588
15	0xbf050c48	-0.51971865
16	0xbe66765b	-0.22506087
17	0xbe3e7bf3	-0.1860197
18	0xbeecffdc	-0.46288955
19	0xbe5f39be	-0.2179937
20	0xbf347468	-0.7049012
21	0xbf02a09b	-0.51026314
22	0x3e8f3f47	0.27977964
23	0xbd164f85	-0.03669693

dense1.0.conv1.weight f4 [12, 24, 3, 3]
0	0x3c7d1903	0.015447858
1	0x3e162d50	0.14665723
2	0x38d61905	0.000102089754
3	0x3d7973db	0.060901504
4	0x3e4e70b1	0.20160176
5	0x3d850862	0.064957395
6	0xbd43ba70	-0.047785223
7	0x3d8dbab5	0.06920377
8	0xbd43073c	-0.04761432
9	0x3e7c8eba	0.24663821
10	0x3eb86094	0.36011183
11	0x3e9e2439	0.3088701
12	0x3de6856b	0.11255916
13	0x3e9acab7	0.30232784
14	0x3e9aefd9	0.30261114
15	0xbe8b804c	-0.2724632
16	0xbd98fa97	-0.07469671
17	0xbdc85d45	-0.09783415
18	0x3ce56b4c	0.028005265
19	0x3deae6ab	0.11469778
20	0xbc583ba9	-0.013197818
21	0x3e154c8c	0.14579982
22	0x3e58223d	0.21106811
23	0x3dab6f1b	0.08370801
24	0x3e178398	0.14796293
25	0x3e5b3302	0.21406177
26	0x3dfedb21	0.12444139
27	0x3b8f37d1	0.0043706675
28	0x3de51feb	0.111877285
29	0x3e0f97c2	0.14022735
30	0xbaa0a3ba	-0.0012255826
31	0x3e317a51	0.17331816
32	0x3e5081a0	0.20361948
33	0x3dd68cfd	0.1047611
34	0x3e7f0374	0.24903661
35	0x3e6a1fea	0.22863737
36	0xbcb09494	-0.021555223
37	0xbe5788e9	-0.21048321
38	0xbe575fe5	-0.21032675
39	0x3e9e41d2	0.30909592
40	0x3e0a09da	0.1348032
41	0x3d6388b7	0.055550303
42	0x3f1e7ee7	0.6191239
43	0x3f03ac13	0.5143444
44	0x3ebdd502	0.37076575
45	0x3ea33840	0.31878853
46	0x3f00e416	0.5034803
47	0x3e846af3	0.25862846
48	0x3e2b20d5	0.16711743
49	0x3ec76aa1	0.3894854
50	0x3e2528ac	0.16128796
51	0xbe49aa8c	-0.19693965
52	0x3d1d887b	0.038460236
53	0xbdd607e4	-0.10450724
54	0x3e05e430	0.13075328
55	0x3e274919	0.16336478
56	0x3e8c211e	0.27369016
57	0x3e76f3ed	0.24116488
58	0x3e894c88	0.268162
59	0x3e6fb59c	0.23409122
60	0x3d4086d8	0.047003597
61	0xbdf80b72	-0.12111558
62	0xbdc3ed1d	-0.0956671
63	0xbf035771	-0.513053
64	0xbe555a04	-0.2083512
65	0xbe40b3ab	-0.18818538
66	0x3d8f4780	0.069960594
67	0x3ee318fb	0.44354996
68	0x3ebe26da	0.37139016
69	0x3e08e738	0.13369453
70	0x3f08ec43	0.53485507
71	0x3ec3d3b7	0.38247463
72	0x3db13f08	0.086546004
73	0x3e881372	0.26577336
74	0x3e01992b	0.12656085
75	0x3da1a0bf	0.07891988
76	0x3e6c61c6	0.23084173
77	0x3e007bc1	0.12547208
78	0xbe8b73bf	-0.27236745
79	0xbe46bb51	-0.19407393
80	0xbe31b2d9	-0.17353381
81	0x3e050a84	0.12992293
82	0x3e00cb4c	0.12577552
83	0xbea1ada2	-0.31577784
84	0x3f0668ab	0.5250346
85	0x3f06f17d	0.5271223
86	0xbdd623bb	-0.10456034
87	0x3e1a6614	0.15078002
88	0x3e074c8e	0.13212797
89	0xbe42c19b	-0.19019167
90	0xbd2e08ee	-0.042488985
91	0x3e1c2edc	0.1525225
92	0xbd23f365	-0.04002704
93	0x3d2b4e8b	0.04182295
94	0x3eaebdfd	0.34129325
95	0x3daa206f	0.083069675
96	0xbe4831ad	-0.195502
97	0x3e97e06a	0.29663402
98	0x3da9e378	0.08295339
99	0xbeda2c56	-0.4261195
100	0xbe789bc4	-0.2427817
101	0x3d22979f	0.03969538
102	0xbe5841ad	-0.21118803
103	0x3a165d38	0.00057359366
104	0x3e73e330	0.23817134
105	0x3e3f0d14	0.18657333
106	0x3edd83f1	0.43264726
107	0x3f09e828	0.5386987
108	0xbe9778e4	-0.2958442
109	0xbea21e48	-0.31663728
110	0xbd2ca253	-0.042146992
111	0xbec18cc4	-0.37802708
112	0xbed234f1	-0.41056016
113	0xbdf96d60	-0.12179065
114	0xbe4ded4a	-0.2011005
115	0xbe6a4268	-0.22876894
116	0xbbdad5ae	-0.0066783046
117	0xbe32413e	-0.174077
118	0xbe78cab5	-0.24296077
119	0xbcbb6a48	-0.022877827
120	0xbe8c54b6	-0.2740838
121	0xbec13bd6	-0.37740964
122	0xbe071547	-0.1319171
123	0xbde06fdb	-0.10958835
124	0xbe42531a	-0.18977013
125	0xbac37967	-0.00149135
126	0xbe2ba489	-0.16761984
127	0xbe6448ef	-0.22293447
128	0xbe8f3672	-0.27971226
129	0xbe0627fa	-0.13101187
130	0xbe0e2fc6	-0.13885412
131	0xbe51ece6	-0.20500526
132	0xbdac0319	-0.08399028
133	0xbde5cf2c	-0.112211555
134	0xbe60bed6	-0.21947798
135	0xbd1353e4	-0.035968676
136	0xbce8793f	-0.028378127
137	0xbbc8dcf7	-0.0061298567
138	0xbe0cfa3b	-0.1376733
139	0xbdfe08ee	-0.12404047
140	0xbda962a4	-0.08270767
141	0xbe2c4b4e	-0.16825601
142	0xbe0f8686	-0.1401616
143	0xbde57b53	-0.11205163
144	0xbbc54470	-0.0060201213
145	0xbdcb33e6	-0.09922008
146	0x3c8391fb	0.01606082
147	0xbdae209c	-0.085023135
148	0xbe6ceb4d	-0.23136635
149	0xbe1074a7	-0.14107
150	0x3c76c219	0.015060925
151	0xbe17d0aa	-0.14825693
152	0xbdb26533	-0.087107085
153	0xbe098798	-0.13430631
154	0xbdbadd73	-0.09124269
155	0xbe46aefb	-0.19402687
156	0xbd94af0c	-0.0725995
157	0xbd451a33	-0.04812069
158	0xbe1d0a53	-0.1533597
159	0xbe0079e0	-0.12546492
160	0xbdca25af	-0.09870469
161	0xbe4d799d	-0.20065923
162	0xbce3d214	-0.027810134
163	0xbe078e1c	-0.13237804
164	0xbdca45b5	-0.09876577
165	0xbe3d8c80	-0.18510628
166	0xbe9412a2	-0.28920466
167	0xbe83ab83	-0.2571679
168	0xbd87243e	-0.065987095
169	0xbe151c8a	-0.14561668
170	0xbddc27cf	-0.107497804
171	0xbe11def5	-0.14245208
172	0xbde7d232	-0.113193884
173	0xbd65cbac	-0.05610244
174	0xbe2f5864	-0.17123562
175	0xbe10120b	-0.14069383
176	0xbd9d15f2	-0.07670201
177	0xbd9337c1	-0.071883686
178	0xbd717bfd	-0.058956135
179	0x3be20be3	0.0068983897
180	0xbd8907c9	-0.06690938
181	0xbce33288	-0.027734056
182	0xbe41ae6b	-0.18914191
183	0xbdcaa56e	-0.098948345
184	0xbd1e7654	-0.038687065
185	0xbdf44fcb	-0.11929282
186	0xbdf2e261	-0.118595846
187	0xbcd104e4	-0.025515027
188	0xbe0dca9c	-0.1384682
189	0xbe11bfd1	-0.14233328
190	0xbdbeb041	-0.093109615
191	0xbe6f66a6	-0.23379001
192	0xbd0d1d89	-0.034451995
193	0x3c989a32	0.018628214
194	0xbe1d9665	-0.15389402
195	0xbd3365c0	-0.04379821
196	0x3c1545cf	0.009110882
197	0xbe075408	-0.13215649
198	0xbe15bf61	-0.14623787
199	0xbe42ed4d	-0.19035836
200	0xbe938c71	-0.28818086
201	0xbe1e05a9	-0.15431847
202	0xbe5453b3	-0.20735054
203	0xbea9d4fb	-0.33170304
204	0xbe8919ae	-0.26777405
205	0xbea29620	-0.3175516
206	0xbeea53b0	-0.45766973
207	0xbd86925a	-0.06570883
208	0xbd83a75c	-0.06428406
209	0x3d3a4c6f	0.04548305
210	0xbdf528aa	-0.11970647
211	0xbdfd7161	-0.12375141
212	0x3af612d7	0.0018773925
213	0x3cf26b41	0.029592158
214	0x3d2eabc4	0.042644277
215	0x3e030120	0.12793398
216	0xbc012ec0	-0.007884681
217	0xbd746f3e	-0.0596764
218	0xbca96903	-0.020679956
219	0xbbc9408c	-0.006141728
220	0xbdd6adc8	-0.10482365
221	0xbd39f22e	-0.045396976
222	0x3e154c7f	0.14579962
223	0x3db37989	0.08763415
224	0x3dbc6f4b	0.09200915
225	0xbc7c9f2c	-0.015418809
226	0x3d66f285	0.05638363
227	0x3e0a3c68	0.13499606
228	0xbe55c200	-0.20874786
229	0xbd9796f5	-0.0740184
230	0x3ce2894e	0.027653363
231	0xbcc64281	-0.024201633
232	0xbd55cdf6	-0.052198373
233	0xbe623185	-0.22089203
234	0xbd5c1c50	-0.05373794
235	0xbd6219b7	-0.055200305
236	0xbc78c37f	-0.015183329
237	0xbda62aae	-0.08113609
238	0xbdd4214c	-0.103579134
239	0xbd6d098a	-0.057870425
240	0xbb609111	-0.0034266154
241	0xbcc1beba	-0.023650516
242	0x3c948f82	0.018134836
243	0xbf09f3ef	-0.5388784
244	0xbf306674	-0.6890633
245	0xbec6a894	-0.3880049
246	0xbe5a6701	-0.21328355
247	0xbd32d830	-0.043663204
248	0xbdc24ef4	-0.09487715
249	0x3ed73265	0.42030635
250	0x3f265720	0.6497669
251	0x3e0f3697	0.13985668
252	0xbe6fc984	-0.23416716
253	0xbea605dd	-0.32426348
254	0xbe4008a4	-0.18753296
255	0xbaf37379	-0.0018573842

dense1.1.bn1.weight f4 [36]
0	0x3f25355e	0.64534557
1	0x3eb83dd3	0.35984668
2	0x3ea8a817	0.32940742
3	0x3e9ae560	0.30253124
4	0x3f2beac9	0.6715513
5	0x3ecf1e47	0.40452787
6	0x3ede8f91	0.43468907
7	0x3e911378	0.28335166
8	0x3ed642a8	0.4184773
9	0x3ef24657	0.4731929
10	0x3ebc2788	0.3674891
11	0x3f9fbd26	1.2479599
12	0x3debe7f9	0.11518855
13	0x3e00ed1b	0.12590449
14	0x3e9f6bdb	0.31136975
15	0x3e5a9931	0.213475
16	0x3f8cca58	1.099925
17	0x3f80dc0d	1.0067154
18	0x3f002060	0.500494
19	0x3f328b69	0.69743973
20	0x3f1ab1f7	0.604278
21	0x3f6522ba	0.89506114
22	0x3eaef2f5	0.34169737
23	0x3ecb5337	0.39711925
24	0x3eef07ca	0.4668563
25	0x3f38df56	0.72215784
26	0x3f72fb81	0.94915015
27	0x3f8af12f	1.0854853
28	0x3f0ecdc1	0.55782706
29	0x3e4e30ba	0.20135775
30	0x3f612793	0.8795101
31	0x3fa137c4	1.2595143
32	0x3f41be97	0.7568144
33	0x3f0efea5	0.55857307
34	0x3ecf0b2f	0.4043822
35	0x3f3ae337	0.7300295

dense1.1.bn1.bias f4 [36]
0	0x3e25bbf8	0.16184986
1	0xbe5f6d5b	-0.2181906
2	0xbe10007a	-0.14062682
3	0xbec82c97	-0.3909652
4	0x3ed06557	0.40702316
5	0xbe2bc073	-0.16772632
6	0x3ac11ef0	0.0014733952
7	0xbdd41b61	-0.103567846
8	0x3e8bbcfd	0.27292624
9	0x3bb446d9	0.0055016098
10	0x3d427d76	0.04748293
11	0xbe2dd904	-0.16977316
12	0xbcbab0ae	-0.022789326
13	0xbe46863d	-0.19387145
14	0xbe40baee	-0.18821308
15	0xbe2781cc	-0.16358107
16	0xbe94e2e2	-0.29079348
17	0x3e99d606	0.300461
18	0xbea8f9a7	-0.3300297
19	0xbea6a997	-0.32551262
20	0xbef89b8c	-0.48556173
21	0xbf03cfc8	-0.51488924
22	0x3da4803f	0.080322735
23	0xbe3b2f2d	-0.18279715
24	0xbe8d7859	-0.2763088
25	0x3f4bac3f	0.795597
26	0x3ed599d3	0.4171892
27	0x3e0d2a68	0.13785708
28	0xbe66b2f5	-0.22529204
29	0xbe234332	-0.15943602
30	0xbe4e9676	-0.20174584
31	0x3f27b5b4	0.6551163
32	0x3be50087	0.0069885883
33	0xbe4233bc	-0.18965048
34	0xbdb7d186	-0.0897551
35	0x3e5482df	0.20753048

dense1.1.conv1.weight f4 [12, 36, 3, 3]
0	0xbde2b4ec	-0.11069664
1	0x3e39008e	0.18066618
2	0x3ee90f83	0.45519647
3	0xbe8b8ace	-0.27254337
4	0x3c445a2e	0.011984391
5	0x3ea4db08	0.32198358
6	0xbea92e39	-0.33043078
7	0xbe35dad3	-0.17759256
8	0x3de21d38	0.11040729
9	0xbb8e80bc	-0.0043488424
10	0x3acd6bc1	0.0015672372
11	0xbe1f6ded	-0.15569277
12	0xbd970f5e	-0.07375978
13	0x3b5221d7	0.0032063627
14	0xbdb01e49	-0.085995264
15	0xbd4dfa36	-0.050287448
16	0xbbb94aa3	-0.0056546493
17	0x3c583162	0.0131953675
18	0xbd217d4a	-0.039426126
19	0x3daa3de1	0.08312584
20	0x3e42f461	0.19038536
21	0xbd652f95	-0.05595358
22	0x3dad090e	0.08448993
23	0x3e34c2f4	0.17652494
24	0xbd141bf2	-0.036159463
25	0x3d7a84ac	0.061161682
26	0x3e1dcb49	0.15409578
27	0xbd94edff	-0.07271957
28	0xbc9775b0	-0.018488735
29	0x3d9db8d4	0.07701269
30	0x3c884a70	0.016637057
31	0xbcf7977f	-0.030223606
32	0x3d6be64d	0.05759268
33	0x3dbad6f0	0.09123027
34	0x3cccc4be	0.024996158
35	0x3da7443e	0.08167313
36	0xbe1786da	-0.14797536
37	0x3edf346f	0.4359469
38	0x3e6cce27	0.23125516
39	0xbe569cc8	-0.20958245
40	0x3e89b0a0	0.26892567
41	0x3da079d3	0.07835736
42	0xbe4ccbef	-0.1999967
43	0xbd853a45	-0.06505255
44	0xbe46e79d	-0.19424291
45	0xbcd69a4f	-0.026196627
46	0xbc9b5f7b	-0.018966427
47	0x3c44b7be	0.012006698
48	0xbceca575	-0.02888749
49	0xbd3351d0	-0.043779194
50	0x3bffcb1e	0.007806196
51	0xbcea1c91	-0.028578075
52	0xbd8c2283	-0.0684252
53	0xbcb67e8b	-0.022277137
54	0xbe6bcceb	-0.23027389
55	0xbe77cefc	-0.24200052
56	0xbeec33b9	-0.4613321
57	0xbe8a374d	-0.26995316
58	0xbe03a458	-0.12855661
59	0xbe34715d	-0.1762137
60	0xbd4f6238	-0.050630778
61	0x3d97cc26	0.07411985
62	0xbed1725f	-0.4090757
63	0x3d6d241c	0.057895765
64	0x3db9ad7e	0.09066294
65	0x3c8b7ad7	0.017026348
66	0x3dc8fd24	0.09813908
67	0x3dffb4b8	0.12485641
68	0x3c7756bc	0.015096363
69	0x3c837e36	0.016051393
70	0x3d112517	0.035435762
71	0x3d2aeacb	0.041727822
72	0x3c179226	0.009251153
73	0xbe334a80	-0.17508888
74	0x3cd5f357	0.02611701
75	0xbe3df435	-0.18550189
76	0x3c64d848	0.013967581
77	0x3dac89a8	0.08424693
78	0xbd87a93a	-0.06624074
79	0x3ddc17e4	0.10746744
80	0xbbf730e3	-0.0075436695
81	0xbde807bd	-0.11329601
82	0xbc9c2173	-0.019058919
83	0xbdd10291	-0.10205568
84	0xbe2f569e	-0.17122886
85	0xbd3203e5	-0.043460745
86	0xbdaba167	-0.083803944
87	0xbd982a72	-0.07429971
88	0xbd97bcc5	-0.07409052
89	0xbe0fafcf	-0.1403191
90	0xbe371ff6	-0.17883286
91	0x3df9c8a1	0.1219647
92	0x3c2b5e29	0.010459461
93	0xbe40adf9	-0.18816365
94	0x3d8edc60	0.06975627
95	0xbd26ac71	-0.040691797
96	0xbcbf9dbf	-0.023390649
97	0xbddffab6	-0.10936491
98	0x3d8f073d	0.069838025
99	0xbbf773c0	-0.0075516403
100	0x3d8c4899	0.068497844
101	0x3e47cacf	0.19510959
102	0xbdeed552	-0.11661781
103	0xbd3dd76c	-0.04634802
104	0x3e0c0d10	0.13676858
105	0xbd1fbfa6	-0.03900113
106	0xbdc6b9d4	-0.09703413
107	0x3d8f5815	0.06999222
108	0xbd5ea512	-0.054356642
109	0xbcb025aa	-0.021502335
110	0xbd95036d	-0.07276044
111	0xbd61f629	-0.055166397
112	0x3c0ff003	0.008785251
113	0xbd1b1099	-0.037857626
114	0xbcb4e6fc	-0.022082798
115	0xbc1250f8	-0.008930437
116	0xbc94ab52	-0.018148098
117	0x3cf8b1fb	0.030358305
118	0x3d965571	0.073405154
119	0x3d245adf	0.040125724
120	0x3c6bc065	0.014389132
121	0x3d88e4bc	0.066842526
122	0x3cfe8e1f	0.031073628
123	0x3bf7ec6d	0.007566026
124	0x3cb4dd77	0.022078259
125	0x3c83613e	0.01603758
126	0xbd79b80f	-0.060966548
127	0xbc6bed34	-0.014399815
128	0x3d3cd339	0.046099875
129	0x3cbb7f04	0.022887714
130	0xbce97501	-0.028498175
131	0x3c7c2582	0.015389802
132	0x3dce68c9	0.1007858
133	0xbca5ad39	-0.0202242
134	0x3d0f0893	0.034920286
135	0x3c121243	0.008915487
136	0xbd3b5135	-0.045731742
137	0xbd97d477	-0.07413571
138	0x3bd1d4b0	0.006403528
139	0xbd6b5186	-0.057450794
140	0xbd8f327c	-0.06992051
141	0x3c3bba96	0.01145806
142	0xbcd207e7	-0.025638534
143	0xbc00e6fc	-0.007867571
144	0xbe4fa98f	-0.20279525
145	0xbd82be05	-0.063838996
146	0xbe6ae301	-0.22938158
147	0xbdfd948d	-0.123818494
148	0x3e51ea0a	0.20499435
149	0x3cc88493	0.024477279
150	0xbd0ee162	-0.03488291
151	0x3e1736cd	0.14766999
152	0xbd298e73	-0.041395616
153	0x3d2da8b4	0.042397216
154	0x3eb2a725	0.34893146
155	0x3e9a9543	0.30192003
156	0xbe351c93	-0.17686681
157	0x3e265030	0.16241527
158	0x3e447d3f	0.19188403
159	0xbebaec05	-0.36508194
160	0xbe3381bb	-0.17529957
161	0xbe29193a	-0.1651353
162	0x3e3fc5bb	0.18727772
163	0x3e40ae0d	0.18816395
164	0x3d9c6188	0.0763579
165	0x3d44fecf	0.048094567
166	0x3e166ded	0.14690371
167	0x3deeb0e8	0.11654836
168	0xbd38870d	-0.04505067
169	0x3d9c2c36	0.0762562
170	0x3e0ff924	0.14059883
171	0xbdc97eea	-0.0983866
172	0x3dce3ad0	0.10069811
173	0x3e60079b	0.21877901
174	0x3b881061	0.004152343
175	0x3e229d20	0.15880251
176	0x3e58d81f	0.21176194
177	0x3d48f838	0.049064845
178	0x3e07e25d	0.13269944
179	0x3e061050	0.1309216
180	0xbdf0d3aa	-0.11759122
181	0xbe8a4a6c	-0.27009904
182	0xbe5d0619	-0.21584357
183	0xbe0204d1	-0.1269715
184	0xbe6a2596	-0.228659
185	0xbddedfbb	-0.10882517
186	0xbd19cdb5	-0.037549693
187	0xbe3b3b55	-0.18284352
188	0x3def89ed	0.11696229
189	0xbdeb8b92	-0.1150123
190	0x3e01f0d0	0.12689519
191	0x3e7d5463	0.24739222
192	0xbdf7e545	-0.121042766
193	0x3df77446	0.12082724
194	0x3e926bae	0.28597778
195	0xbd89fd62	-0.06737782
196	0x3dd641fb	0.104618035
197	0x3e749796	0.2388595
198	0xbcb1a8db	-0.021686962
199	0x3c77ef75	0.015132775
200	0xbd1041ce	-0.035219006
201	0x3ccd7e6f	0.025084702
202	0x3cbb67ac	0.022876583
203	0xbcf6ea6f	-0.030141084
204	0x3d030f28	0.031996876
205	0x3d054cb0	0.032543838
206	0xbc4e8858	-0.012605749
207	0xbd7eb82e	-0.062187366
208	0x3da39ca2	0.0798886
209	0x3e09ae9e	0.13445517
210	0x3d048bd2	0.032359906
211	0x3e1d15f4	0.15340406
212	0x3e449fd0	0.19201589
213	0x3d5059c3	0.050866853
214	0x3df9840e	0.121833906
215	0x3dfe0772	0.12403764
216	0x3d9f910b	0.077913366
217	0xbbaafe46	-0.0052183
218	0x3dcbe873	0.099564455
219	0xbd3d16c3	-0.046164285
220	0xbd9c8d1b	-0.07644101
221	0x3e121602	0.14266208
222	0xbc422b00	-0.011851072
223	0xbd7aa234	-0.061189845
224	0x3c88c152	0.016693745
225	0x3d041743	0.032248747
226	0x3db2c9c8	0.08729893
227	0xbea775b8	-0.32707
228	0x3eb83900	0.35980988
229	0xbecfeb86	-0.40609378
230	0xbe41b6f1	-0.18917443
231	0xbda5ce73	-0.08096018
232	0x3da91699	0.08256263
233	0x3ea38562	0.319377
234	0xbc7536ee	-0.01496671
235	0xbebc70de	-0.3680486
236	0x3cac225b	0.021012476
237	0xbeed5dbc	-0.46360576
238	0x3e145c68	0.14488375
239	0x3ebf0484	0.37308133
240	0xbbc416c6	-0.00598416
241	0x3eb21a91	0.34785894
242	0xbd2dcea4	-0.042433396
243	0xbe9ad8ae	-0.30243438
244	0xbec35cf0	-0.38156843
245	0x3d409737	0.04701921
246	0xbf83532e	-1.025976
247	0x3f7d04a0	0.9883518
248	0x3ea30522	0.31839854
249	0x3ebfbcf2	0.3744884
250	0xbea302a3	-0.3183795
251	0xbea84c5d	-0.3287076
252	0x3cf8f604	0.030390747
253	0x3d34a544	0.044102922
254	0x3da9b758	0.08286923
255	0x3d7d38ed	0.061821867

dense1.2.bn1.weight f4 [48]
0	0x3eccc45d	0.39993563
1	0x3e37f44c	0.17964286
2	0x3ebd60d9	0.3698795
3	0x3ef7bb58	0.4838512
4	0x3f575bce	0.8412446
5	0x3e1fd92b	0.15610187
6	0x3f092596	0.53572977
7	0x3e99b7ef	0.30023143
8	0x3e8fac5b	0.28061184
9	0x3eb5fd8c	0.35545003
10	0x3e6b4984	0.22977263
11	0x3f1562bf	0.583538
12	0x3e041933	0.12900238
13	0x3eb0d722	0.34539133
14	0x3e144097	0.14477764
15	0x3efddbac	0.4958166
16	0x3ea2149b	0.31656346
17	0x3f0e117f	0.55495447
18	0x3f2147fd	0.6300047
19	0x3e7ff23b	0.24994747
20	0x3f3e3bc3	0.7430994
21	0x3d7b350b	0.061329883
22	0x3e9fd680	0.31218338
23	0x3e381adf	0.17979
24	0x3f3f8f35	0.7482789
25	0x3ef44606	0.47709674
26	0x3e854903	0.26032266
27	0x3f7bd3b5	0.98369914
28	0x3dd86d59	0.105677314
29	0x3e2ea72c	0.17055959
30	0x3f2652c0	0.64970016
31	0x3f611bec	0.8793323
32	0x3e9bec39	0.3045366
33	0x3e50b759	0.20382442
34	0x3e89f8ef	0.26947734
35	0x3f211d52	0.62935364
36	0x3fba8f32	1.457495
37	0x3f72cc1a	0.94842684
38	0x3ea3c147	0.31983396
39	0x3f2679a3	0.6502935
40	0x3f403b5a	0.75090563
41	0x3ee925c2	0.4553662
42	0x3eb931f5	0.36170927
43	0x3f828dbb	1.0199503
44	0x3fa6d1f3	1.3032821
45	0x3ee02a5a	0.43782312
46	0x3e36ecad	0.17863722
47	0x3f333271	0.6999884

dense1.2.bn1.bias f4 [48]
0	0xbb143e4e	-0.0022620144
1	0xbd4e21d0	-0.050325215
2	0xbebc5dbc	-0.36790264
3	0xbed49a1c	-0.41523826
4	0x3ec00d15	0.3750998
5	0xbd723516	-0.059132658
6	0x3de62fa7	0.11239558
7	0xbe6c009e	-0.2304711
8	0x3d6aa466	0.05728569
9	0x3d724d04	0.05915548
10	0xbd0b2e3a	-0.033979632
11	0x3ea3b5ed	0.31974736
12	0xbd204050	-0.039123833
13	0xbd80eef4	-0.06295577
14	0x3c17c2db	0.009262766
15	0xbf0783e8	-0.5293565
16	0x3e7bc0a7	0.2458521
17	0xbee3c229	-0.4448407
18	0xbe594a72	-0.21219805
19	0xbe79d354	-0.24397022
20	0x3ef9e8b1	0.48810342
21	0xbdbec110	-0.093141675
22	0xbdfeb955	-0.12437693
23	0xbe4584ab	-0.1928889
24	0xbf002e6a	-0.5007082
25	0x3e74a56f	0.23891233
26	0x3d6a6d91	0.057233397
27	0x3d8d021f	0.0688517
28	0xbd4d7cc6	-0.05016782
29	0xbe090ddc	-0.13384193
30	0x3dca5002	0.098785415
31	0x3ec0f4f4	0.37686884
32	0xbdbf86a8	-0.093518555
33	0x3dc8e7dc	0.09809849
34	0xbe5da5f7	-0.21645342
35	0xbe5fcd29	-0.21855606
36	0x3f1164a2	0.5679418
37	0xbd3a1947	-0.045434263
38	0xbe7a2ea0	-0.24431849
39	0xbe319497	-0.17341839
40	0xbf18d448	-0.59698915
41	0xbea332bb	-0.31874642
42	0xbd6f61f0	-0.05844301
43	0xbeb51381	-0.35366443
44	0x3eafba3a	0.34321767
45	0xbd016e88	-0.03159955
46	0xbd901a20	-0.07036233
47	0x3eb3b0f3	0.3509594

dense1.2.conv1.weight f4 [12, 48, 3, 3]
0	0x3db8529d	0.09000132
1	0xbd99920c	-0.07498559
2	0xbde74371	-0.1129216
3	0x3d9999de	0.07500051
4	0xbdc4d1be	-0.09610318
5	0xbe08ce00	-0.13359833
6	0x3daa16de	0.08305143
7	0xbd90b44f	-0.07065641
8	0xbd806964	-0.06270102
9	0x3c5848ed	0.013200981
10	0x3b87ef21	0.0041483794
11	0xbd03912d	-0.032120872
12	0xb9e1f040	-0.00043094344
13	0xba69a69b	-0.0008913071
14	0xbd077de0	-0.033079028
15	0x3cb33920	0.021877825
16	0x3c8e1e07	0.017348303
17	0xbbeccc01	-0.0072264676
18	0x3a70c600	0.0009184778
19	0xbd0622d9	-0.032748077
20	0xbcbf2a28	-0.023335531
21	0xbc09fdab	-0.008422296
22	0xbd8f40fd	-0.069948174
23	0xbd8aa2be	-0.06769322
24	0xbb324e9c	-0.00272075
25	0xbd54575a	-0.051841117
26	0xbd8a60b2	-0.067567244
27	0xbd599e89	-0.053129707
28	0xbd9d5fbe	-0.07684277
29	0xbdd35236	-0.10318415
30	0x3d8d6b6a	0.06905253
31	0x3d874f1d	0.066068865
32	0x3ccb1c3a	0.024793733
33	0x3d8aa39d	0.06769488
34	0x3dbd7737	0.09251254
35	0x3da1e8a4	0.07905701
36	0xbd05d2f0	-0.03267187
37	0x3db21d55	0.08697001
38	0x3dfac3f9	0.1224441
39	0xbd1e00ea	-0.03857509
40	0x3dc6493b	0.09681936
41	0x3e058b12	0.13041332
42	0xbd834aaa	-0.064107254
43	0x3d09db53	0.03365643
44	0x3d34b36b	0.04411642
45	0xbc4fdf03	-0.0126874475
46	0xbd3de012	-0.04635627
47	0xbd86fa55	-0.06590716
48	0xbc36c7a2	-0.011155995
49	0xbcaa3911	-0.020779165
50	0xbd1d96ae	-0.038473777
51	0x3cb90174	0.0225837
52	0x3b728d69	0.0037010557
53	0x3c4d0375	0.012513031
54	0x3e0ebdf5	0.1393965
55	0xbe2e75d7	-0.1703714
56	0x3d0e6ebc	0.034773573
57	0x3ea8ab9d	0.3294343
58	0x3dbf1c8f	0.09331619
59	0x3ed50e05	0.4161226
60	0x3e8a42ab	0.2700399
61	0x3db74133	0.08947983
62	0x3ec33213	0.3812414
63	0xbcace8d6	-0.021107119
64	0xbbf9df5d	-0.007625504
65	0x3ca8a4ba	0.02058636
66	0xba03da62	-0.0005029795
67	0xbca73f96	-0.020416062
68	0xbc81d55b	-0.015848806
69	0xbb99d247	-0.0046942565
70	0xbca72d7b	-0.020407429
71	0xbd4496de	-0.04799544
72	0xbdded0e8	-0.108796895
73	0x3b9bfa29	0.004760046
74	0x3e442472	0.19154528
75	0xbcb56c61	-0.022146406
76	0x3d85831c	0.06519148
77	0x3e0c64f1	0.13710381
78	0x3e0abc48	0.13548386
79	0x3ddc46a2	0.1075566
80	0x3d7026e2	0.05863083
81	0x3d928988	0.07155138
82	0x3c127c2a	0.008940736
83	0x3d7b213c	0.06131099
84	0x3e0d7194	0.13812858
85	0x3db4de7a	0.088314965
86	0x3e024c53	0.12724428
87	0x3ddd9d93	0.108210705
88	0x3d0bd027	0.034134056
89	0x3caddd4c	0.021223687
90	0x3d3eb25b	0.04655681
91	0x3c192958	0.009348236
92	0xbc7ad03f	-0.015308439
93	0x3c7c8c73	0.015414345
94	0xbd448915	-0.047982294
95	0xbdad6852	-0.08467163
96	0x3d0b0a50	0.03394538
97	0xbc8574a6	-0.016290974
98	0xbd15bb54	-0.036555603
99	0x3dae8d59	0.08523054
100	0x3cffc0aa	0.0312198
101	0x3dda50ca	0.106599405
102	0x3d946d96	0.07247464
103	0xbb9397fe	-0.004504203
104	0x3d789858	0.06069216
105	0x3d9a79c5	0.07542757
106	0xbcbd3213	-0.023095166
107	0xbc080ae8	-0.0083033815
108	0xbcf0670d	-0.029346013
109	0xbc49d939	-0.012319856
110	0x3c2c3130	0.010509774
111	0xbcfcfec1	-0.030883195
112	0xbc6c9651	-0.014440135
113	0x3bcb0d6b	0.006196668
114	0xbd11d455	-0.035602886
115	0xbcc20575	-0.023684243
116	0xbb393cd8	-0.0028265025
117	0xbbb4fde2	-0.0055234293
118	0x3da0c558	0.0785014
119	0x3e1c93e5	0.15290792
120	0xbd0176b8	-0.03160736
121	0x3d3f8112	0.04675395
122	0x3e00b9b6	0.12570843
123	0xbd88702e	-0.066620216
124	0xbb158cc6	-0.0022819503
125	0x3d9cf530	0.07663953
126	0x3c410f34	0.01178341
127	0x3c3b3aa2	0.011427553
128	0xbbac67a7	-0.0052613798
129	0x3cfbd512	0.030741248
130	0x3d1344fb	0.035954457
131	0x3d24b3c2	0.040210493
132	0x3cef23e8	0.029191926
133	0x3d69bbad	0.057063747
134	0x3d565fb3	0.05233736
135	0x3d05d55b	0.032674175
136	0x3d8446fd	0.064588524
137	0x3e0b3467	0.13594209
138	0x3b9b229a	0.0047343494
139	0x3cfe6c6d	0.03105756
140	0x3e0deaca	0.13859096
141	0xbc13edfd	-0.009028909
142	0x3d4ac805	0.04950716
143	0x3e09d4f0	0.13460135
144	0xbb426c2e	-0.002966653
145	0x3dbe3c50	0.092888474
146	0x3e54cb78	0.20780742
147	0xbd3ca2ca	-0.046053685
148	0x3da67b44	0.0812898
149	0x3e581bd7	0.2110437
150	0xbd9cb55c	-0.07651779
151	0x3d81ca62	0.063374296
152	0x3e40fe75	0.18847068
153	0x3e152c57	0.14567696
154	0x3d0b5572	0.034017034
155	0xbdaac68c	-0.08338651
156	0x3df002a9	0.117192574
157	0x3c96b5b1	0.018397184
158	0xbda32716	-0.079664394
159	0x3d672533	0.05643196
160	0xbcbff40f	-0.023431806
161	0xbd8503b2	-0.064948454
162	0xbdebf691	-0.11521638
163	0x3d9a18d5	0.075242676
164	0x3e9143f4	0.28372157
165	0xbe1ba1dd	-0.15198465
166	0x3d3257d0	0.043540776
167	0x3e885811	0.2662969
168	0xbe040144	-0.12891108
169	0x3d3c3f42	0.045958765
170	0x3e5e4c2b	0.21708743
171	0x3debecd9	0.115197845
172	0x3de6ecf5	0.11275665
173	0x3dd61f61	0.10455204
174	0x3e023f89	0.12719549
175	0x3e08ec52	0.13371399
176	0x3dedca16	0.116108105
177	0x3dd9f37f	0.10642146
178	0x3dd49bbe	0.10381268
179	0x3de431ad	0.111422874
180	0xbee2cce1	-0.44296935
181	0xbe92b387	-0.28652593
182	0xbeb51cca	-0.35373527
183	0xbf32e43e	-0.6987952
184	0xbf0b7608	-0.54476976
185	0xbf2df697	-0.6795439
186	0xbef85b54	-0.48507178
187	0xbebdd3da	-0.37075692
188	0xbefa6100	-0.4890213
189	0x3bb53e80	0.005531132
190	0x3ae08bc7	0.0017131501
191	0x3bb0610d	0.005382663
192	0x3c5fe06b	0.013664345
193	0xbaf5a862	-0.0018742199
194	0xbc7d04ba	-0.015443021
195	0x3cc12a30	0.023579687
196	0x3c86b58e	0.016443994
197	0xbc408285	-0.011749868
198	0x3d4866a6	0.04892602
199	0x3da84ceb	0.08217796
200	0x3dd7ef13	0.10543647
201	0x3cae01f9	0.021241175
202	0x3da16fb2	0.07882632
203	0x3df51bb8	0.119681776
204	0x3c65a4ac	0.014016312
205	0x3d3343b6	0.043765746
206	0x3df7a371	0.12091721
207	0x3d5ae06a	0.053436674
208	0x3d666199	0.05624542
209	0x3d4195af	0.04726189
210	0x3d848fbd	0.064727284
211	0x3d434652	0.047674485
212	0x3d47341d	0.048633683
213	0x3d95ad4a	0.07308443
214	0x3d862023	0.06549098
215	0x3d5c1421	0.053730134
216	0x3e6c7e2b	0.23095004
217	0x3d451e37	0.04812452
218	0xbce40984	-0.027836569
219	0x3e76da43	0.24106698
220	0x3cd22d01	0.025656225
221	0xbda582e4	-0.08081606
222	0x3e536872	0.20645311
223	0xbc95311b	-0.018211892
224	0xbdffb6bc	-0.12486026
225	0xbcf15357	-0.029458685
226	0x3c1f8460	0.0097361505
227	0x3d9cbc23	0.07653072
228	0xbde61a9c	-0.11235544
229	0x3ab6a3a2	0.0013934264
230	0x3e769cfb	0.24083321
231	0xbd887688	-0.06663233
232	0x3cbe3b14	0.02322153
233	0x3e8ab2e4	0.27089608
234	0xbc7fc19f	-0.015610128
235	0xbb2d08e5	-0.0026403007
236	0x3db34362	0.087530866
237	0x3de025e2	0.109447256
238	0x3d7335c3	0.059377443
239	0x3c034023	0.008010897
240	0x3e0e3f86	0.1389142
241	0x3d7ed425	0.062214036
242	0x3beb901c	0.00718881
243	0x3db125ba	0.08649774
244	0xbd29ba71	-0.04143757
245	0xbdd395f9	-0.103313394
246	0x3f11f712	0.57017624
247	0x3eae6d97	0.34067985
248	0x3dc862a2	0.09784438
249	0x3e58bfa0	0.21166849
250	0x3e0e3b4e	0.1388981
251	0xbd4665ee	-0.04843705
252	0xbd3764d3	-0.044773888
253	0xbd27af73	-0.040938806
254	0xbce3cdf6	-0.02780817
255	0xbd5053da	-0.050861217

dense1.3.bn1.weight f4 [60]
0	0x3ea1daa6	0.31612128
1	0x3e60ab64	0.2194038
2	0x3e3a9f01	0.18224718
3	0x3ef935a8	0.4867375
4	0x3f0fbcec	0.56147647
5	0x3e6ae4d0	0.22938848
6	0x3fa95bf7	1.323119
7	0x3e996b64	0.29964745
8	0x3edabdfe	0.42723078
9	0x3e7c6341	0.24647237
10	0x3df31f5c	0.11871216
11	0x3e8e4e1a	0.27793962
12	0x3e5561a1	0.20838024
13	0x3e3df298	0.18549573
14	0x3f3fee76	0.7497324
15	0x3e265df1	0.16246773
16	0x3ea508ad	0.32233182
17	0x3e09c05a	0.13452283
18	0x3e6bdec0	0.23034191
19	0x3e18f150	0.14935803
20	0x3fb0701d	1.3784214
21	0x3e66b884	0.22531325
22	0x3e453eab	0.19262187
23	0x3da666a9	0.081250496
24	0x3e697255	0.2279752
25	0x3f4cfc33	0.80072325
26	0x3ed8f0a5	0.42371097
27	0x3f3da6fb	0.74082917
28	0x3e429b66	0.19004592
29	0x3eb4b07e	0.35290903
30	0x3f3afc47	0.73041195
31	0x3f83c730	1.0295162
32	0x3ed42b23	0.4143916
33	0x3ef8e7a4	0.48614228
34	0x3e1728b0	0.14761615
35	0x3f2fc330	0.6865721
36	0x3f6098ba	0.8773304
37	0x3f701b54	0.937917
38	0x3e2cad5f	0.16863011
39	0x3f8d2af6	1.1028736
40	0x3f10cda5	0.5656379
41	0x3e1f3fc6	0.15551671
42	0x3e3bce1a	0.1834034
43	0x3f104ae8	0.563643
44	0x3ef174e9	0.47159508
45	0x3eeb6ed0	0.4598298
46	0x3f9b1005	1.2114264
47	0x3edcac81	0.4310036
48	0x3f79c2fc	0.9756315
49	0x3eceaa8b	0.4036449
50	0x3e3ff578	0.18745983
51	0x3f032388	0.5122609
52	0x3ec6ba1d	0.38813868
53	0x3e29cb4d	0.1658146
54	0x3fd0cade	1.631191
55	0x3f2d2b19	0.67643887
56	0x3f9ec967	1.2405213
57	0x3e76840e	0.24073812
58	0x3d84623c	0.06464049
59	0x3ed39963	0.41327962

dense1.3.bn1.bias f4 [60]
0	0xbdf56351	-0.11981834
1	0xbd58a10a	-0.052887954
2	0xbe027673	-0.12740497
3	0x3e062a73	0.1310213
4	0x3d33d8dc	0.043907985
5	0x3c38666f	0.011254891
6	0xbce78cc5	-0.028265366
7	0x3bc7e2ec	0.0061000492
8	0xbe1b8480	-0.15187263
9	0xbd61a436	-0.055088244
10	0xbd46e2ea	-0.048556246
11	0xbce78a7f	-0.028264282
12	0xbd35ef4f	-0.044417676
13	0xbd8fb908	-0.07017714
14	0x3e037373	0.12837009
15	0xbe29cf7d	-0.16583057
16	0xbe490b74	-0.19633275
17	0xbdd21722	-0.102583185
18	0xbd2b41c2	-0.04181076
19	0xbde1d673	-0.11027231
20	0x3d1c19bc	0.03811048
21	0x3d00550a	0.0313311
22	0xbcec4df7	-0.02884577
23	0xbda06364	-0.07831457
24	0xbe1de64c	-0.15419883
25	0xbdd9a4e4	-0.106271535
26	0xbeabb49f	-0.3353624
27	0xbe8177fc	-0.25286853
28	0xbe331e34	-0.1749199
29	0xbe700bed	-0.2344205
30	0xbe1e538c	-0.15461558
31	0xbf068e06	-0.5256046
32	0xbe7a1177	-0.24420725
33	0x3d3428a7	0.04398408
34	0xbdc38c77	-0.09548276
35	0xbe698cf6	-0.22807679
36	0xbe95b130	-0.29236746
37	0x3ecae572	0.39628178
38	0xbe2c089f	-0.16800164
39	0xbe11c308	-0.14234555
40	0xbeb1db1a	-0.34737474
41	0xbe483b16	-0.1955379
42	0xbd6d1cf6	-0.057888947
43	0x3ce939b0	0.02846989
44	0xbe00e656	-0.12587866
45	0xbbafad28	-0.005361218
46	0x3e12dba6	0.14341602
47	0xbd8b0d9a	-0.06789704
48	0x3d63f05b	0.055649143
49	0x3de7abfc	0.113121
50	0xbc866e18	-0.016409919
51	0xbd7f0853	-0.062263798
52	0x3df37596	0.11887662
53	0xbd684fb5	-0.05671664
54	0x3d5128d8	0.051064342
55	0x3c6d0953	0.014467555
56	0x3d766961	0.06015909
57	0xbcc4a004	-0.024002083
58	0xbd1f80bc	-0.03894113
59	0x3cbfd7fb	0.023418417

dense1.3.conv1.weight f4 [12, 60, 3, 3]
0	0x3cddacf8	0.027060017
1	0xbd0dad0d	-0.034588862
2	0xb8b22ed2	-8.4964224e-05
3	0x3ada4871	0.0016653669
4	0xbda7578e	-0.081709966
5	0xbda58a52	-0.08083023
6	0x3a662676	0.0008779535
7	0xbd7e9448	-0.06215313
8	0xbd3df538	-0.046376437
9	0x3cb0fc72	0.02160475
10	0x3b9a374a	0.004706298
11	0xbd5215ef	-0.05129045
12	0xbbc8f11d	-0.0061322586
13	0xbcf93f25	-0.030425617
14	0xbd85f09a	-0.06540032
15	0xbbd03bcd	-0.006354785
16	0xbcc04b37	-0.023473365
17	0xbd1e6349	-0.038668904
18	0x3c0793d3	0.00827499
19	0x3ca81e02	0.020522121
20	0x3d11b781	0.035575394
21	0xbcc23dbc	-0.023711078
22	0xbcdb887d	-0.026798481
23	0xbb95ec38	-0.0045752786
24	0xbced15ec	-0.028941117
25	0xbd31f65a	-0.04344783
26	0xbc77fb6f	-0.01513563
27	0x3c330350	0.010926083
28	0x3adfccbc	0.0017074565
29	0x3d3c77a4	0.046012536
30	0x3d59ca76	0.053171597
31	0x3c66314d	0.01404984
32	0x3da2db13	0.07951941
33	0xbc1e3106	-0.009655243
34	0xbd3cb892	-0.046074457
35	0x3d309768	0.043113142
36	0x3e43046f	0.1904466
37	0x3e22daf7	0.15903841
38	0x3d412128	0.04715076
39	0x3e168f0d	0.14703007
40	0x3df1b699	0.11802406
41	0x3bfb8a11	0.007676371
42	0x3db6e1ec	0.0892981
43	0x3d8107cf	0.063003175
44	0xbcfb502e	-0.030677881
45	0xbd511233	-0.051042747
46	0xbd5db7ef	-0.05413049
47	0xbd54d1b0	-0.051957786
48	0xbd4cd2aa	-0.050005592
49	0xbd5a00f6	-0.053223573
50	0xbd872106	-0.065980956
51	0xba6fe41f	-0.0009151119
52	0xbb7035e8	-0.0036653224
53	0xbb942bf0	-0.0045218393
54	0xbdcacff1	-0.09902943
55	0xbe225365	-0.15852125
56	0x3e13dc61	0.14439537
57	0xbd2b78db	-0.041863304
58	0xbde17324	-0.110082895
59	0x3e0cfb95	0.13767846
60	0x3b81b292	0.003958055
61	0xbdfc31f1	-0.12314213
62	0x3d5c507d	0.053787697
63	0x3dcba3dc	0.09943363
64	0x3d8389e0	0.06422782
65	0x3d5da650	0.054113686
66	0x3cb48156	0.022034328
67	0x3b67bdb2	0.003536087
68	0x3c9096cd	0.017650032
69	0xbc20dc6c	-0.009818178
70	0xbcaa8a13	-0.020817792
71	0xbb28cdca	-0.0025757425
72	0x3de38921	0.1111014
73	0x3e12a2ce	0.14319918
74	0x3e57e10a	0.2108194
75	0x3cd42907	0.02589847
76	0x3d449935	0.047997672
77	0x3daeff0a	0.085447386
78	0xbc24d274	-0.010059942
79	0x3cb262ec	0.021775685
80	0x3d590d8f	0.052991446
81	0x3cce746e	0.025202002
82	0xbc6276e2	-0.013822289
83	0xbcb29416	-0.021799129
84	0x3cc5a61d	0.02412706
85	0xbcb66ab0	-0.02226767
86	0xbd6d4d3e	-0.057934992
87	0x3b2bf233	0.0026236891
88	0xbcad41de	-0.021149572
89	0xbd1ff21c	-0.039049253
90	0xbc0b9c2b	-0.00852112
91	0xbd063746	-0.032767557
92	0xbd5c1b8c	-0.05373721
93	0xbd517e89	-0.051146064
94	0xbd8fbfad	-0.07018981
95	0xbd5dd68b	-0.054159682
96	0xbc64f072	-0.013973342
97	0xbcfd406f	-0.030914513
98	0xbd13e2fe	-0.03610515
99	0xbcd15105	-0.025551328
100	0xbca424f2	-0.020037148
101	0x3c5e37a6	0.013563072
102	0xbd2a8d76	-0.041638814
103	0xbd3c9c48	-0.04604748
104	0xbca7fcf4	-0.02050636
105	0xbcc11823	-0.02357108
106	0xbd51aee3	-0.051192176
107	0x399cfb7a	0.00029942003
108	0xbd029289	-0.031878028
109	0xbcfff741	-0.03124583
110	0xbd0f12f7	-0.034930196
111	0xbd2ec4b8	-0.042668074
112	0xbd52560b	-0.05135159
113	0xbd192e1b	-0.037397485
114	0xbd21cb7a	-0.03950069
115	0xbd207203	-0.03917123
116	0xbd1ed326	-0.038775586
117	0x3cfd2fc7	0.030906571
118	0x3d28633b	0.04111026
119	0x3d3c7bde	0.046016566
120	0x3cf9dad4	0.030499853
121	0x3ce9c0f1	0.028534384
122	0x3d078479	0.03308532
123	0x3ca92962	0.020649616
124	0x3c7adc90	0.015311375
125	0x3c32fb9d	0.010924247
126	0xbd9085f4	-0.070567995
127	0xbd4c418e	-0.049867205
128	0x3d3d8c92	0.046276636
129	0xbb439e5e	-0.0029849033
130	0xbc90345b	-0.01760309
131	0x3da79682	0.08183004
132	0xbd2c2de6	-0.04203596
133	0xbd506ae5	-0.050883193
134	0x3c48b282	0.012249591
135	0x3b8eeafc	0.0043615084
136	0x3c06a2b0	0.008217499
137	0x3d01e8b1	0.031716052
138	0x3bdfcc95	0.006829808
139	0x3c0077a2	0.007841023
140	0x3d11bb4c	0.03557901
141	0x3a20e97c	0.00061383075
142	0x3bcf530b	0.006327038
143	0x3d4505d5	0.048101265
144	0xbc9f9f8b	-0.019485256
145	0xbc546d6e	-0.012965543
146	0x3c8b6f2d	0.017020786
147	0xbcb47730	-0.02202949
148	0xbcf0e680	-0.029406786
149	0x3bf10cac	0.007356247
150	0x3b47dac5	0.0030495387
151	0xbc354f0d	-0.01106621
152	0xbc4d08a0	-0.012514263
153	0x3c92742c	0.01787766
154	0x39f7a46d	0.00047234018
155	0xbcf20359	-0.029542612
156	0x3d09da11	0.03365523
157	0x3cfa54f0	0.03055808
158	0xbcc98ab7	-0.024602277
159	0x3d2c9773	0.04213662
160	0x3c97c1d8	0.01852505
161	0xbb5f24be	-0.0034049
162	0x3da49fb8	0.080382764
163	0x3da63d0c	0.081171125
164	0x3db6281b	0.08894368
165	0x3d93bb34	0.072134405
166	0x3d815840	0.063156605
167	0x3d6f4c23	0.05842222
168	0x3d70db3e	0.058802836
169	0x3d3b740e	0.045764975
170	0x3d30268d	0.043005515
171	0x3d7c52d6	0.061602436
172	0x3d6e5b37	0.058192458
173	0x3dacb8a9	0.08433659
174	0x3d734575	0.05939241
175	0x3d83c76b	0.0643452
176	0x3d7c959d	0.06166612
177	0x3d791d52	0.060818978
178	0x3d6bac39	0.05753729
179	0x3d7caecd	0.06169014
180	0x3e4eeb04	0.20206839
181	0xbe134248	-0.14380753
182	0xbe93d1e8	-0.28871083
183	0x3dba7589	0.09104449
184	0xbe3faa2a	-0.18717256
185	0xbe6b7b6f	-0.22996305
186	0xbca2bb43	-0.019864684
187	0xbe5e8031	-0.21728589
188	0xbe3a879c	-0.18215793
189	0x3d328df7	0.04359242
190	0x3d2fa6c3	0.042883646
191	0x3dbe89a6	0.09303598
192	0xbc698d0e	-0.014254821
193	0xbc033b4a	-0.008009741
194	0x3d471521	0.048604134
195	0x3bcd7604	0.006270172
196	0xbb04288a	-0.0020165765
197	0x3d62c12c	0.055360004
198	0xbb583841	-0.0032992514
199	0xbc053537	-0.008130363
200	0xbd02ddf4	-0.031949952
201	0x3bd48e86	0.0064867167
202	0xbc04b8f5	-0.008100738
203	0xbd0038ff	-0.031304356
204	0x3bb0a775	0.005391056
205	0x3c5155c8	0.0127767995
206	0x3aa37291	0.0012470057
207	0x3c41ffb5	0.01184075
208	0x3d0bedb8	0.034162253
209	0x3d380130	0.044923007
210	0xbc5df2dc	-0.013546672
211	0x3abb6ab0	0.0014298763
212	0x3cd44f2c	0.025916658
213	0x3b62a520	0.0034583285
214	0x3c25a3d4	0.01010986
215	0x3c591b20	0.013251096
216	0x3c9f8ed2	0.019477282
217	0xbb8c0fa5	-0.004274326
218	0x3d75ddfe	0.06002616
219	0xbc95b475	-0.018274525
220	0xbcc22928	-0.023701265
221	0x3c83e547	0.016100539
222	0xbcf22f59	-0.029563593
223	0xbcc76ea2	-0.024344746
224	0x3ccbf733	0.024898147
225	0xbc4c2b99	-0.012461566
226	0xbdec1136	-0.1152672
227	0xbd586208	-0.052827865
228	0xbd1a1ebb	-0.037626963
229	0xbd6f503d	-0.05842613
230	0x3c609542	0.013707461
231	0xbd59d8a9	-0.05318514
232	0xbd4c6767	-0.0499033
233	0x3a2c8cc6	0.0006582256
234	0xba9eb0f0	-0.0012107175
235	0xbb650927	-0.0034948082
236	0xbb1dc444	-0.0024073282
237	0xbd1b4bd3	-0.03791411
238	0xbd65814a	-0.056031503
239	0xbcd88abb	-0.02643334
240	0xbd276c59	-0.040874813
241	0xbd0d4e1a	-0.03449831
242	0x3cd7eccd	0.026358033
243	0x3db91cd2	0.090387
244	0xbd0cfcc0	-0.03442073
245	0xbe063e21	-0.13109638
246	0x3d983965	0.07432822
247	0xbd7ca61e	-0.06168186
248	0xbe1d905f	-0.15387104
249	0x3dabd21a	0.08389683
250	0xbdbd135a	-0.09232207
251	0xbe381df0	-0.1798017
252	0x3dd48ac6	0.103780314
253	0x3de15f1f	0.11004471
254	0x3dfcafa6	0.1233819
255	0x3ddc83cd	0.107673265

dense1.4.bn1.weight f4 [72]
0	0x3f34e38b	0.70659703
1	0x3ea70243	0.32618913
2	0x3f146a1e	0.5797442
3	0x3f718b77	0.9435343
4	0x3f841c93	1.032122
5	0x3e1992e0	0.14997435
6	0x3ee9c454	0.456576
7	0x3f00aa90	0.5026026
8	0x3f9d63b6	1.2296054
9	0x3e53a119	0.20666923
10	0x3e37bc01	0.17942812
11	0x3e20dbcb	0.15708844
12	0x3e09b7db	0.13449042
13	0x3e9df6d7	0.30852386
14	0x3f3ee982	0.74575055
15	0x3ee81207	0.45326254
16	0x3f39048e	0.72272575
17	0x3ef4d7bc	0.47820842
18	0x3e97110c	0.29505193
19	0x3edcc647	0.43120024
20	0x3f137acc	0.5760925
21	0x3e83b958	0.25727344
22	0x3dda0ef1	0.10647381
23	0x3e13b46b	0.14424293
24	0x3e9067fe	0.2820434
25	0x3f7f8a58	0.9982047
26	0x3f0c1597	0.54720443
27	0x3e43f122	0.19134954
28	0x3e94d3d4	0.29067862
29	0x3e377186	0.179144
30	0x3eccc475	0.39993635
31	0x3e8659cb	0.26240382
32	0x3ebebc91	0.3725324
33	0x3ee7a541	0.45243266
34	0x3ecbb71c	0.3978814
35	0x3f023e57	0.50876373
36	0x3f1657c0	0.58727646
37	0x3f8c1b10	1.0945759
38	0x3e962dfe	0.29331964
39	0x3e6065ed	0.21913882
40	0x3eaed8f0	0.34149885
41	0x3dbb1d6f	0.091364734
42	0x3ea747d3	0.32671985
43	0x3f0a5a5e	0.5404414
44	0x3e960a35	0.29304662
45	0x3f1967de	0.59924114
46	0x3f584778	0.8448405
47	0x3ebca484	0.36844265
48	0x3ec8463b	0.39116082
49	0x3daf2a1a	0.08552952
50	0x3e8eb08a	0.27869064
51	0x3ec1c741	0.3784733
52	0x3e8bacb1	0.2728019
53	0x3e8e5d82	0.27805716
54	0x3eada30a	0.3391345
55	0x3e952543	0.2912999
56	0x3f9ddfb8	1.2333899
57	0x3e7a301d	0.24432416
58	0x3e1e6526	0.15468273
59	0x3f14330c	0.5789039
60	0x3e350ce8	0.17680705
61	0x3e30e273	0.17273884
62	0x3fc19f49	1.5126735
63	0x3e80a164	0.2512313
64	0x3e0309e4	0.12796742
65	0x3d63ed79	0.055646393
66	0x3da24579	0.07923407
67	0x3f50a9ff	0.81509393
68	0x3dbaff07	0.09130674
69	0x3f2f4668	0.68466806
70	0x3e98f8e2	0.29877383
71	0x3e5a85fc	0.21340173

dense1.4.bn1.bias f4 [72]
0	0xbee08846	-0.43853968
1	0xbcf3c32e	-0.029756155
2	0xbe954681	-0.29155353
3	0xbd86cc19	-0.06581897
4	0xbe9caebe	-0.30602068
5	0xbd469693	-0.048483443
6	0xbdc1da74	-0.09465495
7	0xbd240380	-0.0400424
8	0x3da97d11	0.08275808
9	0xbc53f6d2	-0.0129372645
10	0xbd30e342	-0.04318548
11	0xbd310b19	-0.043223474
12	0xbd4eef48	-0.050521165
13	0xbe0af11b	-0.13568537
14	0xbaeee9ec	-0.0018227673
15	0xbe95f44d	-0.2928795
16	0xbef37da7	-0.47556803
17	0xbebd3221	-0.36952308
18	0xbe7ff596	-0.24996027
19	0xbe9b8dec	-0.30381715
20	0xbe7d642f	-0.24745248
21	0x3d786868	0.060646445
22	0x3c9cfc30	0.019163221
23	0x3d59b7e3	0.053153884
24	0x3c6b2553	0.0143521605
25	0x3dff7b8f	0.12474739
26	0xbe50ba73	-0.20383625
27	0xbe3795b0	-0.17928195
28	0x3bdf0287	0.006805721
29	0xbd82ecf9	-0.06392855
30	0xbc87f27a	-0.016595114
31	0xbd5c31d2	-0.05375845
32	0xbe1f0154	-0.1552785
33	0xbdfd7561	-0.12375904
34	0xbd9c0811	-0.07618726
35	0x3b9c6eeb	0.0047739646
36	0xbe19fa0f	-0.15036796
37	0xbdb96de2	-0.090541616
38	0xbeee79ad	-0.46577206
39	0xbd41b988	-0.047296077
40	0xbe4d1136	-0.20026097
41	0xbdc508f2	-0.09620847
42	0xbd4d9f63	-0.05020083
43	0xbe2eab19	-0.17057456
44	0x3c72a8e1	0.014810772
45	0x3e11b02c	0.1422736
46	0xbe0c97e7	-0.13729821
47	0x3eec11cc	0.46107328
48	0x3d01fb48	0.03173378
49	0x3ccf1d40	0.025282502
50	0xbc5714ad	-0.013127488
51	0x3cebca5f	0.028783021
52	0x3d76505b	0.060135227
53	0xbd418c93	-0.047253203
54	0xbaa244cc	-0.0012380122
55	0xbdddd122	-0.108309045
56	0xbe33f6dd	-0.1757464
57	0x3c231283	0.009953144
58	0x3d1c1b38	0.038111895
59	0x3e31f669	0.17379154
60	0xbd553fcb	-0.05206279
61	0xbd46ac1e	-0.048503987
62	0xbe88a075	-0.2668492
63	0x3d23cd98	0.03999099
64	0xbd071907	-0.032982852
65	0x3ba42a90	0.0050099567
66	0xbd7e27da	-0.062049724
67	0xbc039cea	-0.008033017
68	0xbdb25fbc	-0.08709666
69	0x3df8fbab	0.12157377
70	0x3ca2a197	0.019852443
71	0x3cbf1881	0.023327114
