independent_train/client28/best_model_0.0.pth (torch, 420139 bytes, 98 tensors)

conv1.0.weight f4 [16, 3, 3, 3]
00000000: f8d3 d6bd ddc0 35be 9cee e63e 0f84 7bbf
00000010: bc93 75bf aa43 23bf 89a1 923e 0962 873e
00000020: 8cd4 cfbe 267a 76bd cc9a 463e 7524 2c3f
00000030: 759a 09bf 6722 59be 9ab2 eabd 6a66 3e3f
00000040: 9f3c 7b3f 28da 653d 9c20 70bd 3039 763e
00000050: c37c 373f a4c3 2fbf a1d2 b7be f2aa 51be
00000060: 4d47 ce3e b404 183f b849 16be d434 ebbd
00000070: 69ad ecbe 0d52 77bc 7a78 36bf 556f 82bf
00000080: 21ac 31bf 38f0 09bf 64eb 38bf 1ec7 0bbf
00000090: 1b65 223e abe9 ce3d 90f6 513e ca21 b1bd
000000a0: 43a8 38bd 08da 11be 523f 623d 8cf1 523e
000000b0: d75a 8ebd 5882 daba 0fec 533e 2e96 653e
000000c0: 8be9 a63e cfde 2b3f 81f1 c73e 7af4 1a3f
000000d0: 781d 813f 08be 083f df0e 7c3e e3dc e83e
000000e0: aa0c 8a3d 4928 2a3f 30a8 533f 5218 ef3e
000000f0: 5f96 d23e 5cdb 063f e1d3 093f 556c 20bf
00000100: 6a49 4cbf 16e0 10bf c731 82bf ad8d b0bf
00000110: 30b1 81bf 173c 96bf aa9a c1bf 48fc 52bf
00000120: 0320 fd3e 1db6 e03e 9404 b73e bcb7 373f
00000130: af78 103f ef75 d23e 6a00 1a3f 4be1 d63e
00000140: 3a76 053f e6db ed3e 3a37 013f ae66 e1be
00000150: 09e5 cc3e bd18 563e 649e 223e 57a3 76bf
00000160: 2693 79bf 237c 9f3e f2ef 173f b63a 4c3f
00000170: 9542 e1be ba23 d43e b108 f13e 097b 1b3e
00000180: 4b62 9ebf dc74 7abf beb3 cd3d f8b3 653e
00000190: c9dd 2b3f 15c2 50bf ae7f 093f d586 703f
000001a0: 28c4 473e c7a0 5bbf 9157 91be ac29 713e
000001b0: b70e 713f 6693 1dbf c79a d3be 2523 65be
000001c0: d658 95bf a9d4 a43f 11f7 79bf 8d37 acbf
000001d0: eaa5 1640 bb3d 273f 434a 23bf f763 69bc
000001e0: c94b 46bf edf3 93bf e6e4 fb3f af68 d0bf
000001f0: 6779 b6bf 16ee 3b40 1889 823f 1f63 1bbf
00000200: 8749 f5be 66f9 e2be 1780 8cbf 8fa6 ba3f
00000210: 5156 9cbf 209f 95bf 35f0 2940 0eee bcbe
00000220: 9122 f5be 646d 94be 6209 dabe 2ecd fabe
00000230: f72a 80be 8f7b b1be 7c21 9fbe 731b aabd
00000240: 1dae 5f3f 51ca 383f 52e2 153f 13e1 773f
00000250: 5a1c 5f3f dfde 443f 046d 7f3f 3436 783f
00000260: d648 5b3f 2536 cfbe 4a72 01bf 2c23 6abe
00000270: ec03 44bf b303 69bf cf84 0bbf c526 10bf
00000280: 1164 1cbf 4695 9bbe 94bf 433e 4575 983e
00000290: 5921 ae3e 2c17 853e 7ac8 853e e611 5b3d
000002a0: 1025 293f 7194 173f 21ee 853d ce1d 87be
000002b0: 3d84 d6bd f229 303e 2104 08bf 3aca fabe
000002c0: 852a a6be 0cf9 c9bd fd10 d7bd b0d6 54be
000002d0: 59f7 83be f8be 77be ae90 f3bc 38f8 08bf
000002e0: 4cf8 21bf 8f52 f4be 9484 82be 1a66 cebe
000002f0: b446 e6be c1c8 d43e 2d85 013f 7866 c43e
00000300: 9a23 103f 1478 193f 6b2a bc3e 305e 213e
00000310: 86f9 103e 4ea0 1f3d 00f9 b83d 6f17 403e
00000320: 292b 393d 1a04 563e 4c1a 803e c615 9e3c
00000330: ec2f 8bbd b5fa 97bd fd64 17be 7836 b6bd
00000340: c551 3c3d a97f 71bd 2fc6 3f3d 6144 fd3d
00000350: 3715 a4bd 45c9 22be 3fd2 f8bd 4c6b 5cbe
00000360: d5c5 babd a7d3 29bf fcb7 803a 65b9 c5be
00000370: 91bc a0be 29e9 a43d 6d99 8e3e a4ad 2b3f
00000380: 37ac 4c3e 69e6 0dbf cfdf 8dbf 4e8f f8be
00000390: cddd 7ebe 77d7 9bbd f762 083e 3bb9 273f
000003a0: f525 8e3f 5b3e c03e 0998 debe 6211 88bf
000003b0: ae73 05bf 7316 3abc bc10 ad3d 44f9 603e
000003c0: 5308 363f 30d7 883f cff0 af3e c1a6 35bd
000003d0: b937 76bd 23cc a3be 4f76 d53e ac3f 113f
000003e0: 78ac e5bd 7b4f 633f 29c3 853f fc0a e7bd
000003f0: 455e be3d 8a52 023d 9252 613e 419c 95bd
-0.104896486 -0.17749353 0.4510392 -0.9824838 -0.9592855 -0.6377512 0.28638867 0.26441982
-0.40591848 -0.060175084 0.19394988 0.6724313 -0.5375131 -0.2120453 -0.11459847 0.7437502
0.98139375 0.056116253 -0.05862485 0.24045253 0.71674746 -0.686579 -0.35902885 -0.20475367
0.40288773 0.59382176 -0.14676559 -0.114846855 -0.4622605 -0.015095246 -0.7127758 -1.0190226
-0.6940327 -0.5388217 -0.7223418 -0.54600704 0.15858881 0.101031624 0.20504212 -0.08649023
-0.045082342 -0.14243329 0.05523617 0.20599955 -0.0695092 -0.0016670926 0.20695518 0.2242057
0.32600054 0.67136854 0.3905144 0.6052929 1.0087118 0.53414965 0.24615048 0.45481023
0.06740697 0.6646772 0.8267851 0.46698242 0.4113035 0.52678466 0.53838927 -0.626653
-0.7979952 -0.5659193 -1.0171441 -1.3793236 -1.0132198 -1.1737088 -1.5125325 -0.824162
0.49438486 0.4388894 0.3574568 0.7176473 0.5643415 0.411056 0.6015688 0.4196876
0.52133524 0.46456832 0.50474894 -0.4402365 0.4001849 0.20907874 0.15880734 -0.96342987
-0.97490156 0.31149396 0.593505 0.79777086 -0.4399611 0.41433507 0.47076944 0.15183653
-1.2373747 -0.97834563 0.10044049 0.22431934 0.6713529 -0.81546146 0.5371045 0.9395574
0.19508421 -0.857922 -0.2838712 0.23551053 0.9416308 -0.6155304 -0.41329023 -0.22376688
-1.1667736 1.2877399 -0.9764262 -1.3454453 2.3538766 0.6532857 -0.6378519 -0.014245025
-0.7745939 -1.1558815 1.9679229 -1.6281947 -1.4255799 2.9364066 1.0198088 -0.6069812
-0.4790766 -0.443309 -1.097659 1.458208 -1.2213842 -1.1689186 2.655286 -0.3690037
-0.47877935 -0.28989708 -0.42585284 -0.48984665 -0.2503278 -0.3466458 -0.31080234 -0.08306017
0.8737505 0.7218371 0.5854846 0.9682781 0.87152636 0.76902574 0.9977572 0.9695771
0.85658014 -0.40470996 -0.50565016 -0.2286498 -0.76568484 -0.9102127 -0.54499525 -0.5630916
-0.6109019 -0.30387324 0.1911605 0.2977697 0.34009817 0.2599424 0.26129514 0.053483866
0.6607218 0.5921088 0.0653956 -0.26389927 -0.10474441 0.17203501 -0.531313 -0.48982412
-0.32454315 -0.09861955 -0.10501287 -0.20785022 -0.2577465 -0.24193943 -0.029732075 -0.5350375
-0.63269496 -0.47719237 -0.25491774 -0.40312272 -0.44975817 0.41559413 0.50593835 0.38359427
0.56304324 0.5994885 0.36751112 0.15758586 0.14157686 0.038971238 0.09031868 0.18758939
0.045207176 0.20900002 0.25020063 0.019297492 -0.0679625 -0.074208654 -0.14784618 -0.08897108
0.04597642 -0.058959637 0.046819862 0.12366558 -0.08011859 -0.1589709 -0.12149476 -0.21525306
-0.09119765 -0.6633858 0.0009820457 -0.38618007 -0.31393865 0.08052284 0.2785143 0.6706183
0.1998757 -0.55429703 -1.1083926 -0.48546833 -0.24889298 -0.07609456 0.13319002 0.65517014
1.1105334 0.37547573 -0.4347537 -1.0630305 -0.5212964 -0.011357891 0.084504575 0.21970087
0.7110645 1.069067 0.3436341 -0.044348482 -0.060111735 -0.3199168 0.41691825 0.5673778
-0.112145364 0.8879315 1.0450183 -0.11281392 0.09295324 0.031816997 0.22004154 -0.07305194

conv1.1.weight f4 [16]
00000000: 9823 a13f 349e 983f 7eae c23f 9544 cf3f
00000010: f5b7 ab3f 903f 963f fd7a 8b3f 89de 7b3f
00000020: 7f52 c73f 825f b13f ae9c 813f 9748 a03f
00000030: ad52 913f 3b13 9a3f b394 813f a61d dd3f
1.2588987 1.192328 1.5209501 1.6192805 1.3415514 1.1738148 1.0896908 0.98386437
1.5572051 1.3857272 1.012594 1.2522153 1.1353356 1.2037119 1.0123504 1.7274673

conv1.1.bias f4 [16]
00000000: 7540 793f 1188 a83d 3380 e13e b310 013f
00000010: 612c dcbd 815d fe3e f2e9 0ebe ade6 09bf
00000020: b14a 98be f305 5c3f 8f30 d23c 3f06 6e3f
00000030: 3da5 a5bd 8bc9 c7bd 3d59 ac3a 9495 0e3f
0.9736398 0.082290776 0.4404312 0.50416106 -0.10750652 0.49680713 -0.1395643 -0.5386761
-0.29744485 0.8594658 0.02565792 0.9297828 -0.08088157 -0.09755238 0.0013149154 0.5569699

stage2.0.branch1.0.weight f4 [16, 1, 3, 3]
00000000: c359 103e bea6 073f 7b4d b23e 8d8d 593d
00000010: b300 063f 5c56 253f 3187 96be 5ae7 37bf
00000020: 8295 67bf 5593 df3e e9f4 e3be a37a 25bf
00000030: b38d 9bbe 3614 513e e4fb d53e 3097 24bf
00000040: e6ee 543f 5182 8f3f bd8f cb3d f277 c7bd
00000050: d459 a8bd c68d 7ebe cd9a 663e 1092 043f
00000060: c7ff aabe d39e fa3d 7ebe a33e 6d95 c5be
00000070: 5d7d 57bd 7c4d f03d 1003 0cbf 1150 ed3e
00000080: 2c1c 093f 22b4 b0bd 1836 443f b01a 2d3f
00000090: 82ca 9c3d 1d8a 4f3e 5134 0f3e 7253 e73e
000000a0: d8a9 523f e7cf 0b3f 59ce b13e 685e 0e3f
000000b0: 2133 863e b38d 1ebf 3697 0a3f dd5e 663f
000000c0: 54f0 113e 5b27 00be 0a7a b9be b204 473f
000000d0: e4f2 0fbf 7999 84bf 7b33 a63e bf8d 863e
000000e0: 6e9d 443e cfc8 f3bd da54 5ebe 6a17 c0be
000000f0: 1755 6dbe 103c 5ebe 4cfe 04bf a041 0d3d
00000100: 9400 cf3e c330 583f cc98 3d3e 0209 dbbe
00000110: acc3 91be e37d 0a3f 655d 5ebf 6c6d 34bf
00000120: 02d8 63bc 84a4 12bc d5d5 003d 99f4 ddbe
00000130: ec5e b03e fc64 1e3f d56a 45be 057a 183f
00000140: f14d 2f3f ed5e 0e3f f147 4abe 92b6 31bf
00000150: 226b 54bf d44b 3f3d 9865 7c3f db2d 50bf
00000160: 1832 853e f246 ab3f 588a 993e 26c5 31be
00000170: d2ba 08bf 41f8 bbbd 029f 103f c8c3 ad3e
00000180: 7d00 7dbd 2ebb 1c3f 1165 393f a572 88be
00000190: 4485 8b3e 5809 1c3f 9d18 2e3d b587 193e
000001a0: 4cf8 bfbd 980b ad3e 7767 edbe b1dd 50bf
000001b0: 075b 5fbe ae06 913e 5cfe 303f a560 80bc
000001c0: c08d febe d293 debe 8a76 71be 7cde 52bf
000001d0: 56c3 2abf 8bdf 15bd c7a8 babc 21ae 69bd
000001e0: 7dba bd3e 8490 1e3f 5e06 133f 2851 f13e
000001f0: 9355 3c3f 48b7 0f3f 7dce d93d 901b 6cbe
00000200: 335e ebbe 722b 0fbb 3da2 4ebc 4e17 5dbd
00000210: 0c59 14be e219 2abc 84a9 c73c 3bb7 4f3d
00000220: da8a abbd 1893 20be 5683 983e 0b40 50be
00000230: 7e5a 29bf 45bf 433e fff4 51be aa34 1bbf
0.14096741 0.52988803 0.34824738 0.05311351 0.52344817 0.645849 -0.29400018 -0.7183739
-0.90462506 0.43667093 -0.4452279 -0.64640254 -0.30381545 0.20417866 0.4179374 -0.64293194
0.8317703 1.1211644 0.09939525 -0.09739675 -0.08220258 -0.2485877 0.2251999 0.51785374
-0.33398268 0.122373246 0.31981272 -0.38590565 -0.05260979 0.11733529 -0.54692173 0.46350148
0.5355861 -0.086281076 0.7664504 0.67618847 0.07655813 0.2026753 0.13984801 0.4518085
0.8229041 0.5461411 0.34727743 0.556128 0.26210883 -0.61934966 0.5413698 0.899885
0.14251834 -0.12515013 -0.3622592 0.7774154 -0.56229997 -1.0359336 0.3246115 0.2628002
0.1920068 -0.119035356 -0.21712056 -0.37517864 -0.2317699 -0.217026 -0.51950526 0.034486413
0.4043013 0.84449404 0.18515319 -0.4278031 -0.28469598 0.5409834 -0.8686126 -0.70479465
-0.013906481 -0.008950356 0.031453926 -0.43350676 0.3444742 0.6187284 -0.19279034 0.5956119
0.68478304 0.55613595 -0.19754006 -0.69419205 -0.8297597 0.046703175 0.9859252 -0.8131997
0.2601478 1.3381026 0.2998836 -0.17360362 -0.53410065 -0.0917821 0.56492627 0.33938432
-0.061768044 0.61223114 0.7241984 -0.26649967 0.2725011 0.6095176 0.04250394 0.14993174
-0.09373531 0.33797908 -0.46368 -0.81588274 -0.21812068 0.2832541 0.6913812 -0.015671084
-0.49717522 -0.43472153 -0.23580375 -0.82370734 -0.6670431 -0.03659014 -0.022785557 -0.057050828
0.37056342 0.61939263 0.5743159 0.4713223 0.73568076 0.5613904 0.10635088 -0.2305739
-0.45970306 -0.0021845964 -0.012611923 -0.053977303 -0.14487094 -0.0103821475 0.024372824 0.05071185
-0.08376093 -0.15681112 0.297877 -0.2033693 -0.66153705 0.19115932 -0.20503615 -0.60627234

stage2.0.branch1.1.weight f4 [16]
00000000: e765 5e3f 23bf 973f 5a19 693f 71ef 493f
00000010: 4de4 863f dd34 c73f d92c 763f 1db2 a13f
00000020: 7477 913f 4d7e a43f 8191 973f 241b 9f3f
00000030: c02c 993f dd47 a03f 9aff 873f 3709 793f
0.8687424 1.1855205 0.9105431 0.78880984 1.0538422 1.5563008 0.9616218 1.2632481
1.1364579 1.2851044 1.1841279 1.2430158 1.1966782 1.2521931 1.0624878 0.97279686

stage2.0.branch1.1.bias f4 [16]
00000000: 852c 4b3c e5a5 96be 20b9 95bd 721c 90be
00000010: df10 a8be 94b3 263f 78ad 093f a7c9 f93e
00000020: 6046 9abe d8ec ccbe 45de e1be c3e0 173e
00000030: b02b 073f fe01 e0be deef 283e 26a5 303f
0.012400751 -0.29423442 -0.073107004 -0.28146702 -0.32825372 0.65117764 0.5378032 0.4878666
-0.30131817 -0.40024447 -0.4411489 0.14831834 0.52801037 -0.4375152 0.16497752 0.69001997

stage2.0.branch1.2.weight f4 [16, 16, 1, 1]
00000000: 4025 f7bd 54fa 9dbd f764 a23e a72d 7fbd
00000010: 80a9 4f3f 3680 3dbe 2638 87be 6531 29bf
00000020: 3cce b53d 4828 a43e 1832 953f 89e9 d5be
00000030: 5f2b 4fbd 7668 263f cbe2 9abe 14f0 323e
00000040: 78ca a9bd e56b 823d f38f 223e f83c 8c3d
00000050: e088 b9bf 6f49 5bbd 366e a53d 6e43 ba3d
00000060: 4897 b13e 0e5b 4a3d 2c78 37bd ea48 c13c
00000070: 847d 42be 8672 98bf 8fec b33d fce8 8cbe
00000080: bd1a 663e e829 72bd daba ff3e 2c5f 49bc
00000090: 4ac1 53be 1620 86be 8641 a4be 3810 c8bb
000000a0: 5688 83be 1e4b d5bd ebde b4be 7411 0cbf
000000b0: 79cb 88bf 271e ea3e 13be 16bf 4be3 34bf
000000c0: 7aac e9bd c156 213d 394e 5a3e 14a8 91bd
000000d0: 086b d03e ed57 e3bd 7daf 693d 4145 76be
000000e0: 6823 debd f16b a7bc b2d5 343e 3dcd c63d
000000f0: 38cd 8b3d d8d6 9cbf 949f 143e 0938 a23e
00000100: 7bee 143c 80b3 403f a1f6 053f e76d 1c3f
00000110: 1c3c 073e 977f a1bc 649d e13e 453a 6a3e
00000120: e930 1bbd eef9 7dbf 8a0a 3abf 950a 1dbe
00000130: f4c5 5bbf d1e7 bb3e c238 80bd 687d 10be
00000140: 8560 19be 5b90 363f c2e3 093e beeb 1c3f
00000150: e3e9 e13d 59e7 313f 74a1 e6bd c678 87bd
00000160: aefc 1a3f a4f5 59bf 73a1 413f 2e96 053f
00000170: 4955 583f ff35 493e 599b db3e 3563 a03e
00000180: 3cf9 1d3e 6daa 373f 6ead 303f bd7c 29be
00000190: ee82 3e3e 29cd 43bf b872 23be 7a93 3dbf
000001a0: 4ecc c6bd 6fe7 4e3f 4f04 59bd 8855 903d
000001b0: ce4b 633e 2325 f23c 7479 f9bd 9a42 17bf
000001c0: b2a1 9e3c 46ad a3bf 200e 16bf 61fe 4cbe
000001d0: 033d 70bd 780a 87bf 65e3 b9be a2ff 443e
000001e0: c179 d2be ebd2 373f 3770 0bbf 5587 863e
000001f0: 7367 84bc 69a2 823d 59e0 a73e d564 483d
00000200: 525e 3b3f 5c18 13be aa68 d9bd ad82 57be
00000210: 767d b3be 1758 a7ba 66d7 723e f129 09be
00000220: bd0c 3ebe 6d56 a3bd 1ec9 3c3e 206c 9e3d
00000230: 1651 eb3e 9c0c efbe 46b5 e83e d624 d53d
00000240: 97cf 54bc c83f 833d c46d 143e 50dd 273e
00000250: 89ed c2bd 6758 bc3d f9e1 6fbe 5e8c 223e
00000260: 963c aa3e 3c6e 23bd 51b7 c2bd ba6a 8dbd
00000270: ddad 1cbd bdfe aabf 36f1 a1be 3e52 23be
00000280: 8742 253f c01b cfbe 71f8 22bd 8602 f0be
00000290: 2ed9 3dbe 3eaa 893e 3305 8a3e ed51 e2be
000002a0: 98af 533d e048 643e efb2 47bd c469 27bf
000002b0: d770 333f 33a6 bebd 46cf 8dbe 724b 0a3f
000002c0: d8ff 0d3d ed61 2f3c e31d 5cbd 4ce2 7bbe
000002d0: 2d2d 143d 8ae5 81bf e9a7 c03c d7da d2bd
000002e0: 4122 933e 0823 b5bd 550a 903e 2d95 2c3e
000002f0: 6c2f 1f3e 58f4 ddbd 740c adbe accb bb3e
00000300: 7196 3f3e a7d3 8abd 7758 cf3d 6550 c93d
00000310: 3f57 c63d d480 c33e 2ab0 a7be 7fe7 6dbf
00000320: d06b 693d 82da 85bc 5f16 4cbb 36dc 2f3f
00000330: f3dc 9e3e 5096 9abc 90ca 53bd fd2a b0be
00000340: 020b ca3d e351 c6bd b96b 303e 7e8a 0abf
00000350: 50b6 343e 6619 ca3e 340e 813e a861 a33d
00000360: 6dc2 12bf 3806 14bc db25 fbbe 6611 0f3f
00000370: f8a1 523e 6c08 1d3e 4298 b03d fa0f e93e
00000380: 0bcb 29bd b6b2 893d b11b 81bd 801c 55bd
00000390: 8e85 b6bf 29a6 fb3d a804 8e3e 1e15 983d
000003a0: f86c c53d 9726 953e 6a3b 083d 5555 d3bd
000003b0: 6196 05be 3e82 9f3c a402 ff3c f742 5cbe
000003c0: 8792 1dbf 5ffa 373e 0cbf f53c 8633 15be
000003d0: f943 acbe 5095 043e 223b 423f 9d2b 77bc
000003e0: 992e 61bf 76a9 a5ba 5f79 4d3d 245c 9d3e
000003f0: df8b b63e 81b5 8bbe 96dc 8b3d 89e9 a0bc
-0.12067652 -0.07713762 0.31717655 -0.062299397 0.8111801 -0.1850594 -0.26410025 -0.66090995
0.08877227 0.32061982 1.1655912 -0.41779736 -0.05057847 0.65003145 -0.30251154 0.17474395
-0.08290571 0.063682355 0.15875225 0.06847566 -1.4494896 -0.05353683 0.08077662 0.090948924
0.3468573 0.049403243 -0.04479234 0.023594338 -0.18993193 -1.190995 0.08785354 -0.27521503
0.22471137 -0.059121996 0.49947244 -0.012290757 -0.20679203 -0.26196355 -0.3208124 -0.006105449
-0.25689954 -0.10414718 -0.35326323 -0.5471413 -1.0687095 0.4572613 -0.5888378 -0.7065932
-0.114098504 0.039389376 0.21318902 -0.071121365 0.40706658 -0.11100755 0.057052124 -0.24049856
-0.10846597 -0.020437213 0.17659643 0.09707115 0.06826252 -1.2253065 0.14513999 0.31683376
0.009090061 0.75273895 0.5232945 0.611052 0.13206524 -0.01971416 0.44065392 0.2287379
-0.03788844 -0.9920949 -0.7267233 -0.15336068 -0.8584893 0.367003 -0.06260826 -0.14110339
-0.14978226 0.7131402 0.13465789 0.61297214 0.110309385 0.69493634 -0.112612635 -0.066148326
0.6054181 -0.8514044 0.75636977 0.5218228 0.84505135 0.19649504 0.42891958 0.3132569
0.15427107 0.71744424 0.6901463 -0.1655149 0.18604633 -0.76484925 -0.1596173 -0.74053156
-0.09706937 0.8082189 -0.052982625 0.07047564 0.22196886 0.029558724 -0.121813685 -0.59086
0.019364212 -1.2787254 -0.58615303 -0.20018913 -0.058651935 -1.055007 -0.363063 0.19238141
-0.41108516 0.7180621 -0.544681 0.26275125 -0.01616261 0.063786335 0.3278835 0.048924286
0.73190796 -0.14364761 -0.10615666 -0.21045943 -0.35056657 -0.0012767342 0.2371498 -0.13394906
-0.18559547 -0.07975469 0.18436095 0.07735467 0.459603 -0.46689308 0.454508 0.104074165
-0.012988946 0.0640865 0.14494997 0.16393018 -0.095179625 0.09196549 -0.23426045 0.15873858
0.33249348 -0.03990005 -0.09507621 -0.06905122 -0.038251746 -1.335899 -0.31629342 -0.15949342
0.6455464 -0.4045086 -0.039787713 -0.46876925 -0.18539879 0.26887697 0.26957092 -0.4420313
0.05168113 0.22293425 -0.04875463 -0.6539576 0.70094055 -0.09309044 -0.276972 0.5402137
0.03466782 0.0107045 -0.05373944 -0.24598044 0.036175895 -1.0148175 0.023517566 -0.10295647
0.2873707 -0.08844572 0.28132883 0.16853781 0.15545434 -0.108376205 -0.33798563 0.36678827
0.18709733 -0.06778651 0.10124295 0.09829787 0.096846096 0.38184226 -0.3275159 -0.9293136
0.056987584 -0.016339544 -0.0031141264 0.6869539 0.31027946 -0.018870503 -0.05170685 -0.34407797
0.09865381 -0.096835874 0.17228593 -0.5411757 0.17647672 0.39472502 0.2520615 0.07977611
-0.5732792 -0.009034686 -0.4905232 0.5588592 0.20569599 0.15335244 0.08622791 0.45520002
-0.041453402 0.067235395 -0.0630411 -0.052029133 -1.4259508 0.12287552 0.27737927 0.07425903
0.09639925 0.29131004 0.033259787 -0.1031901 -0.13045646 0.019471284 0.031129189 -0.2150992
-0.6155171 0.17966603 0.029998325 -0.14570436 -0.3364561 0.12947583 0.7587148 -0.015086082
-0.8796173 -0.0012639004 0.050164577 0.3073436 0.35653588 -0.27286914 0.06829183 -0.019642608

stage2.0.branch1.3.weight f4 [16]
00000000: 305e 7d3f 77b6 fb3f 9bce a33f a65f ea3f
00000010: ba89 bf3f 083a a43f e323 b63f 2c7b 863f
00000020: e647 a13f eb7d 563f cbb9 223f 60c8 403f
00000030: 8078 483f 4ac3 5f3f 1492 603f f254 453f
0.98971844 1.9665059 1.2797426 1.831044 1.4963906 1.283021 1.4229702 1.0506339
1.2600067 0.83785886 0.6356475 0.7530575 0.7830887 0.8740736 0.877229 0.7708274

stage2.0.branch1.3.bias f4 [16]
00000000: ab88 6a3e e9bf 133f 0274 d13d 2120 c13d
00000010: 0222 57be f6d0 2f3e 677b d1be 7ff7 b73d
00000020: 0771 96be 4c13 4f3d 0ca3 f33e 65d4 4dbe
00000030: 6212 45be d20a 07ba de74 ad3d cfbd 993e
0.22903697 0.57714707 0.10227205 0.09429956 -0.21009067 0.17169556 -0.4091446 0.08982753
-0.29383108 0.050555512 0.47585332 -0.20100553 -0.19245294 -0.00051514537 0.08469556 0.30027625

stage2.0.branch2.0.weight f4 [16, 16, 1, 1]
00000000: bdf7 803e 9557 09be 2341 be3d dced 8dbe
00000010: b912 363c 2238 b1bd 4094 17be 8d11 00bf
00000020: 42fe 813e 160a 40be e0a7 c8be ed0e d83d
00000030: 7af4 963c 1d6e afbe 599f 4fbe 57e0 a33e
00000040: 714c 093e 257d 34be 7eb8 b73c de35 0c3f
00000050: aebc a73e d3fc c03d c377 273f 1a34 03be
00000060: 91ba 0f3f e291 2c3d b77e f0bd df95 8bbe
00000070: 48e7 613f 4e9d bf3e 4301 69be ef33 83bd
00000080: c9b0 1f3e 564d 063e d409 af3f 0013 a93e
00000090: b380 5f3c 6a7d 2cbf 6779 f5be a47a 18be
000000a0: 3c90 1a3d ba65 b2be fd81 443e 9b4c f33e
000000b0: d553 153e 96f0 233d 9f88 2f3e 48df 8abe
000000c0: ee72 ab3e 421d 3a3f 62d0 7b3f f299 083e
000000d0: af66 183e 9e1f b4be 0a42 063e e937 7e3e
000000e0: dca6 5a3e 4c55 93bd f8e9 c23e 61fc df3e
000000f0: 0dae 4c3e 9f08 a1bc 867c 483e 21db 703d
00000100: d0a5 cf3c d32e e9be 362f 85bf 8268 debe
00000110: a3fa 8dbd 542e 773f 0e8c 953e 424e 3d3e
00000120: 97c0 76bd 1c77 453f 0e72 6abe 589e 4ebf
00000130: aeb6 003f f062 25be 71bc 913e a169 b73e
00000140: ee07 e23d cb5f 9a3e b065 c23e ea55 223f
00000150: 898e c4be 7c0e f93b 2573 a3bd 46c1 1e3e
00000160: 3ce9 793f 57f9 e4bd d6e0 203f 5e37 35be
00000170: 0c7e 9fbe 368e fc3d 8bfa ec3d 8c10 c6be
00000180: 7739 623f 089d d0bd 8c8c 11bd 91c4 b6bf
00000190: 1c71 3dbe 94bb 53bd 6a56 e73d 0f1c d03b
000001a0: 96f2 ac3e d196 2b3e 6f7b 28be 100f ad3e
000001b0: 949c 94bd bccc d0bb b1a1 10be 5475 dcbf
000001c0: 975d 6abd ba60 babe 6be3 52be d4e2 12be
000001d0: a7e5 99be 49d9 1a3f ff6a 82be 2fc2 d23e
000001e0: 2c26 d3be b900 d63d 7bbe f83e 132e 0c3f
000001f0: 034e abbe 8e3a 3a3e bf5b c6bd 5f4a 02bf
00000200: 058b 11bf 40c7 23be 34a4 2abe 4bc2 0cbf
00000210: c1d4 873f cd9d 44be c479 aabe 9d79 aebe
00000220: a018 cebf 172d 24bf 8387 0bbf 14dd d6be
00000230: 03fc ac3e 052f 733f c308 09bd 1607 f2be
00000240: 2a17 95bd 5e43 793d 122d f03d 0cb3 2cbe
00000250: 884d 34bd 49e9 603d 8f4d a03e 883d 9a3d
00000260: d5b1 4abd 10ae 553f 0e13 83be abfd 5a3f
00000270: 2d66 9a3e 9638 8abd d2fb 21bd 8291 d23e
00000280: f28f 563e 2c5f c73e a77c 36bf a338 9fbe
00000290: b726 763e c9ac 2e3f 9a65 333d 3a80 0e3e
000002a0: 813b 1f3e 54a8 403a c877 1cbe 0e70 60bf
000002b0: 6316 5d3d 27ba c23d 3ed4 933e 6564 c53d
000002c0: 8da7 1f3d 7613 553f dfa9 f0be 086d 413e
000002d0: f746 f6bd 953b 323f d6ff 45bf 66c7 83bc
000002e0: 629d a0bb 5bd5 bfbe b581 f13d 1f40 3bbf
000002f0: bf12 653d 7908 6fbd a2e6 5a3f d194 48be
00000300: 2cf6 b2bf c3c3 d1bd df71 f03d 87cd 433f
00000310: 5f94 fe3d 457c f93d 7de2 99be 1051 2e3e
00000320: 7fde 5bbe 034d c9be ae23 9abd 7540 73bf
00000330: a4d1 b1bd f37b a2be 284a ae3e 1e5a b63f
00000340: 84da 973c f87b 553e 85c9 f53e 7519 923d
00000350: 62e2 54bf d5fb 2b3f 6eed 91be c442 043d
00000360: 2f21 653e 2735 76bd b226 ceba fb2b 0f3f
00000370: 144f 393e ea6c 2abf 7202 86bd 7449 9dbe
00000380: a282 04bf f630 d4be 0501 363f b867 32be
00000390: 61fe 0d3e 3531 2dbd 64e4 2f3f de3a a53e
000003a0: bd9e c8bd df86 453f dbfc 87be 2afb 8d3f
000003b0: bbe5 bf3d e544 2bbd 262e 6dbf b8a9 c23e
000003c0: bda6 ccbe f1bd 02be 4022 653d ee78 3fbe
000003d0: c008 47bd 0ad9 02bf 0eab 593e e663 c33e
000003e0: 51cf 013d f105 a93e 8cdb 103e 7cf0 e13e
000003f0: 94f8 83be b2a1 7a3e b5e5 003e 3234 903e
0.2518901 -0.13412316 0.092897676 -0.27720535 0.011112862 -0.086532846 -0.14802647 -0.5002678
0.25389296 -0.18753847 -0.39190578 0.10549722 0.018427122 -0.34263697 -0.2027563 0.32007095
0.13408066 -0.17625864 0.02242684 0.54769695 0.3276114 0.094232224 0.65417117 -0.12812844
0.5614405 0.042131312 -0.11742919 -0.2726278 0.8824353 0.374247 -0.22754388 -0.0640639
0.15594782 0.13115439 1.3674874 0.33022308 0.013641524 -0.67378867 -0.47944185 -0.14890534
0.03773521 -0.34843236 0.19190212 0.47519383 0.1458276 0.040024363 0.1714196 -0.27123475
0.33486122 0.72700894 0.9836484 0.13339975 0.1488292 -0.35180372 0.1311113 0.24826016
0.21352714 -0.071940035 0.3806913 0.43747237 0.1998827 -0.019657431 0.19578752 0.058802728
0.02534762 -0.45543537 -1.0405033 -0.43439108 -0.06932571 0.96555066 0.29208416 0.18486884
-0.06024226 0.7713487 -0.22895071 -0.80710363 0.5027875 -0.16151023 0.28464082 0.35822776
0.11036669 0.3015121 0.37968206 0.63412344 -0.38389996 0.0076006036 -0.079809465 0.15503415
0.9762151 -0.1118037 0.6284307 -0.17696902 -0.31150854 0.12331812 0.11571225 -0.386845
0.88368934 -0.10186201 -0.035534427 -1.4278737 -0.18500179 -0.05169256 0.11295779 0.006351001
0.33778828 0.1675675 -0.16453336 0.33800554 -0.072564274 -0.0063720625 -0.1412418 -1.7223306
-0.05721816 -0.36401922 -0.20594566 -0.1434434 -0.30058023 0.604878 -0.25472257 0.41163775
-0.4124006 0.104493566 0.48582825 0.54757804 -0.33457956 0.181864 -0.09685468 -0.5089473
-0.5685275 -0.15993977 -0.16664201 -0.5498397 1.0611802 -0.19200821 -0.33296025 -0.3407716
-1.6101265 -0.641313 -0.5450365 -0.41965544 0.3378602 0.9499362 -0.03345562 -0.4727103
-0.07279809 0.060855262 0.117273465 -0.16865176 -0.044019252 0.054909978 0.31309173 0.075312674
-0.049486 0.83468723 -0.25600475 0.85543317 0.3015608 -0.06749074 -0.039546795 0.4112664
0.20953348 0.38939798 -0.71283954 -0.31097898 0.24038206 0.682324 0.043798067 0.13916102
0.15550043 0.00073493016 -0.15280068 -0.8767098 0.053976428 0.09508162 0.28872865 0.09638289
0.03897815 0.8323282 -0.470046 0.18889248 -0.12025254 0.69622165 -0.773435 -0.016086292
-0.004901574 -0.37467465 0.11792318 -0.73144716 0.05592608 -0.05835769 0.8550817 -0.19588019
-1.3981376 -0.10242417 0.11740469 0.76485485 0.12430643 0.12181906 -0.3005561 0.1702311
-0.21471594 -0.39316568 -0.075263366 -0.9502023 -0.08682564 -0.3173519 0.34040952 1.4246252
0.018536814 0.20848072 0.4800531 0.07133762 -0.8315793 0.6718114 -0.28501457 0.032290235
0.2237594 -0.060109284 -0.0015728085 0.55926484 0.18096572 -0.6657244 -0.06543435 -0.30720103
-0.5176183 -0.41443604 0.71095306 -0.17422378 0.13866569 -0.042283256 0.6870787 0.32271475
-0.09795902 0.7715892 -0.265601 1.1092274 0.093699895 -0.04181375 -0.9264854 0.3802011
-0.3997096 -0.1276777 0.055940866 -0.18698475 -0.04859233 -0.51112425 0.21256658 0.38162154
0.031691853 0.33012345 0.1414625 0.44128788 -0.25775588 0.24475744 0.12587626 0.28164822

stage2.0.branch2.1.weight f4 [16]
00000000: 5fd7 3c3f 0c09 453f d61e b03f 9db3 883f
00000010: e461 493f d679 7e3f 5306 913f a94d 1a3f
00000020: 7ac5 863f 187e 833f 997e 853f 6419 853f
00000030: 7588 633f a97c 963f f04f c33f 6f2d 5c3f
0.7376613 0.7696693 1.375941 1.0679814 0.78664994 0.99404657 1.1330055 0.6027475
1.0529015 1.0272856 1.042926 1.0398374 0.8888009 1.1756793 1.525877 0.86006826

stage2.0.branch2.1.bias f4 [16]
00000000: 31f0 033f 98ab 413c afbc 06bf 3579 07bf
00000010: 0b73 e53e de63 debe 26e0 d73e bfee a33e
00000020: 80a3 363f a82f c0be 8865 c33e d025 9b3e
00000030: b381 f83e c910 833e 1f31 42bf 8f2f 3dbe
0.5153838 0.011820696 -0.5263166 -0.5291932 0.44814333 -0.43435568 0.421632 0.32018086
0.7134323 -0.3753636 0.381634 0.30302286 0.48536453 0.25598744 -0.758562 -0.18475173

stage2.0.branch2.3.weight f4 [16, 1, 3, 3]
00000000: c52a dc3e dd65 973e 7165 c73e 5fdb e3bc
00000010: a917 d6bc c6e3 dc3d 97b9 8ebe a44a 09be
00000020: 7753 d83d f174 72be 5e38 1dbf 5ab2 fdbe
00000030: cdf1 00bd b9ee 80bd 91cd 283d 3204 473e
00000040: 65b0 513f 82fe 453f 51d2 b5be 8f45 f63e
00000050: 02f3 423f 4762 043e dcaa b7be 0812 e7be
00000060: 2080 2d3f 24b5 27bf efe2 83bf 34bb 9bbe
00000070: b32a 2f3f ca8f 4d3f 8d61 e83e 9e25 453d
00000080: 70f3 35bd 3c7f be3e bc5e 8cbf 142c 9bbf
00000090: d075 9e3e 70f0 99be d801 24bf 1e29 cdbe
000000a0: 8041 9f3e e4f8 ee3d eda5 babe 50ce 623f
000000b0: 99bc 533f 1d4c 34be 1716 073e f10e 9b3e
000000c0: 298f 03bf 02a9 933e b39b 323f 4877 bdbe
000000d0: dc38 dabb b62c ec3e 9045 533d 9766 0dbe
000000e0: 3c0e 07be ed88 0fbd 9406 0dbf f5df 1ebf
000000f0: e7cb fcbd 5989 23bf 6e8d 1cbf cbec 813d
00000100: 83e0 813c 753b 8d3e bd93 87bd 7a40 143e
00000110: 97db 103f 9c82 67be a32b b43d d110 353e
00000120: 321a 7ebd 6c43 abbd 14ee 97bd 3cfc 263e
00000130: 3ca4 213f 78ef a63e bf3b b13e f423 553f
00000140: 3bc9 dc3e c638 41be 7007 d83e 3872 943e
00000150: ef6e 91be 9319 273f 77d3 783f c99c 0dbf
00000160: 1038 abbe 666c 8abd 2d26 6cbe def4 fc3e
00000170: 7f00 043f ab70 b83e 366a ffbd 30ca 91be
00000180: 5753 a03e 466c 43bf 8492 8abf 970a edbe
00000190: 6f5b ca3e aed9 3a3f 5527 a43e efed 83bc
000001a0: 9a4a 47be 531e 0f3f 7238 59bf 866c 9bbf
000001b0: 7e8f abbd 6f9a e43d 98b1 0b3e 4075 4b3d
000001c0: db20 0f3f 61ca 183f ab83 fb3d 4a49 0b3f
000001d0: 1ed0 0a3f 4ca0 e73d 5cf9 e5bd 6912 18bc
000001e0: 2d01 76bd e3e0 d13e 22d2 c93e a60a 273e
000001f0: 6dbf 213f 7e3a 443f 3acb 523f f923 23bf
00000200: d3be 8dbf 7888 cabe 287e 0abd cbca e43e
00000210: a553 8fbf bbf9 8f3f fdcd df3f a542 b3be
00000220: 3abc fc3d 650b e73e fb87 c1bd fd58 883e
00000230: d6f7 ac3e 61c7 843d 811f a8bc a54d 42be
0.4300138 0.29569903 0.3894458 -0.027814565 -0.026134329 0.10785632 -0.2787597 -0.1340738
0.10562795 -0.23677422 -0.61414135 -0.49550134 -0.0314806 -0.06295533 0.04121167 0.19435194
0.8190978 0.77341473 -0.3551202 0.48099944 0.7615205 0.12928115 -0.35872543 -0.45130944
0.6777363 -0.65510774 -1.030363 -0.30416262 0.6842453 0.8029753 0.45386925 0.048131578
-0.044421613 0.37206447 -1.0966411 -1.2122827 0.3094926 -0.30066252 -0.64065313 -0.40070432
0.3110466 0.11668566 -0.36454716 0.8859606 0.8270965 -0.1760716 0.1319202 0.30284837
-0.5139032 0.2883988 0.6976883 -0.37005067 -0.00665961 0.46127862 0.05158001 -0.13808666
-0.13189024 -0.035042692 -0.5508816 -0.6206048 -0.12343579 -0.6388145 -0.61153305 0.06343993
0.015854126 0.27584425 -0.06619976 0.14477721 0.5658507 -0.22608417 0.087973855 0.17682196
-0.0620367 -0.08362469 -0.07418457 0.16307157 0.63141227 0.32604575 0.34615895 0.83257985
0.43122277 -0.18869314 0.42193174 0.28993392 -0.28404948 0.652734 0.9719767 -0.5531736
-0.3344121 -0.067589566 -0.23061438 0.4940557 0.51563257 0.3602346 -0.1247143 -0.2847457
0.31313583 -0.7633709 -1.0825963 -0.46297142 0.39522883 0.729884 0.32061258 -0.016104667
-0.19462052 0.55905646 -0.84851754 -1.2142494 -0.08376978 0.11162268 0.13641965 0.049672365
0.5590951 0.59683806 0.12280973 0.54408705 0.5422381 0.11309871 -0.11229202 -0.009281733
-0.060059715 0.40991887 0.3941813 0.16312656 0.6318272 0.7665175 0.8234135 -0.63726765
-1.107386 -0.39557242 -0.03381172 0.4468597 -1.1197401 1.1248087 1.7484738 -0.35011783
0.12340589 0.4512588 -0.09449764 0.26630393 0.33782834 0.06483341 -0.020522835 -0.18974932

stage2.0.branch2.4.weight f4 [16]
00000000: c3fd b03f 8c73 983f da0a 753f 59e8 553f
00000010: 2782 903f 0fb6 823f b72d 4d3f e93d 8c3f
00000020: c8cb 963f 2bd5 9a3f 9925 ab3f ab5b b83f
00000030: 6825 873f 6672 603f d411 6d3f 9b50 e33f
1.3827442 1.1910262 0.95719683 0.8355766 1.1289719 1.021181 0.8014788 1.0956393
1.1780939 1.2096304 1.3370849 1.4402975 1.055829 0.8767456 0.9260533 1.7758974

stage2.0.branch2.4.bias f4 [16]
00000000: d550 15bf b618 ccbe 502b 323e 87f9 15be
00000010: 91b5 32bf 8f10 0dbe 9a19 e03e e90f 99be
00000020: 2476 99be 60cc dfbd 1d0b 6e3f 32cf 433f
00000030: c776 03be 314e f9be 7f54 5dbe 2e9b 9a3d
-0.58326465 -0.39862603 0.17399335 -0.14645968 -0.698083 -0.13775848 0.43769532 -0.2989495
-0.29972947 -0.10927653 0.9298571 0.7648803 -0.12838279 -0.48692468 -0.21614264 0.075491294

stage2.0.branch2.5.weight f4 [16, 16, 1, 1]
00000000: 2b76 143e c1e4 e63e 5480 133e b390 443c
00000010: 53bd 0bbe 0019 013e 9e3c a9bf 5b94 5a3e
00000020: 554e 94bd 756b 853d 30cc 933b a3f9 893d
00000030: 35bd ca3f 7a41 6a3d cedd 1ebd 73a4 56bf
00000040: 874d ff3e 0a75 fb3e 3537 ea3e 531b 753f
00000050: b00c 4e3f 6945 f93d 556e d1bd ace6 44bd
00000060: 943e 15be 0dac 4ebd 684f 66bf 5310 bbbe
00000070: adb7 bd3d 181c 49be 0707 b3be a7ba 0a3f
00000080: 0cb3 b3be 37df 903e d5d3 1dbe 27e4 67be
00000090: 830f 43be 006f ecbe 7c83 77be 51e9 a3bd
000000a0: c6bb e23e cc5d 09be d3d9 19bf b2a4 54bf
000000b0: 4de6 bdbe 396c f1be 8c12 d4be edb4 49bf
000000c0: dd6a a3be 13e2 67be 9995 23bf 555e 31bf
000000d0: ecf8 dbbe dc4a f73e 4e15 b0be 7cfc 94be
000000e0: 4d9d b5be 671e 083f d16a 0dbd 886a bdbe
000000f0: 42a3 023e d61a 1dbf 18f7 60bf f6b0 0e3f
00000100: 487d 42bd 2798 a13e af3b 223f d945 f83d
00000110: a125 60bf e4d6 bc3e f4fb ec3d b4ef fcbe
00000120: f0d1 8f3e 4293 e5bd a652 c03e d2a8 203f
00000130: 1b3d 45be 531d 9fbe 54b4 84bf bd6f 9d3e
00000140: f135 003f 9778 873f c0db 1b3f 6b3a babc
00000150: 972c 5a3e 4041 c8bd b6e5 c5bc 2282 d6be
00000160: 4ac5 28be f13c 043f 5995 b93d 2079 113f
00000170: 5a36 f93d 016c 95be ed36 ac3e c93f 453e
00000180: 7774 7abf 7857 20bf a8b7 cd3e daef 053f
00000190: b676 b83d 34fd 383f 50eb 343e d257 ed3e
000001a0: a2c3 f4be d8bc 3bbe f036 a53e 02f2 f13e
000001b0: 99cc 233e b372 74be c15d c83e be18 283f
000001c0: 4416 8a3d 8757 263e 9ce9 0cbf 3fb0 14bd
000001d0: 2fdf f1be d8cc 90be 6403 e4bd 728c a4be
000001e0: f276 a33d a949 ba3e 49fd 673f beb5 123f
000001f0: dc08 523e dfae 82be 88d5 533f 4052 b33e
00000200: 19b8 a93c a730 32be 99cb 853d a377 cf3e
00000210: 2245 81bd c9f7 75bd 8fe5 0f3b e289 f8bd
00000220: 6793 0ebd 81b2 023f ea80 0bbe fafc a2be
00000230: 4e08 9c3d 7cd3 6ebd c133 88be f620 883c
00000240: 69c4 5cbc cc50 1cbe 2692 cabd 9e35 37be
00000250: 7316 85bd 80e5 fe3c 7b86 973e c144 b53d
00000260: 4dfa 083f 6993 30bb 62e9 193e c467 543c
00000270: fe18 ddbe add1 2b3d c201 9abe eb48 7ebb
00000280: c9b2 c93e 42fa 26be 20bb 3dbd 9f5d f13d
00000290: 7a95 da3e fdea 443e 03d3 94bd 43a4 e73d
000002a0: 85ee 0bbf 75e4 75bc 6fb1 5f3e 7c27 a6bd
000002b0: 791a 5a3e c040 273f 2625 243e e1ad 913e
000002c0: 75e2 803e d618 c8bd cc50 dcbd 2d98 66bc
000002d0: a988 b0bd 19d8 43bd 9317 11bf e2c6 b93d
000002e0: ba62 98bf c693 b4be 51c6 e13d 5de1 acbd
000002f0: 8412 9b3e 9c67 9d3e e6dd 8bba 4bdc bcbe
00000300: 3504 763e d172 22bd c7fa 66be ddae d4be
00000310: a123 1a3e 1dfc 7d3d d07d e83d 5d8f 3a3f
00000320: 5d4a 2fbe 143b 2c3e f6d0 8abe b6f9 0fbf
00000330: 7cb8 603d 8975 423e 437b b1be d817 2d3e
00000340: 9565 f9bd 0bae 0abc b8e8 f1bd 9b7f 36bd
00000350: d918 3fbd e4ee 9f3e 0175 65bd 5704 9a3e
00000360: aa58 5d3e b838 5ebf 60ef 05be eced 5abe
00000370: d48e f8b8 cbaa 9a3e c4bf 68be 88a1 d3be
00000380: 66f0 813d a875 fe3e 4f3d 3c3e cb5c b8be
00000390: 7694 133f b76d 733e f26e ffbd 086d 34be
000003a0: 5d9d 193e 21aa 40bf 2451 543d ff2d 413e
000003b0: 6acc 94bc 82ab 8ebd 5b48 ad3e 8e37 b8be
000003c0: a4e3 f6b9 2766 f5bd f062 b63d 1bf5 42bd
000003d0: fb94 303e 6787 163f 0c66 913e 2a70 cfbc
000003e0: b55c 1c3e eb3e 33be abaf 2e3e 3ffe 27be
000003f0: 03d7 4fbf 5a45 1b3f fe3e 85bc a3c3 023e
0.14498203 0.450964 0.14404422 0.01199739 -0.1364644 0.12607193 -1.3221624 0.21345656
-0.07241503 0.065146364 0.004510425 0.067370676 1.5838991 0.05719135 -0.03878575 -0.8384468
0.49863836 0.4911273 0.45745245 0.9574482 0.8048811 0.12171442 -0.10226122 -0.04807155
-0.14574653 -0.05045705 -0.89964914 -0.36535892 0.09263549 -0.19639623 -0.349663 0.5419106
-0.3509754 0.282953 -0.15412839 -0.22645627 -0.19048886 -0.46178436 -0.24171251 -0.08003486
0.44283885 -0.13414687 -0.60098 -0.83063805 -0.37089768 -0.4715288 -0.414204 -0.78791696
-0.31917468 -0.22644834 -0.6390014 -0.69284564 -0.4296335 0.482993 -0.34391254 -0.2909888
-0.35471573 0.5317139 -0.034525696 -0.3699534 0.1275759 -0.61369073 -0.87877035 0.5573877
-0.04748276 0.31561396 0.6337232 0.121226974 -0.8755742 0.368827 0.11571494 -0.4940163
0.28089857 -0.11209728 0.37563056 0.627576 -0.19261591 -0.3107706 -1.0367532 0.30749312
0.5008231 1.0583676 0.60882187 -0.022732934 0.21306072 -0.097780704 -0.024157386 -0.41896158
-0.1648151 0.5165549 0.09061689 0.5682545 0.1216857 -0.29183963 0.33635655 0.19262613
-0.9783396 -0.62633467 0.4017918 0.5231911 0.09007017 0.7226136 0.1766789 0.46356064
-0.47805506 -0.18333757 0.32268476 0.4725495 0.15996017 -0.2387188 0.3913403 0.65662754
0.06742528 0.16244327 -0.5504396 -0.036300894 -0.47240588 -0.28281283 -0.11133459 -0.321384
0.079816714 0.36384323 0.9062086 0.57308567 0.20511192 -0.2552404 0.827477 0.3502369
0.020717667 -0.17401372 0.06532974 0.40520963 -0.06312014 -0.06005076 0.0021956896 -0.12135674
-0.034808543 0.51053625 -0.13623396 -0.3183363 0.076187715 -0.058307156 -0.26601985 0.01661728
-0.013474562 -0.15265197 -0.09891157 -0.17891547 -0.064984225 0.031115294 0.29594788 0.088510044
0.5350693 -0.0026943332 0.15030435 0.012964193 -0.4318313 0.04194801 -0.30079466 -0.0038800787
0.39394215 -0.16306403 -0.046321034 0.11785435 0.42692167 0.19230266 -0.0726681 0.11310627
-0.54660827 -0.015008082 0.2184503 -0.08113 0.21299161 0.65333176 0.16029796 0.28452972
0.25172773 -0.09770362 -0.10757598 -0.0140743675 -0.08619816 -0.04781351 -0.56676596 0.09071137
-1.1905129 -0.35268992 0.11024154 -0.08441422 0.30287564 0.3074311 -0.0010670989 -0.3688682
0.24025042 -0.03966028 -0.22556601 -0.4153966 0.15052654 0.062008012 0.11352122 0.72875005
-0.17118211 0.16819412 -0.2711255 -0.56240404 0.054863438 0.18990149 -0.34664354 0.16903627
-0.12177578 -0.008464347 -0.11811966 -0.044555288 -0.046654556 0.31236947 -0.056019787 0.30081436
0.21615854 -0.86805296 -0.13079596 -0.21379822 -0.00011852165 0.3020843 -0.22729403 -0.41334176
0.063446805 0.4969914 0.18382762 -0.36008295 0.5764841 0.23772322 -0.12472333 -0.17619717
0.15001436 -0.75259596 0.051835194 0.18865202 -0.018163878 -0.06966306 0.33844265 -0.35979885
-0.00047090382 -0.11982375 0.089055896 -0.047597032 0.17244332 0.5880036 0.28398168 -0.025322039
0.1526974 -0.1750447 0.170592 -0.16405581 -0.81187457 0.606527 -0.016265389 0.12769942

stage2.0.branch2.6.weight f4 [16]
00000000: d379 813f 9cf8 a73f ef21 8f3f 40d1 963f
00000010: cd9a a23f e797 bc3f 70f2 a23f 7697 953f
00000020: e3a1 283f 7b4a a03e 2888 2f3f 1911 0d3f
00000030: a0df 2a3f db5f 063f 05c5 043f af8f 493f
1.0115303 1.3122745 1.1182231 1.1782608 1.2703491 1.4733857 1.2730236 1.1686847
0.6587202 0.31306824 0.6856713 0.55104214 0.66747475 0.52490014 0.5186313 0.7873487

stage2.0.branch2.6.bias f4 [16]
00000000: 2f2a f53e b4a1 913e 9d67 ae3e 15c4 293e
00000010: 96ea 823e acd4 823e cc0e 2c3e ad91 b13e
00000020: 67d1 483e 872b bfbb 42b9 603e aff4 af3e
00000030: bdc2 263e 9a49 013f 9ddf 123e 0013 433d
0.47883746 0.28443682 0.34063426 0.16578706 0.255696 0.2555288 0.1680252 0.34681454
0.1961113 -0.0058340463 0.2194567 0.34366366 0.16285224 0.5050293 0.14343114 0.04762554

stage2.1.branch2.0.weight f4 [16, 16, 1, 1]
00000000: 7135 7b3e a979 d2bd 1290 a03d 7375 1a3c
00000010: d83f 3cbe 6a54 b2bd 5532 4dbe 410d 9cbe
00000020: 74e0 28be 45a0 8dbd 0a8b acbe d32b b33c
00000030: 6aa6 813d 5e5b 1fbd a827 e4bd 0aed dd3d
00000040: e351 7a3e 2730 d6bd 81fb ab3d 5d01 843c
00000050: cfe4 3cbe 45e7 b8bd 8ad9 4cbe c7b7 98be
00000060: d8aa 24be 5f2c adbd b9d5 b0be 6ab9 723c
00000070: 1c5b 093d f852 23bd 5b09 d6bd 9c20 df3d
00000080: fc13 813e 1ae6 f0bd 2c57 ac3d cb88 e23b
00000090: 1ed9 37be 1c91 babd 706d 4fbe d616 9ebe
000000a0: cc62 23be 710e b1bd b186 afbe 3e77 253c
000000b0: 3c7b 273d 5997 23bd f9c5 edbd 53e8 eb3d
000000c0: 2590 0d3e 0049 7a3e 436d f43b db7a 08be
000000d0: dab8 04be 7f80 4abe 665b 863e 361b 5a3d
000000e0: e69b 833d ff56 f03e 805e d7bd 7115 863f
000000f0: 9ef0 8dbe 1c1c aabd f056 b23c 1b86 103f
00000100: e94d 813e 8862 d7bd cd4e af3d 66ec 853c
00000110: 0f7f 37be bb82 b6bd 95c3 46be dbd6 9fbe
00000120: 774a 24be ef64 a8bd 94b1 b1be 4727 b33c
00000130: befb e73c abfb f7bc 0ae4 ebbd 1e76 d63d
00000140: fd50 ce3e 09f8 303d c99b 023f 9008 ae3d
00000150: 41f0 c13e cedc 283f da41 6f3d 22b0 6bbc
00000160: 99a0 063e 8340 013f f2ed d63b 4813 9cbe
00000170: a211 0c3f 3172 993d 764a ab3e dda5 6d3e
00000180: 771e c33e bd2c d9be a8a1 833c 31b5 80be
00000190: 804e 373f 8c94 c2bd 341a 0f3f 669e 383e
000001a0: 6f92 7d3e 77b1 dcbe 5fc4 a9be e222 d63d
000001b0: 19b2 113e 2608 653e 1ed0 1abf 2c37 073e
000001c0: c91f 803e 670a e0bd 5da7 ba3d b218 263c
000001d0: 6049 33be 3af0 bfbd a4ff 56be 052a 9ebe
000001e0: 8f53 1ebe eade bcbd ca6f b2be 81e0 633c
000001f0: a2aa 253d 87a6 32bd 8208 d2bd ebdc dd3d
00000200: f497 423e 0427 50bd 62a7 b83d 5ee7 873c
00000210: bbca 52bd 8f5c 54bc 2855 1abe 557a 38be
00000220: 2b3d 04be 7849 40bd bd8f d5bd bf37 a13d
00000230: 5f5b 073e 58f7 beba dac1 eebd 2941 e53c
00000240: c484 b3be a1b4 94bd 6197 2abe e8fb e3bd
00000250: ce91 133f 4b3d ab3c f734 613e eb23 083e
00000260: d53d f23d 2d35 813e 9402 323f 9eff 50bd
00000270: 4da8 d03d 4ae2 e4be c17e 3b3f 8978 893e
00000280: 76fb f93e 635d f73e 51ee 3c3f 0559 093d
00000290: 8691 313e ebb2 de3e d932 033d 82a3 333f
000002a0: cff1 0f3f 100a c33e 5d91 c6be d266 dbbd
000002b0: 591b 4e3f 2b29 0b3f 0297 f43d 491b c9be
000002c0: 6a8d 453e ed47 73bd 22f6 b63d 3706 763c
000002d0: db70 56bd dccd 4abc 4326 18be 0d90 3bbe
000002e0: 9197 febd bf43 37bd d16b d3bd edf4 9e3d
000002f0: 7c0a 003e e7a0 72bb e756 d5bd 658d d13c
00000300: 4fc6 453e 5d3e 47bd 82c1 b73d 790f 4a3c
00000310: b91b 5fbd 54ee 82bc 04d5 17be 2fba 37be
00000320: 0165 05be 9c45 67bd 2080 cdbd 5915 af3d
00000330: 71e1 013e b250 8dbb 70cc dfbd a91e 073d
00000340: 557e 413e 9b6f 55bd 8fe6 c23d 1821 753c
00000350: c7db 59bd 44f6 37bc cc17 1dbe 06b4 34be
00000360: 6f28 06be 3a47 41bd 013f e0bd db13 a53d
00000370: d4ce 003e f1dc a0ba 66e7 e4bd 079b a83c
00000380: c1bd 453e f06b 38bd 66cc be3d f42f 603c
00000390: e885 4bbd c963 6abc 2a5f 1bbe 9272 36be
000003a0: 97ee febd 4d8a 65bd 6aff debd fb93 a93d
000003b0: fd9f 023e 6cf7 66ba 6b9c ebbd 2695 003d
000003c0: 3d11 4d3e 9949 67bd aaad bb3d a8ee 9a3c
000003d0: 388b 57bd fa11 88bc b001 17be dbc8 37be
000003e0: 0082 f6bd f2b7 56bd 0c80 d6bd cede a23d
000003f0: 65e5 013e a010 d43a 36ad e6bd a134 ed3c
0.24532105 -0.10277111 0.07839979 0.009427416 -0.1838373 -0.08707507 -0.20038731 -0.30478862
-0.16491872 -0.069153346 -0.33699828 0.021871483 0.06330569 -0.038905494 -0.11140376 0.10836227
0.244453 -0.10458403 0.0839758 0.016113931 -0.18446659 -0.09028486 -0.2000486 -0.2982771
-0.16080797 -0.08455729 -0.34538057 0.014814714 0.033534154 -0.039874047 -0.10451003 0.108948916
0.2521056 -0.117626384 0.08415064 0.0069132796 -0.17953917 -0.09109709 -0.20256591 -0.30876797
-0.15955657 -0.086453326 -0.3428245 0.01009923 0.04088901 -0.03993926 -0.11610026 0.11518922
0.13824518 0.2444191 0.007459314 -0.13328116 -0.1296114 -0.1977558 0.26241606 0.053248607
0.0642622 0.46941373 -0.10516071 1.0475293 -0.2772264 -0.08306143 0.02176997 0.5645463
0.25254753 -0.1051684 0.08559952 0.016348075 -0.17919563 -0.089116536 -0.19410546 -0.3121861
-0.16044031 -0.082223766 -0.34705794 0.021869315 0.028318282 -0.030271372 -0.115181044 0.10471748
0.40296164 0.043205295 0.5101896 0.08497727 0.37878612 0.6596192 0.05841241 -0.014385255
0.131472 0.5048906 0.006559127 -0.3048346 0.54714406 0.074924834 0.33455247 0.23207803
0.3810918 -0.42416945 0.016068295 -0.25138238 0.71604156 -0.09500989 0.5589936 0.18029174
0.24762891 -0.43104145 -0.33157632 0.10455872 0.14228095 0.2236639 -0.6047381 0.1320464
0.2502425 -0.10939484 0.09113953 0.010137724 -0.17508459 -0.093719915 -0.20995957 -0.30891433
-0.15461563 -0.09222205 -0.34850913 0.013908506 0.04044593 -0.043615844 -0.10255529 0.108331524
0.19003278 -0.05081846 0.09016301 0.016589817 -0.05146287 -0.012961521 -0.15071547 -0.18015416
-0.12913959 -0.046945065 -0.104278065 0.07871961 0.13218449 -0.0014569564 -0.11658068 0.027985172
-0.3506223 -0.07261015 -0.16659309 -0.11132032 0.57644355 0.02090325 0.2199286 0.13294952
0.118282 0.25235882 0.69535184 -0.051025026 0.10188351 -0.44703895 0.73240286 0.26849774
0.48824662 0.48313436 0.7380114 0.03353216 0.17340669 0.4349588 0.032030914 0.7017137
0.56228346 0.38093615 -0.38782778 -0.10712971 0.8051048 0.5435969 0.11942865 -0.3927863
0.19292226 -0.059394766 0.08933665 0.01501613 -0.05235372 -0.012378182 -0.14858346 -0.1831667
-0.12431253 -0.044742342 -0.10323299 0.0776156 0.12504 -0.0037022175 -0.10416966 0.025580117
0.1931393 -0.04864346 0.089724556 0.0123327905 -0.054469798 -0.015982784 -0.14827353 -0.17942117
-0.13026811 -0.05646287 -0.100342035 0.085489936 0.12683655 -0.004312598 -0.10927665 0.032988224
0.18895848 -0.05210839 0.09516632 0.014961503 -0.05318811 -0.011228148 -0.15341109 -0.17646798
-0.13101362 -0.047187068 -0.10949517 0.08060428 0.12578899 -0.0012272877 -0.11176948 0.020581735
0.19310667 -0.045024812 0.0931633 0.013683308 -0.04968825 -0.014306017 -0.15173021 -0.17817143
-0.12447851 -0.056040097 -0.1088856 0.08280178 0.12756343 -0.00088106724 -0.11504444 0.03139224
0.20026107 -0.056466673 0.09163983 0.018912628 -0.052623004 -0.016610134 -0.14746737 -0.17947714
-0.12036514 -0.052421518 -0.10473642 0.07952653 0.12685163 0.0016179271 -0.11263506 0.02895576

stage2.1.branch2.1.weight f4 [16]
00000000: 8e62 0e3d 3f0f 023d a2cb 023d 133d 553f
00000010: 3d89 013d b552 743f 319b 873f 37f2 043d
00000020: 2297 013d 69b5 9b3f fe27 673f 14eb 023d
00000030: e090 023d 9ac3 023d 920d 013d ca30 013d
0.034761958 0.03175282 0.03193248 0.83296317 0.03162502 0.954387 1.0594236 0.032457557
0.031638272 1.2164737 0.902954 0.03196247 0.031876445 0.03192482 0.031507082 0.03154067

stage2.1.branch2.1.bias f4 [16]
00000000: dd53 f03b 7685 adb9 6850 0939 310b 0f3e
00000010: 68ea 82ba 8416 36bd ed5e 543f 8896 283b
00000020: 8292 5eba dcb7 c0be 5ddf 8b3e 011b 423a
00000030: b1e5 733a 17b8 a9b9 b367 adba ed15 89ba
0.007334216 -0.00033096567 0.00013095292 0.13969113 -0.0009988071 -0.044455066 0.82957345 0.002572449
-0.00084904593 -0.37640274 0.2731885 0.00074045366 0.0009303941 -0.0003237135 -0.0013229757 -0.0010458805

stage2.1.branch2.3.weight f4 [16, 1, 3, 3]
00000000: cf8f a53b 4215 283c b59d 693a 044f e3ba
00000010: e966 593c 8f2c 073c f447 53bb a04f 113c
00000020: 488e f43b 083c 8c3b 4899 0a3b 3033 1abc
00000030: 46f1 1ebb 3411 1dbc 6d57 813b 20c3 d9bb
00000040: 3d7f c73b 5e8f da3b dbe1 093c 167b a1bb
00000050: 9c1c d53b c7df 033c edc5 b1bb 7c8a af3b
00000060: f806 7d3b 85de 9f3a 8657 a7bb af0a d3bd
00000070: e4ad e43e 9b75 adbe 7b45 bcbe 35e8 dc3f
00000080: ed1f a0bf 56df b33c 8a07 983e bd94 32be
00000090: d802 323c b3a5 1abc 47f3 983a 1e66 bcbb
000000a0: 952f af3b 1476 1cbc 7864 dfbb 3674 f9b9
000000b0: adb6 863b df77 3ebe 7484 6bbf c43d 06bf
000000c0: 159f 7f3f d21f a2bf 44da 6e3f 86d4 f03e
000000d0: e8b0 82bf 1f4e a53e 98ae c5bd c5ad 2d3e
000000e0: 3145 45bd 3b34 203f 1c2c b03f 1e94 413f
000000f0: defa 14bf 4864 80bf a534 20bf a691 103c
00000100: c2c0 babb 6371 5cbb 00d2 3bbc c4bd 913b
00000110: 37a0 bb3b 7321 173c 9e1d 3c3c f715 0bbb
00000120: fa14 ab3b c99e 9ebb 53ce 123a 3f49 8abb
00000130: 8bef c33b a661 e2bb 0997 a23b 15a2 c9bb
00000140: 96e5 22bb f71f db3d bca3 ccbe ebb0 143e
00000150: 6fbb 01bf 3bf5 73bf 664e 14bf 9d2f 493d
00000160: 07b5 a83e 16b1 ca3d d926 febe c34c 53be
00000170: eb96 24bf 3340 33bd f65b 0d40 3eda 0c3f
00000180: 9e29 e8be 22bf 5b3f 114d 7bbd f29d 143c
00000190: 607a f0ba 3cdc 8e3b 79ed 153c 99b2 a7b7
000001a0: 97e4 2ebc 31b6 00bc 05b6 483b 1035 01ba
000001b0: 06cc 1dbc 7bc1 debb ce02 c4bb e207 1f3c
000001c0: 5270 b63b 3445 a2bb 02c0 f23a 1df0 423b
000001d0: a459 bd3b 20f1 8bba 040a e4bb f802 d4bb
000001e0: 670f 7c3b 9f86 eebb 24e6 90bb e24c e93b
000001f0: 8e7e 843b 460b c3bb fe0a 1f3c 843f a93b
00000200: 9295 dcbb 0ca4 083c 662b b43b f300 a93b
00000210: caf3 5b3a 4a0c 88bb 76f2 df3b 63cb 7cba
00000220: 5f44 2abc 0528 043c b09c 08bc e877 f43a
00000230: 8d96 bcbb 05cf 6abb 9765 9abb a4f3 073c
0.0050525437 0.0102589745 0.0008911745 -0.0017342274 0.013269165 0.00825037 -0.0032238932 0.008869082
0.0074632503 0.004279617 0.0021148492 -0.009411618 -0.0024252697 -0.009586621 0.0039471895 -0.006645575
0.006088166 0.0066699227 0.008415665 -0.004928003 0.0065036546 0.008048958 -0.005425206 0.005357085
0.003860889 0.0012197053 -0.005106869 -0.10304772 0.44663918 -0.33878788 -0.3677176 1.7258364
-1.2509743 0.02195708 0.29693252 -0.17439552 0.010864936 -0.00943892 0.0011669182 -0.005749478
0.0053462484 -0.009549636 -0.0068173967 -0.00047579565 0.004111132 -0.18600415 -0.9199898 -0.52437997
0.99852115 -1.2665961 0.93301797 0.47037143 -1.0210238 0.32286164 -0.09652442 0.16960819
-0.04816169 0.625797 1.3763461 0.75616634 -0.5819529 -1.0030603 -0.6258033 0.008823788
-0.005699248 -0.003363692 -0.011463642 0.0044476707 0.005725886 0.0092242835 0.011481671 -0.002122281
0.0052210065 -0.004840706 0.0005600203 -0.0042201574 0.0059794835 -0.0069086133 0.0049618524 -0.006153355
-0.0024856082 0.10699456 -0.3996867 0.14520614 -0.50676626 -0.95296067 -0.57932127 0.049117673
0.32950613 0.09897058 -0.49639013 -0.20634751 -0.6429278 -0.043762397 2.2087379 0.5502051
-0.4534425 0.8583852 -0.061352793 0.00907086 -0.0018347017 0.00435975 0.009150856 -1.9991117e-05
-0.010674617 -0.007855938 0.003062607 -0.00049288664 -0.0096311625 -0.006797967 -0.0059817797 0.009706469
0.005567589 -0.0049520973 0.0018520358 0.002974517 0.0057785083 -0.0010676719 -0.006959202 -0.0064700805
0.003846133 -0.0072792317 -0.004421966 0.007119761 0.004043407 -0.0059522716 0.009707211 0.0051650424
-0.0067316974 0.008339893 0.0054983376 0.005157584 0.00083905144 -0.0041518556 0.0068343235 -0.0009643344
-0.0103922775 0.008066182 -0.008338138 0.0018651458 -0.0057552517 -0.003582896 -0.0047118175 0.008297835

stage2.1.branch2.4.weight f4 [16]
00000000: 8b89 333d c19c 6f3d d8d9 633d b9c8 c33f
00000010: c981 543d 4d1d 8f3f 0203 673f 2c5e 633d
00000020: a20b 423d b9f0 9d3f 50d4 8d3f 115c 713d
00000030: cb5e 983d 2f76 633d c21b 4a3d c9b2 413d
0.043832343 0.0584991 0.055627674 1.5295631 0.051881585 1.1180817 0.90238965 0.05550973
0.047374375 1.2339088 1.1080418 0.058925692 0.07439955 0.05553263 0.04934288 0.047289643

stage2.1.branch2.4.bias f4 [16]
00000000: d6ee 803c b548 20bd dbf9 10bc 30ee 573e
00000010: 7e2f 4fbd a4ef 2a3f 1a56 d3be 1eca 3f3d
00000020: c2cc bd3a de27 573f 37a7 7cbf 8818 e2bc
00000030: 6b07 5ebd 8a53 83bc e215 7bbb 88f1 b4bb
0.015738886 -0.03913184 -0.008848633 0.21086955 -0.0505824 0.6677191 -0.41276628 0.046823613
0.0014480578 0.8404521 -0.9869265 -0.027599588 -0.054206293 -0.016031045 -0.0038312604 -0.005521957
