independent_train/client99/best_model_0.0.pth (torch, 420139 bytes, 98 tensors)

conv1.0.weight f4 [16, 3, 3, 3]
00000000: 9d65 ad3d bf7f c2bc 6485 61bd 0157 83bc
00000010: 8be0 2c3e 1e01 3cbe 3f94 983d 1914 dfbd
00000020: 753c 0b3e 9dee 16bd 5b01 303d 17b7 c6bd
00000030: 9628 dc3d 52ee 4bba c380 d13d 9456 bdbc
00000040: 8a4f 44be f244 1dbe fd07 ca3d f4cf 37be
00000050: fe07 153e 5c0d 29bd dfa0 97bd 3b15 213e
00000060: 4faf 9bbd 0702 a9bd cc85 e4bc 8eca c13b
00000070: 4569 d63c 1220 3f3e 27fd 353e fbe7 ae3d
00000080: 5467 e2bc 4eed 8abc 9159 1cbe f14a 163e
00000090: a2d6 243e 6889 d6bc d585 c93d 6581 523d
000000a0: 502d dcbc 86d8 9c3d 1e85 313e 38b6 0a3d
000000b0: c621 af3d 986a 08be ba7b 1e3e e036 5e3d
000000c0: e5ea b2bd bf69 e4bd 47b9 f63d 258b 08be
000000d0: 3261 07be f591 423e d8ad 1e3e 5945 2dbe
000000e0: e5e1 b2bd a4a6 a1bc 8fbe d43d cefe 9f3d
000000f0: eed7 7e3d 3495 57bd b06b 1e3e 5519 73bd
00000100: efd7 e03d 4523 bcbd 0cd4 ca3c 23e9 e2ba
00000110: 06d4 473c 29a1 05bc c8cf 003e fbe3 2f3e
00000120: af6e 3bbe 8bdd 7fbd ceda 983d 8284 853d
00000130: 3424 943d 7a9e 263e 8b56 7c3d 2e95 d9bd
00000140: f456 3abe 5c02 33be d9a1 4fbc 7373 9cbd
00000150: c6b6 40be 5b51 13be f5e1 19bd 19f3 333e
00000160: 9fff f3bc 669c f8bc 3c3d 1bbd c901 303d
00000170: 50d2 0f3e d413 383e 2816 cabd 5159 313e
00000180: 5a35 43be 7f9c c43d a1f9 dd3d bac0 31be
00000190: d650 173d 6d3e 8d3d b661 4bbd 10a0 22be
000001a0: 8e6c 29be cf1d f7bb a12d b0bd 614b 6a3b
000001b0: 383c 313e eb60 fb3d eb30 d63d 2881 25be
000001c0: 6bab 873d 6213 97bd 6781 113e 679e 2c3e
000001d0: 8ced 09be ba5a 8d3d 42e6 3dbe d37b 85bc
000001e0: fa22 efbd 4d49 7a3d 2a95 47bd 5ae6 103e
000001f0: a8a9 583b e12e 953d cdf7 b43d 3cbe ddbc
00000200: 214d 1e3d 4fe6 043e 64be 143d 2798 993d
00000210: 86d9 3bbd ee0a 8b3d 4087 623d 3c38 35be
00000220: bca9 153c 5d63 c8bd 7612 5f3d 7159 9dbc
00000230: 7471 ae3d 1d63 b33c f97e 19be d8f9 5d3d
00000240: aaea 9e3d 0019 f2bd c604 a6bc 4bb3 1abe
00000250: 62a0 e8bd 1636 20be 8dd7 10bc 54e9 1e3d
00000260: 5cfa 70bc 7c7f 44be cdc7 e3bc a040 35be
00000270: ca0d 2ebe d150 b83d 9ab7 1e3e 7849 813c
00000280: b5f1 b83c d936 18be 36d8 18be 88e8 9cbd
00000290: 65d6 a5bd c379 433e 109b 383e 3d21 d73d
000002a0: 43c4 273e 2b03 60bd 7369 30be d349 38be
000002b0: 3ae7 ab3d cb9b 143e fa84 f23c f3a9 43bd
000002c0: cee2 073e 1b4c ccbd e947 f23d ee26 08be
000002d0: 6ab5 253d f6fd 253e df32 b7bd f67e 6e3d
000002e0: 3d94 26be 8d4d d7bd 523a fd3d 6f66 ec3d
000002f0: c27a 03be 0d2b 5cbd 93f4 10be defd 333e
00000300: d63c 3e3e 7d07 293d c56f 50bc eb1f 92bd
00000310: 9dae bfbd a8b2 c13d b496 aa3d 84e4 a03d
00000320: ee43 0e3c 473b e3bd 6b20 7c3d 9f07 393d
00000330: b279 d43d 6f89 213d b246 d9ba a4d4 50bd
00000340: 9695 12be 7f22 3fbe 752a 2bbd 6bae e63d
00000350: 5182 00be 4a7d d93d e73b 0f3c ca1e 153e
00000360: f930 a53d 9d90 863d 1bca a23b 9dc7 59bd
00000370: cf30 92bb fcbb 6dbd 52b1 08be 9e56 d5bd
00000380: 385e ee3c 4ab9 223d ddce b73c bc2c 383e
00000390: befb 31be dbf9 cb3d b3d2 433e c3fc 83bd
000003a0: 0603 40bc 7438 e73c 6c34 a3bd 8ad6 70bd
000003b0: 58e5 d73d c5ee 2ebe f929 3b3e 0151 0c3c
000003c0: 6d9e b3bd 68b3 29be beaa 93bd 656c e4bd
000003d0: 4baf 4b3c 7068 14bd 9313 3fbe 649a 02be
000003e0: 723e 163e 74c4 0b3e 311a f43d 0649 843d
000003f0: a930 373e 50b4 e1bd 9608 fa3d ac02 6cbd
0.08466647 -0.023742555 -0.05505885 -0.016032698 0.16882531 -0.18359801 0.07450151 -0.10892505
0.13597281 -0.036848653 0.042970043 -0.0970289 0.10749929 -0.0007779348 0.102296375 -0.023112573
-0.19170967 -0.15358332 0.09864805 -0.17950422 0.1455383 -0.041272506 -0.074037306 0.15730755
-0.07601797 -0.0825234 -0.02789583 0.005914039 0.026173243 0.18664578 0.17772351 0.085403405
-0.027637161 -0.016958859 -0.15268542 0.14677025 0.16097501 -0.026188567 0.098399796 0.05139293
-0.026877075 0.07658486 0.17335936 0.033865184 0.08551364 -0.13321912 0.15476885 0.05425155
-0.08736209 -0.11152982 0.120470576 -0.1333433 -0.13220671 0.1900099 0.15496004 -0.16920985
-0.08734492 -0.01973278 0.10387909 0.07812272 0.062217645 -0.052632526 0.15470767 -0.05935033
0.10978686 -0.09186415 0.024759315 -0.0017311912 0.012196546 -0.008156099 0.12579262 0.17176811
-0.18303941 -0.06246714 0.07463609 0.065194145 0.07233468 0.16271392 0.06160597 -0.10624157
-0.18197232 -0.17481369 -0.012672865 -0.07639208 -0.18819723 -0.14386503 -0.037569005 0.17573203
-0.029784976 -0.030348014 -0.037900195 0.042970452 0.14045072 0.17976314 -0.09867507 0.17319228
-0.19063321 0.09600162 0.108386286 -0.17358676 0.036942326 0.068966724 -0.04965373 -0.15881371
-0.16545317 -0.0075413953 -0.08602453 0.0035750496 0.17308128 0.12274345 0.10458549 -0.1616255
0.06624492 -0.07376744 0.1420952 0.168573 -0.13469523 0.0690207 -0.18544868 -0.016294396
-0.11676593 0.06110506 -0.04872624 0.14150372 0.0033060107 0.07284332 0.08836327 -0.02706825
0.038647775 0.12978481 0.036314383 0.07499724 -0.045861743 0.06789194 0.055304766 -0.17697233
0.009134706 -0.09784577 0.054460965 -0.019207688 0.08517733 0.021897847 -0.14989842 0.054193348
0.07759602 -0.118211746 -0.020265948 -0.15107457 -0.113587156 -0.15645632 -0.008840454 0.038796738
-0.014708128 -0.19189256 -0.027805233 -0.17700434 -0.16997448 0.089997895 0.15499726 0.015782103
0.022576192 -0.14864673 -0.14926228 -0.07661539 -0.08097533 0.19089417 0.18027902 0.105043866
0.16383462 -0.05469052 -0.17227726 -0.17996912 0.08393712 0.14512555 0.029604424 -0.047769498
0.13270113 -0.099754535 0.11830122 -0.132961 0.040456213 0.1621016 -0.0894525 0.058226548
-0.16267486 -0.105128385 0.12364639 0.11542975 -0.12839797 -0.053751994 -0.14155798 0.17577311
0.18577895 0.041266907 -0.01272196 -0.07134994 -0.09359477 0.09457904 0.083295256 0.07856086
0.008683188 -0.11095291 0.061554354 0.045173284 0.10374774 0.039437708 -0.0016576855 -0.05098404
-0.14314875 -0.18665503 -0.041788537 0.11263736 -0.12549712 0.106196 0.008742309 0.14562526
0.080659814 0.065705515 0.0049679405 -0.05316888 -0.004461385 -0.058040604 -0.13348892 -0.104169115
0.029097661 0.039727487 0.022437507 0.17985815 -0.17381188 0.099597655 0.19123344 -0.06444695
-0.011719471 0.028225161 -0.07968983 -0.05879835 0.10541791 -0.17083271 0.1827773 0.008564235
-0.08770452 -0.16572344 -0.07210301 -0.11153487 0.01243193 -0.03623241 -0.1865981 -0.12754208
0.14672258 0.1364916 0.11919058 0.064592406 0.17889656 -0.1102072 0.12208669 -0.057619736

conv1.1.weight f4 [16]
00000000: 0000 803f 0000 803f 0000 803f 0000 803f
00000010: 0000 803f 0000 803f 0000 803f 0000 803f
00000020: 0000 803f 0000 803f 0000 803f 0000 803f
00000030: 0000 803f 0000 803f 0000 803f 0000 803f
1.0 1.0 1.0 1.0 1.0 1.0 1.0 1.0
1.0 1.0 1.0 1.0 1.0 1.0 1.0 1.0

conv1.1.bias f4 [16]
00000000: 0000 0000 0000 0000 0000 0000 0000 0000
00000010: 0000 0000 0000 0000 0000 0000 0000 0000
00000020: 0000 0000 0000 0000 0000 0000 0000 0000
00000030: 0000 0000 0000 0000 0000 0000 0000 0000
0.0 0.0 0.0 0.0 0.0 0.0 0.0 0.0
0.0 0.0 0.0 0.0 0.0 0.0 0.0 0.0

stage2.0.branch1.0.weight f4 [16, 1, 3, 3]
00000000: e691 733e 2b72 e23d aecb 5c3e 48e4 0fbe
00000010: a0ec e33d 5865 06be 5c7a 9a3e 6381 1ebe
00000020: 0056 2a3c c6ee c53d 301b 853e 3010 b33d
00000030: d7ca 89be 0e99 15be d805 9b3e 3b96 e23d
00000040: 566d 55bb abc2 95bd f63c 443e 76ed 9f3e
00000050: 5bf0 c8bd 0fe8 94be 6439 a9be c621 71be
00000060: e003 3d3e d688 cd3d d6aa 4bbc bbbf 173e
00000070: a013 09be d476 8a3e ce24 10be b851 88be
00000080: f624 5a3d 6f7b 883e 4010 c13d 70ad d5bd
00000090: d659 afbc 134a 1c3e aba5 0d3d 0e88 49be
000000a0: 0bd8 8cbe 3c2d 89be 60f6 303d 00db bbbd
000000b0: 3b77 e03d ce08 8a3e 2bda 373e 03be 32be
000000c0: 68a5 19be b683 1fbd a315 4a3e 5811 37be
000000d0: 0000 eabc d3f6 80be 5008 2d3e 4349 a4be
000000e0: 86cc 063e 408e d7bc ae2f 48be 96be e7bd
000000f0: d633 c5bd eb0d 17bd f621 9d3e 0bd6 1a3e
00000100: e6b4 a5bd aae7 923e 56b9 793b 0a3c a2be
00000110: eb8b d13c 7bab aa3d 5864 35be 3b13 f3bd
00000120: 1036 48be 6ba9 00bd ebc3 97be 565e 2c3d
00000130: 0003 3a3e 0bd0 a7be bbb3 d83d b72d 823e
00000140: 5b48 583e 2b81 27be 93f6 a33e 73da 92be
00000150: 6e32 47be ba3e 86be 6084 953e 2046 16be
00000160: 181a 3bbe fbb2 343e 1b9d 52be 7c66 863e
00000170: ab1f 843e 201b 97bd c480 9fbe c056 fd3c
00000180: 5ec5 47be d647 f0bd cbd1 a4be 73e4 683e
00000190: 408b 803d 0022 2f3e 2af1 9abe 3e1a 58be
000001a0: 13ee 5a3e 64fa 903e c6a1 99bd c011 a5be
000001b0: 1618 9ebc 6b0e 0c3d 1e87 2d3e 769c 0d3e
000001c0: 00ce 463d bc82 93be d64e c8bd ab7c c2bb
000001d0: a06e 77be 6b2f 593e de9d 08be 4e62 4e3e
000001e0: c864 a3be 6f29 8d3e 8671 863d f6d1 a13e
000001f0: 3369 2fbe 207c 3fbd dfe9 953e e06f 693e
00000200: 965e 6cbd 2883 5a3e 8064 ebbd 6ba9 e5bc
00000210: f69f 243d 2e9e 953e d3a0 843e 5814 103e
00000220: 60df 2f3d eb4c febd 8006 a4bd f6d7 99bd
00000230: 8e1e 6a3e 4313 633e e0a6 2e3d 1859 683e
0.23786125 0.11056932 0.21562073 -0.14051926 0.11129117 -0.13124597 0.30171478 -0.15479045
0.010396481 0.09664683 0.25997305 0.08743322 -0.26912567 -0.14609167 0.30277896 0.110638104
-0.003256639 -0.073125206 0.1916388 0.31235856 -0.09811469 -0.29083297 -0.33051598 -0.2354804
0.1845851 0.10035865 -0.012430867 0.14819233 -0.13386393 0.27043784 -0.1407654 -0.26624846
0.053257905 0.26656672 0.094269276 -0.10433471 -0.021405142 0.15262632 0.03458182 -0.19680807
-0.27508578 -0.26792324 0.04320371 -0.0917263 0.109602414 0.26959842 0.17954318 -0.17455296
-0.15004504 -0.03894397 0.19734816 -0.1787771 -0.028564453 -0.25188312 0.16897702 -0.32087144
0.13163957 -0.026312947 -0.19549438 -0.11315648 -0.096290275 -0.036878508 0.30689973 0.15120713
-0.08091144 0.2869237 0.0038104854 -0.3168643 0.025579413 0.083334886 -0.1771406 -0.11868902
-0.19551873 -0.03141157 -0.2964166 0.042082153 0.18165207 -0.32775912 0.10581156 0.25425503
0.21121351 -0.16357867 0.3202406 -0.2868229 -0.19452831 -0.26219732 0.29202557 -0.14675188
-0.18271673 0.176464 -0.20567743 0.26250064 0.2580541 -0.073782206 -0.31152928 0.030925155
-0.19508883 -0.117324516 -0.3219131 0.22743396 0.0627656 0.17102814 -0.3026212 -0.2110376
0.2137988 0.28316033 -0.07501559 -0.32240105 -0.019298594 0.034193438 0.16946074 0.13829216
0.0485363 -0.2881068 -0.09780662 -0.0059352717 -0.24163294 0.21209495 -0.13341472 0.20154688
-0.31912827 0.27570674 0.065646216 0.316055 -0.17129974 -0.046749234 0.29279992 0.22796583
-0.05770739 0.21339095 -0.11493778 -0.028034886 0.040191613 0.29222244 0.2590395 0.1407026
0.042937636 -0.12417015 -0.08009052 -0.075118944 0.22863218 0.22175317 0.042639613 0.22690237

stage2.0.branch1.1.weight f4 [16]
00000000: 0000 803f 0000 803f 0000 803f 0000 803f
00000010: 0000 803f 0000 803f 0000 803f 0000 803f
00000020: 0000 803f 0000 803f 0000 803f 0000 803f
00000030: 0000 803f 0000 803f 0000 803f 0000 803f
1.0 1.0 1.0 1.0 1.0 1.0 1.0 1.0
1.0 1.0 1.0 1.0 1.0 1.0 1.0 1.0

stage2.0.branch1.1.bias f4 [16]
00000000: 0000 0000 0000 0000 0000 0000 0000 0000
00000010: 0000 0000 0000 0000 0000 0000 0000 0000
00000020: 0000 0000 0000 0000 0000 0000 0000 0000
00000030: 0000 0000 0000 0000 0000 0000 0000 0000
0.0 0.0 0.0 0.0 0.0 0.0 0.0 0.0
0.0 0.0 0.0 0.0 0.0 0.0 0.0 0.0

stage2.0.branch1.2.weight f4 [16, 16, 1, 1]
00000000: 0011 133b b8e3 0abd 7853 7dbe e85d 43bd
00000010: 9a2c 0f3e 4c1b 7cbe 2a64 0fbe d6fe 1a3e
00000020: b4b2 f13d 206e f23c 3052 f13d 485f 123d
00000030: a860 18bd f608 4f3e 4e4f 5a3e 7cf6 c1bd
00000040: 00fb c43b e8f6 2bbe c0a1 92bc f438 3bbe
00000050: a860 0dbe 5c58 563e 3cf6 1e3e 00aa 1fbd
00000060: 0869 3cbe 7081 e2bd 1043 1cbd 3cea f03d
00000070: 5a5b 1a3e d6b5 793e 5a97 7dbe 8a0a 303e
00000080: 68e0 5d3d 4287 3d3e 7c6d 64be d0c5 2ebe
00000090: 889c 8fbd ac67 073e 5809 e83d e876 a73d
000000a0: 9c7e b2bd 26cc 1dbe 3211 17be ee20 47be
000000b0: 22b6 5a3e 7606 2f3e 2440 f13d 3012 2c3e
000000c0: 3806 7dbe 06f6 013e e840 4cbd a4a9 fa3d
000000d0: a6cc 04be c64f 42be 00c2 153e 7a24 6cbe
000000e0: a0db 6e3d 483f b93d 7e79 0abe e852 4fbd
000000f0: 6ab2 13be 5ea9 20be 1ca0 323e d8ca 963d
00000100: 2c42 52be 563c 45be ccf3 963d 5ae3 69be
00000110: 1072 e3bd ee77 06be 6478 c73d 8ca6 0c3e
00000120: 28f5 46be 645f dc3d 68c1 d13d c074 133c
00000130: ae92 42be dafb 03be 82df 3d3e 3092 f8bc
00000140: 56e4 7f3e 0099 663b e8d4 77bd d0c5 6d3e
00000150: 84d1 613e a2d3 483e 3e0d 14be 988a f3bd
00000160: 60f2 12bd 9ad6 76be 14b2 f73d 0004 d1ba
00000170: f833 27be bc48 53be 1890 6ebe b0ea 00bd
00000180: e4cf 5f3e 468d 5a3e d0ca 3bbe f845 dfbd
00000190: 3e8d 1a3e 1c38 863d 2afc 793e 1083 323d
000001a0: 5867 55bd 609a 2ebc 0cae b43d a0de 93bc
000001b0: 305d ebbc 000a 7d3a b821 f7bd c8e9 d03d
000001c0: f487 333e 2082 103d 7cfc 363e 5440 923d
000001d0: 2080 e43c 78c3 38be 8442 63be 9212 273e
000001e0: d8c9 cd3d 20c5 a83c 1273 503e 90ab 423d
000001f0: 784a d63d 9a9c 183e 684f 1abd 400b 143e
00000200: 4c11 1fbe c03a 0cbd 2831 d9bd 0039 faba
00000210: c009 afbd 127d 7b3e a0ae 1abc de90 6b3e
00000220: 4864 cbbd 40d8 afbc aa61 20be 92ea 653e
00000230: 10e7 3e3e 5e5c 00be 3a51 0dbe c87a 4fbe
00000240: ee83 243e 7045 7c3d 784f 10bd f031 fcbd
00000250: 189c 31be c0e6 383e 28ec 4e3e c640 673e
00000260: 78f9 ee3d d4d4 dd3d f871 0ebd 226a 7ebe
00000270: e01e db3c 200b 7b3d ac32 6fbe 2abb 7d3e
00000280: 9a82 1f3e 68b4 babd aad3 593e 8ea7 3dbe
00000290: 38d7 17bd 502f ddbc 3871 bf3d 508b 1c3e
000002a0: 08bc 7bbe 5a40 51be f4eb 553e f43c 83bd
000002b0: d0cf 34bd dc34 17be e081 c13c 1cfa 68be
000002c0: 8048 f6bd 3a6e 25be 60ee 033e 7647 0dbe
000002d0: 3433 8f3d d856 10be e0a7 3ebe 2e1e 0a3e
000002e0: dc5e debd 204d 8b3d a66a 463e f88a d03d
000002f0: 80bb 3b3b 2830 433e 6caa 7dbe 508f 1ebe
00000300: 3858 26be 7062 f63d 18c1 183e 007d b93b
00000310: 8810 3cbd a0dd e0bd ec7e 1cbe 90ee 1fbd
00000320: b282 1bbe 2809 f53d e45c b63d fc13 0ebe
00000330: 78df 763e c0d4 193e 767b 51be 2471 dabd
00000340: 90d5 afbd 40f3 d9bb 007a ebba 0e33 51be
00000350: 7eb8 423e cc3a c23d 4031 babb 80ab 76bc
00000360: 7ec5 3d3e 24ca c4bd ba45 63be ea1c 273e
00000370: 3892 d8bd 00f4 e73a 2414 aabd 3e6d 2a3e
00000380: 2c16 0a3e 80cf aabd 4cf0 50be 6c5d 6ebe
00000390: 1af0 11be f4c8 af3d 84c4 cfbd 6cbe d4bd
000003a0: b0c7 76bd 00b2 2a3b b07b ecbc 0254 43be
000003b0: 8c25 c6bd 7e11 5f3e aec3 743e ec03 2dbe
000003c0: f8cf 32be 4007 cebb 10a2 4dbd 6a23 283e
000003d0: 627a 32be 50ea 543e d053 e2bc ac7e 2dbe
000003e0: 60c6 a23d 66b6 433e a078 363c 2255 54be
000003f0: 80df 473c 1ce4 d93d a0a1 a93d 681c 65be
0.0022440553 -0.033908576 -0.24738872 -0.047696978 0.13981858 -0.24619788 -0.14003053 0.15136275
0.11801663 0.029593527 0.11783254 0.0357354 -0.037201554 0.20218262 0.21319315 -0.09470841
0.006011367 -0.16793406 -0.017899394 -0.18283445 -0.13806403 0.20932144 0.15523618 -0.038980484
-0.18399441 -0.110598445 -0.038149893 0.11763427 0.1507391 0.24385771 -0.24764767 0.1719152
0.05416909 0.18508628 -0.2230739 -0.17067647 -0.07012278 0.13223141 0.11329907 0.081769764
-0.08715555 -0.15409908 -0.14752653 -0.19446155 0.2135854 0.17092308 0.11779812 0.16803813
-0.24709404 0.12691507 -0.049866587 0.12239388 -0.12968692 -0.18975744 0.14624786 -0.2306079
0.05831492 0.09045273 -0.13522908 -0.050616175 -0.14423528 -0.15689608 0.1744389 0.07362908
-0.20533055 -0.19261298 0.07370719 -0.22840634 -0.1110574 -0.13131687 0.097397596 0.13735408
-0.19429457 0.10760382 0.102419674 0.009000003 -0.19001266 -0.12889042 0.18542293 -0.030343145
0.24989447 0.003518641 -0.060505778 0.2321999 0.2205258 0.19611982 -0.14458176 -0.11891669
-0.035875678 -0.24105301 0.120945126 -0.0015946627 -0.16328418 -0.20633215 -0.23297155 -0.031473815
0.21856648 0.21342954 -0.18339086 -0.10902017 0.15092942 0.06553671 0.24412599 0.043582022
-0.05210051 -0.010656923 0.08822259 -0.018050492 -0.028730959 0.0009652674 -0.12066978 0.1020084
0.17532331 0.035280347 0.17869753 0.07141176 0.027893126 -0.18043315 -0.22193342 0.16315678
0.10048264 0.020601809 0.20356396 0.047526896 0.104634225 0.14903489 -0.037673384 0.14457417
-0.15533942 -0.034235716 -0.10605079 -0.0019090474 -0.085467815 0.2455943 -0.009441048 0.23004481
-0.099312365 -0.02146542 -0.15662256 0.22452763 0.18642831 -0.12535235 -0.13800517 -0.20261681
0.16065952 0.06158966 -0.035232037 -0.12314212 -0.17344701 0.18056774 0.20207274 0.22583303
0.11668676 0.10831609 -0.034776658 -0.24845174 0.02674812 0.061289907 -0.23359174 0.24778429
0.15577164 -0.09116441 0.2127215 -0.18520948 -0.037070483 -0.0270001 0.09347767 0.15287519
-0.24583447 -0.20434704 0.2089079 -0.0640811 -0.044143498 -0.14766258 0.0236215 -0.22751659
-0.12025547 -0.1615533 0.12883902 -0.13796791 0.06992188 -0.14095628 -0.18618727 0.13488075
-0.10857937 0.0680182 0.1937662 0.10182756 0.0028645694 0.19061339 -0.24772042 -0.15484357
-0.1624459 0.12030494 0.1491741 0.005660653 -0.045914203 -0.109797716 -0.15282792 -0.03904587
-0.15186575 0.11964637 0.08904436 -0.13874811 0.24108684 0.15022564 -0.20457253 -0.10666111
-0.08585656 -0.006651312 -0.0017965436 -0.20429632 0.1901569 0.09483871 -0.0056821406 -0.015055537
0.18532369 -0.09608868 -0.22194567 0.16319624 -0.10574764 0.0017696619 -0.08304623 0.16643235
0.1348502 -0.08340359 -0.20404166 -0.23277825 -0.14251748 0.08583251 -0.10144904 -0.103878826
-0.06024903 0.0026046038 -0.028867573 -0.19075015 -0.0967513 0.21784016 0.23902771 -0.16896027
-0.17462146 -0.0062874854 -0.050203383 0.1641976 -0.17429498 0.20792508 -0.027627856 -0.16942853
0.07947993 0.19112548 0.011137158 -0.207356 0.012199283 0.106392115 0.08282781 -0.22374117

stage2.0.branch1.3.weight f4 [16]
00000000: 0000 803f 0000 803f 0000 803f 0000 803f
00000010: 0000 803f 0000 803f 0000 803f 0000 803f
00000020: 0000 803f 0000 803f 0000 803f 0000 803f
00000030: 0000 803f 0000 803f 0000 803f 0000 803f
1.0 1.0 1.0 1.0 1.0 1.0 1.0 1.0
1.0 1.0 1.0 1.0 1.0 1.0 1.0 1.0

stage2.0.branch1.3.bias f4 [16]
00000000: 0000 0000 0000 0000 0000 0000 0000 0000
00000010: 0000 0000 0000 0000 0000 0000 0000 0000
00000020: 0000 0000 0000 0000 0000 0000 0000 0000
00000030: 0000 0000 0000 0000 0000 0000 0000 0000
0.0 0.0 0.0 0.0 0.0 0.0 0.0 0.0
0.0 0.0 0.0 0.0 0.0 0.0 0.0 0.0

stage2.0.branch2.0.weight f4 [16, 16, 1, 1]
00000000: d0e8 833c 8018 1e3d 4eea 533e 8054 943b
00000010: e8a7 a1bd f81c 83bd c0d3 c0bb a8df 9cbd
00000020: 78a1 cabd 7020 a7bd c8ef 3d3e b033 643e
00000030: 0075 2dbe 8a76 2dbe 2083 f83c bccb 3b3e
00000040: 0073 baba 9476 b33d 903d d43c 44c7 49be
00000050: e026 a2bd 2011 21bc 6ec2 0f3e 38d4 133d
00000060: a070 98bc baf8 53be 90b1 f8bd 0a57 4bbe
00000070: 2e5e 433e 4242 693e b01f b8bc c088 18be
00000080: 9806 a3bd 60c4 7b3c 3a88 5dbe 5477 3abe
00000090: 5001 c63d 3057 39bd 78f1 573d 5cc6 c5bd
000000a0: 445b 233e 0080 8438 7400 91bd d017 43be
000000b0: f0a9 cbbd 68db d43d 5c1b fb3d 3689 5ebe
000000c0: 20be 98bd 4829 693d 387a 9a3d 60b7 413d
000000d0: 704a 2fbd a062 113d 30d4 b0bd 54fc b0bd
000000e0: b8a4 643d d417 3cbe f0d6 383e 5054 3a3e
000000f0: 5eb3 0b3e 8a40 23be 46d9 6c3e 980d d83d
00000100: 405d 3fbc 48c9 30be f057 8b3d b064 6d3d
00000110: d88b 2abe a839 7b3d 403c d0bd c429 253e
00000120: 00a9 acbd d2cf 7c3e c8c5 b4bd 48ca ecbd
00000130: f41f d9bd 888f 42be 5cdc c9bd da92 4bbe
00000140: 2290 253e 70e6 433e d0cc cd3d 1a50 2cbe
00000150: 40b2 f0bc 8417 60be 44aa 53be e865 ec3d
00000160: 6a36 1c3e fa0a 29be 7a29 3b3e dabd 64be
00000170: 222c 5fbe f060 4cbd 64ed 0ebe d870 e7bd
00000180: d0ca 52be 16d4 263e 06da 493e c674 483e
00000190: d0b1 efbd 3045 d1bd a033 26be 30eb b83c
000001a0: be11 24be 4801 30bd d4e1 a3bd 7cba 6ebe
000001b0: e41e ad3d f4db 63be 0cab 293e c4e7 e3bd
000001c0: 6ca9 5bbe a0b1 6abd c0fe c3bb e6a8 0c3e
000001d0: 9833 743e 408f 86bc 1858 883d a4be 683e
000001e0: 005f 8abc 1049 56bd 2034 803c 7c6a 3f3e
000001f0: 146f 943d b0e8 35be 8cd6 83bd e2c9 38be
00000200: 00fe fdba 3031 39bd c022 74bd 20b2 873d
00000210: 54f5 f43d d6ec 25be 4c30 dd3d e420 603e
00000220: 747b 033e 207c 383d f823 4a3e 60c2 0a3e
00000230: 3aec 5d3e e4ad 1b3e 261f 203e 2000 1fbd
00000240: 9c32 703e 00e5 5ebc c0fc 6e3c 1618 033e
00000250: a022 45be 5ad0 37be 187f d43d 40bd c33c
00000260: 8e08 4cbe ba65 5b3e bc40 f13d 80b7 c9bd
00000270: fe1b 263e 50f1 513d 8ed6 3cbe 109f bd3c
00000280: fc26 b4bd c639 353e 907b 45be dc8e d8bd
00000290: b075 94bc eea0 2d3e 8ea4 57be e481 afbd
000002a0: 249a 57be 1085 fbbc c070 293d b469 a6bd
000002b0: 6abe 66be 64bd 4f3e 00b5 fc3a 905e ffbc
000002c0: f85a 5fbe 882c 0d3d 28b2 11be a458 e8bd
000002d0: 481e 023d 9cbc 673e e898 a9bd 00e3 58bc
000002e0: 78ab 3d3e 6000 e23d 04b8 e3bd 5ed1 72be
000002f0: 389d 3a3d fc63 1f3e a0c8 173e baf2 333e
00000300: 2404 4e3e 6a09 0ebe b24d 77be 6e99 2fbe
00000310: ec57 a9bd a658 45be be46 77be 5433 6f3e
00000320: 82ec 033e 90d0 1fbe 14fd efbd 0c00 ab3d
00000330: c072 f33d 523c 793e d0f2 ffbd 7873 61bd
00000340: 3229 0d3e bee4 36be e4ec babd b009 c53c
00000350: fc80 7f3e 8a5c 433e 58c8 f53d ca36 4d3e
00000360: 8011 11bc bcae a83d 906e 0bbe a4d8 afbd
00000370: 343f 413e 4010 6dbc 2806 383d 8888 1cbd
00000380: 1456 ed3d a67a 133e 122f 6a3e e498 d6bd
00000390: 1c17 c63d 0024 4f3c 6ec4 043e 3047 693d
000003a0: 805f 29be 00c0 9e3d e0ff 2c3d 9c4a 1a3e
000003b0: c8a3 133d 54c0 783e e620 7abe a45e 4c3e
000003c0: 009a 353b 280e c83d d8a4 d53d 7678 633e
000003d0: c057 203c a04b 833d 4cac 093e e8a8 cb3d
000003e0: 78c2 5e3d 0000 b6b9 e817 183e 8a72 25be
000003f0: 443f 26be f00f 8abc b4d6 8b3d 2c55 c8bd
0.016102225 0.038597584 0.20694849 0.0045266747 -0.07893354 -0.0640201 -0.0058846176 -0.076598465
-0.09894079 -0.08160484 0.185485 0.22285342 -0.16939163 -0.1693975 0.030335963 0.18339437
-0.0014224946 0.08762851 0.025908262 -0.1970492 -0.07917571 -0.009830743 0.14039013 0.03609106
-0.018608391 -0.2070035 -0.12143242 -0.19857422 0.19078895 0.22779182 -0.022476047 -0.14895916
-0.07960242 0.015366644 -0.21633998 -0.18209583 0.09668219 -0.045249164 0.052720517 -0.09656975
0.15952784 6.318092e-05 -0.070801646 -0.19052052 -0.099445224 0.10393411 0.12261078 -0.2173203
-0.074581385 0.056924134 0.075428426 0.04729402 -0.0427956 0.035494447 -0.086342216 -0.08641878
0.05582115 -0.18368465 0.18050742 0.18196225 0.13642642 -0.15942588 0.23129758 0.10549468
-0.011679947 -0.17264283 0.06803882 0.05795735 -0.16654909 0.061334282 -0.10167742 0.16129214
-0.08430672 0.24688652 -0.08826786 -0.115620196 -0.10601798 -0.19000065 -0.09856483 -0.19880238
0.16168264 0.19130874 0.100488305 -0.16827431 -0.029381871 -0.2188397 -0.2067042 0.115428746
0.15255132 -0.16508093 0.18277541 -0.22338048 -0.21794179 -0.049897134 -0.13957745 -0.1130082
-0.2058518 0.16291842 0.19712076 0.19575796 -0.11703837 -0.102182746 -0.16230631 0.022573084
-0.16022393 -0.042969972 -0.08002058 -0.23313326 0.084531575 -0.22251874 0.16569155 -0.1112819
-0.21451348 -0.057298303 -0.0059812963 0.13736305 0.23847806 -0.016425729 0.066574275 0.22728974
-0.016891003 -0.05231577 0.015649855 0.18692964 0.07247749 -0.17764544 -0.06437406 -0.18045762
-0.0019378066 -0.045212924 -0.059603453 0.066257715 0.11960855 -0.16203627 0.108002275 0.21887547
0.12840062 0.04504025 0.19740283 0.1355071 0.21672145 0.15203053 0.15636882 -0.03881848
0.23456806 -0.013604403 0.0145866275 0.12802157 -0.1925149 -0.17950574 0.10375804 0.023893952
-0.19925138 0.21425524 0.11779925 -0.09849453 0.16221616 0.051255524 -0.18441221 0.023147136
-0.08796498 0.1769782 -0.19285417 -0.10574123 -0.018122524 0.16955921 -0.21058866 -0.085696965
-0.21054894 -0.030703098 0.041367292 -0.0812563 -0.22533575 0.2028709 0.0019280016 -0.03117302
-0.21812046 0.034466296 -0.14228117 -0.11345032 0.03176716 0.22630543 -0.08281118 -0.013237715
0.18522441 0.11035228 -0.111190826 -0.2371268 0.04556009 0.15565485 0.14822626 0.17573062
0.20118767 -0.13870779 -0.24150732 -0.17148373 -0.08268723 -0.19272098 -0.2414808 0.23359424
0.1288319 -0.15606904 -0.11718193 0.08349618 0.11887121 0.24339417 -0.12497485 -0.05504176
0.13785246 -0.17860696 -0.091272146 0.02405247 0.24951547 0.1907827 0.12001103 0.20040432
-0.00885427 0.08236453 -0.13616395 -0.08586243 0.18871766 -0.014469206 0.044927746 -0.038216144
0.11588684 0.14402255 0.22869518 -0.1047838 0.096723765 0.01264286 0.12965557 0.056952655
-0.16540337 0.07751465 0.04223621 0.15067524 0.036044866 0.24292117 -0.24426612 0.19957978
0.00277102 0.09768325 0.10431832 0.22213921 0.009786546 0.06410909 0.13444632 0.09944326
0.05438468 -0.00034713745 0.1485287 -0.16156974 -0.16235071 -0.016853303 0.06828061 -0.0978187

stage2.0.branch2.1.weight f4 [16]
00000000: 0000 803f 0000 803f 0000 803f 0000 803f
00000010: 0000 803f 0000 803f 0000 803f 0000 803f
00000020: 0000 803f 0000 803f 0000 803f 0000 803f
00000030: 0000 803f 0000 803f 0000 803f 0000 803f
1.0 1.0 1.0 1.0 1.0 1.0 1.0 1.0
1.0 1.0 1.0 1.0 1.0 1.0 1.0 1.0

stage2.0.branch2.1.bias f4 [16]
00000000: 0000 0000 0000 0000 0000 0000 0000 0000
00000010: 0000 0000 0000 0000 0000 0000 0000 0000
00000020: 0000 0000 0000 0000 0000 0000 0000 0000
00000030: 0000 0000 0000 0000 0000 0000 0000 0000
0.0 0.0 0.0 0.0 0.0 0.0 0.0 0.0
0.0 0.0 0.0 0.0 0.0 0.0 0.0 0.0

stage2.0.branch2.3.weight f4 [16, 1, 3, 3]
00000000: d0c0 14be 1be6 8f3d 08f4 363e a005 6fbe
00000010: 56fa 713e 6b37 ab3c fba2 463e 40fb a23c
00000020: 3b85 613e 2638 313e e62c f63d 73de 91be
00000030: 5ce0 9abe a776 88be 808d 1a3d 60c5 ecbd
00000040: b64c f6bd 176b aabe 183a 3dbe ce0a 0abe
00000050: 5e9e 88be 02ca 87be 2afb 903e f614 dfbd
00000060: 2627 32be e0c2 d63d 00a0 a6ba 806a d3bc
00000070: c45d 8d3e 0bf2 8c3d 005f 2cbd 8462 933e
00000080: ab8f 7ebd fcc9 843e 2e58 213e b846 4fbe
00000090: f6a8 703d 08fe 88be 9e9c 53be 2b81 a2bc
000000a0: 20d5 86bd d81a 47be 2ebe 3fbe 48fb 243e
000000b0: e0fe 773e 0878 8bbe 6e33 1b3e d3ee 603e
000000c0: c021 953d f069 923d 8ba7 f6bd a8b8 6ebe
000000d0: 7e8d 7abe 97e9 8f3e 704f 993d 807a a4bc
000000e0: 9b4d 9b3d 9bf2 22be 200b 15be ab89 1a3c
000000f0: d3df 723e befc 47be 002f a8be e8f6 a1be
00000100: 7ba8 d6bd 7697 72be 5e86 943e f3c8 51be
00000110: 8020 83be ee66 51be 7a82 81be 2095 21be
00000120: 66db 49be 0b2c e6bd 6e10 80be d015 0b3e
00000130: 840c 8cbe 56de 92bb f623 643e 2b66 a7bd
00000140: b61f 88bd 0bea 833d b8c8 373e a6bf 8bbe
00000150: 5659 ff3a db9a a7be 1b17 bebd 77f4 a9be
00000160: fcca 88be e627 253e 7699 c0bd cb86 92be
00000170: c642 a4be 701a a2be ebf7 75be 1898 3abe
00000180: eb72 163d 8eb3 a43e 4850 693e 96ab 7a3d
00000190: 9625 2abd 2e7c 4a3e 56c1 39bc d07c 7a3e
000001a0: 0c13 a7be 6689 4bbe db9d 46be 2666 143e
000001b0: 20b5 08be 8ba3 6cbe ee52 7bbe 8029 3bbd
000001c0: 7fd8 a8be e8ed 443e 4085 5fbe 76d9 4c3d
000001d0: b663 2a3e 8882 293e 70fc ee3d c03c 4c3d
000001e0: 1b5c 343e 8019 8d3c 2b50 823e 2e15 76be
000001f0: 3680 a0bd 5bb3 9fbd dba6 e93d 6044 503d
00000200: fb64 3b3e 56ee 93be 6379 a23e ebe3 f93c
00000210: 9eec 0e3e 1c73 9a3e d65c 253e 23a3 813e
00000220: 806c 8cbd cb47 bc3d b6ec c83d 8e15 31be
00000230: c399 3cbe bb49 4a3e 603c a53e 6023 5d3d
-0.14526677 0.07026311 0.17866528 -0.2334199 0.23630652 0.020900449 0.1939811 0.019895196
0.2202348 0.17306575 0.120202824 -0.28490028 -0.30249298 -0.26653025 0.0377326 -0.11561084
-0.1202635 -0.33284828 -0.18479192 -0.13480684 -0.26683325 -0.26521307 0.28316623 -0.1089267
-0.17397746 0.10486388 -0.0012712479 -0.02580762 0.276106 0.068821035 -0.042082787 0.287861
-0.06214873 0.25935352 0.15756294 -0.20241821 0.058754884 -0.2675631 -0.20665213 -0.019836983
-0.06583619 -0.19443834 -0.18724892 0.16111481 0.24218321 -0.27240014 0.15156338 0.21966104
0.07281828 0.07149112 -0.12043675 -0.23312628 -0.24468037 0.28107902 0.074858546 -0.020077944
0.075831614 -0.15912859 -0.14555025 0.009432237 0.23718195 -0.19530007 -0.32848358 -0.31633687
-0.10481354 -0.2369059 0.29008764 -0.20486812 -0.25610733 -0.20449421 -0.25294858 -0.15779543
-0.197126 -0.11238869 -0.25012535 0.1358254 -0.273533 -0.004482071 0.22279343 -0.08173784
-0.066466734 0.064411245 0.17947662 -0.27294654 0.001948158 -0.32735333 -0.09281751 -0.33194324
-0.26717365 0.16128501 -0.0940427 -0.28618464 -0.32082194 -0.31660795 -0.24020354 -0.18222082
0.036730688 0.3216824 0.22784531 0.061198793 -0.04153975 0.19773933 -0.011337599 0.24461675
-0.3263172 -0.19876632 -0.19396155 0.14492092 -0.13350344 -0.23109262 -0.24543354 -0.045693874
-0.32977673 0.19231379 -0.21828175 0.050012074 0.16639599 0.165537 0.116692424 0.049862623
0.1761326 0.017224073 0.25451788 -0.24031517 -0.07836954 -0.07797881 0.11408778 0.050846457
0.1830024 -0.28892773 0.31733236 0.030504188 0.1395745 0.30165946 0.16148695 0.25319776
-0.06856632 0.09193381 0.09810774 -0.17293379 -0.1841803 0.19754688 0.32272625 0.053988814

stage2.0.branch2.4.weight f4 [16]
00000000: 0000 803f 0000 803f 0000 803f 0000 803f
00000010: 0000 803f 0000 803f 0000 803f 0000 803f
00000020: 0000 803f 0000 803f 0000 803f 0000 803f
00000030: 0000 803f 0000 803f 0000 803f 0000 803f
1.0 1.0 1.0 1.0 1.0 1.0 1.0 1.0
1.0 1.0 1.0 1.0 1.0 1.0 1.0 1.0

stage2.0.branch2.4.bias f4 [16]
00000000: 0000 0000 0000 0000 0000 0000 0000 0000
00000010: 0000 0000 0000 0000 0000 0000 0000 0000
00000020: 0000 0000 0000 0000 0000 0000 0000 0000
00000030: 0000 0000 0000 0000 0000 0000 0000 0000
0.0 0.0 0.0 0.0 0.0 0.0 0.0 0.0
0.0 0.0 0.0 0.0 0.0 0.0 0.0 0.0

stage2.0.branch2.5.weight f4 [16, 16, 1, 1]
00000000: 68b4 2ebd e07e 53be 0008 a439 f0dc 9e3c
00000010: 3019 a53d 602c aebd 6ebd 41be ee76 6abe
00000020: 80f8 50bc 0c26 c03d a0dd 9a3c f865 a8bd
00000030: 5aa2 24be 98a1 41bd 489b 76bd 065c 59be
00000040: 8c7c 583e e0e7 ec3d 3004 debc 9c86 77be
00000050: a84c 86bd 803d a93b e45d 59be 5837 c2bd
00000060: 80ab 52bb 2465 febd 7851 0ebe 40df 483c
00000070: a8a1 1ebd e03e 123c 7672 61be 0c84 adbd
00000080: e0d4 ef3d c8a4 9bbd 6256 4b3e 7c89 91bd
00000090: 9034 e2bc e8f5 56be 38c2 003d 00b5 fc3b
000000a0: b0e7 4ebe a8c3 813d 6042 81bd cc67 45be
000000b0: acb8 963d 6e98 10be f295 583e 2833 5bbe
000000c0: 308b 473e c2e2 673e 90a6 2f3d 92ee 63be
000000d0: f40d 863d 94ab f2bd a0e3 e03c 1a0d 083e
000000e0: 5052 b7bd d272 593e 0421 5e3e 8815 cfbd
000000f0: 60be 3dbc 3ad1 793e 10d4 1bbd 6048 e8bd
00000100: 7049 cd3d a4cd 24be 0072 78bb baed 363e
00000110: b876 4e3d 64a6 36be a8f1 483e 8434 42be
00000120: c6a7 1c3e acba 813d 5ca1 c6bd 60ee 9c3d
00000130: 28cf 3dbe fafd 55be e43c f73d 0667 4d3e
00000140: 080f 0c3d 4041 22bc d8b2 ea3d 209a 273c
00000150: 081d 003d a6a8 323e 60d2 24bc 9c90 613e
00000160: a4b8 b3bd 86d8 303e acb6 f2bd 5877 f6bd
00000170: 2070 12bc 6cca 44be 240a e73d 10f3 b6bc
00000180: f01b eabd 70bd 9b3c 8849 e9bd 0082 a6ba
00000190: 88d2 38be 1259 13be 7248 4e3e 2066 a93d
000001a0: 7695 1ebe e00f a5bd 98c7 7f3d f20b 1fbe
000001b0: bac8 153e f6fa 503e 0e9a 6cbe e89c 2d3e
000001c0: a4ee 88bd a8e9 66be d0df 87bd 3203 2d3e
000001d0: 909e ddbd 329c 433e b02b c83c 3eb1 2a3e
000001e0: 8e04 3d3e a8c9 033e fc96 d33d 1eae 59be
000001f0: 62e6 51be e035 ba3c e23e 0ebe 06f8 7c3e
00000200: b8a5 533e 2006 2d3c 1871 e2bd 9475 4e3e
00000210: 7c70 eabd 4a0e 25be 7094 5ebe e8fe 6cbe
00000220: 20ac 6a3c 2c34 683e 90d9 68bd b2ad 29be
00000230: e08f 34be 483c 5dbe a0c7 a93d ac80 733e
00000240: 80cf 993d 40b9 75bd 78ad bebd 2c8e c33d
00000250: 92f8 01be ce45 793e 204a 2abe 2c94 96bd
00000260: f4c4 e9bd 902d 01be 3cff 1e3e 4836 ee3d
00000270: 4899 3ebe a0e0 6ebc ee7e 7dbe 80d3 5bbb
00000280: 70f4 593e 8e63 463e 6860 663d 74d3 3e3e
00000290: 207a 1a3d 08ce 6abe 40f3 413c 6851 f1bd
000002a0: ee81 4b3e a00c 49bd b85e 50be b615 76be
000002b0: 3099 d83c c0ca a9bd 8297 74be acde 66be
000002c0: 02a3 59be 68b2 30be b89f 933d ea92 10be
000002d0: 00d0 dbbd 68ce cabd a2a7 7b3e 902a a93c
000002e0: f033 a1bd 449a f2bd 5047 d93d e4af 33be
000002f0: 88ac 34bd 4227 1a3e 98ce 3a3d 8a04 0a3e
00000300: c4f5 eb3d 36d9 113e 9c54 c1bd 128f 703e
00000310: 2464 663e ac8d ed3d f097 e5bd 381c 393e
00000320: e012 01bc 8450 1bbe 982e c93d 80df 3c3c
00000330: e48a 96bd 8022 123b e46f 31be 402d 0ebc
00000340: 5eec 323e 1471 183e a6aa 383e ac8d e63d
00000350: 84e0 c93d 7809 c63d c4a5 2ebe 2823 64be
00000360: 280f cdbd 8096 d9bc f4e0 a73d ded7 43be
00000370: b4fb f73d 38ff d43d a25c 143e b256 7cbe
00000380: a69f 2abe 5cf9 2bbe 621b 6cbe fac3 60be
00000390: cc28 52be 0c29 1a3e b48b 6bbe 8005 733d
000003a0: 7aca 463e 4069 08be d4f8 d4bd b065 04be
000003b0: 426f 3abe 04d8 5b3e ea54 72be dc8b 7c3e
000003c0: 02d1 113e c8db aebd fc79 a33d f818 15bd
000003d0: b691 47be b01a 9cbd 78eb 153d 1efb 1ebe
000003e0: aecf 113e 004c f03a 509f 6bbd 807b 6fbd
000003f0: 8045 7ebe 346f bb3d bc96 4dbe 7891 923d
-0.042652518 -0.20653868 0.00031286478 0.01939246 0.08061445 -0.085045576 -0.18919918 -0.2289693
-0.0127545595 0.09382257 0.018904507 -0.08222574 -0.16077557 -0.04727325 -0.06020668 -0.2122651
0.21141261 0.11567664 -0.027101606 -0.24172443 -0.0655759 0.005164802 -0.21227223 -0.09483212
-0.003214568 -0.12421635 -0.13898265 0.012260258 -0.038728386 0.008926123 -0.2201632 -0.084724516
0.117105246 -0.07599789 0.19857171 -0.07106301 -0.027612954 -0.20992243 0.03143522 0.0077120066
-0.2020557 0.063361466 -0.06311488 -0.19277877 0.07359442 -0.14120647 0.2115095 -0.21406233
0.1948669 0.22645095 0.042883456 -0.22258976 0.0654563 -0.11849132 0.02745229 0.13286248
-0.08951247 0.21235207 0.21692282 -0.10111529 -0.0115810335 0.2439622 -0.038044035 -0.113419294
0.10023773 -0.1609407 -0.0037909746 0.17864123 0.050406188 -0.1783691 0.19623435 -0.18965346
0.15298375 0.06334433 -0.096987456 0.07662654 -0.18536055 -0.20897666 0.12072161 0.20058832
0.034194022 -0.009903252 0.11459893 0.010229617 0.031277686 0.17447147 -0.010059923 0.2202782
-0.08775452 0.17270097 -0.11851248 -0.12034482 -0.0089378655 -0.19217843 0.11281231 -0.022332698
-0.1143111 0.01901123 -0.11390978 -0.0012703538 -0.18049061 -0.14389446 0.20144823 0.08271432
-0.15486702 -0.080596685 0.062446207 -0.155319 0.14627352 0.20408234 -0.23105642 0.16954386
-0.06686142 -0.2255007 -0.06634486 0.1689575 -0.10821259 0.19102553 0.024434894 0.16669175
0.18458769 0.12869895 0.10331532 -0.21257827 -0.2049804 0.022730768 -0.13891175 0.24703988
0.20668685 0.010560542 -0.11056727 0.2016204 -0.11447236 -0.16118732 -0.21736312 -0.23144114
0.014323264 0.22676152 -0.05684811 -0.16570166 -0.17633009 -0.21605027 0.082900286 0.23779553
0.075102806 -0.05999112 -0.0931043 0.095486015 -0.12692478 0.24343035 -0.16629839 -0.0735248
-0.11414519 -0.12615037 0.15527052 0.11631447 -0.1861316 -0.014579922 -0.24755451 -0.0033542812
0.21284652 0.19373915 0.056244284 0.1863535 0.037714124 -0.22930157 0.0118377805 -0.11783105
0.19873783 -0.049084306 -0.20348632 -0.2403172 0.026440233 -0.082906246 -0.2388592 -0.2254588
-0.21253589 -0.17255557 0.07208198 -0.14118543 -0.10733032 -0.0990265 0.24575666 0.020650178
-0.078712344 -0.1184583 0.10609305 -0.17547566 -0.04410985 0.15054038 0.04560718 0.13478294
0.115214854 0.14243016 -0.09439966 0.23492077 0.22499138 0.115992874 -0.112106204 0.18077171
-0.007878035 -0.15167433 0.0982334 0.011527896 -0.0735071 0.0022298396 -0.17327839 -0.008677781
0.1747298 0.14886886 0.18033847 0.112574905 0.09857276 0.09669775 -0.17055422 -0.22279036
-0.100126565 -0.026561022 0.08197203 -0.19125316 0.121085554 0.104002416 0.14488462 -0.24642447
-0.16662464 -0.16794342 -0.2305732 -0.21949759 -0.20523375 0.1505472 -0.23002511 0.059331417
0.19413176 -0.133214 -0.10399023 -0.12929416 -0.18206504 0.21469122 -0.23665205 0.24662727
0.14239886 -0.08538014 0.07982251 -0.036400765 -0.19489178 -0.07622278 0.036601514 -0.15525481
0.1423938 0.0018333197 -0.05752498 -0.05846739 -0.248312 0.0915207 -0.20077032 0.07156652

stage2.0.branch2.6.weight f4 [16]
00000000: 0000 803f 0000 803f 0000 803f 0000 803f
00000010: 0000 803f 0000 803f 0000 803f 0000 803f
00000020: 0000 803f 0000 803f 0000 803f 0000 803f
00000030: 0000 803f 0000 803f 0000 803f 0000 803f
1.0 1.0 1.0 1.0 1.0 1.0 1.0 1.0
1.0 1.0 1.0 1.0 1.0 1.0 1.0 1.0

stage2.0.branch2.6.bias f4 [16]
00000000: 0000 0000 0000 0000 0000 0000 0000 0000
00000010: 0000 0000 0000 0000 0000 0000 0000 0000
00000020: 0000 0000 0000 0000 0000 0000 0000 0000
00000030: 0000 0000 0000 0000 0000 0000 0000 0000
0.0 0.0 0.0 0.0 0.0 0.0 0.0 0.0
0.0 0.0 0.0 0.0 0.0 0.0 0.0 0.0

stage2.1.branch2.0.weight f4 [16, 16, 1, 1]
00000000: 5445 75be c077 13bc 6e2f 41be ee83 253e
00000010: 3051 f2bc b050 953d e871 05be 8c48 b9bd
00000020: 48c8 4d3e d629 1abe ec34 87bd 3af6 093e
00000030: f094 7e3d 608e 5a3d b419 21be 4e6e 5f3e
00000040: c0e0 853b 5082 b9bd acfe 0cbe c2e2 293e
00000050: 300a 12be 2c1e 58be aead 2e3e 04a6 d0bd
00000060: 8cfb ec3d c0f6 5a3c 00b0 c9bd 9476 243e
00000070: fa8d 743e 6039 e8bc f27b 453e 480d 1a3e
00000080: 0000 61b7 3e6a 0abe 0034 6d3c d0a1 eabc
00000090: 221b 28be 0c9e 73be 6ac2 653e 4897 0dbe
000000a0: 1885 4b3d 64e7 46be 6037 7c3e 30f3 e9bc
000000b0: e081 9bbd 501d 1b3d 1461 15be 009b 93bd
000000c0: d0b4 febc d819 f7bd 08d4 4cbd f02e e33c
000000d0: a073 3dbd 4055 2b3e e8f3 42bd 50fc e03c
000000e0: 7037 35bd 12d1 333e 44ce 0f3e c00d cc3c
000000f0: 30c2 8f3c f42d 7e3e d83d 2ebe 002c a9bb
00000100: 80ec df3b ce87 60be c632 653e a82a 43bd
00000110: 9c5e 95bd e81b 523d 2059 083d 6082 0a3e
00000120: 183f 77be e692 68be 680e 5e3d acd2 29be
00000130: 88eb 57bd 9c65 ae3d 3c38 adbd 3011 7b3d
00000140: a84d b9bd 4cbe 033e 6a17 2b3e 802b fabd
00000150: f2ea 79be a676 373e 9c6c 603e 68ff 643e
00000160: 685c 40be a83b 653e e44e 35be b222 75be
00000170: d042 0abd 7c6a 9abd 607f 86bd 1c10 a13d
00000180: 982a 403d 08a4 1cbe 3606 79be 0aea 393e
00000190: e8dc f2bd 0c9a 133e 06d2 773e d83f 96bd
000001a0: 3ea7 363e fce9 023e b42e 223e 0606 42be
000001b0: 24e5 bc3d fabe 0c3e d017 9fbc 308a a1bd
000001c0: 20c3 cabc eede 75be 489b d5bd 4eb4 2b3e
000001d0: 10d6 453d ac5c 9dbd 5431 63be 40a1 8cbd
000001e0: 102c b7bc 461f 493e ccc0 31be 60d0 91bd
000001f0: 5a76 293e f46b 90bd 5a89 4fbe d693 26be
00000200: 3231 3ebe d0d8 47bd 805a cb3c 5e7a 483e
00000210: 80a1 89bd c820 f03d b4eb 6dbe dc27 a5bd
00000220: 303f cdbd 7eb9 1c3e d425 983d 6860 3c3e
00000230: e8ac 38bd 28dd 54bd 2819 623e 0a07 6fbe
00000240: e09e 373c 3461 ae3d 68af 46bd ea42 0b3e
00000250: 50f0 803d 00fe 37bc 008f 7dbb 147a 273e
00000260: 0c87 c6bd f84c eb3d 2c63 34be c4c1 99bd
00000270: 7840 e83d 08c2 a73d 4c6c 75be 406a f5bc
00000280: 1cd7 743e 800a 9abc 1618 79be 10e8 03be
00000290: 4eba 53be 603a 33bc f4a1 9abd ce8c 4fbe
000002a0: d8d0 993d b036 933c c8f1 4d3d 08c2 2e3e
000002b0: f8ff 483d 8c53 ea3d 087a 18be a613 3dbe
000002c0: 0602 56be c021 87bd 8007 413c a030 193d
000002d0: 4870 603d d659 12be 2036 f9bc 4433 89bd
000002e0: 9a66 203e a481 e2bd 7228 703e cccf f2bd
000002f0: 7467 87bd 2635 6f3e fea9 5ebe e087 323c
00000300: 643c b1bd a057 003d 2eba 58be c0b9 bf3d
00000310: 480a 9bbd b45a 3cbe 9817 c5bd 0070 34bd
00000320: 2057 343d 6e39 323e 4048 fabc 88d3 943d
00000330: 5067 06bd 5ca7 95bd d6c8 0dbe 90d4 2abd
00000340: 2895 7fbd 66c5 2fbe 9ac1 303e 96d9 3a3e
00000350: 80a3 e63c 162d 20be 46cb 5d3e 88ea 5c3e
00000360: 2264 6bbe fec5 34be 2a1d 0bbe a220 3c3e
00000370: 6af1 78be 6014 d63c 58f7 00be 4a2a 22be
00000380: 48ce 633d d00f 6b3d 2034 ea3c de06 15be
00000390: 7629 1d3e 0007 0d3e d8a0 603e 8c43 313e
000003a0: 4099 a53d 28f1 6dbd 5cd3 53be 242d 1a3e
000003b0: cce9 75be 2881 3dbd 143a 4abe 989e 6bbd
000003c0: 748e 88bd 58ff 1fbe c0fd 49bc 962f 77be
000003d0: f4d6 713e e08b 5cbc 7865 9a3d a093 ab3d
000003e0: ce23 4b3e 0000 2a39 c03a 9a3b 403e 49bc
000003f0: f0fb abbc 9460 5bbe 0494 52be 28c8 9f3d
-0.23952228 -0.009000719 -0.18865749 0.16163608 -0.029579729 0.072907805 -0.13031733 -0.0904704
0.20095932 -0.15055022 -0.06601891 0.13472834 0.062153757 0.053358436 -0.15732461 0.21819422
0.00408563 -0.09058058 -0.13769025 0.16590407 -0.14261699 -0.2110526 0.17058441 -0.10187915
0.11571416 0.013364494 -0.098480225 0.16060859 0.23882285 -0.028347671 0.19285563 0.15044129
-1.3411045e-05 -0.1351709 0.01447773 -0.028641611 -0.164166 -0.23790759 0.22437444 -0.1382724
0.049687475 -0.19424206 0.24630499 -0.028558344 -0.07593131 0.03786975 -0.14587814 -0.07207298
-0.031092077 -0.12065476 -0.050006896 0.027732342 -0.046252847 0.16731739 -0.04759589 0.027464062
-0.044242322 0.17560223 0.14043528 0.0249089 0.01754865 0.24822217 -0.17015779 -0.005162716
0.006833613 -0.21926805 0.2238265 -0.047648102 -0.07293436 0.051296145 0.03328812 0.13526297
-0.24145162 -0.22712287 0.054212958 -0.16584271 -0.052714854 0.08515474 -0.084579915 0.06129569
-0.09048015 0.12865561 0.1670815 -0.12215328 -0.24406031 0.17916355 0.21916431 0.22363055
-0.1878525 0.22386038 -0.17705876 -0.23939016 -0.033755124 -0.075398415 -0.065672636 0.07864401
0.04691562 -0.15296948 -0.24318776 0.18155685 -0.11858541 0.14414233 0.24201211 -0.07336396
0.17837235 0.1278457 0.15838128 -0.1894761 0.092233926 0.13744727 -0.019420534 -0.07887685
-0.024751246 -0.24010822 -0.10430008 0.16768 0.04829985 -0.076836914 -0.22186786 -0.068666935
-0.022359878 0.19640836 -0.17358702 -0.071198225 0.16549054 -0.070518404 -0.20267239 -0.16267332
-0.18573454 -0.048790753 0.024823427 0.1957793 -0.06720257 0.117250025 -0.23234445 -0.08064243
-0.10021818 0.15305135 0.0742909 0.18396151 -0.04508677 -0.051968724 0.22079909 -0.23342529
0.011207312 0.08514634 -0.048507124 0.13599744 0.06295836 -0.011229992 -0.003868997 0.16355163
-0.09693727 0.1148929 -0.17615956 -0.07507661 0.113404214 0.081913054 -0.23967093 -0.02995789
0.23910183 -0.018803835 -0.24325594 -0.12881494 -0.20676538 -0.010939211 -0.07550421 -0.20268556
0.07510537 0.017970413 0.05027941 0.17066205 0.049072236 0.114417166 -0.14890301 -0.18464527
-0.2089921 -0.06598234 0.011781573 0.037399888 0.05479458 -0.14292082 -0.030421317 -0.06699231
0.1566414 -0.11059883 0.23452929 -0.1185604 -0.06611529 0.23360118 -0.21744534 0.010896653
-0.08654097 0.031333566 -0.21164772 0.09361601 -0.0757032 -0.18393975 -0.09623641 -0.044052124
0.0440284 0.1740472 -0.03055203 0.07266909 -0.03281337 -0.07307312 -0.13846144 -0.04170662
-0.062398106 -0.17165145 0.17261353 0.18247065 0.028154135 -0.15642199 0.21659574 0.21573842
-0.22987416 -0.17653653 -0.13585344 0.18371823 -0.24310842 0.026132762 -0.12594354 -0.15836444
0.055616647 0.057388127 0.028589308 -0.14553401 0.15347847 0.13772202 0.21936357 0.17310923
0.08085871 -0.058091313 -0.20686096 0.15056282 -0.24014968 -0.04626575 -0.19748718 -0.057524294
-0.06667796 -0.1562475 -0.012328565 -0.24139246 0.23617154 -0.013461083 0.07538885 0.083777666
0.19837877 0.00016212463 0.0047067106 -0.012282908 -0.020994157 -0.2142356 -0.20564276 0.07801849

stage2.1.branch2.1.weight f4 [16]
00000000: 0000 803f 0000 803f 0000 803f 0000 803f
00000010: 0000 803f 0000 803f 0000 803f 0000 803f
00000020: 0000 803f 0000 803f 0000 803f 0000 803f
00000030: 0000 803f 0000 803f 0000 803f 0000 803f
1.0 1.0 1.0 1.0 1.0 1.0 1.0 1.0
1.0 1.0 1.0 1.0 1.0 1.0 1.0 1.0

stage2.1.branch2.1.bias f4 [16]
00000000: 0000 0000 0000 0000 0000 0000 0000 0000
00000010: 0000 0000 0000 0000 0000 0000 0000 0000
00000020: 0000 0000 0000 0000 0000 0000 0000 0000
00000030: 0000 0000 0000 0000 0000 0000 0000 0000
0.0 0.0 0.0 0.0 0.0 0.0 0.0 0.0
0.0 0.0 0.0 0.0 0.0 0.0 0.0 0.0

stage2.1.branch2.3.weight f4 [16, 1, 3, 3]
00000000: 0ed6 9abe 6047 4b3e c0ac 0c3e 5b29 4e3e
00000010: 68ea 77be abc2 8bbe eb81 51bd 3eaf 483e
00000020: 4b38 5cbd 004d f0bc e669 9c3e fb2b f23d
00000030: d8b9 9f3e b0e8 7f3e 1a90 a93e 9a65 9c3e
00000040: 73d8 2cbe 7870 793e c06d 4f3e 7bc7 563e
00000050: c651 6a3e 1e3f 15be 568e e13b 0002 47bc
00000060: d04f 51be 8cde 83be b672 023d 5682 42be
00000070: 9b59 823e 56cd 17bb f093 20be 96f9 1f3e
00000080: e6d7 b8bd ebd6 7fbd 1606 13bd c098 fabd
00000090: 76ab a33e 0392 293e 30d9 b8bd 98dd 0e3e
000000a0: 2b13 b2bc b627 4c3d ab80 18bb 6efa 36be
000000b0: 1637 4e3e 2b2d 48bc 53fc 9bbe 4b56 1c3d
000000c0: b61a a4bd 56d2 d03c 20cf 0c3e 1622 cfbc
000000d0: 6766 983e 6e3a 7d3e f8f9 6abe 7b59 a4be
000000e0: 4e5a 61be 9bc1 bbbd be8e 8a3e 40a5 093d
000000f0: 205f 413e ab5b 423c 8ff0 85be 5808 1c3e
00000100: 3318 1a3e 23a2 11be bf92 8dbe 4b28 fabd
00000110: 864c 34be 04a7 983e 1b02 ed3d b686 8d3d
00000120: 43b2 a0be 8b3e 903d 6c36 9a3e 13a6 103e
00000130: f6a6 1fbe 50c1 823d bbef f0bd 3a20 80be
00000140: e071 5fbe cecd 4ebe 8376 4e3e 2b49 75bd
00000150: 1b6c fdbd 9e16 3b3e 9243 9e3e 0b57 53be
00000160: ec0c 923e b36b 4d3e 3855 2fbe cb16 78be
00000170: 08ac 99be 36ac b93d f69f 923d 0640 1ebe
00000180: c04f d6bc 765c 6ebd be55 a73e fb80 f03d
00000190: 767c 99be dfa6 93be 56f1 91bc 8689 a4bd
000001a0: d6ad 5cbe 3eed 7bbe 8b03 523e d066 20be
000001b0: a722 8fbe 5b19 033e eb6c ee3c f6d0 d4bd
000001c0: 6099 c3bd 8bf3 4dbd e019 413e eb45 b23c
000001d0: 38fa 88be 6b08 813c 9e55 42be a015 c5bd
000001e0: c0d4 90bc bb09 183e 2bb5 d03c 447f 813e
000001f0: 8614 e83d a2b6 9d3e 2837 903e 2057 08be
00000200: 4b37 733d 00eb 243c a6da 183e 2089 0ebd
00000210: d611 7ebd 00de f4bb a6cc 6abe 8010 d5bc
00000220: 2b62 b03d da8d 91be e3a1 1c3e 2bcf 193e
00000230: 70e5 973d 8252 9c3e 2bf9 9cbc b647 c03d
-0.30241436 0.19851446 0.13737774 0.20132963 -0.24210513 -0.27296957 -0.05114929 0.195981
-0.053764623 -0.029333591 0.30549544 0.11824795 0.31196475 0.24991107 0.33117753 0.30546266
-0.16879444 0.2435931 0.2025671 0.20974533 0.22882757 -0.14574859 0.006883423 -0.012146473
-0.20440602 -0.25755727 0.031847678 -0.18995032 0.2545899 -0.0023163161 -0.15681434 0.15622553
-0.09025554 -0.06246082 -0.035894476 -0.12236166 0.31966752 0.16559605 -0.090258 0.13951719
-0.021737656 0.04984256 -0.0023270051 -0.17868969 0.20138201 -0.0122178 -0.30465946 0.038168233
-0.08012907 0.025490921 0.13750887 -0.025284808 0.29765627 0.2472932 -0.22946918 -0.32099518
-0.22007105 -0.09167787 0.2706203 0.03360486 0.18883944 0.011862676 -0.26160094 0.15237558
0.15048294 -0.14222006 -0.2765102 -0.122147165 -0.17607316 0.29814923 0.11572667 0.0691046
-0.31386003 0.07043179 0.30119646 0.14125852 -0.15591034 0.06384528 -0.11764475 -0.25024587
-0.21820784 -0.20195696 0.20162396 -0.05988423 -0.12374135 0.18270347 0.30910927 -0.20638673
0.28525484 0.20060615 -0.17122352 -0.24227445 -0.30014062 0.0906605 0.071594164 -0.1545411
-0.026161075 -0.058193646 0.32682604 0.11743351 -0.2997777 -0.2883825 -0.017815273 -0.08034043
-0.21550688 -0.2460222 0.20509164 -0.1566422 -0.27956125 0.12802641 0.02910467 -0.10391419
-0.09550738 -0.05028109 0.18857527 0.021761855 -0.26753402 0.015751084 -0.18977973 -0.09623265
-0.017679572 0.14847462 0.025477013 0.25292408 0.113320395 0.308034 0.2816708 -0.13314486
0.059378903 0.010065794 0.14927158 -0.03479874 -0.06202873 -0.0074727535 -0.2292963 -0.026008844
0.08612474 -0.28428537 0.1529613 0.15020435 0.074168086 0.30531698 -0.019161781 0.09388678

stage2.1.branch2.4.weight f4 [16]
00000000: 0000 803f 0000 803f 0000 803f 0000 803f
00000010: 0000 803f 0000 803f 0000 803f 0000 803f
00000020: 0000 803f 0000 803f 0000 803f 0000 803f
00000030: 0000 803f 0000 803f 0000 803f 0000 803f
1.0 1.0 1.0 1.0 1.0 1.0 1.0 1.0
1.0 1.0 1.0 1.0 1.0 1.0 1.0 1.0

stage2.1.branch2.4.bias f4 [16]
00000000: 0000 0000 0000 0000 0000 0000 0000 0000
00000010: 0000 0000 0000 0000 0000 0000 0000 0000
00000020: 0000 0000 0000 0000 0000 0000 0000 0000
00000030: 0000 0000 0000 0000 0000 0000 0000 0000
0.0 0.0 0.0 0.0 0.0 0.0 0.0 0.0
0.0 0.0 0.0 0.0 0.0 0.0 0.0 0.0
