independent_train_0.0/client86/checkpoint_0.0.pth (torch, 420139 bytes, 98 tensors)

conv1.0.weight f4 [16, 3, 3, 3]
000000 65 9d 91 3d 50 31 59 bd ae 23 d0 3e 84 d7 b7 be
       0.07110099 -0.053025544 0.4065222 -0.35906613
000010 d9 d1 4d bf 49 7f 8e be 23 61 23 be d1 dc 1e bf
       -0.8039833 -0.27831486 -0.15955023 -0.6205569
000020 e8 e0 29 be 66 8f fb 3c 18 32 85 be 27 4c b4 3d
       -0.16589701 0.030708026 -0.2601478 0.088035874
000030 7f 8e 89 bd 5e 48 1c bf c2 ff 43 be ae 60 ba 3e
       -0.06716632 -0.61047924 -0.19140533 0.36401886
000040 83 ae 26 be a3 70 50 3e d5 dd 8b bc 56 34 3f bd
       -0.16277508 0.20355467 -0.017073551 -0.04668077
000050 52 d3 82 3e 62 2a a8 be 7a 5e 16 bf 8a b9 39 be
       0.2555185 -0.32844836 -0.5873791 -0.18137184
000060 3d c4 7c be 6c ad 01 bf 88 0e 04 be 50 1f 39 bf
       -0.24684234 -0.50655246 -0.12896168 -0.72313404
000070 b2 64 23 bf ba 3a 23 bf e8 48 8c bf c2 fc 84 bf
       -0.63825524 -0.63761485 -1.0959749 -1.0389636
000080 7f 25 6d bf b4 a8 8b bf 40 aa 9f bf 12 29 83 bf
       -0.9263534 -1.0910859 -1.2473831 -1.0246909
000090 bd c4 50 3f 34 47 82 3f 9d 63 46 3f b2 d9 62 3f
       0.815502 1.017798 0.7749575 0.88613427
0000a0 30 98 94 3f 70 95 7b 3f 28 c3 59 3f e5 af 67 3f
       1.1608944 0.982749 0.8506341 0.9050277
0000b0 dd a2 49 3f f2 67 79 be 06 81 1f be cf d8 b5 be
       0.78764135 -0.24356058 -0.15576562 -0.35516974
0000c0 38 3e 3b 3d 34 ff 73 3e d2 e9 23 3c 1f be 88 3e
       0.045713633 0.23827821 0.010004478 0.2670755
0000d0 30 6e 8e 3e b0 ad a9 3d f7 a5 bd be 32 d9 98 3e
       0.2781844 0.082850814 -0.37040684 0.29853207
0000e0 70 f7 c0 be a1 5e 52 be 51 3a 60 3f ef 06 17 bf
       -0.3768878 -0.2054391 0.87588984 -0.58994955
0000f0 2e cc ab 3e 51 0a 8d 3f 70 ab 5e bf f7 d6 dd be
       0.33554214 1.1018773 -0.8698034 -0.43328068
000100 f6 22 31 3f ec 7f 50 bf a4 bc 7d be 07 56 9d 3f
       0.6919397 -0.81445193 -0.24778992 1.2291878
000110 1b 4a 98 bf 2d 82 32 3e ca 62 a6 3f 94 ad c8 bf
       -1.1897615 0.1743247 1.2998898 -1.5677972
000120 4a 5d 62 be 61 08 00 3f cf f0 6f be f6 92 e9 bc
       -0.221059 0.50012785 -0.23431705 -0.02851246
000130 9a 65 8c 3f e3 9c 27 bf de 53 a7 3e aa 98 8b 3f
       1.0968506 -0.65473765 0.32681173 1.0905964
000140 e2 d3 93 bf 63 c1 12 3e 68 d8 ab bc bb df bb 3d
       -1.1549037 0.14331584 -0.020977214 0.091735326
000150 23 85 29 3d 1c a8 37 bd da d5 1e 3e 55 55 c8 3e
       0.041386735 -0.044838056 0.15511265 0.39127603
000160 25 a4 5e 3e 98 0b 01 3f c3 a1 38 bf 01 c2 81 bf
       0.21742304 0.50408316 -0.7212183 -1.013733
000170 81 3c 42 bf e9 6f 89 bf 5f 4c b2 bf c2 f0 90 bf
       -0.7587357 -1.0737277 -1.3929557 -1.1323473
000180 5c ba 57 bf 40 6e a2 bf c8 6e 79 bf ef c9 4c 3f
       -0.84268737 -1.2689896 -0.97434664 0.79995626
000190 69 3b 67 3f a2 84 5e 3f 7e 42 69 3f 39 c8 8b 3f
       0.9032503 0.8692113 0.91117084 1.0920478
0001a0 53 2e 72 3f d1 4b 60 3f 79 e5 61 3f 4d a2 3a 3f
       0.94601935 0.87615687 0.8824077 0.729039
0001b0 f7 f7 00 bf 2a 81 07 3e 4a 13 9b 3e 5d e9 af 3f
       -0.50378364 0.13232866 0.30288154 1.3743092
0001c0 17 35 9d bc 98 0e 8e bf 11 63 ed 3f 9a 71 33 bf
       -0.019190354 -1.1098204 1.8545858 -0.7009522
0001d0 f3 63 cd bf bf 72 be be fd ae f7 bb 4d f3 d0 ba
       -1.6046127 -0.3719692 -0.007558702 -0.001594165
0001e0 ee 0c d0 3f a2 16 2f bd 2c 15 a8 bf 90 ce 0b 40
       1.6253946 -0.042746194 -1.3131461 2.1844826
0001f0 59 f8 15 bf c1 93 cc bf 9e 73 b5 be 27 b5 2d bc
       -0.58582073 -1.5982591 -0.3543977 -0.010602272
000200 a2 a8 9d 3e ad 2d c3 3f ea 79 0f be ba 85 8c bf
       0.3079272 1.5248314 -0.1401135 -1.097831
000210 f9 12 03 40 21 5a 42 bf 1d 50 c8 bf 7f 03 37 3d
       2.048033 -0.75918776 -1.5649449 0.04468107
000220 d1 b9 8e 3d 84 b6 9d 3c f3 74 cd 3e ad 11 1e 3f
       0.069690354 0.01925207 0.40128288 0.6174572
000230 a7 1d d9 3e cf 73 e6 3d 47 5f b7 3e ae 52 86 3e
       0.42405435 0.112525575 0.35814878 0.26234955
000240 a2 ba f2 bd 2d 8d f7 bd aa 9c 12 be c5 6a 88 3e
       -0.11852004 -0.12087474 -0.14317575 0.2664396
000250 1b 28 e9 3e 2c 77 8e 3e d5 65 2c bd 78 95 25 3e
       0.4553841 0.27825296 -0.042089302 0.16170299
000260 3e ef a5 3d a1 3c 3e 3d e7 b7 3b bc 05 ac 32 bc
       0.081022725 0.04644454 -0.01145742 -0.01090527
000270 4e 3b bd 3e 6a cb 02 3f 44 97 c5 3e 24 55 18 be
       0.36959308 0.51091635 0.3859197 -0.14876229
000280 1f fa c3 3b dc 9d 6c bc 66 f0 22 3f b1 65 1e 3f
       0.0059807445 -0.0144419335 0.6364807 0.6187392
000290 35 4b 6f 3e 1c 1c 7c 3f c2 2f 99 3f 02 a0 47 3f
       0.23368533 0.9848039 1.19677 0.7797853
0002a0 82 7f 1d 3f 7d 81 82 3f c1 35 25 3f 04 a6 16 3e
       0.61522686 1.0195767 0.64535147 0.14711767
0002b0 c8 7b f8 bc d6 b0 31 3d 3b a8 19 bd e9 dd 51 be
       -0.030332461 0.043381535 -0.037513953 -0.20494808
0002c0 47 51 c5 bd 4b 45 98 be ad 7f 9e be ef e5 06 be
       -0.09634643 -0.29740366 -0.30956784 -0.1317365
0002d0 6a 81 d5 be 99 3f 0f bf 9d 56 97 be ac d3 2c bf
       -0.41700298 -0.5595642 -0.29558268 -0.67510486
0002e0 aa e9 75 bf 65 04 15 bf 0a 27 3d bf b2 9f 72 bf
       -0.9605967 -0.5820983 -0.73887694 -0.94774926
0002f0 d3 a6 00 bf 14 d0 8e bf d3 b7 59 3f 7c 53 92 3f
       -0.50254554 -1.115725 0.8504612 1.1431727
000300 15 ad 8c 3f a1 34 bc 3f ac 4e 17 3f 9f 33 09 bd
       1.099032 1.4703561 0.5910442 -0.033496495
000310 19 1f e1 bf 8a 84 23 c0 2c b8 75 bf c5 c1 5a 3f
       -1.7587615 -2.5549645 -0.9598415 0.8545192
000320 a2 13 a4 3f 1b 06 92 3f 4c f4 ba 3f 79 03 4d 3f
       1.2818491 1.1408113 1.4605803 0.80083424
000330 3e 43 0a be 3a 4e ee bf e5 30 18 c0 2d ea be bf
       -0.13502213 -1.8617623 -2.3779843 -1.4915215
000340 cb c6 0b 3c 1c a5 03 3f e5 01 84 3f 32 53 ae 3f
       0.008531283 0.5142381 1.0313078 1.3619139
000350 94 a9 5e 3f 5f 8b ce 3e 5c 8f 82 bf 4d 02 b1 bf
       0.86977506 0.40340707 -1.02 -1.3828827
000360 ec 69 20 3f 15 46 52 3f bd e0 f0 3e 50 12 65 3f
       0.62661624 0.82138187 0.47046462 0.8948107
000370 51 2f a7 3f 39 56 50 3f 85 e6 05 3f 87 d5 71 3f
       1.3061315 0.81381565 0.5230487 0.9446644
000380 68 c2 cd 3e c5 43 82 bf 6f 15 9f bf 14 24 8d bf
       0.40187383 -1.0176932 -1.2428416 -1.1026635
000390 be 6f b0 bf 86 fe c2 bf 7c 43 ae bf e1 79 a0 bf
       -1.3784101 -1.5233924 -1.3614345 -1.2537194
0003a0 90 99 a8 bf de e3 8f bf ab 67 f0 3e cb bf ff 3e
       -1.3171864 -1.1241415 0.46954092 0.49951014
0003b0 fc 49 ce 3e 88 52 ec 3e 5e 10 2b 3f 2e 75 0a 3f
       0.4029082 0.46156716 0.6682185 0.5408505
0003c0 40 a7 8c 3e aa da f8 3e 2e 22 b2 3e 5d b9 00 bf
       0.27471352 0.48604327 0.34791702 -0.5028284
0003d0 dc 7e a6 bf 1a e4 31 bf 07 fe 1b bf c5 27 19 bf
       -1.3007464 -0.6948868 -0.6093449 -0.5982631
0003e0 78 b1 fa be b6 e3 9d 3f 52 1f 03 40 30 4b a1 3f
       -0.48963523 1.2335117 2.0487866 1.260107
0003f0 9e f5 dc be a4 f3 a5 bf d3 d0 20 bf 95 ff 07 bf
       -0.4315614 -1.2964978 -0.6281864 -0.5312436

conv1.1.weight f4 [16]
000000 ff 40 c8 3f 05 1d d0 3f 77 4b fa 3f 70 3f d6 3f
       1.5644835 1.6258856 1.955428 1.673811
000010 de b0 02 40 11 f1 a7 3f 2b 10 e0 3f e4 ed 0e 40
       2.042045 1.3120443 1.7504934 2.2332697
000020 1b 9c c8 3f 81 7c d9 3f d0 73 db 3f d0 3c d5 3f
       1.567264 1.699112 1.7144718 1.6659184
000030 91 dc c4 3f 61 b7 bb 3f 25 a4 be 3f db 6d d3 3f
       1.5379812 1.4665338 1.4893843 1.65179

conv1.1.bias f4 [16]
000000 4c c8 5f be ad 52 09 3f 2a 40 80 3f b4 fa 02 3f
       -0.21853751 0.5364178 1.0019581 0.5116379
000010 73 0b b5 be 95 d3 86 3e fd cc 17 3f 8e 33 e9 be
       -0.35360298 0.263333 0.5929716 -0.45547146
000020 d8 21 27 3f 4d b0 53 be 89 25 f3 3e 22 56 27 be
       0.65286016 -0.20672722 0.47489575 -0.16341451
000030 3a 22 5c 3e 5f ff 56 3f 13 c7 71 bb de 70 0f 3e
       0.21497431 0.83983415 -0.003689234 0.14007899

stage2.0.branch1.0.weight f4 [16, 1, 3, 3]
000000 82 2b 8d bd ee 03 00 be 40 a3 0a 3f 3d 8e c0 3e
       -0.06893064 -0.12501499 0.5415535 0.3760852
000010 a4 4e c7 be ce 84 d0 3e e1 89 30 3e 05 9c 2b bf
       -0.38927186 0.40726322 0.17240097 -0.6703494
000020 66 af 93 bd 42 70 9c 3e d2 2a 80 be 9e d0 2f bf
       -0.07211189 0.30554396 -0.2503267 -0.686777
000030 2e b4 06 bf 7a 6f fe 3d 3f 50 46 3f c2 b0 2a bf
       -0.5261868 0.12423606 0.77466196 -0.6667596
000040 f6 aa 60 3f b5 fd e3 3f ba 9c 90 3d 5f 53 a9 3b
       0.87760866 1.78118 0.07061143 0.0051674093
000050 51 54 07 bc ce ed a1 3e 46 19 a6 bf a7 ec 71 3f
       -0.008259849 0.31626743 -1.2976463 0.9450173
000060 dd 5b 8f 3f 68 60 32 c0 6e f7 00 40 10 66 8e 3e
       1.119991 -2.7871342 2.015102 0.27812243
000070 78 7c f3 be 44 71 ca be 7b d7 0a bf b5 a9 25 be
       -0.475559 -0.3953954 -0.5423505 -0.1617802
000080 16 e4 00 3f d9 e9 06 bf 07 b0 1b 3f 8a 65 b8 3f
       0.5034803 -0.52700573 0.6081547 1.4405987
000090 2d 08 0a bd 2e 2c 37 3d b9 36 2f bd c3 40 0a 3f
       -0.033699203 0.044719867 -0.042776797 0.5400507
0000a0 80 45 1c 3f b1 d8 eb 3e 5e 2d 3d 3e 3c 4d d3 3e
       0.6104355 0.4606376 0.18474337 0.41269863
0000b0 40 3a 8a 3f 29 75 26 bd eb ab 5c be 89 24 17 bf
       1.0799026 -0.040639076 -0.21549957 -0.59040123
0000c0 74 a2 2a bd db 3a b4 3e db b8 02 3e a7 8a 79 be
       -0.041658834 0.35201153 0.1276583 -0.24369298
0000d0 9f 82 07 3f b3 85 70 3f 2c ec 01 bf c7 7f 09 3f
       0.52933687 0.9395401 -0.50750995 0.537106
0000e0 60 b8 60 3f d2 08 47 3e 00 ba 07 bf dd bb 85 bf
       0.87781334 0.19436958 -0.5301819 -1.0447956
0000f0 18 2c 82 3f b7 06 0d bf 81 32 a4 bf 81 b9 30 be
       1.0169706 -0.5508837 -1.2827913 -0.17258264
000100 85 64 cd bb 8f 52 c3 3e b4 c8 a2 3e d7 e5 87 3f
       -0.0062680864 0.38148925 0.3179375 1.0617017
000110 4b 0f 30 3f 30 6c c0 3e 7b 9b 97 3f 0d 0a 32 3f
       0.68773335 0.3758254 1.1844324 0.69546586
000120 b9 eb b4 be 70 33 a2 3e 7c d2 3a 3f 3a f0 0b 3f
       -0.35336092 0.3167987 0.72977424 0.5466343
000130 71 90 46 3d d3 b8 08 bf c0 a6 6c 3f 94 0a 47 bf
       0.048477594 -0.5340702 0.9244194 -0.77750516
000140 bf 04 fc bf 59 d5 5b 3e a2 a9 7b be 77 09 43 bf
       -1.9688948 0.21468104 -0.24576429 -0.7618632
000150 87 92 db 3e 84 8f 4b bf 2e 85 96 bf 94 eb a9 3b
       0.4288523 -0.7951586 -1.1759393 0.005185554
000160 6d 13 ae bf a6 2c 99 bf 7e 18 18 3d 1a 28 99 3f
       -1.3599678 -1.1966751 0.037132733 1.1965363
000170 94 67 bd bf 6e 9b ea bf 29 36 15 3f 6a 02 a5 3f
       -1.4797235 -1.8328683 0.58285767 1.2891362
000180 12 4b c2 3f cf 5d e9 bf 13 a7 45 3e 0a 5d e1 bd
       1.517916 -1.8231753 0.19302015 -0.11004074
000190 b0 8f f1 3d 90 7d 0d 3e 21 2b 1b bf b8 2f 15 bf
       0.11794984 0.1381743 -0.60612684 -0.5827594
0001a0 0c 07 63 be 55 83 f8 be 3e 87 06 bf 16 68 52 bf
       -0.22170657 -0.48537698 -0.52550113 -0.8219007
0001b0 c4 a0 af bb 80 b0 32 bd b7 bc 10 3c 43 40 0e 3e
       -0.005359741 -0.043625355 0.008834056 0.13891701
0001c0 32 07 08 3e d3 b7 1b 3e ed 8f e9 bc 52 95 7e bb
       0.13283995 0.15206842 -0.028511012 -0.0038846326
0001d0 cc ca c0 3c 87 c6 3e 3f c7 ab 47 3d da ac 11 bf
       0.023534201 0.7452168 0.048747804 -0.56904376
0001e0 37 72 8b 3f 6c 37 21 3d ab d1 5a bf 76 2c 02 3f
       1.0894231 0.039359495 -0.8547618 0.5084909
0001f0 3c 29 b5 be f7 36 67 bf de 28 a8 be 45 b6 31 3f
       -0.35383022 -0.90318245 -0.3284368 0.69418746
000200 4e 24 78 3f b4 29 0f 3f 70 86 fa 3c 80 ab d0 be
       0.96930397 0.5592301 0.030581683 -0.40755844
000210 da 75 36 3f 3d da 7a bf 8e 6d bc bf d7 94 96 bc
       0.7127358 -0.97989255 -1.4720933 -0.01838152
000220 da a6 41 3e 4e a3 4b 3e c5 0c 4a 3e 30 eb fd be
       0.18911305 0.19886515 0.19731434 -0.49593496
000230 e5 13 55 bf 34 f0 29 3f 17 be d0 be 92 a2 55 bf
       -0.8323348 0.66382146 -0.40770027 -0.8345119

stage2.0.branch1.1.weight f4 [16]
000000 da a7 94 3f 41 9a da 3f 18 eb 09 40 ad 53 d4 3f
       1.1613724 1.7078325 2.154974 1.6588036
000010 f2 c6 b6 3f bc 23 9e 3f d1 bd ce 3f d2 e1 9f 3f
       1.4279463 1.2354655 1.6151677 1.249079
000020 14 ad e5 3f 7f 19 9c 3f f6 18 0f 40 5e c1 b9 3f
       1.7943444 1.2195281 2.2358985 1.4512136
000030 b0 95 bd 3e 6a 8e 80 3f fe 27 bb 3f 9c 19 bc 3f
       0.37028265 1.0043461 1.462158 1.4695315

stage2.0.branch1.1.bias f4 [16]
000000 e2 72 e0 3d fa d8 98 be fa 41 85 3f ed ae b6 3d
       0.10959412 -0.2985304 1.041076 0.08920083
000010 eb 2b c3 be 52 85 fd bd b7 3a bc 3f ae 18 e4 be
       -0.38119444 -0.123789445 1.4705418 -0.4455008
000020 6a 3c f5 bd 5e 30 2d 3f 1b f1 8b bf cc a6 92 3e
       -0.11974414 0.6765193 -1.0932955 0.2864288
000030 5d 1a 2d be 58 ef e3 be 6e 3e c2 be 99 46 a0 3d
       -0.16904588 -0.44518542 -0.37938255 0.078259654

stage2.0.branch1.2.weight f4 [16, 16, 1, 1]
000000 19 b7 5d 3e fb 1f 2b 3f 0a 57 3a 3c 55 4b 82 3f
       0.21651877 0.66845673 0.011373291 1.017924
000010 d6 6e 34 be fa 64 ec 3e 0d c4 36 3f 21 6d ef 3e
       -0.17620406 0.4617079 0.713929 0.46762946
000020 ba fb c5 3e 9e 29 66 bf e2 a0 c9 3d 40 77 bc bd
       0.38668615 -0.8990725 0.09845139 -0.09202433
000030 97 42 09 be 59 e8 fb be 8e 98 ab bf 3d 09 a7 3f
       -0.13404308 -0.49200705 -1.3405931 1.3049694
000040 6a 47 1a bf a1 77 7c bd 5c 57 ca 3d 8a 00 24 3e
       -0.6026522 -0.061637525 0.09879944 0.1601583
000050 ba 04 6a be 74 84 ae bd c1 7d f1 3d 29 4f 08 40
       -0.22853366 -0.08521357 0.11791564 2.1298316
000060 ca 1b f7 bd a5 5b 65 bf eb 62 0e be 7f 60 68 3d
       -0.12065847 -0.89592963 -0.13904922 0.05673265
000070 de cd 61 3d 54 ee 95 3d f4 83 d7 3e 52 70 4e be
       0.05512797 0.07320848 0.4209286 -0.20160034
000080 3c f3 51 bc 13 54 12 3f cd 52 55 3d 99 5a 9a bf
       -0.012814339 0.5715954 0.052080918 -1.2058898
000090 c6 50 2b 3d be 31 c3 be 13 71 0a bf 01 09 57 3e
       0.04182508 -0.38123888 -0.5407879 0.20999528
0000a0 1e 82 03 40 3a fe cf 3d 7e cc cd 3d 96 56 66 3d
       2.0548167 0.10155912 0.100487694 0.05623492
0000b0 c5 1b 06 3e c7 a2 f8 bc cf 55 44 3e a9 60 6a bf
       0.1309653 -0.030351056 0.19173358 -0.9155374
0000c0 17 22 91 be 03 0a 92 bf 81 5b f0 3b 7f 21 63 bf
       -0.2834632 -1.1409305 0.007335127 -0.88722986
0000d0 39 2c a8 bd 9f c7 98 bf 6a 4d 84 bf 07 cf c2 bd
       -0.0821156 -1.193592 -1.0336125 -0.095121436
0000e0 86 67 a9 3e 78 79 12 3f 9d 56 04 3e e1 c4 91 3e
       0.33086795 0.57216597 0.12923665 0.2847052
0000f0 6f 79 14 bd 17 78 15 3e fc bc 6c 3c 1e 7c 61 3f
       -0.03624862 0.14596592 0.014449354 0.8808001
000100 cb 3f ba 3e 4c 56 22 3e 72 16 4e be 7c 58 7a 3e
       0.36376795 0.15853232 -0.2012575 0.24447817
000110 1c e9 4a 3f f6 85 90 3e a2 7d 70 3e 6b 53 08 3d
       0.79261947 0.28227204 0.23485425 0.03328268
000120 b6 bc 93 3b 64 0e 0d 40 6a 1f ca 3e 1b 5a d4 be
       0.00450858 2.2040033 0.39477092 -0.41474995
000130 d8 69 d3 bd 0e de ba 3e 2d 11 6d bd 35 ba 09 be
       -0.103229225 0.3649754 -0.05787771 -0.13449939
000140 2d 1e 92 be d9 2e 3f be 45 32 0c 40 c9 90 72 bd
       -0.28538647 -0.18670215 2.1905682 -0.05922011
000150 02 de 0a bd 91 37 62 be a5 56 52 3e c0 ea 0e be
       -0.03390313 -0.2209151 0.20540865 -0.13956738
000160 58 28 9e 3d 1c 94 99 3d fc de 7f be 74 a3 2b be
       0.07722539 0.07498953 -0.24987406 -0.16761571
000170 7d 86 57 3d 03 3c b2 bf 1f 00 61 be 3b 11 a6 3d
       0.052618492 -1.3924564 -0.21972702 0.08108755
000180 53 ea 68 3e 24 76 89 3c 3c 75 46 3e 6a 49 5b 3e
       0.22745638 0.016779967 0.19380659 0.21414724
000190 9c ed 9c 3d ee c2 d0 3e 0a 8a b3 bd f2 b3 26 be
       0.07662508 0.4077372 -0.08766563 -0.16279581
0001a0 ad 17 1c 3d 5b c1 8e 3d 5c a1 2a 40 19 15 2f 3e
       0.038108516 0.069704734 2.6660986 0.17097892
0001b0 9f fe b0 3d b9 77 4b bb 9b 5b 09 bc d5 b1 a3 3d
       0.08642315 -0.0031046702 -0.008383657 0.07992903
0001c0 e6 2b af 3d ad d4 dc bf b7 cb 8f bc 2a 91 b4 3c
       0.08553295 -1.7252403 -0.017553193 0.022041876
0001d0 b6 51 bb bd 26 a6 ce 3e 84 1c b1 bf da 38 30 3e
       -0.091464445 0.40361136 -1.3836827 0.17209187
0001e0 8a 73 48 bf 21 25 89 bd 36 11 b7 3d 99 6c b9 bd
       -0.783013 -0.06696535 0.089388296 -0.090539165
0001f0 8c 2e c8 3c 98 3a ea bb 62 08 3f 3f 27 3c 58 be
       0.024436258 -0.007148098 0.74622166 -0.21116696
000200 76 d7 d3 be 30 84 22 3e e6 ae 56 be 7c ae 31 bd
       -0.4137532 0.15870738 -0.20965156 -0.043379292
000210 88 cf 3d 3e 50 39 4d bf 6d c8 1d be 64 1b 96 3d
       0.18536198 -0.80165577 -0.15408488 0.07329443
000220 13 70 39 3f 33 c5 84 3f ac 4a 92 bc ca 73 ac 3d
       0.72436637 1.037268 -0.017857872 0.084205225
000230 f0 b4 47 bc e7 d2 00 3e 03 a9 d7 3d 5a 8a 12 be
       -0.012189135 0.12580453 0.10530283 -0.1431059
000240 16 9b 2c be 31 b8 25 bd 6c fd 14 bf f1 6a 00 be
       -0.16856036 -0.04045886 -0.5819919 -0.12540795
000250 6f 42 0c bf be a3 a2 bd c1 ec bb 3d a1 f2 92 3d
       -0.5478887 -0.079413876 0.091760166 0.07175184
000260 a8 1a 2a ba 8e 13 8e be 10 98 08 3d 68 67 20 40
       -0.00064889574 -0.27749294 0.033348143 2.5063114
000270 e3 0f f4 bd 9c 35 9c be 40 89 be be 1c dc dc bd
       -0.11917093 -0.3050965 -0.37214088 -0.1078417
000280 20 61 1b be 73 97 90 be 31 f7 b3 be 3a d2 fd 3d
       -0.15173769 -0.28240547 -0.3514953 0.12393613
000290 69 e4 43 3f e5 e5 2d be 1a 64 45 3e 34 71 70 bf
       0.765204 -0.16982229 0.19276467 -0.93922734
0002a0 b6 f6 9b 3e 8d ab 47 be a1 a7 a0 be 9a d7 1a 3d
       0.30461663 -0.19499035 -0.3137789 0.03780327
0002b0 d7 3c 05 bd be 81 3a bf 05 96 03 3e 91 c3 05 3f
       -0.032528725 -0.7285422 0.12850197 0.52251536
0002c0 91 67 bf be d6 13 46 bf 89 49 21 3e 39 ef 21 be
       -0.37383702 -0.7737402 0.15750708 -0.15813912
0002d0 78 2a f0 bd bb 30 15 bf 02 d3 8c bf 3d 65 cd be
       -0.1172685 -0.5827748 -1.1001894 -0.401163
0002e0 a4 b5 ef be 36 34 61 3e f4 c5 42 3d 9e 9a a4 bc
       -0.46818268 0.21992573 0.047552064 -0.020093258
0002f0 30 20 1a 3c a3 dd 58 3e 58 7b 21 3f 01 72 d3 be
       0.009407088 0.21178298 0.6307883 -0.41297916
000300 d7 30 25 be 0b 68 32 3f 5b 1b db 3e 85 64 df 3e
       -0.16131912 0.69690007 0.42794308 0.43631378
000310 44 13 76 3e cc ad bf 3e 5a 13 23 3f 09 61 c8 be
       0.24030787 0.37437284 0.63701403 -0.39136532
000320 0c 17 fe 3e 21 01 b2 3e af 99 0b bd 28 ea 0a bf
       0.49626958 0.34766486 -0.03408211 -0.54263544
000330 0c bc 4b 3d 0d 17 ce 3d f2 d1 67 bf 2a ad 9b 3d
       0.049739882 0.1006299 -0.90554726 0.07601388
000340 dd ac 01 3f 02 56 e2 3d f4 5e 11 c0 98 9d 11 3e
       0.50654393 0.11051561 -2.2714205 0.14220273
000350 07 99 ac be 3b 82 9d 3e eb 4d e4 bb c0 8d 4c bd
       -0.337105 0.3076342 -0.0069672964 -0.04993987
000360 cd d5 ff 3c 36 cf 2a 3e 15 bb 81 bd 7f 13 cb bd
       0.031229878 0.16680607 -0.06334511 -0.09915828
000370 f1 b1 c4 3d 29 fa 87 bd 60 97 dc bd 38 7a d4 bd
       0.09604252 -0.06639511 -0.1077106 -0.10374874
000380 f8 35 c0 3e e3 e4 68 3c f2 57 f0 be d0 88 e2 3e
       0.37541175 0.014214727 -0.46942097 0.44245005
000390 6a 10 28 c0 19 56 37 3e f8 70 8b bd 63 e2 46 3e
       -2.6260018 0.17903937 -0.068086565 0.19422297
0003a0 a7 de 9b be cb 45 39 3d 1a bc 82 3d fe 80 2f 3e
       -0.30443308 0.045232575 0.06383534 0.1713905
0003b0 92 a1 45 3c f7 6c 1e 3e 32 a0 22 3e d3 7b 84 be
       0.012062447 0.15471254 0.15881422 -0.2587572
0003c0 2f 84 c7 3e 76 09 61 3f 7f 94 81 3c 90 40 18 bf
       0.38968036 0.8790506 0.015817879 -0.59473515
0003d0 2b bd 0a be 6f db 91 3c 8a af 5f 3f 01 bb 6f be
       -0.13548724 0.01780483 0.87377226 -0.2341118
0003e0 89 b6 e4 3e e4 56 9c be a9 e2 9f bc 79 4c f1 3d
       0.44670513 -0.30535042 -0.01951726 0.11782164
0003f0 a7 91 ba bc 7d 97 2c be 25 0f f8 be 93 2b 35 bf
       -0.02277453 -0.16854663 -0.48449054 -0.70769614

stage2.0.branch1.3.weight f4 [16]
000000 2f 3b d6 3f 9b c1 b5 3f 2b 74 ff 3f 5a 2e 04 40
       1.6736811 1.4199709 1.9957327 2.065329
000010 89 05 d2 3f e7 2a 0a 40 dc 9b f4 3f 56 34 da 3f
       1.6407939 2.1588686 1.9110065 1.7047222
000020 a9 bf 80 3f 94 b6 a3 3f 10 5e 61 3f d3 f1 9a 3f
       1.005849 1.2790093 0.88034153 1.2105049
000030 39 e1 70 3f fa 39 d9 3f 64 79 a9 3f 4e d2 89 3f
       0.9409366 1.6970818 1.324017 1.0767305

stage2.0.branch1.3.bias f4 [16]
000000 3e 02 b6 bb 84 0a 7b 3f 16 10 4f 3d d3 04 01 3f
       -0.0055544665 0.9806292 0.05055245 0.50397986
000010 23 8b 6f 3e 88 77 49 be 0d 39 0c be 58 73 02 3d
       0.2339292 -0.19674504 -0.13693638 0.03184828
000020 ed ac d4 3e e4 a7 91 3e 2a 3d 0f 3f 2a a0 a6 3e
       0.41538182 0.28448403 0.55952704 0.3254407
000030 f5 d1 9c 3e 10 04 35 3d 1c 38 a4 3d 38 3a ec 3e
       0.30628935 0.044193327 0.080185145 0.46138167

stage2.0.branch2.0.weight f4 [16, 16, 1, 1]
000000 46 ed 3e 3d 65 46 9a be 45 46 f9 3d 7c 6a 69 3e
       0.046613 -0.30131832 0.12171606 0.22794527
000010 f6 7c da bc 5f 37 c1 3f 86 4e fd 3e 0b d6 ef be
       -0.026670914 1.5095023 0.4947397 -0.4684299
000020 80 6e d6 be e1 1d 27 3d a0 38 0e bd 3e 73 85 bd
       -0.4188118 0.04079998 -0.03472197 -0.06516121
000030 43 ec 6c 3f ce 84 0b 3f 55 f4 2a 3f 2f cf 97 be
       0.92548007 0.5449952 0.6677907 -0.29650256
000040 42 da eb 3e 84 79 d3 3d da 8b 82 bf c1 c4 e4 bd
       0.46064955 0.10325912 -1.0198929 -0.1117034
000050 88 fb 41 bf f4 bd fb 3c 34 1a ed 3e 7f 00 5e 3f
       -0.7577443 0.030730225 0.46309054 0.86719507
000060 f3 7d c2 3e 5b ea d9 3e 62 85 c8 3e 72 43 d7 be
       0.37986717 0.42561612 0.39164263 -0.42043644
000070 20 82 02 3f 2a f6 e8 3e 70 17 b1 3e 22 ef b8 bd
       0.50979805 0.45500308 0.34588194 -0.09029986
000080 07 72 a9 3f 75 a3 61 be 49 60 46 3e 03 a5 b5 3d
       1.3237923 -0.2203501 0.19372667 0.08869364
000090 15 66 0f 3d c4 24 a4 bd 5c f5 41 bf ae d5 f2 3e
       0.035009462 -0.08014825 -0.75765014 0.4742865
0000a0 d6 0b 97 3d 59 63 24 3f 9b 95 7c be 24 a3 88 3b
       0.073753044 0.6421409 -0.24666445 0.0041698385
0000b0 6f f7 52 3d bf 05 19 be 01 f1 c6 bd bb c3 9e 3e
       0.051505502 -0.14943598 -0.097139366 0.31008705
0000c0 eb d5 8e 3f e7 06 d8 3d 21 f9 9e 3b 0a aa b9 3e
       1.1159033 0.105481915 0.004851476 0.36262542
0000d0 3f e3 87 3e 92 a0 3a bd 37 d7 37 bf 03 73 0e bf
       0.26540563 -0.045563288 -0.71812767 -0.55644244
0000e0 3a fe de be 0b 2b c6 be 58 c5 3f 3e 4b 19 22 3f
       -0.43553334 -0.38704714 0.18727624 0.63319844
0000f0 69 ad 4e be 5d 19 99 3b 53 dc 24 3f 95 5a 58 be
       -0.20183338 0.004672213 0.6439869 -0.21128304
000100 39 f0 af 3f 79 73 de be c4 1e 3d bf 8d 11 81 bd
       1.3745185 -0.43447474 -0.7387507 -0.06302176
000110 3d 65 75 3f c1 b5 a0 3d 63 d9 10 3f 97 84 3b 3d
       0.958576 0.07847167 0.56581706 0.045780744
000120 20 2c 8b 3e 41 a3 0e 3e da 7d b2 bd fc 10 74 3f
       0.27182102 0.13929464 -0.087154105 0.95338416
000130 9e 82 2d 3d b8 6d b7 be 23 e1 01 be e6 6e b9 3e
       0.042360894 -0.35825896 -0.12683539 0.3621742
000140 00 c8 94 3d c2 4f a0 3e 19 04 01 3f 5a ee ec bd
       0.072647095 0.3131085 0.5039688 -0.115688995
000150 cc ca 71 3f 68 82 0f 3f 7b dd 66 3e a5 ec 64 3d
       0.9445007 0.5605836 0.22545426 0.055889744
000160 0e 43 2f 3f 6b 9c 78 bc 28 37 58 be 1e 25 56 3f
       0.6846169 -0.015174012 -0.2111479 0.83650386
000170 57 2a 35 3f a2 e4 90 3e 1b db 61 be c6 80 6d 3e
       0.7076773 0.28299433 -0.22056238 0.23193654
000180 42 04 3f 3e 75 91 98 3e f2 1d 60 3e ca 37 fa be
       0.18653968 0.29798475 0.21886423 -0.4887069
000190 85 9c 58 3e f0 df 87 3f 1d 67 93 3f be a5 df ba
       0.21153457 1.0615215 1.1515843 -0.0017062945
0001a0 5d 5a f7 3e 07 d5 30 3e b7 8c 51 3e 0f 28 29 3d
       0.4831113 0.17268763 0.20463835 0.04129797
0001b0 f4 98 7e 3f c4 8a 62 bd 15 e7 09 bf a5 59 59 3f
       0.9945214 -0.05530812 -0.5386823 0.8490241
0001c0 90 38 57 3f 9c 56 32 bf 0e 7f 82 3e f0 ba 6b bc
       0.8407068 -0.69663405 0.2548756 -0.014387831
0001d0 d6 2c bf 3e 68 40 8f bf 92 0e 1b 3f 45 ba 3c 3f
       0.37338895 -1.119153 0.6056911 0.73721725
0001e0 43 e0 63 bd 28 a0 b0 3c 2c 25 51 3e e6 0c 33 bd
       -0.055633795 0.021560743 0.20424336 -0.043713473
0001f0 39 56 40 bf aa ad 4a bf 70 31 50 3e b8 4d 60 bf
       -0.75131565 -0.7917124 0.20331359 -0.8761859
000200 c7 4b bd bd 7e 29 e2 bd bb 27 1b bf d1 b4 87 be
       -0.09242969 -0.1104307 -0.606075 -0.2650514
000210 03 61 ee bf 4e 3d 17 be 39 36 39 3f 1f 97 c8 3f
       -1.8623356 -0.1476948 0.7234836 1.5671118
000220 a3 f3 12 bc ec 03 12 be 62 70 ab be fa 2c b1 bf
       -0.00896922 -0.14259309 -0.3348418 -1.3841851
000230 83 a2 0e 3f 46 b4 94 be 52 25 8a bd f9 0c e0 3e
       0.55716723 -0.29043788 -0.067453995 0.43759897
000240 ef f7 62 3f 99 40 e1 3d 71 04 de 3d c6 8b ca be
       0.88659567 0.10998649 0.10840691 -0.39559764
000250 6d 3e be be 9d ad 0f bf b2 2b c9 3d 25 a0 21 bd
       -0.37157002 -0.5612429 0.09822787 -0.039459366
000260 50 bc 46 bf db 4e 18 3f 7f 5b 68 3e f3 29 de be
       -0.7763109 0.59495324 0.22691153 -0.4339138
000270 01 54 9b bd 32 b6 ea 3c 15 89 6a 3e a9 24 7a 3f
       -0.07584382 0.02865133 0.22903855 0.9771219
000280 32 41 d9 3e 9d 1e 4b b9 2f 81 93 3a 7d 76 3e 3e
       0.42432553 -0.00019370993 0.001125371 0.18599887
000290 10 8a e3 bd 32 03 00 3f 88 3d d6 3d 8e 32 86 be
       -0.11110318 0.50004876 0.10460955 -0.26210445
0002a0 77 60 cd 3d 3e 41 18 be 16 d1 f4 3e 20 ff 6d bd
       0.10028165 -0.14868638 0.4781577 -0.058104634
0002b0 b3 f9 87 3e 87 5e c1 bc d7 59 f0 be 47 3e 56 be
       0.26557693 -0.023604644 -0.46943542 -0.20922194
0002c0 78 ca a8 bb b7 2a 26 be ee 5b 51 be f5 ff be bf
       -0.0051510893 -0.16227232 -0.20445225 -1.4921862
0002d0 24 dd 64 bc 75 42 7b 3e cb 12 49 3f 61 a9 a7 bd
       -0.01396874 0.2453707 0.785443 -0.08186603
0002e0 62 eb 6d bf 84 36 79 3e 6e 4f 48 be 78 4f 3b be
       -0.9293729 0.24337202 -0.1956155 -0.18292034
0002f0 3b bf bb 3e 5c 0c b1 3c 88 af 94 bf 97 0a 95 3f
       0.36669335 0.021612339 -1.1616068 1.1643857
000300 eb 47 3b be a1 87 b6 3f 37 41 81 bd bd d9 67 3e
       -0.18289153 1.4260141 -0.06311267 0.22641654
000310 cb 12 51 be 6a 66 d3 3c 75 6e 02 be 58 69 68 be
       -0.20417325 0.02580567 -0.12737449 -0.22696435
000320 de cf 63 bf a0 ab 1b be 48 13 b5 3d d7 72 de bc
       -0.88989055 -0.15202188 0.08841568 -0.02715437
000330 77 4b 93 be e1 f1 5e be d9 7d 90 3f 52 30 b5 3e
       -0.28768513 -0.21771957 1.1288406 0.35388428
000340 36 da a8 3e 33 3c db 3e c5 60 20 3f 87 49 a6 bc
       0.32978982 0.42819366 0.6264766 -0.020298732
000350 7e 9f 40 be 97 77 dd bb 17 31 fc 3e da 8f 78 3d
       -0.18810841 -0.006758641 0.49256203 0.060684063
000360 8d eb b6 3e 6a be d5 3e d9 36 b6 3d 31 49 b3 be
       0.35726586 0.41746837 0.0889718 -0.35016778
000370 75 ce b4 3e ef 41 db bf d2 85 df bd 88 e5 85 3e
       0.35313764 -1.7129496 -0.10914196 0.2615168
000380 65 c1 dc 3d cb ca f3 be 67 18 8b bc a1 fb e4 3f
       0.107790746 -0.47615656 -0.01697941 1.7889291
000390 cd f2 b1 3d 27 a6 65 be 6c 31 8b 3f 3e 89 24 bd
       0.08688889 -0.22426663 1.0874457 -0.040169947
0003a0 08 73 a5 3f 69 3d c7 3d 50 c7 b9 bd 20 99 8c be
       1.292573 0.0972851 -0.09071219 -0.27460575
0003b0 51 f9 24 bf d7 57 13 3d 83 19 d9 3e c9 63 2f bf
       -0.64442927 0.035972442 0.42402276 -0.68511635
0003c0 60 6c 86 bd 92 4e 9a 3e f5 e5 e4 bc 73 7f 31 bf
       -0.0656364 0.3013807 -0.027941683 -0.693351
0003d0 3d 95 1c 3f f4 f1 d8 be d3 8a 27 3f 45 28 e4 be
       0.6116522 -0.42372096 0.65446204 -0.44561973
0003e0 25 20 89 bf 58 ca f3 be 3d 6b f5 be f9 85 2a 3f
       -1.0712935 -0.47615314 -0.4793338 0.66610676
0003f0 58 bf 4a be bb 9e 95 bd e8 84 56 be e7 a4 b2 be
       -0.19799554 -0.07305666 -0.20949137 -0.34891436

stage2.0.branch2.1.weight f4 [16]
000000 e2 fc 86 3f 8a f5 7f 3f 8e 6b 87 3f 40 25 81 3f
       1.0545924 0.9998404 1.0579698 1.0089493
000010 cc ba dd 3f fb 95 8d 3f 49 8a 6b 3f 7f 52 89 3f
       1.7322631 1.1061395 0.9200788 1.0728301
000020 cf b9 e4 3f a2 b1 8d 3f 14 e8 b6 3e bd 62 aa 3f
       1.7869204 1.1069834 0.35723937 1.3311383
000030 d6 cf b3 3f ac 9f 58 3f 28 20 b7 3f 43 bc 96 3f
       1.4047801 0.8461864 1.4306688 1.1776203

stage2.0.branch2.1.bias f4 [16]
000000 ad 1c 94 bf 6c 66 16 3f 42 ba db 3e 09 0b c4 3e
       -1.1571251 0.58750033 0.4291554 0.3828967
000010 18 df 3a 3e f7 0d 5d be 24 65 ec bd b2 06 a5 3f
       0.18249166 -0.21587358 -0.115427285 1.2892668
000020 c5 05 fd 3e cb 9e 8e 3e a8 96 83 3f 79 de 3f 3f
       0.49418464 0.27855524 1.0280352 0.7494884
000030 23 d5 24 bf 1a 3e a5 3c c6 ec 99 bf 0e 79 97 3f
       -0.6438772 0.020171214 -1.2025383 1.1833818

stage2.0.branch2.3.weight f4 [16, 1, 3, 3]
000000 0a 1a 80 bd 25 45 bc 3e 89 21 d1 3e f1 4c 21 3e
       -0.062549666 0.36771503 0.40845898 0.15752007
000010 d4 4b bc be 15 6a 10 bf d0 ba f1 3d 7d 26 72 bf
       -0.36776602 -0.5641187 0.1180321 -0.9458998
000020 4a 99 55 bf 8e 28 ce 3e 25 b1 14 3f 9f 61 87 3e
       -0.83437026 0.40265316 0.580828 0.26441666
000030 f3 90 eb be 2e f0 54 be 90 30 f9 3d 18 94 28 bf
       -0.46009025 -0.20794746 0.12167466 -0.65850973
000040 7b 63 6a bf ce 4b ff be b6 1e 28 3d b6 d3 88 be
       -0.91558045 -0.49862522 0.041044913 -0.26724023
000050 89 12 f4 be 53 53 31 be b8 8d c2 3e 06 cc e1 3e
       -0.4767039 -0.17316942 0.37998748 0.4410097
000060 e4 88 c5 be 52 f7 5b 3f 9f b6 63 3f ae 9e f4 bd
       -0.38581002 0.85924256 0.8895053 -0.11944328
000070 05 39 ed bd 90 4e 2d be 57 d0 0c 3d 5e f5 be 3e
       -0.11583141 -0.169245 0.034378376 0.37296575
000080 97 a7 20 3f d9 0e 91 bc 4d fe 00 3f 01 d3 5b 3f
       0.6275572 -0.017707275 0.5038803 0.8586884
000090 d0 36 34 bd 06 ad a7 3e 91 ae b3 3e 54 ee a7 3d
       -0.043997586 0.32749194 0.3509412 0.08199754
0000a0 b1 ea c8 be a4 9c 4e bf 70 bc 76 be 51 37 29 bf
       -0.39241555 -0.80707765 -0.2409532 -0.6610003
0000b0 7c 81 b7 bf ba 1d fb bd b9 ff 93 3d ce 04 09 bf
       -1.433639 -0.12261529 0.072265096 -0.53522956
0000c0 83 94 f3 bd 08 7f 29 bf 08 16 73 bf 74 d9 47 3e
       -0.11893561 -0.6620946 -0.9495549 0.19516546
0000d0 cf 28 88 3d 87 19 00 be 95 c8 76 be 13 7c 45 3e
       0.066484086 -0.12509738 -0.24099953 0.19285612
0000e0 3e 3d 3e 3f 96 bf d7 3e 25 2f d7 bc a3 ad ec be
       0.743122 0.42138356 -0.026267597 -0.46226224
0000f0 7a e8 4d 3f e3 fc 9e be 13 c3 cd bf b9 e7 8e bd
       0.80432856 -0.31052312 -1.6075157 -0.06977791
000100 f4 57 3d 3e 82 9a bc be 49 9c 75 be 5c a4 ff be
       0.18490583 -0.3683663 -0.239854 -0.49930084
000110 22 c8 e9 be 1a ca 0e bf 80 49 51 bf 57 eb 12 bf
       -0.45660502 -0.5577713 -0.8175278 -0.5739035
000120 b7 c0 2c be 28 0b 89 3e 86 b1 f6 3e a4 8b db bd
       -0.1687039 0.26766324 0.48182315 -0.10719994
000130 0d f4 2b 3f 1c 00 88 3f b4 27 62 3e 5b 8e 29 3f
       0.67169267 1.0625033 0.22085458 0.6623284
000140 85 e5 75 3f 8e ec 45 be 03 b0 8c 3d 8e 4f 17 be
       0.96053344 -0.1932852 0.06869509 -0.14776441
000150 fc 8f 77 be 59 70 02 3f 1d 3d 0e 3f e9 83 47 bd
       -0.2417602 0.5095268 0.55562 -0.048709784
000160 b5 7d 1f 3f bc 76 81 3f 56 08 46 3f cc e2 1d 3e
       0.6230119 1.011436 0.7735647 0.15418547
000170 0b f2 6c 3e 07 e4 30 3f 9c f6 ab be 5e 33 66 be
       0.23139207 0.6909794 -0.33586586 -0.22480533
000180 ec 20 35 3f 22 50 d7 be 17 36 50 be 03 91 8a be
       0.7075336 -0.42053324 -0.20333134 -0.2706376
000190 39 97 d0 be 4b 65 62 bf 8c 83 15 bf 18 a2 92 3d
       -0.40740374 -0.8843581 -0.5840385 0.07159823
0001a0 9a ae 1c 3e 23 e5 01 bf ae b7 82 3f 84 7c d2 3f
       0.1530098 -0.5074026 1.0212305 1.6444249
0001b0 6f 3f 4b 3c cf 35 5e be 8a c5 81 bf c9 d4 9a be
       0.0124052605 -0.21700214 -1.0138409 -0.30240467
0001c0 46 6b 80 3e 55 48 d7 3e 34 f9 e3 be 92 5a 12 3f
       0.25081843 0.42047372 -0.44526064 0.5716945
0001d0 42 4d cb 3f 13 24 90 3e 38 41 0d 3f ed 94 c9 3e
       1.5882952 0.28152522 0.5517764 0.39371434
0001e0 8a c7 aa be 99 50 39 be 3e 0c 64 ba 46 10 9b be
       -0.3335536 -0.18097152 -0.0008699334 -0.30285853
0001f0 f1 5d 63 bf 78 82 72 bf 03 14 12 be dc 2d 7b 3e
       -0.8881522 -0.9473033 -0.14265446 0.24529213
000200 dd 6d 5d 3f e3 c8 9e 3e 3e 7a c9 be 8a 55 15 bf
       0.86495763 0.3101264 -0.39351076 -0.5833365
000210 ef 28 4c 3f e1 85 1c bf dc 4a bd bf d3 37 0c be
       0.7974996 -0.61141783 -1.478847 -0.1369317
000220 3f 70 4c be 80 0d 10 bf a2 da 40 be 9c b0 71 3e
       -0.19964693 -0.562706 -0.18833402 0.23602527
000230 58 d3 22 3f 7d 00 fe bc 5c 1a 1e 3f b1 b1 b4 3f
       0.63603735 -0.031006092 0.6175897 1.4116727

stage2.0.branch2.4.weight f4 [16]
000000 7b 90 ad 3f 8a 9b 9a 3f dc 13 a8 3f 78 19 cc 3f
       1.3559717 1.2078717 1.3131061 1.5945272
000010 a7 23 4c 3f 26 1e 8b 3f a7 4f c9 3f 3e 02 91 3f
       0.797419 1.0868576 1.5727433 1.1328809
000020 a8 d2 bf 3f 11 21 8e 3f 42 20 88 3f df 2a a5 3f
       1.4986162 1.1103841 1.0634844 1.2903708
000030 e5 58 c1 3f ac 2c 8a 3f fd 5d ae 3f eb 14 95 3f
       1.5105253 1.0794883 1.3622433 1.1647009

stage2.0.branch2.4.bias f4 [16]
000000 51 d6 9e bd 2f 99 93 39 d0 f7 82 bf 5c 38 a8 bf
       -0.07755721 0.00028152156 -1.0231876 -1.31422
000010 e9 92 3b 3f 2e e9 cc 3e 31 ae 26 3c fb 9f 33 3f
       0.7327104 0.40021652 0.010173366 0.70165986
000020 8b 35 27 bd 56 81 52 bf 1e 42 15 bf 27 f2 28 bf
       -0.040822547 -0.822286 -0.5830401 -0.65994495
000030 39 08 00 be 21 a0 87 3f 4d 58 7d 3f 16 cb a0 be
       -0.12503137 1.0595742 0.9896286 -0.31404942

stage2.0.branch2.5.weight f4 [16, 16, 1, 1]
000000 28 e6 c8 3e 4c e9 08 3f 38 60 4f 3f 68 41 4c 3f
       0.39238095 0.5348098 0.81006193 0.797873
000010 82 1f c8 be e5 56 16 bd d4 17 ac 3f 36 dd 67 bf
       -0.3908654 -0.036703963 1.3444772 -0.90571916
000020 94 85 25 3d b4 8b ad bd 68 36 ff be b5 57 58 bf
       0.040410593 -0.08473912 -0.49846196 -0.8450883
000030 fd bc 57 bf 36 82 50 3e f6 88 01 3f ab 00 21 be
       -0.8427275 0.20362172 0.5059961 -0.15722911
000040 ee 0f 35 3f 92 80 58 bd 19 e5 92 be 80 f9 d9 be
       0.7072743 -0.05285699 -0.28690413 -0.42573166
000050 73 a9 9d 3e 6d d2 7a 3e 11 51 15 3f c6 a5 26 be
       0.30793342 0.24494334 0.5832682 -0.16274175
000060 6b 0b d7 be 8e d9 4e bf 48 d2 52 bf 93 e0 17 bf
       -0.420009 -0.8080071 -0.82352114 -0.5932705
000070 08 89 26 be 2c 43 b9 3e a5 13 85 3e 6c 5c a0 3e
       -0.16263211 0.3618406 0.2599155 0.31320512
000080 5f 49 1a 3d 30 88 78 3e 03 a5 37 3f 09 4b 14 be
       0.03766763 0.24270701 0.7173616 -0.14481749
000090 0e 76 0e bf cf 5d 35 3f 28 5e 6b 3e fb ab 53 bf
       -0.5564889 0.70846266 0.22985137 -0.82684296
0000a0 f1 fb 44 be 0f 6e 42 3e 34 93 87 be 6d 85 dc 3e
       -0.19236733 0.18987297 -0.26479495 0.43070546
0000b0 70 32 39 3e ee 67 da be 45 d4 41 3e cc e6 6a 3d
       0.18085647 -0.42657417 0.1892863 0.05734901
0000c0 4f cf 92 bf c4 82 01 3e 4b c6 32 3d b6 67 16 bf
       -1.1469516 0.1264754 0.04364614 -0.58752
0000d0 62 98 9f 3e 1f a1 7f be 25 17 25 be 9b c0 2a 3f
       0.31170946 -0.24963807 -0.1612211 0.6670014
0000e0 6a 43 95 be 71 7b 71 bf a5 05 cb be 5c a7 03 be
       -0.29152995 -0.9432898 -0.39652744 -0.12856811
0000f0 50 60 fa 3d af 24 dc 3d 2f fc 63 3e 49 c6 11 bf
       0.122254014 0.10749184 0.22264169 -0.56943184
000100 19 4c f2 3e 8e 97 6c 3e 65 2d 4f bf 89 15 74 bf
       0.47323683 0.23104689 -0.8092864 -0.9534536
000110 b6 56 0f 3e c2 ec 52 3e 88 05 2b 3d 6f 1a 92 be
       0.13997921 0.20598128 0.041753322 -0.28535792
000120 c5 79 a2 3d e0 b3 fb 3e 12 58 b9 be 8f 8e 5e 3f
       0.07933382 0.4916067 -0.36200005 0.8693628
000130 4c 44 29 bf 5d 9e 54 bd 23 7a 05 3f aa e8 f9 3e
       -0.6611984 -0.05190884 0.5213949 0.4881032
000140 ec 5e 05 3d 60 26 e2 3d 9c 26 d2 3e 88 b2 0e bf
       0.032561228 0.11042476 0.41045082 -0.5574117
000150 c0 1f 8e 3f 1a 3e a4 3f 1e 39 e1 3e 7d 29 19 3f
       1.1103439 1.2831452 0.4398889 0.5982893
000160 08 1f a1 3e ba 2b 72 3f 6f 3b a8 be 23 eb 8b 3e
       0.31468987 0.9459797 -0.32857844 0.27327833
000170 95 f3 35 be 72 fb 5e bd 57 3a b9 3e b2 41 ea be
       -0.177687 -0.054439016 0.36177322 -0.45753247
000180 28 41 09 3f 3c ed c6 3c 3b bc 73 bc e2 bd ae 3e
       0.53615046 0.024283044 -0.014876421 0.34129244
000190 6e 7e fa 3e 11 c6 78 3e 50 4a 1e 3f a4 3e ad be
       0.48924583 0.24294306 0.6183214 -0.33836854
0001a0 34 ee 07 bf 8b 5f 84 be f9 53 97 be c6 31 28 bf
       -0.53097844 -0.25854144 -0.29556254 -0.6570095
0001b0 76 9e 5c 3f 68 2e d9 be 30 cf ad bf c1 5d f0 be
       0.8617929 -0.42418218 -1.3578854 -0.4694653
0001c0 c7 51 b0 3e fa da 8a bf f0 4c d0 bd 8a 36 f0 be
       0.3443739 -1.0848076 -0.10170925 -0.4691661
0001d0 94 a0 53 3e 12 2b 43 3e 8a 5a 43 3c 6a 6f 0a bf
       0.20666724 0.19059399 0.011923442 -0.54076254
0001e0 51 06 b7 3f 7c f2 74 be fc b4 fd be 27 ff 59 bf
       1.4298803 -0.23920625 -0.49552143 -0.85154957
0001f0 a3 b7 6a bd 25 9a 85 be 38 82 a7 3e 1a 29 c6 be
       -0.057304036 -0.26094165 0.32716537 -0.38703233
000200 24 77 75 be 75 c5 95 3d b1 7d 43 bc ef ec 4a bf
       -0.2397123 0.073130526 -0.011931823 -0.7926778
000210 a5 62 40 3b 6b 82 ff be f1 5f 2a bf e2 b4 ee be
       0.0029355672 -0.4990419 -0.66552645 -0.46622378
000220 2a f3 08 bf 22 4e 5d be ce dd 8f 3d 13 81 5a be
       -0.5349604 -0.21611837 0.07024728 -0.213383
000230 bb 55 73 bf 02 98 81 bf 15 e7 da be d7 df f0 3e
       -0.9505269 -1.0124514 -0.42754427 0.47045776
000240 07 98 c4 3e a6 ae 28 be 31 60 64 3f 96 bb 13 3f
       0.38397238 -0.16472873 0.89209276 0.5770811
000250 59 2a 86 be e4 cf be be 39 2b c8 3d c5 30 c9 be
       -0.26204184 -0.37267983 0.09773869 -0.3929502
000260 5f 60 ba be b5 82 01 3f 71 a8 69 3e 35 e2 d0 bb
       -0.3640165 0.5059007 0.22818162 -0.006374622
000270 45 79 05 bd dc d2 88 be 8c 96 bd be b1 32 16 bf
       -0.032586355 -0.26723373 -0.3702892 -0.586711
000280 40 15 15 bf a3 2e 1a be 33 08 bf be 53 fd 63 3d
       -0.5823555 -0.15056853 -0.37310943 0.05566151
000290 63 43 40 be 8b 6f 26 be 89 b6 6d be 0b f8 8e 3e
       -0.18775706 -0.16253488 -0.23214163 0.27923617
0002a0 83 8f 71 3e d8 8f b2 3e f9 6d ae 3e 5c f8 40 3f
       0.23589902 0.3487537 0.34068277 0.75378966
0002b0 51 a7 20 3f ae 5f 9f 3e b3 88 79 3e 3c 67 74 3d
       0.62755305 0.31127685 0.24368553 0.059668764
0002c0 02 f5 20 bf b1 a2 e5 bd 9c f2 09 3e fa 9d 41 3b
       -0.6287385 -0.112126715 0.13471454 0.0029543624
0002d0 42 c6 17 be 61 08 1f 3d ca d9 42 bf 2b 67 8d be
       -0.14821723 0.03882635 -0.7611357 -0.27617773
0002e0 e2 87 a0 3e 91 37 68 be a1 15 dd bd c4 76 39 bf
       0.3135367 -0.22677447 -0.10795141 -0.72446847
0002f0 cb de 31 3c 00 f7 0d be b1 bc 69 bf 3f 91 16 bf
       0.010856341 -0.13863754 -0.91303545 -0.5881538
000300 93 cd bb 3c 9b 21 5e bf d5 5d bd 3e 31 b9 f2 be
       0.022925174 -0.8677003 0.3698565 -0.47406915
000310 9c 3f c1 3e 88 5f bc be 6a 85 1a be bc c0 14 be
       0.37743843 -0.36791635 -0.15089956 -0.14526647
000320 6c 32 cf be 99 21 52 3e 84 1f d7 3e 61 40 43 3e
       -0.40468156 0.20520629 0.42016232 0.19067527
000330 29 ba 01 3f d2 04 62 3f d5 96 19 be f5 b6 e7 be
       0.5067468 0.88288605 -0.14998944 -0.45256773
000340 04 aa ea 3e cb 7a d0 3e ef 59 8f 3d 0a 09 8a bd
       0.45832837 0.40718684 0.06999575 -0.06740005
000350 fe 75 72 3e d8 e9 c3 be a3 e3 9b 3e 52 31 6c be
       0.23677823 -0.38264346 0.3044711 -0.23065689
000360 a2 ae 3f bf 73 10 02 3f 32 d7 16 bd 5d 83 ef bd
       -0.74875844 0.5080635 -0.03682632 -0.116949774
000370 2a 95 40 3f b1 79 a6 be 10 fd 14 3f c6 80 27 3f
       0.75227606 -0.32514718 0.5819864 0.6543087
000380 d4 88 7a 3e 46 26 81 bd 56 fe 86 bd 2f 64 76 39
       0.24466258 -0.06306128 -0.065914795 0.0002349771
000390 fe b5 64 3e b5 de c6 3b 6b ad 3b 3f 21 c8 68 3e
       0.2233505 0.006069029 0.7331149 0.22732593
0003a0 ba 13 35 3e ac b2 81 3e a9 b3 7c 3d 59 9c 0f bf
       0.17683306 0.25331628 0.061694775 -0.5609794
0003b0 a8 02 2c 3e 86 67 3b bf 2b af a3 3e a9 48 4c bd
       0.16797888 -0.7320484 0.3196958 -0.04987398
0003c0 5a 5b 35 3e f7 f2 c7 3e 05 55 f6 3d 65 c1 e8 be
       0.17710629 0.39052555 0.12027935 -0.45460048
0003d0 b9 6b f5 3e ed 70 92 3c ef e3 a3 be fc 9e b8 3d
       0.47933748 0.017876113 -0.32009837 0.09014699
0003e0 fd 35 bb 3e ef 33 c8 3e 64 e5 51 3f 28 6d 1d 3f
       0.36564627 0.39102122 0.8199065 0.61494684
0003f0 3d 65 01 3f 8f a2 44 bf ef 6e 81 be 70 3b 11 bf
       0.505451 -0.76810545 -0.25279948 -0.5673132

stage2.0.branch2.6.weight f4 [16]
000000 fd 76 e5 3f 5c eb bc 3f 40 85 c9 3f 91 99 a2 3f
       1.7926937 1.4759326 1.574379 1.2703115
000010 6a d2 ab 3f a7 c6 9c 3f 31 8d ba 3f ac 57 b2 3f
       1.3423588 1.2248124 1.4574338 1.3933005
000020 58 96 1f 3f b8 68 5f 3f 4b 4b 8b 3f 62 18 84 3f
       0.6233878 0.87269163 1.0882353 1.0319941
000030 68 98 37 3f 00 2f 42 3f 14 67 40 3f 4f 12 57 3f
       0.7171693 0.75852966 0.75157285 0.8401231

stage2.0.branch2.6.bias f4 [16]
000000 69 5a 0b bd 9a 38 e1 3e 51 16 05 be 0a 23 2a 3e
       -0.03402177 0.43988496 -0.12996794 0.16614929
000010 a4 d9 83 be 7b a7 81 3f 2f d3 ec 3e 30 65 0a 3e
       -0.25751984 1.0129236 0.4625487 0.13515162
000020 80 22 2b 3f ed 00 3d be a4 2d 25 bf 64 d6 92 bd
       0.6684952 -0.18457384 -0.6452277 -0.07169798
000030 88 2d 32 3f 34 08 db 3e c7 a0 f6 3e c4 65 1f 3f
       0.69600725 0.42779696 0.48169538 0.6226466

stage2.1.branch2.0.weight f4 [16, 16, 1, 1]
000000 85 06 a5 bd b5 4c 86 be 66 0c b7 3f 20 8e d1 3e
       -0.08057884 -0.26230398 1.4300659 0.40928745
000010 b7 e7 03 be d8 8b ee bb f4 9c 48 be fd 75 2d 3e
       -0.12881361 -0.0072798543 -0.19591123 0.1693954
000020 9e 3c f1 be 4d 2a 57 3d 84 b0 eb bf 07 81 86 be
       -0.4711656 0.052530576 -1.8413243 -0.26270315
000030 cb c1 b1 3f e2 ba 6e 3c 23 54 99 3e 5a 76 d5 3d
       1.3887266 0.0145709235 0.29947004 0.104229644
000040 b3 21 6d bf 53 5b 25 3f 3a 55 e8 be fc 53 cb be
       -0.92629546 0.64592475 -0.45377523 -0.39712512
000050 09 e3 01 be e6 0a 2f 3f be c1 5d 3e 5c a2 26 3f
       -0.12684263 0.68376005 0.21655938 0.6509149
000060 1f c7 b3 3e e3 48 16 3d d3 51 88 3c 63 3b c4 be
       0.35112855 0.036690604 0.01664058 -0.38326558
000070 7a d7 71 be 38 4d 63 be 12 36 99 3c 4b 2f f9 3d
       -0.23617354 -0.22197425 0.01870254 0.121672235
000080 c4 a6 85 be ff ef 08 3f e9 bf 0f 3d 44 b7 9a 3e
       -0.26103795 0.53491205 0.03509513 0.30217946
000090 dc 0c 55 be 51 98 1e 3f da a9 9a 3f 56 1b 5f 3e
       -0.20805687 0.61951166 1.2083085 0.21787772
0000a0 c4 8a eb be 3a 1a d7 3c 61 1e 40 3e 09 22 07 bf
       -0.46004307 0.026257623 0.18761589 -0.5278631
0000b0 80 37 ba bd e8 bb e8 bd 61 b4 ff be f7 6b b6 be
       -0.09092617 -0.11363965 -0.49942306 -0.35629246
0000c0 d4 30 95 be 66 e2 a9 be 2b ad 20 bf 38 18 cb bd
       -0.29138815 -0.3318054 -0.62764233 -0.09916729
0000d0 c6 45 13 3e 34 6f 90 3e 74 28 a0 3e 63 bb f4 3e
       0.14382085 0.2820984 0.31280863 0.47799215
0000e0 ea ab 0b 3f 32 66 8d 3f c1 da 97 be 82 38 c2 3d
       0.54559195 1.1046813 -0.29659083 0.09483434
0000f0 4a 4c 01 3f eb 8a f2 be 0e 35 0e 3f a6 14 87 3e
       0.5050703 -0.4737161 0.55549705 0.2638294
000100 b4 3a 3d be 37 b7 56 be 01 04 05 be b8 b6 63 bd
       -0.18479425 -0.20968328 -0.12989809 -0.055594176
000110 62 e0 0b bd ee 4f 9a bd a8 00 d4 bd 13 1a 44 3d
       -0.034149535 -0.07534777 -0.10351688 0.04787643
000120 03 eb ef bc 3f ee 24 bc b8 f0 01 3e 2c 03 8b bd
       -0.029286867 -0.010066568 0.12689483 -0.06787714
000130 34 eb 91 bd c5 7e a0 bd df d2 63 3d 14 2e 32 bd
       -0.071249396 -0.07836679 0.055621024 -0.043500975
000140 44 90 3e be 70 da 56 be fe 99 05 be ec 5a 66 bd
       -0.1860972 -0.20981765 -0.13047025 -0.056239054
000150 62 0b 0d bd ac a2 99 bd 3c 2b d4 bd ed 58 40 3d
       -0.034434684 -0.0750173 -0.10359809 0.046959806
000160 21 77 f0 bc 85 65 28 bc 73 62 02 3e 04 bc 8b bd
       -0.02935368 -0.01027811 0.12732868 -0.068229705
000170 77 46 91 bd dc 0b a1 bd 8f e5 63 3d ca af 2d bd
       -0.07093518 -0.0786359 0.055638846 -0.042403974
000180 48 f1 7f bd 14 12 a5 bd ce 04 07 be 89 4d 99 be
       -0.062485963 -0.08060089 -0.13185427 -0.29941967
000190 f7 a3 36 3d bd 1c c1 3e 44 ca 61 3e 0b 55 eb 3e
       0.044589963 0.37717238 0.22049814 0.4596332
0001a0 9c 31 38 3f 3d e0 2e 3f ab 54 58 bf 46 43 33 3e
       0.719507 0.6831091 -0.84504193 0.17506132
0001b0 80 ad 2a 3f ab fc 18 bf 41 f6 b6 3e 39 9f a6 be
       0.6667099 -0.5976054 0.35734752 -0.32543352
0001c0 1c a7 3f be 10 41 58 be c8 ac 07 be 16 42 6a bd
       -0.18716091 -0.2111857 -0.13249505 -0.05719193
0001d0 b6 b8 12 bd d7 27 9a bd 3c 0c d7 bd 76 1b 43 3d
       -0.035820685 -0.0752713 -0.105003804 0.04763361
0001e0 8c a9 e5 bc b0 34 14 bc df 05 03 3e 60 5d 8d bd
       -0.028034948 -0.009045765 0.12795208 -0.069025755
0001f0 43 a8 8c bd 2e c3 9f bd 6a 3f 61 3d e3 62 33 bd
       -0.06868031 -0.078008994 0.054992117 -0.043795478
000200 e4 92 98 bd fe af c1 be b5 e3 eb bd c7 c3 73 be
       -0.07449892 -0.37829584 -0.11518041 -0.23805152
000210 af de 50 be 61 d9 2c 3e 1e 24 9f bd 5e 68 44 be
       -0.20397447 0.16879798 -0.07770561 -0.19180438
000220 42 cd 67 be 4a 43 53 be 25 d4 3b bf 1e 34 c6 bd
       -0.22636893 -0.20631137 -0.7337058 -0.09677909
000230 0b c1 96 bc 56 dc 0b bd 09 06 3e 3d b7 0a 51 be
       -0.018402597 -0.034145676 0.046392474 -0.20414244
000240 1e 03 e3 3c 49 37 b5 3e 18 29 01 3f 29 64 d0 3e
       0.027711447 0.35393742 0.5045333 0.40701416
000250 72 3b 84 3f 7b eb 20 be 2c 65 8d 3e 2d 43 17 bd
       1.0330641 -0.15714829 0.2761625 -0.0369293
000260 50 99 79 bc b0 bb 26 bf 6b b7 6e be 45 79 d5 3e
       -0.015234306 -0.6513014 -0.23312156 0.41694084
000270 9b 2f 28 be 14 8d cb 3e 39 40 37 be 40 39 08 3f
       -0.1642441 0.39756072 -0.17895593 0.53212357
000280 43 d0 1c 3f 41 95 56 3f 83 74 13 bd 2b 88 18 3f
       0.6125528 0.83821493 -0.035999786 0.59582776
000290 9f 62 73 bf 34 d3 8b be c9 f4 47 3e af 1e 9b be
       -0.9507236 -0.27309573 0.19526972 -0.30296847
0002a0 88 0f a6 bd 91 42 c5 3e c3 de 2e be 30 c6 34 3f
       -0.08108431 0.3852735 -0.17077164 0.7061491
0002b0 7f 85 10 be 88 17 07 be 61 aa 28 bf 98 02 8b 3e
       -0.14113425 -0.1319257 -0.6588498 0.27150416
0002c0 b0 80 93 3f f0 54 eb be 79 44 63 be c3 66 6a 3f
       1.1523647 -0.4596324 -0.22194089 0.9156305
0002d0 9b b5 71 be 73 e4 a1 be 5f 03 8d 3e 72 31 8a be
       -0.23604433 -0.31619605 0.27541634 -0.2699085
0002e0 17 aa 47 3d 7f 15 25 bf 92 8f 38 3d f2 3b 74 3e
       0.048746195 -0.64485925 0.045058794 0.23850992
0002f0 75 55 d0 bd 65 48 14 be 8c 68 35 be 57 32 bf be
       -0.1017255 -0.14480741 -0.17715663 -0.37343094
000300 90 a6 6d be d3 f2 e2 bd 20 0a 22 be 2e f7 77 be
       -0.2320807 -0.11081471 -0.15824175 -0.24215385
000310 17 41 1e 3e 63 0d 1b be 86 f8 53 3d 72 40 f4 3c
       0.15454517 -0.15141825 0.051750682 0.029815886
000320 e5 8b 94 be 70 69 5b be f1 85 cb 3f d3 56 f6 be
       -0.2901298 -0.2142694 1.5900251 -0.48113117
000330 12 c2 42 be 7c 1d 81 bd 80 66 13 3e e5 50 7e be
       -0.19019344 -0.06304452 0.1439457 -0.24835546
000340 ae 3f 6c 3d 89 13 2a bf 9e 7c 1c be db d1 c9 3e
       0.057677917 -0.6643606 -0.15281913 0.3941792
000350 99 ae 47 bd 1c 0e 99 be fc b6 3d bf bb 4c 8d 3e
       -0.048750494 -0.29893577 -0.74107337 0.27597603
000360 40 69 1c 3f 8e 74 16 3d 3e 02 c7 bd e1 71 96 3e
       0.610981 0.03673225 -0.097172245 0.29383758
000370 8b b0 fc 3d b7 3f 05 3f 48 40 92 3f 75 85 28 3f
       0.123383604 0.52050346 1.1425867 0.6582864
000380 74 63 99 3c 55 e4 6b bf 06 ed 84 be 24 bf 22 bf
       0.01872418 -0.9214528 -0.25962085 -0.6357291
000390 b1 6a d6 be c3 d3 95 be b7 74 14 be 72 6b 17 be
       -0.41878274 -0.29263124 -0.14497648 -0.14787081
0003a0 dc fc 54 3f 8a a1 8a bd 8f 54 dc 3e 61 59 81 3f
       0.8319833 -0.067690924 0.43033263 1.0105401
0003b0 f2 4e 89 be 87 0b a7 3e 76 93 87 3e c6 bd e7 be
       -0.26818043 0.32625982 0.2647969 -0.45261973
0003c0 ac b8 cb 3e 42 e6 26 3e 78 c2 8d be 3b ba ed 3d
       0.3978933 0.16298774 -0.2768743 0.11607786
0003d0 e8 c5 53 be ed e6 3b 3f a5 0d 6f 3f 0a 14 6d 3f
       -0.20680964 0.7339924 0.93380195 0.926087
0003e0 11 94 0f 3c a1 8d 85 be 75 c3 8d bd 5e 0e 16 be
       0.008763329 -0.26084617 -0.06922046 -0.14653918
0003f0 b2 35 99 3e e2 8e 52 bf 9c df f3 3e cd 1d ae 3f
       0.2992378 -0.8224927 0.47631538 1.3602844

stage2.1.branch2.1.weight f4 [16]
000000 8d 97 80 3f 99 d1 8b 3f 41 ff a5 3f 5c 0d ae 3f
       1.004625 1.0923339 1.2968522 1.3597827
000010 bd a9 60 3b e0 7d 5a 3b b6 af 8d 3f 72 bb aa 3b
       0.003428086 0.0033339188 1.1069248 0.0052103335
000020 62 08 4b 3c e9 6e 6a 3f f9 b7 8f 3f fd 2d 94 3f
       0.012392135 0.91575485 1.1228019 1.1576535
000030 60 3c 68 3f 94 05 93 3f 68 a1 96 3f 80 b9 b4 3f
       0.90717125 1.1486077 1.1768007 1.411911

stage2.1.branch2.1.bias f4 [16]
000000 97 a1 91 3e e6 7a 49 3f 65 6a 3c 3f c0 c5 0b 3f
       0.28443596 0.78703153 0.73599845 0.5459862
000010 02 07 a7 b9 5b 2b b3 b9 db 63 9a 3e c6 4c 6a ba
       -0.00031857943 -0.00034173843 0.3015431 -0.0008937832
000020 94 4f b7 3b 34 02 da 3e ec 40 8f 3e 5b 06 7a 3f
       0.0055942032 0.42579806 0.2797922 0.9766595
000030 34 af 13 3f 9d 0c 2c 3f bb c0 98 3f 7d 9c ff 3d
       0.57689214 0.67206746 1.1933817 0.1248102
