independent_train/client93/best_model_1000.0.pth (torch, 225067 bytes, 29 tensors)

conv1.weight f4 [24, 3, 3, 3]
0	0x3e31c6c2	0.17360976
1	0xbdbbd73a	-0.091719106
2	0x3e4d6f6b	0.20062034
3	0x3df0712c	0.11740336
4	0xbde5dcb0	-0.112237334
5	0x3d77445a	0.06036792
6	0xbcd50f04	-0.026008137
7	0xbd010507	-0.031498935
8	0x3d0bd574	0.03413911
9	0xbe287935	-0.16452487
10	0xbd82fb07	-0.06395536
11	0x3e029158	0.12750757
12	0xbe2dcd6c	-0.16972893
13	0x3e8f59ec	0.27998292
14	0xbe0c0e82	-0.1367741
15	0x3d8f9143	0.07010128
16	0x3d110824	0.035408154
17	0x3e12a90d	0.143223
18	0xbd851ec3	-0.06500008
19	0x3c9ae160	0.018906295
20	0x3bd3482f	0.006447814
21	0xbd128f5b	-0.035781246
22	0x3d1f19e1	0.03884304
23	0x3d1d0047	0.038330343
24	0xbd6058b8	-0.05477211
25	0xbddfc90e	-0.1092702
26	0x3ce59a50	0.028027683
27	0xbbac90fc	-0.005266307
28	0xbd038837	-0.032112326
29	0x3cb56b32	0.022145841
30	0x3d6a0bd0	0.05714017
31	0xbe0121ff	-0.12610625
32	0x3cc5503a	0.024086107
33	0x3d7cf53d	0.061757315
34	0xbdecca05	-0.1156197
35	0xbe20720b	-0.15668504
36	0xbb930f58	-0.004487913
37	0xbb423cd9	-0.0029638319
38	0xbdbbf9f2	-0.09178533
39	0x3da434bb	0.0801787
40	0xbdbe77a0	-0.093001604
41	0xbce84b3b	-0.028356185
42	0x3d8cac0a	0.06868751
43	0x3d0ea58f	0.034825858
44	0x3d5e8e77	0.054335084
45	0xbe1ab0c5	-0.15106495
46	0xbe00e9c6	-0.12589177
47	0xbd23b460	-0.03996694
48	0xbe1feff5	-0.1561888
49	0x3db00ec2	0.08596565
50	0x3e06c5a2	0.13161328
51	0x3c835f42	0.016036633
52	0xbc9c0420	-0.019044936
53	0x3e39d226	0.18146572
54	0x3e1e5dd8	0.15465486
55	0x3d0ae40e	0.033908896
56	0x3e2d3015	0.16912873
57	0x3e2ccc5e	0.16874835
58	0x3e06a12a	0.13147417
59	0xbdee1845	-0.11625723
60	0xbd8522d8	-0.065007865
61	0x3d7f977f	0.062400337
62	0xbe494c9a	-0.19658127
63	0x3d5d89e3	0.054086577
64	0xbda25a91	-0.079274304
65	0x3dc22004	0.09478763
66	0xbe6b8409	-0.22999586
67	0xbcce8ed3	-0.025214588
68	0x3dc846aa	0.09779103
69	0x3d4cfb58	0.050044388
70	0x39aaec84	0.00032601145
71	0x3dd39c80	0.103325844
72	0xbd8c7aad	-0.06859336
73	0x3c5768e1	0.013147564
74	0xbcf3fe37	-0.029784305
75	0xbc24fb8a	-0.010069737
76	0x3d57999e	0.052636735
77	0xbdc9d868	-0.09855729
78	0xbd4f4811	-0.050605837
79	0x3bf23db3	0.007392609
80	0x3d29cdeb	0.041456144
81	0xbd726eac	-0.059187576
82	0xbd997067	-0.07492142
83	0xbddb5229	-0.1070903
84	0x3dd3a599	0.103343196
85	0xbb20636f	-0.002447333
86	0x3d122308	0.03567794
87	0xbe426369	-0.18983234
88	0x3e2acec0	0.16680431
89	0x3df9df1d	0.122007586
90	0x3a21a64a	0.00061664416
91	0x3daf4f77	0.085600786
92	0xbd584d1b	-0.05280791
93	0xbdec8dfb	-0.11550518
94	0x3d3a2cc9	0.045452867
95	0x3e5ef875	0.21774466
96	0xbe534e56	-0.20635352
97	0xbde77c39	-0.113029905
98	0x3db54f77	0.08853047
99	0xbb71e5d1	-0.0036910663
100	0xbe63be52	-0.2224057
101	0xbe02687b	-0.12735169
102	0xbcc0e605	-0.023547182
103	0x3d042ffc	0.032272324
104	0x3d72df6c	0.059295103
105	0x3d999dd5	0.07500807
106	0x3e0a3e6e	0.13500378
107	0x3d949be8	0.07256299
108	0x3c0f3b77	0.008742205
109	0xbe22d7ee	-0.15902683
110	0xbe2f012a	-0.17090288
111	0x3e14d48e	0.14534208
112	0x3c5fe0fe	0.013664482
113	0x3cf0d5bd	0.029398793
114	0xbc7d87a2	-0.015474232
115	0xbcf4262f	-0.029803364
116	0xbc96ef87	-0.018424762
117	0xbcbd5eb1	-0.023116441
118	0xbc2053f3	-0.00978564
119	0x3e2a3dd1	0.16625144
120	0xbd073bb9	-0.03301594
121	0xbceecc7d	-0.029150242
122	0x3dda8d70	0.10671508
123	0x3e23af5e	0.15984866
124	0xbda38a05	-0.079853095
125	0x3c7ecd32	0.015551852
126	0x3c8085d2	0.01568881
127	0xbd7199eb	-0.05898468
128	0xbbc2be15	-0.0059430697
129	0xbe5149ae	-0.20438263
130	0xbe120fd9	-0.14263858
131	0x3d8b44f4	0.06800261
132	0xbc7fd026	-0.015613591
133	0xbd5ac9fa	-0.053415276
134	0x3cbff9d2	0.023434553
135	0x3bf9515d	0.007608576
136	0x3d4f8fca	0.050674237
137	0xbdea6117	-0.114443
138	0x3d674a42	0.056467302
139	0xbd73acc4	-0.059490934
140	0x3d495ecd	0.049162675
141	0x3e0944be	0.1340513
142	0x3da0b8a4	0.078477174
143	0xbc1482e2	-0.009064408
144	0x3d4e1724	0.050315037
145	0x3e05195d	0.12997957
146	0x3b172ecd	0.0023068667
147	0x3c9b9c5e	0.01899546
148	0x3dffd6bb	0.124921285
149	0xbde267e9	-0.110549755
150	0xbca2a45d	-0.019853765
151	0x3e522bab	0.2052447
152	0x3c3036d4	0.01075526
153	0xbd1d5642	-0.03841234
154	0xbe0d19dd	-0.13779397
155	0xbe4460b2	-0.19177511
156	0xbe0d3b0a	-0.13792053
157	0x3d925f8f	0.071471326
158	0x3e30759d	0.17232366
159	0xbd8a43f3	-0.067512415
160	0x3e1ac46a	0.15113989
161	0x3ccd24c0	0.025041938
162	0xbdc4294e	-0.09578191
163	0x3d4c6918	0.049904913
164	0x3ddf080f	0.10890209
165	0x3da785f9	0.0817985
166	0x3d8961bd	0.06708095
167	0xbd8befa5	-0.06832818
168	0x3da9aae9	0.08284552
169	0x3d617e4c	0.055052087
170	0xbd3a0872	-0.04541821
171	0xbd6cc419	-0.0578042
172	0xbd8e0f4f	-0.06936514
173	0xbbb22317	-0.005436312
174	0x3e011bdb	0.12608282
175	0xbe0acf65	-0.13555677
176	0x3d16f728	0.0368568
177	0xbdb11244	-0.08646062
178	0x3e080ea2	0.13286832
179	0xbd482d95	-0.048871595
180	0x3b2db854	0.0026507573
181	0x3d58acbb	0.052899104
182	0xbcc11593	-0.023569858
183	0x3c3b20cd	0.011421395
184	0xbc719781	-0.014745594
185	0xbdf65512	-0.120279446
186	0x3d9586c3	0.073010944
187	0xbd672c01	-0.05643845
188	0xbe8f8335	-0.2802979
189	0x3c86578e	0.016399171
190	0xbd099a9f	-0.033594724
191	0x3e56b219	0.20966376
192	0x3dce8fb7	0.10086005
193	0xbcc54448	-0.02408041
194	0xbd074aba	-0.03303025
195	0xbd3666dc	-0.044531688
196	0x3dfbfe09	0.12304313
197	0xbd472ecb	-0.04862861
198	0x3d97344a	0.0738302
199	0x3d1dfd59	0.03857169
200	0xbd9ea8b4	-0.07747021
201	0xbe0ba3f1	-0.13636757
202	0xbcd8dc7d	-0.026472325
203	0x3ca5c306	0.020234596
204	0x3d159f08	0.036528617
205	0xbb6056b6	-0.0034231371
206	0xbe20d2f3	-0.1570547
207	0xbd4d0e71	-0.0500626
208	0xbe1f16bc	-0.15536016
209	0xbe4d4837	-0.20047079
210	0x3dfeb031	0.124359496
211	0x3d8e401b	0.06945821
212	0xbdd0451a	-0.1016943
213	0xbd1663fe	-0.036716454
214	0x3c0f0a2f	0.008730455
215	0x3d2c5a7d	0.042078484
216	0x3d244559	0.040105198
217	0xbda9b667	-0.082867436
218	0x3df6a8b7	0.120438986
219	0xbd5a709a	-0.05333004
220	0x3d268481	0.04065371
221	0xbdc68f94	-0.09695354
222	0x3d408f94	0.047011927
223	0xbdcb69fd	-0.09932325
224	0xbd1e4cac	-0.03864734
225	0xbcd5bf7b	-0.026092282
226	0xbe183851	-0.14865233
227	0x3d282345	0.04104926
228	0x3e475fe2	0.1947017
229	0xbd855066	-0.065094754
230	0x3e010672	0.12600115
231	0xbddd3921	-0.10801912
232	0xbd17637b	-0.036960106
233	0x3e262a54	0.16227084
234	0x3d073f8d	0.03301959
235	0x3cdfc607	0.027316106
236	0xbd27fadd	-0.041010726
237	0xbd8a6497	-0.06757467
238	0xbd1e2542	-0.03860975
239	0x3da76e0b	0.08175286
240	0xbb732c4e	-0.0037105265
241	0xbda552f6	-0.08072464
242	0x3ce5ee12	0.028067622
243	0xbd8ea528	-0.06965095
244	0x3c86a5b9	0.016436445
245	0x3befdd16	0.0073200567
246	0x3d7f4eaf	0.062330898
247	0xbc0ddb9e	-0.008658318
248	0xbe1e847c	-0.15480226
249	0xbc9e9afc	-0.019361012
250	0x3d84cb6c	0.06484112
251	0xbe82c331	-0.25539544
252	0xbd6fd227	-0.058550026
253	0xbe1cccc5	-0.15312488
254	0x3dd169a0	0.102252245
255	0x3c88da2e	0.016705599

dense1.0.bn1.weight f4 [24]
0	0x3f800000	1.0
1	0x3f800000	1.0
2	0x3f800000	1.0
3	0x3f800000	1.0
4	0x3f800000	1.0
5	0x3f800000	1.0
6	0x3f800000	1.0
7	0x3f800000	1.0
8	0x3f800000	1.0
9	0x3f800000	1.0
10	0x3f800000	1.0
11	0x3f800000	1.0
12	0x3f800000	1.0
13	0x3f800000	1.0
14	0x3f800000	1.0
15	0x3f800000	1.0
16	0x3f800000	1.0
17	0x3f800000	1.0
18	0x3f800000	1.0
19	0x3f800000	1.0
20	0x3f800000	1.0
21	0x3f800000	1.0
22	0x3f800000	1.0
23	0x3f800000	1.0

dense1.0.bn1.bias f4 [24]
0	0x00000000	0.0
1	0x00000000	0.0
2	0x00000000	0.0
3	0x00000000	0.0
4	0x00000000	0.0
5	0x00000000	0.0
6	0x00000000	0.0
7	0x00000000	0.0
8	0x00000000	0.0
9	0x00000000	0.0
10	0x00000000	0.0
11	0x00000000	0.0
12	0x00000000	0.0
13	0x00000000	0.0
14	0x00000000	0.0
15	0x00000000	0.0
16	0x00000000	0.0
17	0x00000000	0.0
18	0x00000000	0.0
19	0x00000000	0.0
20	0x00000000	0.0
21	0x00000000	0.0
22	0x00000000	0.0
23	0x00000000	0.0

dense1.0.conv1.weight f4 [12, 24, 3, 3]
0	0xbd1d1e6a	-0.038359083
1	0x3ca591c7	0.020211114
2	0x3df31ac1	0.11870337
3	0x3dc75619	0.09733219
4	0x3c5aad52	0.013346987
5	0x3e6bfd0d	0.2304575
6	0x3e3a22fe	0.18177411
7	0x3d212cdc	0.03934942
8	0xbdcdcdb9	-0.10049004
9	0x3d9a1e78	0.07525343
10	0xbe5fa6ad	-0.21840926
11	0xbd31d13f	-0.043412443
12	0xbd3d288f	-0.046181258
13	0x3de4f17c	0.11178872
14	0xbe266b3f	-0.16251849
15	0x3e8cd75c	0.27508056
16	0xbd0501f9	-0.032472584
17	0xbdcdaa7f	-0.10042285
18	0x3d122676	0.03568121
19	0x3dac2ac0	0.084065914
20	0xbe10059e	-0.14064643
21	0xbd440e19	-0.047865007
22	0x3e58ad92	0.21159962
23	0xbd69da25	-0.057092804
24	0xbd7b0edc	-0.061293468
25	0xbe3aaad2	-0.18229225
26	0xbd4e45b3	-0.05035944
27	0x3dc6593a	0.09684987
28	0x3db46461	0.08808208
29	0x3c5bbf81	0.013412357
30	0xbe756386	-0.23963746
31	0xbe1d00a5	-0.15332277
32	0x3e61144b	0.21980397
33	0x3dd5290c	0.1040822
34	0xbd2ad857	-0.041710224
35	0x3df0686a	0.117386654
36	0xbd3fdffc	-0.046844468
37	0x3d5ccc99	0.053906057
38	0xbcd230b0	-0.025657982
39	0xbc02ff2d	-0.007995409
40	0xbeb1c734	-0.34722292
41	0xbd6f193f	-0.058373686
42	0xbe18b347	-0.14912139
43	0xbe8fcca1	-0.28085807
44	0xbdd33b8f	-0.10314094
45	0x3d8df8be	0.069322094
46	0x3dde0b85	0.10842041
47	0xbe6ba747	-0.2301303
48	0xbe5569c8	-0.20841134
49	0x3cceeaff	0.02525854
50	0xbd4a9419	-0.049457643
51	0xbd01fb8f	-0.031734046
52	0xbce1c113	-0.027557885
53	0x3dc92c41	0.09822894
54	0xbd7bbe5c	-0.061460838
55	0xbda72164	-0.08160666
56	0xbd21591e	-0.03939163
57	0xbd3bcf72	-0.045852132
58	0xbd9989d8	-0.07496995
59	0xbcabad85	-0.020956764
60	0x3e241a4b	0.16025655
61	0x3e29bf86	0.16576967
62	0xbe51064b	-0.20412557
63	0x3db71529	0.08939583
64	0x3e188e53	0.14898042
65	0xbc46cca7	-0.012133754
66	0x3dd9b45c	0.10630104
67	0xbe061c81	-0.13096811
68	0x3e76d885	0.24106033
69	0x3dab6826	0.08369474
70	0xbced1851	-0.028942259
71	0xbd98f293	-0.07468142
72	0xbba0a0b2	-0.004901969
73	0x3e968e2a	0.29405338
74	0x3ea981c3	0.33106813
75	0xbe7e727d	-0.24848361
76	0x3e31b6eb	0.17354934
77	0xbdbe15eb	-0.09281524
78	0xbd899961	-0.06718708
79	0xbcf3710b	-0.029716989
80	0xbdfc2670	-0.12312019
81	0xbe1109a0	-0.14163828
82	0x3eb1a27a	0.34694272
83	0xbc398d6c	-0.0113252215
84	0x3dc1ea03	0.09468462
85	0xbdc9cfb5	-0.0985407
86	0x3e10483b	0.14090054
87	0x3e87baf5	0.26509824
88	0x3db9f726	0.09080343
89	0x3d6fca98	0.058542818
90	0xbd2bdaa3	-0.041956555
91	0x3e2a3bd1	0.1662438
92	0x3caad300	0.020852566
93	0x3d4a0264	0.049318686
94	0xbd1cd4c1	-0.038288835
95	0xbe3a1b03	-0.18174367
96	0xbdd58c3e	-0.1042714
97	0x3e01559f	0.12630318
98	0x3d451ece	0.04812508
99	0xbe6f2702	-0.23354724
100	0x3cf03a8a	0.029324789
101	0x3e04e68b	0.1297857
102	0x3a9e157d	0.0012060847
103	0x3d9c86ca	0.076428965
104	0xbd8fc56f	-0.07020079
105	0x3cc1e940	0.023670793
106	0xbce04fdb	-0.027381828
107	0xbd9874fb	-0.07444187
108	0xbdf7bd09	-0.120966025
109	0x3debd8d4	0.11515966
110	0xbde83aea	-0.11339362
111	0xbc8c1494	-0.017099656
112	0xbd0a55e5	-0.03377332
113	0x3e0db2fc	0.13837808
114	0xbdab5619	-0.08366031
115	0xbd1870dc	-0.037217006
116	0xbc87283a	-0.016498674
117	0xbdf1ca68	-0.11806184
118	0x3d4a80e1	0.049439315
119	0x3e830169	0.25587013
120	0x3b3cc5ff	0.0028804538
121	0xbd5695a5	-0.052388806
122	0xbd3256f9	-0.043539975
123	0x3e20b04d	0.15692253
124	0x3e0f4764	0.13992077
125	0x3e30b7fd	0.17257686
126	0x3e11cd41	0.14238454
127	0xbcd36d26	-0.025808882
128	0x390dfe2f	0.00013541499
129	0x3ddf9f6f	0.109190814
130	0x3dc210ec	0.09475884
131	0x3e779883	0.24179272
132	0x3e705e9f	0.23473595
133	0x3cb949eb	0.022618255
134	0x3c6a2273	0.01429044
135	0x3ddb7461	0.10715557
136	0xbdca0383	-0.09863951
137	0xbdf5dc0d	-0.12004862
138	0xbdc6478c	-0.09681615
139	0xbd80e311	-0.062933095
140	0xbdaffa02	-0.08592607
141	0xbe437152	-0.19086197
142	0xbdd3d61b	-0.10343572
143	0xbd704d20	-0.058667302
144	0x3e9c7f9c	0.30566108
145	0x3e39e802	0.1815491
146	0x3dd46e3e	0.103725895
147	0xbd774960	-0.06037271
148	0xbe7cd117	-0.24689136
149	0x3e163047	0.14666854
150	0x3dd3cdc0	0.10341978
151	0xbe1d2ae5	-0.15348394
152	0x3e32eb45	0.1747256
153	0xbd70011c	-0.058594808
154	0x3da999cb	0.08281287
155	0x36eee61b	7.1197405e-06
156	0x3a2caa16	0.0006586624
157	0x3e13128d	0.14362545
158	0x3e5466b5	0.20742305
159	0xbdf93230	-0.12167776
160	0xbdb02b9e	-0.08602069
161	0xbe5a9706	-0.21346673
162	0x3cc6e910	0.024281055
163	0xbc9a147e	-0.0188086
164	0x3d0b1afb	0.033961277
165	0xbde858da	-0.11345072
166	0x3e0adfab	0.13561885
167	0xba850969	-0.0010149899
168	0x3e4a84d2	0.1977723
169	0xba53c065	-0.000807768
170	0xbdc0381f	-0.09385704
171	0x3d91e180	0.07123089
172	0x3da1f435	0.07907907
173	0x3e857ce8	0.26071858
174	0xbe27bd28	-0.16380751
175	0xbe2106a8	-0.15725195
176	0xbccc9069	-0.024971204
177	0xbd7085a6	-0.058721207
178	0x3dd00125	0.10156468
179	0x3eb2d454	0.34927619
180	0xbc97aada	-0.018514086
181	0x3ccf9313	0.025338685
182	0x3d95e335	0.07318727
183	0x3ca628a6	0.020283055
184	0xbdbe8e9b	-0.093045436
185	0x3e4a4b27	0.19755231
186	0x3db885e5	0.09009913
187	0xbde97833	-0.11399879
188	0xbd27252b	-0.04080693
189	0x3e334e22	0.17510274
190	0xbd215251	-0.039385144
191	0x3e04e406	0.12977609
192	0xbd3cc520	-0.04608643
193	0xbe01410a	-0.12622467
194	0x3d7ac7e7	0.061225798
195	0x3eb30140	0.3496189
196	0x3d75cace	0.060007863
197	0x3e1c819e	0.1528382
198	0x3d590803	0.052986156
199	0x3c838246	0.01605333
200	0xbe0e4a2e	-0.13895485
201	0x3d75ee18	0.060041517
202	0xbe844a73	-0.2583805
203	0x3e361b15	0.17783768
204	0xbdcbc36c	-0.09949383
205	0xbe5e817d	-0.21729083
206	0x3d57a714	0.052649572
207	0xbdd662d3	-0.10468068
208	0xbc1d6ca3	-0.009608421
209	0x3e3283a9	0.17433037
210	0xbdbf1a0b	-0.09331139
211	0x3dbae72d	0.091261245
212	0x3d9584e0	0.073007345
213	0xbd5b8d07	-0.05360129
214	0x3e890159	0.2675884
215	0x3d1a3b97	0.037654486
216	0xbd58ce91	-0.052931372
217	0xbe78e38e	-0.24305555
218	0xbd2bcebc	-0.041945204
219	0x3e304d67	0.17217027
220	0x3d27a91c	0.04093276
221	0x3dda3b8b	0.10655888
222	0x3d21180e	0.03932958
223	0x3e675348	0.22590363
224	0x3d94b8c1	0.072618015
225	0xbdc2306a	-0.094818905
226	0xbe4b22a3	-0.19837432
227	0x3e09c3c0	0.13453579
228	0xbcf30243	-0.029664164
229	0x3dcc1f1f	0.099668734
230	0xbd575348	-0.052569658
231	0x3c0ae0f2	0.008476483
232	0x3e7b4f98	0.24542081
233	0x3dd6887b	0.1047525
234	0xbdb6ee53	-0.089321755
235	0xbdcb383f	-0.099228375
236	0x3e0a15dc	0.13484901
237	0x35af58ae	1.3064325e-06
238	0x3cccfb72	0.025022242
239	0x3e0296d5	0.1275285
240	0xbd85a401	-0.06525422
241	0xbe0eda42	-0.13950446
242	0xbad28d0c	-0.0016063764
243	0xbe2b74d2	-0.16743782
244	0xbc8d2158	-0.017227814
245	0xbe9f404f	-0.3110375
246	0xbe84d5fd	-0.2594451
247	0xbde0d087	-0.109772734
248	0x3d8180bd	0.06323383
249	0xbd7c2342	-0.061557062
250	0x3d500d4b	0.050793927
251	0xbdfccd9e	-0.12343906
252	0x3e3d0f59	0.18462886
253	0x3daf94aa	0.08573277
254	0x3dfba218	0.12286776
255	0xbe6fef62	-0.23431161

dense1.1.bn1.weight f4 [36]
0	0x3f800000	1.0
1	0x3f800000	1.0
2	0x3f800000	1.0
3	0x3f800000	1.0
4	0x3f800000	1.0
5	0x3f800000	1.0
6	0x3f800000	1.0
7	0x3f800000	1.0
8	0x3f800000	1.0
9	0x3f800000	1.0
10	0x3f800000	1.0
11	0x3f800000	1.0
12	0x3f800000	1.0
13	0x3f800000	1.0
14	0x3f800000	1.0
15	0x3f800000	1.0
16	0x3f800000	1.0
17	0x3f800000	1.0
18	0x3f800000	1.0
19	0x3f800000	1.0
20	0x3f800000	1.0
21	0x3f800000	1.0
22	0x3f800000	1.0
23	0x3f800000	1.0
24	0x3f800000	1.0
25	0x3f800000	1.0
26	0x3f800000	1.0
27	0x3f800000	1.0
28	0x3f800000	1.0
29	0x3f800000	1.0
30	0x3f800000	1.0
31	0x3f800000	1.0
32	0x3f800000	1.0
33	0x3f800000	1.0
34	0x3f800000	1.0
35	0x3f800000	1.0

dense1.1.bn1.bias f4 [36]
0	0x00000000	0.0
1	0x00000000	0.0
2	0x00000000	0.0
3	0x00000000	0.0
4	0x00000000	0.0
5	0x00000000	0.0
6	0x00000000	0.0
7	0x00000000	0.0
8	0x00000000	0.0
9	0x00000000	0.0
10	0x00000000	0.0
11	0x00000000	0.0
12	0x00000000	0.0
13	0x00000000	0.0
14	0x00000000	0.0
15	0x00000000	0.0
16	0x00000000	0.0
17	0x00000000	0.0
18	0x00000000	0.0
19	0x00000000	0.0
20	0x00000000	0.0
21	0x00000000	0.0
22	0x00000000	0.0
23	0x00000000	0.0
24	0x00000000	0.0
25	0x00000000	0.0
26	0x00000000	0.0
27	0x00000000	0.0
28	0x00000000	0.0
29	0x00000000	0.0
30	0x00000000	0.0
31	0x00000000	0.0
32	0x00000000	0.0
33	0x00000000	0.0
34	0x00000000	0.0
35	0x00000000	0.0

dense1.1.conv1.weight f4 [12, 36, 3, 3]
0	0xbd07a5f2	-0.033117242
1	0xbe736a8c	-0.23771113
2	0xbd9815a3	-0.07426002
3	0xbded48cd	-0.11586151
4	0xbd2e077d	-0.04248761
5	0xbd89484e	-0.06703244
6	0x3d829cd2	0.06377567
7	0xbdfcbb33	-0.12340393
8	0xbe74aa66	-0.23893127
9	0xbe1b93b7	-0.15193067
10	0x3d69d324	0.057086125
11	0xbe0ccc9b	-0.13749926
12	0x3de994ce	0.11405335
13	0xbdce6d5e	-0.10079454
14	0xbd4aa702	-0.049475677
15	0x3dd73291	0.10507692
16	0x3d98bb49	0.07457597
17	0x3e228634	0.15871507
18	0xbe1eab78	-0.15495098
19	0xbe0b8bd8	-0.13627565
20	0x3d7d04c7	0.061772134
21	0xbe083b62	-0.13303903
22	0x3e22ad74	0.1588648
23	0xbe774019	-0.24145545
24	0xbce5bc64	-0.028043933
25	0x3df87773	0.12132158
26	0x3e9b8d19	0.30381086
27	0x3d15faff	0.03661632
28	0xbdbb178a	-0.09135349
29	0x3db81628	0.08988601
30	0xbe39ee8c	-0.18157405
31	0xbdd28499	-0.10279197
32	0x3cd5eea5	0.026114771
33	0x3c9afea7	0.018920256
34	0x3d892ef7	0.06698411
35	0xbd187a80	-0.0372262
36	0xbd3896b6	-0.045065604
37	0x3ce047ed	0.027378047
38	0x3d87d97a	0.06633277
39	0x3e70cf37	0.23516546
40	0xbda135e6	-0.078716084
41	0xbda92f48	-0.08260971
42	0x3dd95a52	0.1061293
43	0xbd424c94	-0.04743631
44	0xb9598f55	-0.00020748128
45	0x3e1a4178	0.15064037
46	0xbb94d743	-0.0045422628
47	0xbdb4ff3a	-0.08837743
48	0xbdf6fcc6	-0.120599315
49	0xbe259265	-0.16169126
50	0xbc2445f6	-0.010026446
51	0x3e179eeb	0.14806716
52	0xbc8034e1	-0.015650215
53	0xbceb1a39	-0.028699027
54	0x3e16d7f5	0.14730819
55	0xbd5ffdd3	-0.054685425
56	0x3da5d3cb	0.08097037
57	0x3e089700	0.13338852
58	0x3b970412	0.0046086395
59	0xbd866828	-0.06562835
60	0x3d965c87	0.07341867
61	0xbe9349cb	-0.28767237
62	0xbd0bfa99	-0.034174535
63	0xbd9eb849	-0.07749993
64	0xbe3c6302	-0.18397143
65	0xbb796f85	-0.0038060856
66	0xbdb0a9a1	-0.08626104
67	0x3d0053d6	0.031329952
68	0x3bb47108	0.0055066384
69	0xbd24924d	-0.040178586
70	0x3cee544f	0.029092936
71	0x3d0f125a	0.03492961
72	0xbd5c27c1	-0.05374885
73	0x3e20089c	0.15628284
74	0xbd0f8f28	-0.035048634
75	0xbe3a1bcd	-0.18174668
76	0x3da8dbac	0.08245024
77	0x3dd30afa	0.10304828
78	0xbd05ba11	-0.03264815
79	0x3ca5245e	0.020158943
80	0xbdf06d99	-0.11739654
81	0x3da8d7e0	0.082443
82	0xbd54e96e	-0.05198043
83	0xbe786637	-0.24257742
84	0x3cbceccb	0.02306213
85	0xbeda5285	-0.42641082
86	0xbcede561	-0.02904004
87	0x3d9c765c	0.07639763
88	0xbe382cd0	-0.17985845
89	0xbdb9c49f	-0.090707056
90	0xbdd8546c	-0.10562977
91	0xbd9a2411	-0.0752641
92	0xbe354522	-0.17702153
93	0x3d9aa3b3	0.075507544
94	0xbe4b5034	-0.19854814
95	0x3d06e799	0.032935712
96	0xbe451b92	-0.19248798
97	0xbe413390	-0.18867326
98	0xbd4b6d15	-0.049664576
99	0xbcf3c434	-0.029756643
100	0x3e5d1349	0.21589388
101	0xbe2a25d4	-0.16615993
102	0xbdf5e55b	-0.12006637
103	0x3c78699e	0.0151619
104	0x3e1620e6	0.14660987
105	0x3dc3cb48	0.09560257
106	0x3e34bc6f	0.17650007
107	0xbe0230d8	-0.12713945
108	0x3d8b453e	0.06800316
109	0xbdb2ffb5	-0.087401785
110	0xbe05e20e	-0.13074514
111	0xbdc7062f	-0.09717976
112	0x3e44304e	0.19159052
113	0x3c6916a8	0.014226593
114	0xbe94c14c	-0.29053724
115	0x3de31d19	0.11089534
116	0x3e313cbf	0.17308329
117	0x3e2225df	0.15834759
118	0xbd8c1f4c	-0.06841907
119	0xbd65cf2f	-0.05610579
120	0x3c34edff	0.011043071
121	0xbebc15f6	-0.36735505
122	0xbe14d9c2	-0.14536193
123	0xbd43301f	-0.047653314
124	0xbd17060e	-0.03687101
125	0x3c86a705	0.016437063
126	0x3e1cfcc7	0.15330802
127	0x3e314d25	0.17314585
128	0x3ddc1042	0.107452884
129	0x3e1ad07a	0.1511859
130	0xbe4140f8	-0.1887244
131	0x3dd6fd86	0.104975745
132	0x3d036654	0.03208001
133	0x3d1bc620	0.038030744
134	0x3dd35f6e	0.10320936
135	0x3d27adb6	0.040937148
136	0x3dfa7a3c	0.122303456
137	0x3db1d48f	0.086831205
138	0x3e39644b	0.18104665
139	0x3e6a92d0	0.22907567
140	0xbdd6bddf	-0.10485434
141	0x3b67a57c	0.003534644
142	0xbdb494a9	-0.08817417
143	0x3e6e9394	0.23298484
144	0x3e27ee0f	0.16399406
145	0x3e633478	0.22187984
146	0x3d4ede8b	0.050505202
147	0x3d80d814	0.06291214
148	0x3d1d455d	0.038396228
149	0x3e830068	0.25586247
150	0x3df39dab	0.11895307
151	0x3e32c0af	0.17456315
152	0x3e802f26	0.2503597
153	0xbe70b4a2	-0.23506406
154	0xbe0ccba5	-0.13749559
155	0x3dd7899c	0.10524294
156	0xbcaaa23c	-0.020829313
157	0xbd00a0cd	-0.03140335
158	0x3e63e457	0.22255073
159	0xbdbb1c56	-0.09136264
160	0xbd460fe8	-0.048355013
161	0x3c4b267d	0.012399313
162	0xbd1953ae	-0.03743332
163	0xbd6c93c4	-0.057758108
164	0x3dadf2b5	0.08493558
165	0xbb49f84b	-0.003081816
166	0xbe7c96f9	-0.24666966
167	0xbe35b162	-0.17743447
168	0xbe8a5318	-0.2701652
169	0x3ea40693	0.32036266
170	0xbe0a8771	-0.1352823
171	0xbcfdb676	-0.030970793
172	0x3da18055	0.078858055
173	0xbe31e248	-0.17371476
174	0x3da5b373	0.08090868
175	0xbdf39b4d	-0.11894856
176	0xbd848a75	-0.06471721
177	0x3e1bd29d	0.15217061
178	0x3e8707f6	0.2637326
179	0xbe0cbaad	-0.13743086
180	0x3ddd4ac9	0.1080528
181	0xbdd3b970	-0.10338104
182	0xbd9859e9	-0.07439024
183	0x3c000d7b	0.007815714
184	0xbbab71d3	-0.0052320748
185	0xbe487660	-0.19576406
186	0x3d43f561	0.047841433
187	0x3be3a619	0.0069472906
188	0xbca5d50d	-0.020243192
189	0xbe5fbb04	-0.21848685
190	0xbd535131	-0.051591102
191	0xbe12f0d0	-0.14349675
192	0x3dd061d8	0.10174912
193	0x3d704461	0.05865896
194	0x3e98ff37	0.29882213
195	0x3ae2f57f	0.0017315595
196	0xbd426d79	-0.047467683
197	0xbde9a7ea	-0.1140898
198	0xbe087dbf	-0.13329218
199	0x3ea0419c	0.31300056
200	0x3dcd2ce4	0.10018328
201	0x3d945103	0.07242014
202	0x3e715a00	0.23569489
203	0x3d9d3101	0.076753624
204	0xbd966418	-0.0734331
205	0x3e120339	0.14259042
206	0x3e1a757e	0.15083882
207	0xbe95e188	-0.2927363
208	0x3e0e414c	0.13892096
209	0x3e11f4cb	0.14253537
210	0x3dc1e1fc	0.09466931
211	0xbe409686	-0.1880742
212	0xbe3fca35	-0.1872948
213	0xbde44818	-0.11146563
214	0x3e0b3297	0.13593517
215	0x3d990de9	0.07473356
216	0xbdabd94e	-0.08391057
217	0x3d98e614	0.07465759
218	0x3e19189e	0.14950797
219	0xbe708cf6	-0.23491272
220	0x3e01322b	0.12616794
221	0xbd3c440b	-0.04596333
222	0x3b332645	0.0027336043
223	0xbe67129f	-0.22565697
224	0xbdbb25da	-0.09138079
225	0x3e3f584d	0.18686028
226	0x3bb832e4	0.005621301
227	0xbdbc8b3d	-0.09206245
228	0xbe22d660	-0.1590209
229	0xbd9155e2	-0.07096459
230	0xbe81116b	-0.252086
231	0xbda03f11	-0.07824529
232	0x3e5c536a	0.21516195
233	0x3e2f85ac	0.17140836
234	0xbe1641aa	-0.14673486
235	0xbd8e7058	-0.069550216
236	0xbe1ff408	-0.15620434
237	0x3e34f7bf	0.17672633
238	0x3dd294ae	0.10282265
239	0x3ba7ee11	0.0051248153
240	0xbd46bb4b	-0.04851846
241	0xbba90b33	-0.0051588058
242	0x3e2ec571	0.17067505
243	0xbe7ccf0e	-0.2468836
244	0xbd416cc6	-0.047222875
245	0x3d30bfe7	0.043151762
246	0xbd98d982	-0.07463361
247	0xbdf926c4	-0.12165597
248	0xbd1036f2	-0.03520865
249	0x3dde2bda	0.10848208
250	0xbde5752a	-0.11203988
251	0x3ea15645	0.3151113
252	0x39b2c967	0.00034100862
253	0xbe3b3d32	-0.18285063
254	0xbc932a1b	-0.017964413
255	0x3d9be017	0.07611101

trans1.bn1.weight f4 [48]
0	0x3f800000	1.0
1	0x3f800000	1.0
2	0x3f800000	1.0
3	0x3f800000	1.0
4	0x3f800000	1.0
5	0x3f800000	1.0
6	0x3f800000	1.0
7	0x3f800000	1.0
8	0x3f800000	1.0
9	0x3f800000	1.0
10	0x3f800000	1.0
11	0x3f800000	1.0
12	0x3f800000	1.0
13	0x3f800000	1.0
14	0x3f800000	1.0
15	0x3f800000	1.0
16	0x3f800000	1.0
17	0x3f800000	1.0
18	0x3f800000	1.0
19	0x3f800000	1.0
20	0x3f800000	1.0
21	0x3f800000	1.0
22	0x3f800000	1.0
23	0x3f800000	1.0
24	0x3f800000	1.0
25	0x3f800000	1.0
26	0x3f800000	1.0
27	0x3f800000	1.0
28	0x3f800000	1.0
29	0x3f800000	1.0
30	0x3f800000	1.0
31	0x3f800000	1.0
32	0x3f800000	1.0
33	0x3f800000	1.0
34	0x3f800000	1.0
35	0x3f800000	1.0
36	0x3f800000	1.0
37	0x3f800000	1.0
38	0x3f800000	1.0
39	0x3f800000	1.0
40	0x3f800000	1.0
41	0x3f800000	1.0
42	0x3f800000	1.0
43	0x3f800000	1.0
44	0x3f800000	1.0
45	0x3f800000	1.0
46	0x3f800000	1.0
47	0x3f800000	1.0

trans1.bn1.bias f4 [48]
0	0x00000000	0.0
1	0x00000000	0.0
2	0x00000000	0.0
3	0x00000000	0.0
4	0x00000000	0.0
5	0x00000000	0.0
6	0x00000000	0.0
7	0x00000000	0.0
8	0x00000000	0.0
9	0x00000000	0.0
10	0x00000000	0.0
11	0x00000000	0.0
12	0x00000000	0.0
13	0x00000000	0.0
14	0x00000000	0.0
15	0x00000000	0.0
16	0x00000000	0.0
17	0x00000000	0.0
18	0x00000000	0.0
19	0x00000000	0.0
20	0x00000000	0.0
21	0x00000000	0.0
22	0x00000000	0.0
23	0x00000000	0.0
24	0x00000000	0.0
25	0x00000000	0.0
26	0x00000000	0.0
27	0x00000000	0.0
28	0x00000000	0.0
29	0x00000000	0.0
30	0x00000000	0.0
31	0x00000000	0.0
32	0x00000000	0.0
33	0x00000000	0.0
34	0x00000000	0.0
35	0x00000000	0.0
36	0x00000000	0.0
37	0x00000000	0.0
38	0x00000000	0.0
39	0x00000000	0.0
40	0x00000000	0.0
41	0x00000000	0.0
42	0x00000000	0.0
43	0x00000000	0.0
44	0x00000000	0.0
45	0x00000000	0.0
46	0x00000000	0.0
47	0x00000000	0.0

trans1.conv1.weight f4 [48, 48, 1, 1]
0	0x3d09b0e8	0.033615977
1	0x3eb02428	0.34402585
2	0xbe8b199e	-0.27167982
3	0xbd5e016f	-0.054200586
4	0xbe925950	-0.28583765
5	0x3d866f67	0.06564217
6	0x3e2722fd	0.1632194
7	0xbe27ae22	-0.1637502
8	0x3ea83fae	0.32861084
9	0xbe460944	-0.19339472
10	0x3e01ea38	0.12687004
11	0x3da04719	0.07826061
12	0xbe1b07a9	-0.15139641
13	0xbc25726f	-0.010098084
14	0xbdd3f80a	-0.10350044
15	0x3e68a758	0.22720087
16	0xbee0431c	-0.438012
17	0x3cef90a0	0.029243767
18	0x3e0adc6a	0.13560644
19	0xbeedbf49	-0.46435001
20	0xbd4ba145	-0.049714345
21	0x3c9e4411	0.019319566
22	0x3e8134f0	0.252357
23	0x3e8f2c6b	0.27963576
24	0xbe80feee	-0.25194496
25	0xbdb8e8c3	-0.09028771
26	0x3e37cca8	0.17949164
27	0xbd5343ef	-0.05157846
28	0xbd40a53e	-0.047032587
29	0xbe657aad	-0.22410078
30	0xbdd63e04	-0.10461047
31	0xbe739337	-0.23786627
32	0x3d62b54e	0.055348687
33	0x3d6ab163	0.057298075
34	0x3df3a728	0.11897117
35	0xbe0b346e	-0.13594219
36	0xbdc89df6	-0.09795754
37	0x3ea12794	0.31475508
38	0x3e14969a	0.14510575
39	0xbda64c74	-0.08120051
40	0xbcb8e761	-0.022571268
41	0x3d1f9ab1	0.038965885
42	0x3e502b17	0.20328937
43	0x3dfffce1	0.12499405
44	0xbeb87f51	-0.36034635
45	0xbc87590c	-0.016521953
46	0xbd74c8a7	-0.05976167
47	0xbef1c80b	-0.47222933
48	0x3e78932d	0.24274893
49	0xbd23aee7	-0.03996172
50	0x3deacb30	0.11464536
51	0xbe5a1dbe	-0.21300408
52	0x3e14d9bc	0.14536184
53	0xbe422b34	-0.18961793
54	0xbdb594ff	-0.088663094
55	0x3e95afb3	0.2923561
56	0xbcf02d09	-0.02931835
57	0xbddbb295	-0.10727421
58	0xbe1abcc8	-0.15111077
59	0xbe986d69	-0.29770973
60	0xbde4eab4	-0.111775786
61	0x3b6e518f	0.003636453
62	0x3cc0faa7	0.02355702
63	0x3e1c57e7	0.15267907
64	0xbe0c0109	-0.1367227
65	0xbe2719bc	-0.1631841
66	0x3ef79a63	0.48359975
67	0xbebd8fd4	-0.37023795
68	0xbe3d0a64	-0.18460995
69	0xbaab694d	-0.0013077647
70	0xbe09810d	-0.13428135
71	0xbe462eca	-0.19353786
72	0x3e58bfb3	0.21166877
73	0xbe5074cb	-0.20357053
74	0xbc80e7bc	-0.0157355
75	0x3da4bde1	0.08044029
76	0x3ece22fd	0.4026107
77	0xbd9b4ffe	-0.07583617
78	0xbe22a6f0	-0.15883994
79	0x3e4b6608	0.1986314
80	0xbe319f65	-0.1734596
81	0xbe3378a6	-0.17526492
82	0xbe56de43	-0.20983224
83	0x3e38c640	0.18044376
84	0x3d291dea	0.041288294
85	0xbdc37562	-0.09543873
86	0xbb24730b	-0.0025092985
87	0x3f0b2fb2	0.5436965
88	0xbee7e0d6	-0.45288724
89	0xbe04a4df	-0.12953518
90	0xbd9c41c2	-0.0762973
91	0x3d9f5efb	0.07781788
92	0xbcb5fcfd	-0.02221536
93	0x3e6f860c	0.23390979
94	0xbea62ba9	-0.32455185
95	0xbe263c94	-0.16234046
96	0xbe34971a	-0.17635766
97	0x3b9b3963	0.0047370656
98	0x3e01d4da	0.12678853
99	0xbe22fc38	-0.15916526
100	0x3de6ab1d	0.11263106
101	0x3d98c614	0.074596554
102	0x3deacdff	0.11465072
103	0xbda6b8dc	-0.08140728
104	0xbde53c37	-0.11193126
105	0x3e78abb7	0.24284254
106	0x3c01b36a	0.007916311
107	0x3e9bf557	0.30460617
108	0xbd0ed563	-0.03487147
109	0xbd95a62e	-0.07307087
110	0x3d83501a	0.064117625
111	0x3e086313	0.13319044
112	0xbe0d251f	-0.13783692
113	0xbda9f5a2	-0.08298804
114	0xbe042916	-0.12906298
115	0xbec4a295	-0.3840529
116	0x3d49660a	0.049169578
117	0xbe3eefd2	-0.18646172
118	0xbdaae2cf	-0.083440416
119	0xbb8f5fb3	-0.004375422
120	0xbda0c300	-0.07849693
121	0x3de7567a	0.11295791
122	0xbdb65623	-0.08903148
123	0x3e826148	0.25464845
124	0x3e63dc68	0.22252047
125	0x3d438d38	0.0477421
126	0x3f0be3d2	0.546445
127	0x3e4242d3	0.18970804
128	0x3d8d5133	0.06900253
129	0xbe6c2e28	-0.23064482
130	0x3e646893	0.22305517
131	0xbd2b59ad	-0.04183357
132	0x3eb2a24f	0.34889457
133	0x3ec4f2d1	0.38466504
134	0x3e8b95c3	0.27262697
135	0xbe0aa31d	-0.13538785
136	0xbd9ec138	-0.07751697
137	0xbdceeada	-0.10103388
138	0xbe5a98f1	-0.21347405
139	0xbe24650a	-0.16054168
140	0xbea182c3	-0.31545076
141	0x3e0dacd0	0.13835454
142	0xbe7cbc50	-0.2468121
143	0xbebabf8b	-0.3647426
144	0x3d27094d	0.040780354
145	0xbed26d28	-0.41098905
146	0xbdb56871	-0.08857811
147	0xbe0a3dfd	-0.13500209
148	0x3da2b6a3	0.079449914
149	0x3d338c16	0.04383477
150	0x3d548dc7	0.051893022
151	0x3e4edc4f	0.20201229
152	0xbecd227d	-0.40065375
153	0x3d3b9685	0.045797843
154	0xbdd2590c	-0.102708906
155	0xbe961180	-0.29310226
156	0x3e83c506	0.25736254
157	0xbe8a2706	-0.26982898
158	0x3d975b7e	0.073904976
159	0x3eac50b9	0.33655336
160	0xbc480d24	-0.012210164
161	0xbeccd498	-0.40005946
162	0xbeb73b9b	-0.35787663
163	0x3e07fd15	0.13280137
164	0xbd8b8f6b	-0.06814464
165	0x3dee9778	0.11649984
166	0xbe05281d	-0.13003583
167	0xbd5c501f	-0.053787347
168	0x3e54197f	0.20712851
169	0xbeecbb86	-0.4623682
170	0xbdede62a	-0.11616166
171	0x3da99fdf	0.08282446
172	0xbe86d95e	-0.26337713
173	0xbdc737ea	-0.09727462
174	0x3e0abeb3	0.13549308
175	0xbe279c76	-0.16368279
176	0x3dd4515b	0.1036708
177	0x3bc18f3a	0.0059069665
178	0xbe321657	-0.17391334
179	0x3cbdf7b1	0.023189398
180	0x3dc12891	0.094315656
181	0xbd257bab	-0.040401142
182	0xbe0d7a63	-0.13816218
183	0x3cc32aa3	0.023824042
184	0xbe7d6f34	-0.24749452
185	0xbcf708da	-0.030155588
186	0xbecbaf27	-0.39782068
187	0x3dd1e4a4	0.10248688
188	0xbeaae7c3	-0.33379945
189	0xbe19f151	-0.15033461
190	0xbe05a45f	-0.13050984
191	0x3d9d76e4	0.07688692
192	0x3e2dee19	0.16985358
193	0x3e225325	0.1585203
194	0x3dd7575a	0.10514708
195	0xbe06939d	-0.13142247
196	0xbdbd6c81	-0.09249211
197	0xbf0a1b1f	-0.53947634
198	0xbe38146e	-0.17976543
199	0xbe1ea95a	-0.1549429
200	0xbdd3875d	-0.10328553
201	0xbe5830a2	-0.21112302
202	0x3e0f59f0	0.13999152
203	0xbeba5cc2	-0.36398894
204	0x3ca83af7	0.02053593
205	0xbe9d14d9	-0.30679968
206	0x3e390a78	0.180704
207	0x3e430084	0.19043165
208	0xbf01104d	-0.504155
209	0x3d6f6606	0.058446907
210	0x3cb54abb	0.02213036
211	0x3e3c3845	0.1838084
212	0xbdc2882a	-0.094986275
213	0xbe0d4979	-0.13797559
214	0x3e10fc29	0.14158691
215	0xbe366129	-0.17810501
216	0xbe259822	-0.16171315
217	0xbd950090	-0.07275498
218	0xbef012b5	-0.46889272
219	0xbe15ac74	-0.14616567
220	0xbe896d8f	-0.268414
221	0x3e1309dc	0.1435923
222	0x3d6dbd83	0.05804206
223	0xbeb42c7d	-0.35190192
224	0xbdb04db2	-0.08608569
225	0xbefde16b	-0.49586043
226	0xbe2299c5	-0.15878971
227	0xbd6b4c1d	-0.057445634
228	0xbe0b75e8	-0.13619196
229	0x3e457e49	0.19286455
230	0xbe8787f6	-0.26470917
231	0x3e2b5461	0.16731407
232	0x3e0a5490	0.1350882
233	0xbee73763	-0.45159444
234	0x3df57307	0.1198483
235	0xbdaff2b3	-0.08591213
236	0xbf16ded2	-0.58933747
237	0xbe4eb99a	-0.20187989
238	0x3e389da1	0.1802888
239	0xbe4985af	-0.19679902
240	0x3c1ff8e4	0.00976393
241	0xbd2003a2	-0.039065965
242	0x3e7f6e6f	0.24944471
243	0xbcf2d266	-0.029641341
244	0xbe019fff	-0.1265869
245	0xbc431b0e	-0.011908306
246	0xbe8ba44d	-0.2727379
247	0x3e663365	0.22480543
248	0x3e5cd8ba	0.2156705
249	0xbdf6c884	-0.12049964
250	0x3e4e1d5a	0.20128384
251	0xbda9a526	-0.08283453
252	0x3dab5b6c	0.08367047
253	0x3e4efcec	0.2021367
254	0xbeb1eaac	-0.34749353
255	0xbec5bef5	-0.3862225

dense2.0.bn1.weight f4 [48]
0	0x3f800000	1.0
1	0x3f800000	1.0
2	0x3f800000	1.0
3	0x3f800000	1.0
4	0x3f800000	1.0
5	0x3f800000	1.0
6	0x3f800000	1.0
7	0x3f800000	1.0
8	0x3f800000	1.0
9	0x3f800000	1.0
10	0x3f800000	1.0
11	0x3f800000	1.0
12	0x3f800000	1.0
13	0x3f800000	1.0
14	0x3f800000	1.0
15	0x3f800000	1.0
16	0x3f800000	1.0
17	0x3f800000	1.0
18	0x3f800000	1.0
19	0x3f800000	1.0
20	0x3f800000	1.0
21	0x3f800000	1.0
22	0x3f800000	1.0
23	0x3f800000	1.0
24	0x3f800000	1.0
25	0x3f800000	1.0
26	0x3f800000	1.0
27	0x3f800000	1.0
28	0x3f800000	1.0
29	0x3f800000	1.0
30	0x3f800000	1.0
31	0x3f800000	1.0
32	0x3f800000	1.0
33	0x3f800000	1.0
34	0x3f800000	1.0
35	0x3f800000	1.0
36	0x3f800000	1.0
37	0x3f800000	1.0
38	0x3f800000	1.0
39	0x3f800000	1.0
40	0x3f800000	1.0
41	0x3f800000	1.0
42	0x3f800000	1.0
43	0x3f800000	1.0
44	0x3f800000	1.0
45	0x3f800000	1.0
46	0x3f800000	1.0
47	0x3f800000	1.0

dense2.0.bn1.bias f4 [48]
0	0x00000000	0.0
1	0x00000000	0.0
2	0x00000000	0.0
3	0x00000000	0.0
4	0x00000000	0.0
5	0x00000000	0.0
6	0x00000000	0.0
7	0x00000000	0.0
8	0x00000000	0.0
9	0x00000000	0.0
10	0x00000000	0.0
11	0x00000000	0.0
12	0x00000000	0.0
13	0x00000000	0.0
14	0x00000000	0.0
15	0x00000000	0.0
16	0x00000000	0.0
17	0x00000000	0.0
18	0x00000000	0.0
19	0x00000000	0.0
20	0x00000000	0.0
21	0x00000000	0.0
22	0x00000000	0.0
23	0x00000000	0.0
24	0x00000000	0.0
25	0x00000000	0.0
26	0x00000000	0.0
27	0x00000000	0.0
28	0x00000000	0.0
29	0x00000000	0.0
30	0x00000000	0.0
31	0x00000000	0.0
32	0x00000000	0.0
33	0x00000000	0.0
34	0x00000000	0.0
35	0x00000000	0.0
36	0x00000000	0.0
37	0x00000000	0.0
38	0x00000000	0.0
39	0x00000000	0.0
40	0x00000000	0.0
41	0x00000000	0.0
42	0x00000000	0.0
43	0x00000000	0.0
44	0x00000000	0.0
45	0x00000000	0.0
46	0x00000000	0.0
47	0x00000000	0.0

dense2.0.conv1.weight f4 [12, 48, 3, 3]
0	0x3e84092f	0.25788257
1	0x3e1d6856	0.15371832
2	0xbeb05c67	-0.34445497
3	0x3dc56d5b	0.096399985
4	0xbe0b8c2f	-0.13627695
5	0x3d793f94	0.06085165
6	0x3b28dbe9	0.0025765842
7	0x3e084a11	0.13309504
8	0xbc84f018	-0.016227767
9	0xbbfeec43	-0.0077796294
10	0x3e37224c	0.17884177
11	0x3e5544dc	0.20827049
12	0xbe2bcca3	-0.16777281
13	0xbbd0ae92	-0.0063684667
14	0xbe0042b2	-0.12525442
15	0x3e6ced23	0.23137335
16	0x3e112898	0.14175642
17	0x3e580b8b	0.21098153
18	0xbe054105	-0.13013084
19	0x3d9d048b	0.07666882
20	0x3dd9c53a	0.10633321
21	0xbdbe4eb8	-0.09292358
22	0xbd24ff06	-0.04028227
23	0x3d720cd9	0.059094284
24	0xbdb39f7c	-0.087706536
25	0xbe1fa41d	-0.15589948
26	0x3d870a9d	0.06593821
27	0xbde183f7	-0.110114984
28	0x3ce38432	0.027772997
29	0xbe959764	-0.29217064
30	0xbe3921b6	-0.18079266
31	0x3d6f56b5	0.0584323
32	0x3e6a4887	0.2287923
33	0xbd0d271d	-0.03446113
34	0x3e3a7f84	0.18212706
35	0xbdd994b7	-0.10624068
36	0xbd2b8c6c	-0.041881964
37	0xbd786dcc	-0.060651585
38	0xbe071e06	-0.13195047
39	0x3e4d38e1	0.20041229
40	0x3e02b922	0.12765935
41	0xbc40999a	-0.0117553715
42	0x3e0ad0d4	0.13556224
43	0xbd8803da	-0.066413596
44	0xbe0e8642	-0.13918403
45	0xbe18c98d	-0.14920636
46	0xbc936e4b	-0.017996928
47	0xbe750086	-0.23925981
48	0x3cd2838a	0.025697488
49	0xbe470f88	-0.19439518
50	0xbe1a1dc0	-0.15050411
51	0x3d009a9b	0.031397443
52	0xbd021b3b	-0.03176425
53	0x3e04d1f9	0.12970723
54	0xbcd85db4	-0.026411869
55	0x3da80172	0.08203401
56	0x3eab8e71	0.33507112
57	0xbdd12553	-0.10212197
58	0x3dff95e3	0.124797605
59	0xbe8c2b85	-0.27376953
60	0xbd39bde9	-0.045347128
61	0xbaaaf2e5	-0.0013042359
62	0x3e81ee54	0.25377142
63	0xbe7212e5	-0.2364002
64	0xbc579901	-0.013159038
65	0x3d23565a	0.039877273
66	0x3e013e56	0.12621436
67	0x3c2da765	0.010598992
68	0x3e0587b5	0.1304005
69	0x3dc01b8f	0.093802564
70	0xbd140621	-0.036138657
71	0x3e12034f	0.14259075
72	0xbdd82ebb	-0.10555788
73	0x3e47fdc6	0.195304
74	0xbdb73c58	-0.089470565
75	0x3e374577	0.17897592
76	0xbe023f96	-0.12719569
77	0x3d572823	0.05252851
78	0xbd85a774	-0.0652608
79	0x3e2cd8d7	0.16879593
80	0xbdceebff	-0.101036064
81	0xbdd2ef8c	-0.10299596
82	0x3e49de49	0.19713701
83	0x3d92d0ef	0.07168757
84	0xbd97fdc6	-0.0742145
85	0xbd63d36e	-0.055621557
86	0xbe18439c	-0.14869541
87	0xbca8626e	-0.020554747
88	0x3c9575ee	0.01824471
89	0xbc2d3384	-0.010571364
90	0x3bd1e3a6	0.0064053116
91	0x3e2db6a5	0.16964205
92	0xbe0fee53	-0.14055757
93	0xbe78f34e	-0.24311563
94	0x3da3572d	0.07975612
95	0x3d1ca948	0.038247377
96	0x3d867283	0.0656481
97	0xbe6dbc0a	-0.23216262
98	0x3da198cd	0.078904726
99	0x3d5e1d5d	0.05422722
100	0xbdd02884	-0.10163978
101	0x3d752974	0.059853986
102	0x3c99583f	0.018718837
103	0xbe7ee39a	-0.2489151
104	0x3c1436cd	0.009046269
105	0x3ca06838	0.019580945
106	0xbe2f83a2	-0.17140058
107	0x3e1f07fb	0.15530388
108	0x3e890e98	0.26768947
109	0x3ea98ec2	0.33116728
110	0x3eb32595	0.3498961
111	0x3d65c88f	0.05609947
112	0xbe6134fe	-0.21992871
113	0x3e27244a	0.16322437
114	0x3d0883e9	0.033328924
115	0x3e0b49a6	0.13602313
116	0x3d807af5	0.06273452
117	0x3dae2c42	0.08504535
118	0x3e663d1f	0.22484253
119	0x3e0cdd3e	0.13756272
120	0x3d33c833	0.043892097
121	0x3e21af08	0.15789425
122	0xbdd574e5	-0.104226865
123	0xbdfa36cf	-0.12217485
124	0xbdcf1093	-0.10110583
125	0x3dceeaf9	0.10103411
126	0xbe2c7623	-0.1684194
127	0x3cfc0cab	0.03076776
128	0x3dd06327	0.10175162
129	0x3e277871	0.16354539
130	0x3e654dc4	0.22392946
131	0x3e9fef13	0.31237087
132	0xbd5b685f	-0.053566333
133	0x3e5cb7cb	0.21554486
134	0xbc9b297a	-0.018940676
135	0x3e0c4075	0.13696463
136	0xbe287d29	-0.16453995
137	0x3be76a2d	0.0070622177
138	0x3da25d20	0.079279184
139	0xbdf18346	-0.117926165
140	0x3cf67a93	0.030087745
141	0x3e9fb44c	0.31192243
142	0xbe105762	-0.14095834
143	0xbd021cf1	-0.031765882
144	0xbdde3979	-0.10850806
145	0x3c6cb5fb	0.014447684
146	0x3cd51ae9	0.026013808
147	0x3ea05260	0.31312847
148	0x3d93d559	0.07218427
149	0x3d4265bb	0.0474603
150	0x3d26377c	0.040580258
151	0x3e04f937	0.12985693
152	0xbd66e4fc	-0.05637072
153	0x3dfb970a	0.12284668
154	0x3d18ddd3	0.037320923
155	0xbe660bec	-0.22465485
156	0xbc349358	-0.011021458
157	0xbdbc7334	-0.09201661
158	0x3d61877c	0.05506085
159	0xbde7c424	-0.11316708
160	0xbde5435d	-0.11194489
161	0xbe4b71f8	-0.19867694
162	0xbe8183ee	-0.25295967
163	0x3e5332ad	0.206248
164	0xbe435181	-0.1907406
165	0x3e036e3f	0.12835024
166	0x3dcb4b62	0.099264875
167	0xbd2ee9b9	-0.042703364
168	0x3dae07bd	0.0849757
169	0x3e115a6d	0.14194651
170	0xbe8c60b1	-0.2741752
171	0xbdb1f3d9	-0.086890884
172	0xbd9e9642	-0.07743503
173	0xbec8388a	-0.39105636
174	0x3e681cfb	0.22667305
175	0x3e29ada1	0.1657014
176	0x3d9e9d25	0.07744817
177	0x3dd18e1d	0.10232184
178	0x3db7e1ba	0.08978601
179	0x3ddcd62d	0.10783038
180	0xbc1b70de	-0.009487359
181	0x3e355dfb	0.17711632
182	0xbdb1b7fb	-0.086776696
183	0xbd357325	-0.044299264
184	0xbde3066f	-0.110852115
185	0xbda374f4	-0.079812914
186	0xbde0b01f	-0.109710924
187	0x3e49b6e2	0.1969867
188	0xbe35a5e0	-0.17739058
189	0x3ca2711e	0.01982933
190	0xbe3c9f76	-0.18420205
191	0x3ca08bf6	0.019597989
192	0xbdd3faca	-0.103505686
193	0xbe671f49	-0.22570528
194	0x3e0ea7df	0.13931225
195	0xbd884cc5	-0.066552676
196	0xbd716e35	-0.058942992
197	0xbd0538c2	-0.03252483
198	0xbdbab6af	-0.091168754
199	0x3dee7494	0.11643329
200	0xbe8aef02	-0.27135473
201	0x3d7d09be	0.06177687
202	0x3ac84413	0.0015279077
203	0x3dbd2d57	0.092371635
204	0xbe061a38	-0.13095939
205	0xbe45a53f	-0.19301318
206	0x3e06d327	0.13166486
207	0x3d1bcc55	0.038036663
208	0xbd7570df	-0.059922095
209	0xbd83f2e3	-0.06442811
210	0xbc19fdc1	-0.009398879
211	0xbe452725	-0.19253214
212	0xbe484a11	-0.19559504
213	0xbcb2bba3	-0.021817988
214	0xbd9ec9cd	-0.07753334
215	0x3e019762	0.12655404
216	0x3c92db1e	0.017926749
217	0x3d61f956	0.055169426
218	0xbcf05e55	-0.029341856
219	0xbdc2733d	-0.09494636
220	0xbe915ffc	-0.28393543
221	0x3c65f4a3	0.014035377
222	0xbdb86745	-0.09004072
223	0x3e768c5a	0.24076977
224	0x3dbe65ee	0.09296785
225	0xbdd6396a	-0.104601696
226	0x3d914a20	0.07094216
227	0x3d37abd3	0.0448416
228	0xbdaf0a8c	-0.085469335
229	0xbdd0ecf9	-0.10201449
230	0x3e048870	0.12942672
231	0x3e132854	0.14370853
232	0x3e423d48	0.1896869
233	0x3dd9ae32	0.10628928
234	0x3d8e246f	0.06940543
235	0xbda78f2b	-0.08181604
236	0x3d9f9a48	0.07793099
237	0x3d5876b7	0.05284759
238	0x3d3d32ca	0.046191014
239	0xbd149a99	-0.03628025
240	0xbe064283	-0.1311131
241	0x3e04171d	0.12899442
242	0x3e785f53	0.24255113
243	0x3b32e857	0.002729913
244	0xbd8c0ba0	-0.06838155
245	0xbe32b300	-0.17451096
246	0x3e1c21ab	0.15247218
247	0xbe7b8eff	-0.24566267
248	0x3c81b514	0.015833415
249	0xbe88557f	-0.26627728
250	0x3dc88076	0.09790127
251	0xbcff21ca	-0.031144042
252	0x3d59f36d	0.053210665
253	0x3e0b041e	0.1357579
254	0xbeab95f7	-0.33512852
255	0xbdaf5e7b	-0.085629426

dense2.1.bn1.weight f4 [60]
0	0x3f800000	1.0
1	0x3f800000	1.0
2	0x3f800000	1.0
3	0x3f800000	1.0
4	0x3f800000	1.0
5	0x3f800000	1.0
6	0x3f800000	1.0
7	0x3f800000	1.0
8	0x3f800000	1.0
9	0x3f800000	1.0
10	0x3f800000	1.0
11	0x3f800000	1.0
12	0x3f800000	1.0
13	0x3f800000	1.0
14	0x3f800000	1.0
15	0x3f800000	1.0
16	0x3f800000	1.0
17	0x3f800000	1.0
18	0x3f800000	1.0
19	0x3f800000	1.0
20	0x3f800000	1.0
21	0x3f800000	1.0
22	0x3f800000	1.0
23	0x3f800000	1.0
24	0x3f800000	1.0
25	0x3f800000	1.0
26	0x3f800000	1.0
27	0x3f800000	1.0
28	0x3f800000	1.0
29	0x3f800000	1.0
30	0x3f800000	1.0
31	0x3f800000	1.0
32	0x3f800000	1.0
33	0x3f800000	1.0
34	0x3f800000	1.0
35	0x3f800000	1.0
36	0x3f800000	1.0
37	0x3f800000	1.0
38	0x3f800000	1.0
39	0x3f800000	1.0
40	0x3f800000	1.0
41	0x3f800000	1.0
42	0x3f800000	1.0
43	0x3f800000	1.0
44	0x3f800000	1.0
45	0x3f800000	1.0
46	0x3f800000	1.0
47	0x3f800000	1.0
48	0x3f800000	1.0
49	0x3f800000	1.0
50	0x3f800000	1.0
51	0x3f800000	1.0
52	0x3f800000	1.0
53	0x3f800000	1.0
54	0x3f800000	1.0
55	0x3f800000	1.0
56	0x3f800000	1.0
57	0x3f800000	1.0
58	0x3f800000	1.0
59	0x3f800000	1.0

dense2.1.bn1.bias f4 [60]
0	0x00000000	0.0
1	0x00000000	0.0
2	0x00000000	0.0
3	0x00000000	0.0
4	0x00000000	0.0
5	0x00000000	0.0
6	0x00000000	0.0
7	0x00000000	0.0
8	0x00000000	0.0
9	0x00000000	0.0
10	0x00000000	0.0
11	0x00000000	0.0
12	0x00000000	0.0
13	0x00000000	0.0
14	0x00000000	0.0
15	0x00000000	0.0
16	0x00000000	0.0
17	0x00000000	0.0
18	0x00000000	0.0
19	0x00000000	0.0
20	0x00000000	0.0
21	0x00000000	0.0
22	0x00000000	0.0
23	0x00000000	0.0
24	0x00000000	0.0
25	0x00000000	0.0
26	0x00000000	0.0
27	0x00000000	0.0
28	0x00000000	0.0
29	0x00000000	0.0
30	0x00000000	0.0
31	0x00000000	0.0
32	0x00000000	0.0
33	0x00000000	0.0
34	0x00000000	0.0
35	0x00000000	0.0
36	0x00000000	0.0
37	0x00000000	0.0
38	0x00000000	0.0
39	0x00000000	0.0
40	0x00000000	0.0
41	0x00000000	0.0
42	0x00000000	0.0
43	0x00000000	0.0
44	0x00000000	0.0
45	0x00000000	0.0
46	0x00000000	0.0
47	0x00000000	0.0
48	0x00000000	0.0
49	0x00000000	0.0
50	0x00000000	0.0
51	0x00000000	0.0
52	0x00000000	0.0
53	0x00000000	0.0
54	0x00000000	0.0
55	0x00000000	0.0
56	0x00000000	0.0
57	0x00000000	0.0
58	0x00000000	0.0
59	0x00000000	0.0

dense2.1.conv1.weight f4 [12, 60, 3, 3]
0	0x3df17208	0.11789328
1	0x3d6c6c42	0.05772043
2	0x3ced793b	0.028988471
3	0x3d15478b	0.03644518
4	0x3d949cb6	0.07256453
5	0xbe0efdbd	-0.13963981
6	0xbe1018d3	-0.1407197
7	0xbde83dfd	-0.11339948
8	0xbdc81060	-0.09768748
9	0x3e91b3e2	0.28457552
10	0xbe3ae4ea	-0.18251386
11	0x3dd0c01f	0.10192894
12	0xbda039c8	-0.07823521
13	0xbe264825	-0.16238458
14	0xbd5a405a	-0.053284027
15	0x3e19e2ee	0.15027973
16	0x3e3eeb47	0.18644439
17	0x3e9148a3	0.2837573
18	0xbd9f0e44	-0.07766393
19	0x3d849f30	0.06475675
20	0x3d7a29e5	0.06107511
21	0xbe603c5c	-0.21898025
22	0xbe075823	-0.13217215
23	0x3e36b3d8	0.17842042
24	0xbe1eb1c3	-0.15497498
25	0x3d8e26bb	0.06940981
26	0x3e1a738e	0.15083143
27	0x3c5c13dc	0.013432469
28	0x3e420dfa	0.18950644
29	0xbd1f1ba8	-0.038844734
30	0xbe0b6d41	-0.13615896
31	0xbd56c6fa	-0.052435853
32	0x3ccb64d6	0.024828356
33	0xbe66957b	-0.2251796
34	0x3dc41fce	0.09576379
35	0x3e01bc06	0.12669381
36	0xbe12fe40	-0.14354801
37	0xbcc147e6	-0.023593854
38	0x3db34376	0.087531015
39	0xbc4568a6	-0.012048876
40	0x3da9f3e6	0.08298473
41	0xbdcc9729	-0.09989769
42	0xbdb58b90	-0.0886451
43	0xbd9bf0c9	-0.076142855
44	0x3ddd6dfa	0.10811992
45	0x3e5144d9	0.2043642
46	0xbcbe4750	-0.023227364
47	0xbb6f5eec	-0.0036525084
48	0xbda411e6	-0.08011226
49	0xbdd25c67	-0.102715306
50	0x3a9b3724	0.0011841995
51	0xbd875883	-0.06608679
52	0xbe632db2	-0.221854
53	0xbe3a9090	-0.18219209
54	0x3d4f87c6	0.050666593
55	0x3da005d2	0.0781361
56	0x3dd7e64b	0.10541972
57	0x3ba82122	0.005130903
58	0xbe3572ec	-0.1771962
59	0xbe16da4e	-0.14731714
60	0x3d397429	0.045276795
61	0xbd9a5ea3	-0.07537582
62	0xbe23c744	-0.15993983
63	0x3e48e617	0.19619022
64	0xbd943daf	-0.07238328
65	0xbec3fd8a	-0.38279372
66	0x3e79b5f8	0.24385822
67	0x3e548ef9	0.20757665
68	0x3dd376c8	0.1032539
69	0xbe87e532	-0.2654205
70	0xbde3b467	-0.111183934
71	0xbdc1daec	-0.09465584
72	0x3e02a80d	0.12759419
73	0xbdcf6192	-0.10126032
74	0xbe225617	-0.15853153
75	0xbd51fbca	-0.051265515
76	0xbc93740e	-0.017999675
77	0xbe2a8582	-0.16652492
78	0x3d6e7c5e	0.058224075
79	0xbeca3ebc	-0.39500988
80	0xbe72378c	-0.23654002
81	0xbde0aed1	-0.109708436
82	0xbcc22db1	-0.023703428
83	0x3caffa3a	0.021481622
84	0xbdc88c79	-0.09792418
85	0xbc5cdc79	-0.013480299
86	0x3d478d58	0.04871878
87	0xbe4257f2	-0.18978861
88	0xbd14db90	-0.036342204
89	0xbc415b52	-0.011801558
90	0xbcb96670	-0.022631854
91	0xbd9cce12	-0.07656492
92	0xbd5bff8e	-0.053710513
93	0x3e44e620	0.1922841
94	0xbe5eab3b	-0.21745007
95	0xbd5b6f7a	-0.05357311
96	0xbcec23fb	-0.02882575
97	0xbd0cf59b	-0.034413915
98	0xbd40e83a	-0.04709647
99	0xbe06b483	-0.13154797
100	0x3e37bb8e	0.1794264
101	0xbbc57c6f	-0.0060267965
102	0xbd7b9ac8	-0.061426908
103	0x3dcd022f	0.10010182
104	0x3bdcb0a4	0.0067349244
105	0x3dd916c5	0.10600046
106	0xbded070e	-0.11573611
107	0x3cb9e9a6	0.02269442
108	0xbd5a5f70	-0.053313673
109	0xbe3ee25f	-0.18641041
110	0xbdea2697	-0.11433142
111	0xbe76dcd1	-0.24107672
112	0xbd9e9a2f	-0.07744252
113	0xbd4ce14b	-0.050019544
114	0xbe2a1dce	-0.16612932
115	0xb8ae452f	-8.309853e-05
116	0x3de10f9e	0.10989307
117	0x3e271f65	0.1632057
118	0xbd408125	-0.04699816
119	0xbe1b14b9	-0.15144624
120	0x3dae47a7	0.0850976
121	0xbd827040	-0.06369066
122	0x3da2eea7	0.079556756
123	0x3dae17a7	0.08500605
124	0x3cf34cc5	0.029699693
125	0x3c6e7fca	0.0145568345
126	0xbdb2ecc0	-0.08736563
127	0xbb9753f2	-0.0046181614
128	0xbd95cdfe	-0.073146805
129	0x3e07da25	0.1326681
130	0xbe3f735e	-0.18696353
131	0x3e070fa4	0.1318956
132	0x3e136fc1	0.143981
133	0x3d499e29	0.0492231
134	0x3c6df861	0.01452455
135	0x3eb6a841	0.35675243
136	0x3d0d70be	0.034531347
137	0x3b8de390	0.004330106
138	0xbc86c4b3	-0.016451215
139	0x3cf616ea	0.030040223
140	0xbdcb5814	-0.09928909
141	0x3e150d1c	0.14555782
142	0xbe87e958	-0.26545215
143	0x3e020ded	0.12700625
144	0x3d7e8d1a	0.062146284
145	0xbda490aa	-0.08035405
146	0x3dcb2ac3	0.099202655
147	0x3e7ef835	0.24899371
148	0xbd13769a	-0.03600178
149	0x3c87f72a	0.01659735
150	0x3d718cb1	0.058972064
151	0xbb4f9bae	-0.0031678486
152	0x3e6c1980	0.23056602
153	0xbc6cc03f	-0.014450132
154	0x3de1017b	0.109866105
155	0x3d25c9b3	0.04047556
156	0xbdd6d015	-0.10488907
157	0x3e003f26	0.12524089
158	0x3cdb5852	0.026775513
159	0xbe4a6d11	-0.19768168
160	0xbd72b570	-0.059255064
161	0xbb979907	-0.0046263966
162	0xbcbf047c	-0.023317568
163	0xbe16fdfc	-0.14745325
164	0xbe1ed9f0	-0.15512824
165	0xbcd35c7e	-0.02580094
166	0x3db95f6e	0.09051405
167	0xbc53a9d0	-0.012918904
168	0x3c1649b4	0.009172846
169	0x3ea2a6ec	0.31767976
170	0xbd0e4df1	-0.0347423
171	0xbd3ec2c8	-0.046572477
172	0x3e621687	0.22078906
173	0xbc983d55	-0.018583933
174	0x3e2dd933	0.16977386
175	0x3de45cb9	0.11150498
176	0x3c2dbace	0.01060362
177	0x3dcc6179	0.09979529
178	0xbc0188f8	-0.007906191
179	0x3cd83455	0.026392141
180	0x3dd2caa5	0.102925576
181	0x3da0c0ae	0.07849251
182	0xbc2f9114	-0.010715742
183	0xbe94f87b	-0.29095826
184	0x3da893e3	0.08231332
185	0x3e61a7b2	0.22036627
186	0xbe431aec	-0.19053239
187	0x3e05ff5d	0.13085695
188	0xbd0b45ca	-0.034002103
189	0x3c612d53	0.013743716
190	0xbe5f6267	-0.21814881
191	0x3d49ad01	0.049237255
192	0x3e95decc	0.29271543
193	0xbd48b22a	-0.048998035
194	0x3decf2f0	0.11569774
195	0x3e57af96	0.21063074
196	0x3e644303	0.22291188
197	0xbd515ecb	-0.051115792
198	0xbe6b7020	-0.22991991
199	0xbd23d821	-0.04000104
200	0x3db15d20	0.0866034
201	0xbe2142d6	-0.15748152
202	0xbc02ed03	-0.007991078
203	0x3e04690b	0.12930696
204	0xbceafe48	-0.028685704
205	0xbe62785d	-0.22116227
206	0x3d8ab890	0.06773484
207	0x3e2cdd71	0.16881348
208	0x3ace3e21	0.0015735069
209	0xbd94e6ac	-0.0727056
210	0x3dd88b8c	0.105734915
211	0x3d6a8d69	0.057263765
212	0xbd42316d	-0.047410417
213	0xbc893a75	-0.016751507
214	0x3e027f29	0.1274382
215	0xbe14ca12	-0.14530209
216	0xbd162857	-0.036659565
217	0xbe3966f1	-0.18105675
218	0xbe2aa44e	-0.1666424
219	0x3e0b0885	0.13577469
220	0xbe11cd1a	-0.14238396
221	0x3cab20a1	0.020889582
222	0xbd4aaf23	-0.04948343
223	0x3e077671	0.13228776
224	0xbcdc186d	-0.026867116
225	0xbdfe0047	-0.12402397
226	0x3b45f582	0.0030206149
227	0xbc9a9a5a	-0.018872429
228	0xbd0164b0	-0.031590164
229	0x3cdfa6b8	0.027301177
230	0x3d87ecdd	0.06636975
231	0xbcaab6b1	-0.020839067
232	0xbdbe18b2	-0.09282054
233	0x3e439083	0.19098096
234	0x3e2a0bc5	0.16606052
235	0x3cefbb0f	0.029264001
236	0xbc988802	-0.018619541
237	0x3e965c3c	0.29367244
238	0x3c964780	0.01834464
239	0xbce6f15c	-0.028191261
240	0xbd10b8fd	-0.03533267
241	0xbdf7e851	-0.12104858
242	0xbe4639ef	-0.19358037
243	0x3cece461	0.028917493
244	0x3e90f192	0.28309304
245	0xbe177c2a	-0.14793459
246	0x3ba75167	0.0051061395
247	0x3dfaee1d	0.12252448
248	0x3e2e9c72	0.17051867
249	0xbeb7da1a	-0.35908586
250	0xbd98edc0	-0.07467222
251	0xbd4e450f	-0.05035883
252	0x3dc66c13	0.09688582
253	0x3dcaa2cd	0.09894333
254	0x3d7bce6d	0.06147616
255	0x3d221053	0.03956635

trans2.bn1.weight f4 [72]
0	0x3f800000	1.0
1	0x3f800000	1.0
2	0x3f800000	1.0
3	0x3f800000	1.0
4	0x3f800000	1.0
5	0x3f800000	1.0
6	0x3f800000	1.0
7	0x3f800000	1.0
8	0x3f800000	1.0
9	0x3f800000	1.0
10	0x3f800000	1.0
11	0x3f800000	1.0
12	0x3f800000	1.0
13	0x3f800000	1.0
14	0x3f800000	1.0
15	0x3f800000	1.0
16	0x3f800000	1.0
17	0x3f800000	1.0
18	0x3f800000	1.0
19	0x3f800000	1.0
20	0x3f800000	1.0
21	0x3f800000	1.0
22	0x3f800000	1.0
23	0x3f800000	1.0
24	0x3f800000	1.0
25	0x3f800000	1.0
26	0x3f800000	1.0
27	0x3f800000	1.0
28	0x3f800000	1.0
29	0x3f800000	1.0
30	0x3f800000	1.0
31	0x3f800000	1.0
32	0x3f800000	1.0
33	0x3f800000	1.0
34	0x3f800000	1.0
35	0x3f800000	1.0
36	0x3f800000	1.0
37	0x3f800000	1.0
38	0x3f800000	1.0
39	0x3f800000	1.0
40	0x3f800000	1.0
41	0x3f800000	1.0
42	0x3f800000	1.0
43	0x3f800000	1.0
44	0x3f800000	1.0
45	0x3f800000	1.0
46	0x3f800000	1.0
47	0x3f800000	1.0
48	0x3f800000	1.0
49	0x3f800000	1.0
50	0x3f800000	1.0
51	0x3f800000	1.0
52	0x3f800000	1.0
53	0x3f800000	1.0
54	0x3f800000	1.0
55	0x3f800000	1.0
56	0x3f800000	1.0
57	0x3f800000	1.0
58	0x3f800000	1.0
59	0x3f800000	1.0
60	0x3f800000	1.0
61	0x3f800000	1.0
62	0x3f800000	1.0
63	0x3f800000	1.0
64	0x3f800000	1.0
65	0x3f800000	1.0
66	0x3f800000	1.0
67	0x3f800000	1.0
68	0x3f800000	1.0
69	0x3f800000	1.0
70	0x3f800000	1.0
71	0x3f800000	1.0
