fedmd_results_0.0/client91/checkpoint_0.0.pth (torch, 930643 bytes, 56 tensors)

conv1.weight f4 [24, 3, 3, 3]
000000 f3 a0 59 3e f6 a8 bb be fa 8b b4 3e b8 59 88 bf
       0.21252804 -0.36652344 0.35263044 -1.065238
000010 ba ef d8 bf e8 bc 51 bf cd b6 52 bf bc a3 c0 bf
       -1.6948159 -0.81928873 -0.8231018 -1.5049968
000020 61 1a 1f bf 3e 1e 5c 3e 76 92 be 3e 4a ec 70 3e
       -0.62149626 0.21495911 0.37221116 0.23527637
000030 d3 dc cb 3e 1e 61 29 3f 5b 74 f8 3e 67 2d 4c 3e
       0.39816913 0.66163814 0.48526272 0.19939195
000040 d0 ca c5 3e 79 f2 99 3e f0 ee 0a bf fb 5e e9 bc
       0.38631296 0.30067804 -0.5427084 -0.028487673
000050 5f 40 40 bf 16 b7 19 3f 7c db a8 3f c7 19 db 3e
       -0.7509822 0.6004499 1.3191981 0.42793104
000060 1e 3a cd 3e 59 ed 85 3f 40 26 82 3e 1f 1b cf 3c
       0.40083402 1.0463058 0.25419807 0.025281487
000070 5c a2 c6 3e 61 59 0c 3e 55 e8 79 bf 42 a8 71 3e
       0.38795745 0.1370597 -0.97620136 0.23599342
000080 0f a8 7b 3e 6f 6c 69 bf 2b 78 35 bd 01 d2 5c 3e
       0.24575828 -0.9118108 -0.044304054 0.21564485
000090 a0 a7 9a be 16 b8 c3 3e 96 9a 0a be 06 77 5e bf
       -0.30206013 0.38226384 -0.13535532 -0.86900365
0000a0 14 06 41 3f b8 6c f3 3e 15 e9 5e bf 4b 77 ea 3e
       0.753999 0.47543883 -0.87074405 0.45794138
0000b0 b3 7a e5 3e b3 72 9c be fd 7b 06 3e f4 68 d3 be
       0.44820175 -0.3055626 0.13133235 -0.4129101
0000c0 e2 bd fe be 63 a8 45 3f f1 84 99 3e 92 87 e9 be
       -0.49754244 0.7721006 0.2998424 -0.45611244
0000d0 63 7f 31 3f 5b 3e d6 3e 99 5c 70 bc ca 0f 92 be
       0.69335 0.41844448 -0.0146705145 -0.2852767
0000e0 8f ec 15 bd f8 06 07 bf bc 78 4e bf 38 a1 05 bf
       -0.036602553 -0.5274501 -0.80652976 -0.52199125
0000f0 ae a1 b4 be e4 e7 22 bf 22 03 c2 be 3c 5b 72 3e
       -0.35279602 -0.63635087 -0.37893015 0.23667616
000100 f8 88 ad 3e 5a 38 86 3e 74 04 3a 3e 25 cf a7 3e
       0.3389356 0.26214868 0.18165761 0.32775226
000110 1c e0 7f 3e 28 fa 24 3e 95 a5 8a 3e fa e3 56 3e
       0.24987835 0.16111052 0.27079454 0.20985404
000120 e7 99 17 3d 57 c7 a1 3e 30 b8 8c 3c dc d2 a1 3e
       0.037012007 0.31597397 0.017177671 0.31606185
000130 d3 86 30 3f 12 51 a1 3e 8d d3 25 3e b7 50 f7 3e
       0.68955725 0.31507164 0.16193981 0.48303768
000140 bb e4 03 3e 2e a5 71 be e2 b1 95 bf eb a4 18 bf
       0.12880222 -0.23598167 -1.169491 -0.59626645
000150 dd 86 a8 3d 20 e9 65 3c 4d 79 85 3e 01 ef 98 3b
       0.08228848 0.014032632 0.26069108 0.0046671634
000160 05 af 29 3f 80 04 04 3f 12 42 85 be d6 df 9a bf
       0.66282684 0.51569366 -0.2602697 -1.2099559
000170 8b 9f 51 bf ef ce 93 3e e8 92 67 3e 33 48 8a 3e
       -0.8188407 0.28868815 0.22614634 0.2700821
000180 0e 68 37 3e a0 6b 62 3f f1 3d 06 3f 36 96 80 be
       0.17910787 0.8844547 0.52438265 -0.25114602
000190 e7 a8 92 bf 22 8d 4e bf ba 21 89 3e a8 9d cb 3d
       -1.1457795 -0.806841 0.26783544 0.0994218
0001a0 79 aa 21 3e e1 ca c7 3e b9 52 67 3f b3 7d 21 3f
       0.15787686 0.39021972 0.903606 0.63082427
0001b0 e3 15 4b bf a1 d1 2e bf c3 e0 6d bf fd dd 4b 3d
       -0.7933027 -0.6828862 -0.92921084 0.04977225
0001c0 1b 24 18 3f 32 c5 1b be cf 97 21 3f 5b 0e 8e 3f
       0.5943009 -0.15211943 0.63122267 1.1098131
0001d0 d3 a7 ca 3e 3f 36 1a 3e 9d 65 e4 3e 0f 06 41 3d
       0.39581165 0.15059756 0.44608775 0.04712492
0001e0 bb db d3 3e ba 02 84 3f d7 bb 71 3e e9 b2 66 3e
       0.4137858 1.0313332 0.23606811 0.22529186
0001f0 1d 96 2d 3f 74 8b 7d 3d b4 11 10 3f 57 62 37 3e
       0.6780718 0.06190057 0.5627701 0.17908607
000200 03 71 52 3f cd 15 36 bf a9 69 7b bf 99 3f a9 be
       0.8220369 -0.71127015 -0.982081 -0.33056334
000210 00 70 67 bf 0c 88 ac bf 5e 35 07 bf ea 8a a0 bd
       -0.90405273 -1.3479018 -0.52815807 -0.07838996
000220 3d 42 00 bf 41 3a 35 bd fe d3 fd bd c6 f6 15 3e
       -0.5010107 -0.04424501 -0.1239395 0.14644918
000230 8a 35 51 3e 0d a2 a0 be 3f 0e bf be b3 8a 94 be
       0.2043058 -0.31373635 -0.37315556 -0.2901207
000240 c3 b7 6f be 1c a0 bc be e7 93 74 be af 00 4f 3e
       -0.23409943 -0.36840904 -0.23884545 0.20215105
000250 8a 38 63 3f 58 5b 14 3f cd 05 11 be 55 1c 65 3e
       0.88758147 0.5795188 -0.14162369 0.22374089
000260 bb 50 61 bd 8b 09 18 bf 5f 81 3b bf 5d 17 39 bf
       -0.05500863 -0.5938956 -0.7324428 -0.72301275
000270 b2 83 e9 3d 8d ab 3a 3f 14 90 a8 3e 34 d0 1f 3d
       0.11402072 0.72918016 0.32922423 0.039016917
000280 86 1d da 3e 11 af cc 3d 47 16 2a 3f ed 29 da 3d
       0.4260065 0.09994329 0.6644024 0.10652528
000290 45 ab 9a be a5 bf a3 3f 7e d8 3c be 7c da bd bf
       -0.30208793 1.279286 -0.1844196 -1.4832301
0002a0 14 e0 3f 3e 76 64 51 bd 67 fc 04 be f5 66 85 3f
       0.18737823 -0.051121198 -0.12986909 1.0422045
0002b0 50 79 b2 bc f3 c2 72 bf af 46 ee 3f 7c 22 e5 bd
       -0.021786362 -0.9482872 1.8615321 -0.11188218
0002c0 30 b7 ff bf c4 49 2b 3f d5 92 41 3d ca 34 fb be
       -1.9977779 0.6690943 0.04725917 -0.49063712
0002d0 53 08 02 3f 27 8f db bc 23 92 0b bf a5 12 a2 3f
       0.5079395 -0.026801659 -0.5451986 1.266194
0002e0 8e 71 8d bd 40 b6 bf bf 19 aa ce 3e 3e 9e e2 3d
       -0.069064245 -1.4977493 0.4036415 0.110653386
0002f0 a7 6e 7e be 85 b4 35 bf 45 f7 1f be 94 1b f9 be
       -0.24846898 -0.70978576 -0.1562167 -0.48653853
000300 f9 56 aa be de 01 03 3e ee 67 90 3d ad 16 6b be
       -0.3326948 0.12793681 0.07051073 -0.22957869
000310 e5 de 99 be 9a b8 be 3e b4 f6 83 3e da 4e 69 3f
       -0.30052868 0.37250215 0.25774157 0.9113594
000320 ee 24 e5 3d 63 b3 88 3e 97 98 56 3f 49 ca c1 3e
       0.111886844 0.2669936 0.83826584 0.37849644
000330 79 16 2a bf 19 4c 23 bf 45 a3 3e be 4b d3 9c 3e
       -0.6644054 -0.6378799 -0.1861697 0.30629954
000340 5e 72 46 3f f7 ef 60 bc a7 d8 e2 3e f0 cd 52 3f
       0.7751826 -0.013729087 0.44305918 0.82345486
000350 36 b1 54 3e 21 13 37 bf bd 2b 4b bf 48 b4 21 bf
       0.20770726 -0.71513563 -0.79363614 -0.6316571
000360 fe 0e 62 3f af 67 ec 3f 66 2a 9f 3f 16 4b 3f bd
       0.88304126 1.8469142 1.2434814 -0.046702467
000370 1a 65 6d be 9f 90 6b bd b5 ce 6a bf 00 4d f7 bf
       -0.23183098 -0.05751097 -0.9172166 -1.9320374
000380 75 c9 75 bf 6f 63 16 3f 4f 62 b5 3f 94 bd 21 3f
       -0.96010524 0.58745474 1.4170626 0.631799
000390 ea 82 b5 3d e5 58 1b be b7 f0 60 be cb 8b 0d bf
       0.088628605 -0.1517063 -0.21966825 -0.5529143
0003a0 fb c9 c6 bf 93 fa 42 bf ba d8 10 be 75 49 3b 3f
       -1.553039 -0.76163596 -0.14145175 0.7315896
0003b0 4d 00 a6 3d 96 02 0d 3e 71 14 68 3e e6 a2 ea 3d
       0.08105526 0.13770518 0.22664048 0.11456852
0003c0 d0 61 95 bd bf 1f 1b bf f3 67 1c bd 0e 56 b3 be
       -0.07294047 -0.60595316 -0.03818507 -0.35026592
0003d0 ee f2 c0 bc 2b b0 43 3f c1 36 d7 3e 77 08 77 3e
       -0.023553338 0.76440686 0.4203396 0.24124323
0003e0 df 1e e7 bf 90 e7 29 be 6f 96 53 3f 28 8d d0 be
       -1.8056296 -0.1659224 0.8265142 -0.40732694
0003f0 17 61 12 bf e6 8f 52 3e 91 53 4b 3f ea bd f6 3e
       -0.571794 0.20562705 0.7942439 0.48191768

dense1.0.bn1.weight f4 [24]
000000 9f 4a f6 3e 3d 4c 82 3f 06 a1 3b 3f 94 c0 38 3f
       0.48103806 1.0179516 0.7329258 0.7216885
000010 59 d4 3b 3f c0 7d 87 3f 80 35 17 3f 11 6e 69 3f
       0.7337089 1.0585251 0.5906601 0.91183573
000020 3f ae 2a 3f bc 5e dc 3f 57 27 e2 3f 4b c8 1b 3f
       0.6667213 1.7216411 1.7668256 0.608525
000030 73 f6 80 3f 54 5f 9d 3e bc 3b 27 3f 90 e8 26 3f
       1.007521 0.30736792 0.6532552 0.6519861
000040 29 88 d9 3e 5a 20 c4 3e c1 0f 3b 3f 15 1c fa 3e
       0.42486694 0.38305932 0.73070914 0.4884955
000050 f0 b5 55 3f 31 07 45 3f d7 bb b6 3e 96 a4 08 3f
       0.8348074 0.769641 0.35690185 0.5337614

dense1.0.bn1.bias f4 [24]
000000 94 f1 2a be 14 40 22 3f db 16 93 be c7 e4 d6 3e
       -0.16693717 0.63379025 -0.28728375 0.41971418
000010 22 ff 92 3e c6 51 b3 3e 42 f9 21 3f 91 92 d3 3e
       0.28710276 0.35023326 0.6327096 0.4132276
000020 10 3d 09 3f 08 60 72 3f 83 45 8d 3f fb f7 dd ba
       0.536088 0.9467778 1.1036838 -0.0016934866
000030 28 89 79 3e 58 a0 86 3e 31 e6 76 3e 20 c5 f5 be
       0.24368727 0.26294208 0.24111249 -0.48001957
000040 fb 98 06 be dc b8 6f be fe bf dd be dc 53 5f be
       -0.13144295 -0.23410362 -0.4331054 -0.21809334
000050 b7 70 40 bf 1f 40 ed be d6 17 99 3e cd c9 50 3c
       -0.7517199 -0.46337983 0.29900998 0.012743426

dense1.0.conv1.weight f4 [12, 24, 3, 3]
000000 1a 69 ad 3d 2b 28 5e 3e 9f d5 79 3d 98 d3 b0 3d
       0.08467312 0.2169501 0.06099474 0.08634108
000010 1e d2 6c 3e 14 80 b7 3d 4d 79 ca bc 08 d6 c6 3d
       0.23127028 0.08959976 -0.024716044 0.09708792
000020 8c f0 c4 bc 03 b3 75 3e 19 9f b7 3e 1c 7a 9b 3e
       -0.024040483 0.23994069 0.3586357 0.303666
000030 cf bd c3 3d 41 ab 95 3e 60 00 98 3e 4a 4c 92 be
       0.095576875 0.2923222 0.29687786 -0.2857383
000040 b8 2f a2 bd ea a7 c9 bd 21 1a f3 3c 4d 40 00 3e
       -0.07919258 -0.0984648 0.029675545 0.12524529
000050 a6 e8 0d bc aa aa d9 3d 1a 04 37 3e c1 5e 3f 3d
       -0.008661425 0.10628255 0.17872658 0.046721224
000060 18 4f ae 3d 97 1b 22 3e 65 92 87 3d be 19 03 bc
       0.0851118 0.15830837 0.066197194 -0.008001743
000070 59 2c dd 3d 77 09 18 3e d0 7e ef bc ee 48 22 3e
       0.10799474 0.1484736 -0.029235274 0.15848133
000080 61 53 4b 3e 7d 4d a3 3d 2b 95 72 3e 0c 4a 62 3e
       0.19856025 0.07973764 0.23689716 0.22098559
000090 f9 7c 01 bc 26 8d 45 be d8 62 3f be 78 31 a8 3e
       -0.007903331 -0.19292125 -0.1869005 0.32850242
0000a0 6a 4c 20 3e e6 e0 a2 3d 29 84 26 3f 77 7f 0c 3f
       0.1565415 0.07953052 0.6504541 0.54881996
0000b0 9a 79 cf 3e 18 3d ac 3e 3b 20 06 3f 1c ec 8d 3e
       0.40522462 0.3364036 0.5239293 0.277192
0000c0 68 72 1d 3e e0 5a c3 3e 08 c6 1f 3e d7 1d 5d be
       0.15375674 0.3815527 0.15602887 -0.21593414
0000d0 a4 72 fc 3c 6c 37 e0 bd 30 60 b4 3d 0b 31 0e 3e
       0.030816384 -0.10948071 0.08807409 0.13885896
0000e0 7d 9c 86 3e 68 aa 47 3e 14 bc 6c 3e 3e 08 52 3e
       0.26291266 0.19498599 0.23118621 0.20510957
0000f0 c3 e7 fa 3a a7 33 26 be 17 4f 02 be fe 69 03 bf
       0.0019142557 -0.16230641 -0.12725483 -0.51333606
000100 99 2f 4c be 64 ad 3b be ae 1a 69 3d 0f f3 e0 3e
       -0.19940032 -0.18327862 0.05691021 0.4393544
000110 1f 17 ba 3e cd 1a d0 3d 06 09 03 3f 12 f0 b8 3e
       0.36345765 0.10161362 0.51185644 0.3612066
000120 c4 39 a2 3d d0 f6 87 3e e8 e3 f4 3d 49 25 61 3d
       0.07921174 0.2655549 0.11957532 0.0549672
000130 85 c6 57 3e 44 bf ba 3d 4b 03 9e be 25 c0 69 be
       0.21071823 0.09118512 -0.30861887 -0.22827204
000140 69 75 55 be 89 a5 fd 3d 0e 9b d5 3d c6 84 ad be
       -0.2084557 0.12385089 0.10429965 -0.3389036
000150 6a c3 01 3f 5f 1c fc 3e c1 d5 06 be 21 87 06 3e
       0.50688803 0.49240395 -0.13167478 0.13137485
000160 d9 35 cd 3d 8d 75 4f be f0 01 a5 bd 9a 4d d8 3d
       0.10020036 -0.20259686 -0.0805701 0.10561676
000170 08 24 9f bd 5c d6 0d bc 35 56 95 3e 1f d0 3b 3d
       -0.07770544 -0.008657064 0.29167333 0.045852777
000180 4b 16 7d be 69 ca 83 3e 49 be 6f 3d 6f e8 c9 be
       -0.24715535 0.25740364 0.05853108 -0.39435145
000190 04 ee 54 be ee 8f 92 3d 47 22 2c be 46 30 39 3d
       -0.20793921 0.07156359 -0.16809951 0.045212053
0001a0 08 ac 8d 3e a5 2d 64 3e ea f4 f0 3e 41 fa 11 3f
       0.27670312 0.22283037 0.47061855 0.5702248
0001b0 32 13 a5 be 02 02 ad be ee 66 83 bd 37 23 cc be
       -0.32241207 -0.33790594 -0.06416117 -0.39870617
0001c0 20 27 db be 55 7a 10 be 25 5e 58 be fb 75 72 be
       -0.42803288 -0.14109166 -0.21129663 -0.23677818
0001d0 7e 08 8d bc d7 33 32 be 2a ef 73 be b2 5d 42 bc
       -0.017215963 -0.17402588 -0.23821703 -0.011863159
0001e0 3a 6f 8e be 5d 62 c1 be fc 00 01 be c9 21 e0 bd
       -0.27819234 -0.37770358 -0.12598032 -0.10943944
0001f0 7c fc 3d be dc 17 f0 3b b5 4c 31 be 3c 67 6b be
       -0.18553346 0.007327063 -0.17314418 -0.229886
000200 68 14 90 be e0 44 21 be 19 48 27 be 08 de 65 be
       -0.2814057 -0.1574893 -0.16336097 -0.2244798
000210 da bd e2 bd 82 d1 08 be 5a 99 73 be c0 06 30 bd
       -0.110713676 -0.13361171 -0.23788968 -0.042975187
000220 8c b4 dc bc 3f ed b2 3a 62 40 27 be b0 03 11 be
       -0.02694156 0.0013651027 -0.16333154 -0.14161563
000230 27 e3 bf bd d9 c6 49 be 8a c8 20 be 62 c2 fa bd
       -0.09369498 -0.1970476 -0.157015 -0.12244107
000240 ef 9e a0 3d 03 a5 ad 3b 0e eb ff 3d 79 95 e3 3c
       0.07842814 0.005299212 0.12496005 0.027781235
000250 1d 20 c7 bd 4f 64 e0 bb af d5 01 3e c1 98 b1 bc
       -0.09722922 -0.006847895 0.1267917 -0.021679284
000260 7c 11 2d 3d 71 39 d6 bd 32 f7 58 bd 23 45 1f be
       0.042253003 -0.10460175 -0.05297012 -0.15553717
000270 3b 48 26 bd d5 a3 36 bc 63 34 ee bd 58 f4 b0 bd
       -0.040596228 -0.011147459 -0.11631086 -0.08640355
000280 88 b5 63 bd 3d ae 21 be 30 c1 cf 3b c1 c9 c5 bd
       -0.055593044 -0.15789123 0.0063401684 -0.09657622
000290 28 2a 7d bd 53 39 30 be ed 28 8d be 81 ca 7f be
       -0.06180778 -0.17209367 -0.27570286 -0.24979593
0002a0 64 5b 11 bd 62 c2 ea bd 6d f3 a0 bd 59 d3 19 be
       -0.035487548 -0.11462857 -0.0785893 -0.15022029
0002b0 07 62 de bd 5f d4 4a bd e1 de 3d be 6c 47 11 be
       -0.10858541 -0.04951894 -0.18542053 -0.14187402
0002c0 33 14 9c bd 2a 36 a0 bd 37 d3 54 bd 66 bf 6f 3c
       -0.0762104 -0.07822831 -0.051959243 0.014633035
0002d0 4d f1 a4 bd e1 2b 61 bd 5f f4 6c be 03 06 eb bd
       -0.08053837 -0.054973487 -0.23140095 -0.11475756
0002e0 64 7b 6f bd 18 a9 19 be 2c e2 0c be 90 ad 06 bd
       -0.058467284 -0.1500591 -0.13758153 -0.032880366
0002f0 f2 1d 1d be 62 e2 bd bd 1e c5 27 bd 3e d2 47 be
       -0.15343454 -0.09271695 -0.04095947 -0.19513795
000300 13 8f 8d bc cf 56 13 3d 48 60 17 be 2c f9 21 bd
       -0.017280137 0.03597146 -0.14782822 -0.03954427
000310 6d 2c 74 3c 4a d8 0b be 57 b2 fd bd b2 a7 29 be
       0.01490317 -0.13656726 -0.12387531 -0.16567877
000320 dc 60 84 be bf c7 12 be 6b cb 47 be 79 fb a0 be
       -0.25855148 -0.1433401 -0.19511192 -0.31441858
000330 14 79 83 be 87 25 9b be 7c ff e0 be c9 6d a3 bd
       -0.25678313 -0.3030207 -0.4394492 -0.07979924
000340 2c d9 85 bd 22 e6 34 3d 12 62 0a be 2a 2c 01 be
       -0.06535563 0.044164784 -0.13513973 -0.12614504
000350 37 64 64 3b 6a d9 72 3c a0 97 2b 3d 26 4c 06 3e
       0.0034849772 0.014822343 0.041892648 0.13114986
000360 a3 d0 06 bd a6 96 9a bd 43 43 0e bd ee 58 b8 bc
       -0.032913815 -0.07548265 -0.034732115 -0.022503342
000370 e0 99 dd bd fc 5f 44 bd f8 14 1a 3e 13 5e d6 3d
       -0.10820365 -0.0479431 0.15047061 0.10467162
000380 8f d9 e4 3d 1e 19 b2 bc 83 46 1e 3d 3f cb 17 3e
       0.111743085 -0.021740492 0.038641464 0.14823626
000390 ae f7 44 be b5 72 74 bd bd 2f 5b 3d 37 a7 00 3c
       -0.19235107 -0.059679706 0.053512324 0.007852367
0003a0 4d 89 c4 bc 54 86 3f be e4 54 73 bd 64 80 76 bd
       -0.023991251 -0.18703586 -0.05940713 -0.060181037
0003b0 7d 2b 95 bc e1 7e c4 bd ee bc f2 bd c5 13 88 bd
       -0.018209213 -0.09594513 -0.11852442 -0.06644396
0003c0 d6 a7 75 bc 11 a4 12 bd 76 06 15 3c 15 19 f6 be
       -0.0149936285 -0.035800997 0.009095779 -0.4806601
0003d0 4b d7 20 bf 82 9e b5 be 6b c4 1a be 6a 0a 68 3c
       -0.6282851 -0.35472494 -0.1511399 0.014162639
0003e0 b3 63 70 bd 83 cc d2 3e 80 a2 27 3f 22 6a 24 3e
       -0.05868883 0.41171655 0.6548233 0.16056111
0003f0 81 30 95 be 36 c2 c4 be 8d 39 7e be 55 0b fd bc
       -0.29138568 -0.3842942 -0.24826641 -0.030889193

dense1.1.bn1.weight f4 [36]
000000 9f d8 0f 3f eb 50 b6 3e 82 dc a7 3e 61 1e a0 3e
       0.5618991 0.3560861 0.32785422 0.31273177
000010 21 f6 28 3f f6 de e2 3e 7b 62 f3 3e a5 cf 8d 3e
       0.6600056 0.4431073 0.47536072 0.27697483
000020 3f 74 dd 3e 39 86 f9 3e 19 22 c3 3e ef 32 ab 3f
       0.4325275 0.48735216 0.38111952 1.3374919
000030 96 8d 45 3e 21 e1 c3 3d 55 d0 98 3e 00 e0 5e 3e
       0.19292292 0.09564424 0.29846445 0.21765137
000040 d7 76 9e 3f 8e a7 7a 3f a0 89 11 3f a8 dc 43 3f
       1.2380017 0.9791192 0.56850624 0.7650857
000050 9f 1a 26 3f e1 1e 73 3f 19 cc 66 3e 28 a8 d5 3e
       0.6488437 0.9496899 0.22538795 0.41729856
000060 a2 1f 00 3f fe e4 2a 3f cd 5c 76 3f 78 27 96 3f
       0.5004827 0.66755664 0.9623535 1.1730795
000070 c5 8d 29 3f 95 51 53 3e ba 46 70 3f 93 34 a5 3f
       0.6623195 0.2063659 0.9385792 1.2906669
000080 7e 32 3c 3f 3a b2 1b 3f 4c 32 da 3e e6 6a 3f 3f
       0.73514545 0.6081883 0.42616498 0.7477249

dense1.1.bn1.bias f4 [36]
000000 3f ff 1a 3e 8e fa 8b be 1c 51 07 be e8 5d c3 be
       0.15136431 -0.27339596 -0.13214535 -0.38157582
000010 32 32 a9 3e b3 5d 2b be e2 c2 cd 3d b8 37 de bd
       0.33046108 -0.16734962 0.100469366 -0.10850471
000020 5d a4 1f 3e b4 38 28 b9 0c cd c3 3c 64 1c f7 bd
       0.15590043 -0.00016042852 0.023901485 -0.12065962
000030 1a 05 bc 3b f0 36 72 be d7 fc 47 be 55 62 11 be
       0.005737913 -0.2365377 -0.19530044 -0.14197667
000040 d0 a8 f6 bd 89 aa 82 3e ab b9 99 be 3b 65 a9 be
       -0.12043917 0.25520733 -0.30024466 -0.33085045
000050 b6 d7 eb be 89 73 dd be 1f 30 5e 3d ca e1 53 be
       -0.46063012 -0.4325221 0.05424511 -0.206916
000060 1c 9b 81 be 0d 2c 54 3f c5 c3 bc 3e 5e 13 a7 3d
       -0.25313652 0.82879716 0.3686811 0.08157991
000070 9f 4c 37 be f9 d4 12 be a0 c9 f3 bd 50 ba 37 3f
       -0.17900322 -0.14339055 -0.11903691 0.71768665
000080 55 73 49 bd 04 c0 09 be 64 e6 16 be af c0 54 3e
       -0.049182255 -0.13452154 -0.14736325 0.20776628

dense1.1.conv1.weight f4 [12, 36, 3, 3]
000000 14 2f 2d be ab 92 ec 3d 31 a5 ce 3e 7b af a8 be
       -0.1691249 0.11551412 0.40360406 -0.3294638
000010 70 19 5f bd 5f b6 89 3e 8a b6 c4 be e8 9b 78 be
       -0.05446762 0.2689695 -0.38420516 -0.24278224
000020 9a 5a 62 3d fb 29 aa bd 34 67 93 bd 50 40 6b be
       0.055262186 -0.083087884 -0.07197419 -0.22973752
000030 3f 4b 07 be 43 95 39 bd 15 bd 00 be de 98 88 bd
       -0.13212298 -0.045308363 -0.12572129 -0.06669782
000040 7e b0 33 bd 42 1f c5 bc 89 e6 91 bc 6e c8 cd 3d
       -0.043869488 -0.024062756 -0.017810123 0.100479946
000050 1c 12 4d 3e 24 7e 1c bd 29 3b bf 3d 88 9a 37 3e
       0.2002644 -0.038206235 0.09337456 0.17930043
000060 18 fe 19 bc 9e 68 af 3d d9 c8 31 3e 5e ef f5 bd
       -0.00939896 0.08564876 0.17361774 -0.12008546
000070 bb 4b 8c bd 9b bb ed 3b 43 7d 48 3a 84 81 b8 bb
       -0.06850382 0.0072550303 0.000764806 -0.005630674
000080 0e cb fa 3d 3c e3 ad 3d 20 c4 a5 3d d0 51 21 3e
       0.12245761 0.08490607 0.080940485 0.15753865
000090 fb d7 45 be 6a 32 c5 3e 4f a9 39 3e 20 13 7b be
       -0.19320671 0.38515025 0.18130992 -0.24519014
0000a0 cf c5 66 3e 0a 2d d7 3c c9 b9 6b be 49 69 e0 bd
       0.22536395 0.026266593 -0.2302009 -0.109575815
0000b0 38 30 7e be 20 07 c4 bd a0 25 bd bd 89 39 87 bd
       -0.24823081 -0.095716715 -0.09235692 -0.06602771
0000c0 03 7f 9b bd 35 1e a5 bd 10 14 9b bc 67 aa ac bd
       -0.07592585 -0.08062402 -0.018930465 -0.08430939
0000d0 5b 44 65 bd 94 2b ce 3c 56 5b 73 be 7d 8f ae be
       -0.055973392 0.025167264 -0.2376531 -0.34093848
0000e0 f9 8a 04 bf 35 fc 80 be 36 a3 38 be ea d1 5a be
       -0.51774555 -0.2519242 -0.1803101 -0.21369138
0000f0 b5 6a 36 bd 89 ef 47 3d da 94 db be 00 55 52 bb
       -0.044535358 0.048812423 -0.42887002 -0.003209412
000100 97 b3 92 3c 1f 83 f7 bc c7 6c 5c bd 6b b7 3a bc
       0.0179079 -0.03021389 -0.053814676 -0.011396269
000110 8c 5a a8 bd 15 cc aa 3a 92 c6 42 bc f9 bc 0e bc
       -0.082203954 0.0013030792 -0.011888163 -0.008712047
000120 ff 34 9f bc 3b c6 3f be 6a 1c 5f 3c 37 33 7b be
       -0.01943445 -0.18727963 0.013617614 -0.24531256
000130 96 e9 39 bd 2f 0c 20 3d f9 21 9f bd 2a 8b b1 3d
       -0.04538878 0.03907412 -0.07770152 0.086691216
000140 52 a4 b1 bc 11 dd 02 be 8d 6c 31 bd a0 97 12 be
       -0.0216848 -0.12779643 -0.043316413 -0.14315653
000150 51 b6 57 be 39 04 b6 bd f4 36 e3 bd 4e 14 c5 bd
       -0.21065642 -0.08887524 -0.11094466 -0.096230134
000160 f1 41 f9 bd 77 a4 4f be 59 01 97 be 80 54 62 3d
       -0.121707805 -0.20277582 -0.29493216 0.055256367
000170 15 b1 61 bd 54 f7 7b be 1a cc bd 3c 88 54 f6 bd
       -0.05510052 -0.24606067 0.023168612 -0.12027842
000180 f6 0d 57 bd eb 58 06 be 34 e0 95 3d 38 c9 dd 3d
       -0.05250355 -0.13119857 0.07318154 0.10829395
000190 16 71 2e 3e 24 22 92 3e fe ee a6 3c bc 64 96 3d
       0.17035326 0.28541672 0.020377632 0.07343432
0001a0 de 99 4f 3e eb 6d 78 3d 53 d2 19 bd 7d f7 a8 3d
       0.2027354 0.0606517 -0.037554096 0.0825033
0001b0 38 24 56 bd ee c0 93 bc 20 b3 8a bd 3d 5c 6b bd
       -0.052280635 -0.018036332 -0.06772447 -0.057461012
0001c0 16 24 dd 3b 8b 8a 31 bd 6f 7a 88 bc 21 89 5b bc
       0.0067486865 -0.043345015 -0.016659943 -0.013399393
0001d0 23 66 e3 bc 37 a2 ad bc 00 64 b6 3c b7 08 8d bc
       -0.027758664 -0.021195514 0.02226448 -0.01721607
0001e0 ee 69 d5 bc 7d 90 ea 3c 43 f7 b1 bc 3a 50 12 bd
       -0.026051488 0.02863335 -0.021724349 -0.03572104
0001f0 3f 47 9d bc 03 75 21 bd 11 d7 e3 bd bc 02 6a bd
       -0.019199012 -0.03941823 -0.11125005 -0.057131514
000200 5e d2 ef bb 60 26 24 3c 89 73 bc bb c7 a6 8a 3d
       -0.007318779 0.010018915 -0.0057510776 0.067700915
000210 5e 00 bf 3d 07 77 0f 3d d5 57 e6 3d db a4 1d 3d
       0.09326242 0.035025623 0.112472214 0.038487297
000220 ea b9 13 bd 9e 28 7a bd 3d d2 ca 3c 48 5e 45 bd
       -0.036065973 -0.06107389 0.024758453 -0.048185617
000230 a9 37 99 bd 3d 02 82 3c b0 4d 1d bd 3f 0d 3a bd
       -0.074813195 0.015870208 -0.038404167 -0.04542279
000240 1c 9f 00 be 7c 01 df bb 69 a0 38 be de e8 da bc
       -0.12560695 -0.006805597 -0.18029942 -0.026722368
000250 5e b3 93 3e fe 8e a6 3d 6c 1e 72 3d 95 7a 5f 3e
       0.28847784 0.08132742 0.059111044 0.21824105
000260 02 61 8e bc ce 07 fc bb f6 af 9c 3e 4a ac 89 3e
       -0.017380241 -0.00769136 0.30602998 0.2688926
000270 db 52 82 be 9a b3 ad 3d 12 59 f7 3d f8 6f eb be
       -0.2545384 0.08481522 0.12077536 -0.45983863
000280 8c 67 8e be 8c 35 88 be bd e0 22 3e 4c 54 39 3e
       -0.27813375 -0.26603353 0.15906043 0.18098563
000290 2b 77 94 3d 8c f2 24 3c 8a f5 f7 3d 1b f5 bd 3d
       0.07249292 0.010067593 0.1210738 0.09275266
0002a0 a1 48 b6 bd 67 4f c9 3c 36 bf b5 3d e6 3e 12 be
       -0.089005716 0.024573995 0.08874361 -0.14281806
0002b0 66 f4 92 3d 3b 84 3d 3e 8b 6e bb bc d4 b3 0c 3e
       0.071755216 0.18507473 -0.02287986 0.13740474
0002c0 7f 80 35 3e e3 1e ed 3c 76 9c f4 3d c9 76 ce 3d
       0.17724799 0.028945392 0.11943905 0.1008125
0002d0 f2 1e 6c be 7e d0 c5 be 4c 83 a6 be fb c3 65 be
       -0.2305868 -0.3863563 -0.32522047 -0.22438042
0002e0 94 93 a3 be e7 91 4f be 71 78 cb bd c8 9b 88 be
       -0.3194853 -0.20270501 -0.09935082 -0.26681352
0002f0 81 7b d1 3c cc aa a4 bd 8c 78 23 3e ca f9 83 3e
       0.025571587 -0.080403894 0.15963954 0.2577651
000300 f0 59 cf bd 03 73 14 3e 2f 86 8f 3e b2 e3 34 bd
       -0.10124576 0.14496998 0.2803206 -0.04416246
000310 b5 8e 14 3e 54 ed 82 3e 5e f3 78 bd 3a 00 13 bd
       0.14507563 0.25571692 -0.060778968 -0.035888888
000320 db 06 c8 bd f4 f0 e1 bc 15 e7 2d bd 49 4a d3 bd
       -0.097669326 -0.027580716 -0.042456705 -0.10316903
000330 64 bd 14 bd 0b 99 2f bd 0e 38 bd bd 86 66 f0 bd
       -0.03631343 -0.042870563 -0.09239207 -0.11738305
000340 9c 08 ee 3c 16 b1 8b 3d 6e 50 9f bc f9 af d0 3d
       0.02905684 0.06820886 -0.019447532 0.10189814
000350 3e de db 3d ce 4a b1 3c ef fe c9 3d 6b 92 7f 3d
       0.10735749 0.021642115 0.09863078 0.062395494
000360 c6 c1 a3 3d 8d a2 bf bc 06 26 8d 3d 02 17 14 bc
       0.07995944 -0.02339294 0.06892018 -0.009038689
000370 31 18 94 bd 36 f1 0b 3e 19 fb 44 3d 6b 63 1b bd
       -0.07231177 0.13666233 0.048091028 -0.03793661
000380 9e 8d 74 3d cb fb 27 3d 3f 0a e3 3d bb 75 86 be
       0.05970537 0.041011613 0.11085939 -0.26261696
000390 98 cc b4 3e 6c 52 c9 be fa e5 1e be bc 88 d5 bd
       0.35312343 -0.39320695 -0.15517417 -0.10426471
0003a0 6e 83 e5 3c a4 fc 8f 3e 76 69 23 bd 4d 42 d0 be
       0.028016772 0.28122437 -0.039895497 -0.40675583
0003b0 c4 85 00 bc 95 f8 0a bf fc e4 f3 3d 90 92 b6 3e
       -0.007844392 -0.54285556 0.1190891 0.35658693
0003c0 84 67 77 3c 3d c1 a7 3e de 06 5b bd fb 0f 97 be
       0.015100364 0.32764617 -0.053473346 -0.2950438
0003d0 12 57 df be c4 46 01 bb 4c ab 80 bf 07 6d 7d 3f
       -0.43621117 -0.0019726017 -1.0052276 0.9899449
0003e0 65 2d 97 3e bf b6 c2 3e 23 62 a5 be 1e 21 c5 be
       0.2952682 0.3803005 -0.32301435 -0.3850183
0003f0 98 45 c6 3c 91 b6 51 3d 25 7b b3 3d 0d 89 99 3d
       0.024203107 0.0511995 0.08763722 0.074968435

dense1.2.bn1.weight f4 [48]
000000 50 ae ea 3e 27 18 1d 3e 3f 8d 02 3f bb 89 f2 3e
       0.45836115 0.15341245 0.50996774 0.47370705
000010 ad 25 58 3f 11 a2 88 3e 88 18 ea 3e 86 53 9a 3e
       0.8443249 0.26686147 0.4572184 0.30141848
000020 6c 58 7f 3e af 41 72 3e 9e d0 2a 3e 15 91 eb 3e
       0.24936074 0.23657869 0.16681144 0.46009126
000030 e9 d2 79 3d ff 18 dc 3e 46 4c dd 3d 15 cd f2 3e
       0.060992155 0.4298782 0.10805564 0.4742209
000040 cf c8 af 3e d9 ca 18 3f 3b 37 fb 3e df e0 9a 3e
       0.34332892 0.5968452 0.49065575 0.30249688
000050 47 d0 30 3f 3c 1b 1e 3e 66 af c8 3e 95 b2 32 3e
       0.69067806 0.15440077 0.39196318 0.17450936
000060 1f 4e 44 3f 53 58 c1 3e f7 33 6d 3e 64 43 81 3f
       0.76681703 0.377627 0.23164354 1.0098691
000070 cf 92 f5 3c 08 84 37 3e e7 3d 25 3f 3e 67 62 3f
       0.02997723 0.1792146 0.6454758 0.88438785
000080 71 94 8b 3e 72 b1 0e 3e ab 9f c2 3e 5e 10 1e 3f
       0.2726169 0.13934878 0.38012442 0.61743724
000090 62 02 b9 3f 3b 8e 6f 3f fd 5f b7 3e d6 a2 2a 3f
       1.4453852 0.935764 0.3581542 0.6665472
0000a0 34 a1 54 3f 57 c8 ed 3e 50 9f d0 3e c2 1a 7b 3f
       0.83058476 0.4644191 0.40746546 0.98087704
0000b0 24 10 b4 3f 40 0d 05 3f 16 5d fd 3d e5 23 30 3f
       1.4067426 0.5197334 0.1237127 0.6880477

dense1.2.bn1.bias f4 [48]
000000 77 7c ed 3b 42 1a f6 bc be 7d 80 be cf d5 ce be
       0.0072475034 -0.030041818 -0.25095934 -0.40397498
000010 cd c4 a2 3e 07 42 2a 3d 62 16 43 3e 31 e6 3b be
       0.31790772 0.041566875 0.19051507 -0.1834953
000020 fd 6b eb 3c d7 e4 92 3d b6 a9 23 bd ae d4 ba 3e
       0.028738016 0.07172554 -0.03995677 0.36490387
000030 9e 44 c0 bd 22 b1 da bc f6 90 4b 3d b2 5a 04 bf
       -0.09388088 -0.026695792 0.049698792 -0.5170089
000040 47 37 6b 3e 40 61 c9 be 06 d1 91 be 88 af 6a be
       0.22970305 -0.39332008 -0.28479785 -0.22918522
000050 7e ac fc 3e e1 98 3a 3c d9 93 bc bd d8 0a 59 be
       0.4935035 0.011388988 -0.09207887 -0.21195543
000060 7b 19 03 bf 5f 27 bd 3e 54 52 28 ba 2f 0c db 3d
       -0.51210755 0.369441 -0.0006420959 0.10695683
000070 24 ef aa bd 1b 56 de bd 91 9a ef 3d 36 f0 d5 3e
       -0.08346394 -0.10856267 0.11699403 0.4178483
000080 0f 47 b1 bd 00 7e e5 3d e2 87 e4 bd 2c 93 5e be
       -0.086561315 0.11205673 -0.1115873 -0.21735829
000090 8a ae 00 3f 29 37 1b bd 39 b0 6e be 5b 78 4f be
       0.50266325 -0.0378944 -0.23309411 -0.20260756
0000a0 22 3a 12 bf e7 9e 9c be 0e 24 b1 bd e4 be d3 be
       -0.57119954 -0.30589983 -0.08649455 -0.41356575
0000b0 18 cf 02 3f 9f 1a 16 bd 9d 54 41 bd af 60 a6 3e
       0.5109725 -0.03664648 -0.047199834 0.3249564

dense1.2.conv1.weight f4 [12, 48, 3, 3]
000000 97 bc 9a 3d d5 c7 ec bd 54 aa 31 be de 7b 8a 3d
       0.07555502 -0.115615524 -0.17350131 0.06761907
000010 4f 7e ff bd 94 a9 38 be 1f 3a 9d 3d 4e 13 c5 bd
       -0.12475263 -0.18033439 0.07677101 -0.09622823
000020 7b ae d1 bd 74 4e 07 bd 9e e2 90 bc bd 36 b7 bc
       -0.10238358 -0.033033803 -0.017686184 -0.022364968
000030 79 55 15 bd ab 3e e2 3a 33 49 5d 3c d8 0b a9 bc
       -0.036458466 0.0017261108 0.013506222 -0.02063553
000040 b6 2a 05 bd d2 f5 d0 bc 87 39 0f 3d 79 c2 31 bd
       -0.032511435 -0.025507841 0.03496697 -0.043398354
000050 79 2a 9c bd 40 aa 10 3d cb 8b 82 bd d0 b8 ce bd
       -0.076252885 0.035318613 -0.0637432 -0.10093844
000060 45 30 20 3d 23 1e 25 bd 78 43 b9 bd 86 01 8d bd
       0.039108533 -0.040311944 -0.09046072 -0.06885056
000070 24 2f 03 be bb f8 2c be 96 78 5f 3d ab b2 95 3c
       -0.12810951 -0.16891758 0.05455836 0.018273672
000080 2f 7b f1 bc b0 cc 1e 3c 00 1f 4c 3c 8c 4a 56 ba
       -0.029477684 0.009692356 0.012458563 -0.00081745605
000090 1a 4a 9c bc 0b ab eb 3d fe c9 38 3e 14 d0 a3 bc
       -0.019078303 0.11507233 0.18045804 -0.01999668
0000a0 ac 0e 05 3e 43 09 40 3e 74 c9 fc bc 6c e2 8a 3d
       0.12993878 0.18753533 -0.03085778 0.06781468
0000b0 c3 98 b0 3d 28 56 24 bc 7e e3 58 bd 5c 79 8a bd
       0.08622887 -0.010030307 -0.05295133 -0.06761429
0000c0 75 22 67 3a f4 7c db bc bb 9c 3b bd bc 4e 3e bc
       0.0008817085 -0.02679298 -0.045803767 -0.011615451
0000d0 56 1a 38 bd 14 df e1 bc bd 0b 3f 3e 41 01 15 be
       -0.04494699 -0.027572192 0.18656822 -0.1455126
0000e0 bf 15 4a 3d f8 aa ba 3e f2 13 d6 3d 6f df db 3e
       0.049337145 0.36458564 0.10453023 0.42943904
0000f0 27 96 93 3e f2 a0 c8 3d b5 94 cd 3e ce 79 2f bd
       0.28825495 0.09796323 0.40152517 -0.04284077
000100 30 13 46 bd 17 50 00 bd 14 d0 8d bc 84 bb 7b bd
       -0.048358142 -0.03132638 -0.017311133 -0.061458126
000110 36 70 80 bd 63 80 e8 bb 15 c7 55 bd 7d ff 9c bd
       -0.062714025 -0.007095383 -0.052191813 -0.07665918
000120 49 78 1c be 52 bc 64 bd c2 44 06 3e d8 2a 41 bd
       -0.1528026 -0.05584366 0.13112167 -0.04716
000130 87 73 b8 3c bf 20 cd 3d 08 40 09 3e e4 48 bf 3d
       0.022516025 0.100160114 0.13403332 0.09340075
000140 d3 4e 46 3d 47 89 7b 3d 67 1e 79 bc 41 f8 57 3d
       0.048415016 0.061410215 -0.015205002 0.052726988
000150 40 9e f3 3d be c2 7d 3d 50 2e fd 3d 58 3e bd 3d
       0.11895418 0.0619533 0.12362349 0.09240407
000160 84 d6 0b 3d 6b 8f 0b 3d 88 e5 24 3d 4b 92 9e bc
       0.034140125 0.03407232 0.04025796 -0.019356867
000170 77 c3 fc bc a5 07 d1 3c 27 3c 6f bd 1e 09 a4 bd
       -0.030854924 0.02551634 -0.058406975 -0.080095515
000180 33 dc 44 3d ee 6a f2 bc 00 0f 6e bd 8b 26 b8 3d
       0.04806156 -0.029592004 -0.058119774 0.089917265
000190 73 f7 09 3d fd 81 d3 3d c8 07 a8 3d 4f 6a e5 ba
       0.03368325 0.10327528 0.08204609 -0.0017502996
0001a0 00 32 51 3d 54 c8 b9 3d 45 a0 89 bc de 2c a3 bc
       0.051073074 0.09071413 -0.016800055 -0.019918855
0001b0 6b eb 3c 3c 78 84 ea 3b 9e 51 06 3c 46 20 0b bb
       0.011530737 0.007156905 0.00819817 -0.0021228953
0001c0 3a 2c b1 bb d9 07 ba 3a a5 24 90 bc 83 92 8b bc
       -0.0054068835 0.0014193013 -0.017595598 -0.017037636
0001d0 4a 47 20 bc 25 4a de bd 73 ad 72 3b 61 bc d9 3d
       -0.009782622 -0.10853986 0.0037029653 0.106316335
0001e0 94 20 0e be 24 2c ae bc 6c 0e b6 3d 3e 90 2e be
       -0.13879615 -0.021261282 0.088894695 -0.17047212
0001f0 31 77 86 bd 6f 2c 2a 3d f8 c7 13 3b ff 0f 21 bb
       -0.06565703 0.04154628 0.002254961 -0.0024576185
000200 ab 75 bd bc 4e fc cc 3c 17 b2 b1 3c 3a b5 a8 3c
       -0.023127398 0.025022652 0.021691365 0.020594228
000210 58 2e 00 bc 61 8f 92 3c 69 4e a0 3c 98 b5 44 3d
       -0.007823549 0.017890634 0.019568639 0.048024744
000220 46 f1 cc 3d 30 52 32 3e 65 90 e2 3c b7 f1 9a 3d
       0.10006957 0.17414165 0.027656743 0.07565635
000230 0d 0f 3d 3e 1c bf 86 3c 45 7e bb 3d 3f cd 33 3e
       0.18462773 0.01644855 0.091549434 0.17558764
000240 57 68 79 bc ba 0e c0 3d 7e be 68 3e 95 d8 66 bd
       -0.01522263 0.09377809 0.22728917 -0.056358892
000250 f2 95 b0 3d 4d 31 71 3e bb 70 b3 bd fb dd 8b 3d
       0.0862235 0.23553963 -0.08761736 0.06829449
000260 2c 97 58 3e fb 2c 0d 3e 69 77 48 3c 93 b0 ff bd
       0.21151417 0.1378669 0.012235501 -0.12484851
000270 3d 8f af 3d 46 7a c9 bc 63 2d 0e be e3 40 20 3a
       0.085722424 -0.024594437 -0.13884501 0.00061131845
000280 36 4f b6 bd 0c 49 11 be 37 b6 10 be 91 10 8e 3d
       -0.08901827 -0.14188021 -0.1413201 0.069367535
000290 15 3d 95 3e 90 4f 34 be eb 76 17 3d 06 1b 88 3e
       0.29148164 -0.17608476 0.036978643 0.26583117
0002a0 df d3 31 be ae 77 d4 3c 83 06 59 3e 90 a5 0b 3e
       -0.17365979 0.025935974 0.2119389 0.13637376
0002b0 6a 32 f9 3d b1 47 a8 3d eb 97 17 3e e4 4a 09 3e
       0.12167819 0.08216799 0.14804046 0.13407475
0002c0 da 92 8f 3d ab 95 06 3e 8e 83 d1 3d 1a 11 6d 3d
       0.070104316 0.13143031 0.1023017 0.057877637
0002d0 c3 e5 fb be fb 5f a0 be d8 fa c4 be 2e dc 39 bf
       -0.49198732 -0.31323227 -0.3847263 -0.7260159
0002e0 e2 52 0a bf 51 79 34 bf 18 b0 05 bf e9 d3 c7 be
       -0.5403272 -0.70497614 -0.5222182 -0.39028862
0002f0 8b 42 02 bf 0c 77 37 3d d8 75 b1 3a 10 38 06 bc
       -0.50882787 0.044791266 0.0013539148 -0.008192077
000300 c3 80 66 3d 80 9c a7 3a a6 d8 b2 bc 94 75 9e 3d
       0.05627514 0.001278773 -0.021831822 0.0773727
000310 2b 5e e7 3c bc f9 9e bc 07 16 2f 3d f7 3a a1 3d
       0.028243145 -0.019406192 0.042745616 0.07872575
000320 70 be d2 3d f2 dd 6d 3c c2 12 9f 3d 28 d5 f5 3d
       0.10290229 0.014518248 0.0776725 0.12003547
000330 48 82 08 3c 37 ae 35 3d 87 f5 fe 3d 3c cb 61 3d
       0.008331843 0.044355597 0.124491744 0.05512546
000340 82 60 47 3d 51 7c 9c 3c 27 b1 8a 3d c8 23 10 3d
       0.04867602 0.019102247 0.067720704 0.035190374
000350 22 8a 7a 3b 83 af a3 3d f9 53 3f 3d da ec bb bb
       0.0038229306 0.079924606 0.046710942 -0.005735022
000360 c6 53 65 3e ff 25 c6 3c f7 e3 11 bd ea 67 78 3e
       0.22395238 0.02418804 -0.035617795 0.2425839
000370 2c 73 1d bc 11 49 c8 bd 6b ec 4c 3e 93 3a 33 bd
       -0.009609979 -0.09779561 0.20012061 -0.043757033
000380 ef a9 02 be be 33 d1 bc 4c be a7 ba e5 7e 80 3d
       -0.12760137 -0.025537368 -0.0012797802 0.06274203
000390 eb 37 09 be 52 fc 14 bd ae 9c 58 3e 69 6c 94 bd
       -0.13400237 -0.036373444 0.21153519 -0.0724724
0003a0 f9 d3 3a 3c fa 18 8c 3e f0 4e 39 bd 40 a3 52 bd
       0.011403077 0.27362806 -0.045241296 -0.05142522
0003b0 4b a1 3c 3d 70 fb dc 3d f2 75 37 3d e8 a6 01 3a
       0.04605226 0.107901454 0.044790216 0.00049458304
0003c0 a6 df 28 3e bb bd 8b 3d 7b 80 29 3c e8 fc cd 3d
       0.16491565 0.068232976 0.010345574 0.10058004
0003d0 7d b0 71 bd 2b 62 ec bd 7f b7 15 3f a5 84 b0 3e
       -0.059006203 -0.115421616 0.5848312 0.344762
0003e0 59 6a e3 3d 21 d5 53 3e 42 99 16 3e 60 09 34 bd
       0.111042686 0.20686771 0.147069 -0.043954253
0003f0 e6 cb a9 bb d1 8b 1b bc b2 4f 5b bb d9 b1 b2 bc
       -0.0051817773 -0.009493784 -0.003346425 -0.02181332

dense1.3.bn1.weight f4 [60]
000000 a2 6f bb 3e f4 17 61 3e 5d fc 54 3e c4 d5 f8 3e
       0.36608607 0.21981794 0.20799394 0.4860059
000010 7d 2e 0f 3f aa 1d 6d 3e 9d be 9b 3f 7a 9c be 3e
       0.5593031 0.23155847 1.2167546 0.37228757
000020 e6 83 06 3f 2e 8e 9d 3e 84 0c e4 3d a6 a4 60 3e
       0.5254501 0.30772537 0.111352 0.21937808
000030 87 1a 56 3e 3f a1 07 3e 46 10 32 3f f4 ff 71 3e
       0.20908557 0.13245104 0.6955608 0.23632795
000040 5e 0e 96 3e f2 86 19 3d ea 5b 84 3e 01 64 26 3e
       0.29307836 0.03748221 0.25851375 0.16249086
000050 41 6e a7 3f 86 63 92 3e f0 94 44 3e 49 fe be 3d
       1.3080522 0.28591555 0.1919744 0.09325845
000060 45 02 86 3e f5 a2 4a 3f c6 e4 fc 3e d6 63 44 3f
       0.26173607 0.791549 0.4939329 0.7671484
000070 cc 53 a2 3e 55 00 b7 3e 04 ce 2c 3f a0 b7 7c 3f
       0.31704557 0.3574244 0.67501855 0.9871769
000080 42 68 c1 3e 25 47 f3 3e 1f 97 ea 3d 05 9d 29 3f
       0.37774855 0.47515216 0.11454605 0.6625522
000090 da e4 61 3f 85 aa 67 3f 50 b0 08 3e 1a a7 89 3f
       0.88239825 0.9049457 0.13348508 1.075412
0000a0 dc d4 1c 3f 45 33 4f 3e 87 e1 2f 3e 58 82 2b 3f
       0.612623 0.20234402 0.17175876 0.66995764
0000b0 7d d8 fb 3e aa d5 e5 3e d4 13 9f 3f 2a 9a 0f 3f
       0.49188605 0.44889575 1.2427926 0.5609461
0000c0 a9 fd 85 3f e0 28 c8 3e 48 77 3c 3e bd fb 04 3f
       1.0468036 0.39093685 0.18404877 0.5194662
0000d0 2c 6e 9b 3e 83 20 18 3e e1 3a d2 3f dd 28 2b 3f
       0.30357492 0.14856152 1.6424218 0.6685923
0000e0 fa 15 97 3f 45 48 2e 3e 7d 54 07 3d d9 88 e5 3e
       1.1803582 0.17019756 0.03303956 0.4483097

dense1.3.bn1.bias f4 [60]
000000 4f 58 46 bd 67 4b 55 bd 6b e5 20 be 5f dd 2f 3e
       -0.04842406 -0.052073862 -0.15712516 0.1717429
000010 c9 34 41 3d 90 58 87 3d 61 be a1 bd 2f b3 ab 3d
       0.04716948 0.06608689 -0.0789764 0.08383786
000020 f1 98 b5 bd 31 50 82 bc 7b 67 36 bc cf a1 0e bd
       -0.08867062 -0.015907379 -0.01113307 -0.03482228
000030 c2 04 12 bd b1 4c bc bd 02 ae fb 3d bb 30 f0 bd
       -0.03564907 -0.09194315 0.12289049 -0.117280446
000040 25 49 60 be 56 c1 20 be f6 d0 eb bb 8d 27 f1 bd
       -0.21902902 -0.15698752 -0.007196541 -0.11775122
000050 af 4c 7a bd 98 53 d9 3d e4 be 1f bd a7 41 95 bd
       -0.061108287 0.10611647 -0.039000407 -0.07287913
000060 4a 35 0e be e3 79 08 be d0 61 99 be fe 3b 8e be
       -0.13887516 -0.13327746 -0.29957438 -0.27780145
000070 dd 1c 06 be 7b d3 75 be 5b 1e 51 be ff 84 19 bf
       -0.13096948 -0.24006455 -0.20421736 -0.5996856
000080 91 6a 82 be 05 b9 93 3d 70 9b 00 be 02 43 6c be
       -0.2547193 0.07213024 -0.12559295 -0.23072436
000090 ff 3b ae be 38 5a bb 3e f2 17 5d be a9 cc 64 be
       -0.34030148 0.3659227 -0.21591166 -0.22343697
0000a0 2e fe a5 be ed 1b 20 be 16 90 7f bd 7b 81 29 3d
       -0.32420486 -0.15635653 -0.06239327 0.041383248
0000b0 38 10 3e be 55 52 9d 3c 49 ef 45 3e 8f 0d ce bd
       -0.18560874 0.019204298 0.19329561 -0.1006118
0000c0 b0 7d c8 3d 6b 66 cc 3d 04 c9 f9 3b 9c 0f 85 bd
       0.09789598 0.09980472 0.00762284 -0.06497118
0000d0 59 62 e4 3d 63 b9 4b bd 2f 12 5e bd 1e 69 45 3d
       0.11151571 -0.049737345 -0.05421656 0.04819595
0000e0 b9 92 06 3d 84 b4 3d bd fc 9d 3b bd 0f 0b d3 3d
       0.03285477 -0.04631473 -0.045804963 0.10304844

dense1.3.conv1.weight f4 [12, 60, 3, 3]
000000 d1 66 1c bd fe 49 d7 bd a8 60 8b bd 0c 28 78 bd
       -0.03818399 -0.1051216 -0.06805545 -0.060585067
000010 3a 34 19 be 8e 2e 13 be 7f aa 3d bd bc 51 e7 bd
       -0.14961329 -0.14373228 -0.046305176 -0.112948865
000020 1f 5a b8 bd e4 a5 e7 3c c0 89 f6 3b 56 61 1c bd
       -0.09001564 0.028277345 0.0075237453 -0.038178764
000030 53 3c 03 bc b2 f4 55 bc 40 31 0a bd c8 d2 30 bc
       -0.008009988 -0.013058828 -0.033738375 -0.010792442
000040 47 cc ec bb 85 e3 b5 bb 39 f8 8c bc cb c3 80 bb
       -0.0072265 -0.005550804 -0.017208206 -0.0039295903
000050 6b 3a 83 3b 67 cf 12 bd 66 76 2b bd ee e3 f3 bc
       0.0040047667 -0.035842326 -0.04186096 -0.029771771
000060 21 41 e4 bc 89 e9 41 bd 2a 52 f5 bc 3a 28 b1 bc
       -0.027863087 -0.047341857 -0.029946405 -0.021625627
000070 69 71 44 bd 25 ef ad bc 55 f2 42 3c fb 96 f2 bc
       -0.04795972 -0.021232197 0.011898597 -0.029613009
000080 2c 19 ec 3c 51 18 a3 bd 5d ab f4 bd 91 41 99 bc
       0.028820597 -0.07963622 -0.119467475 -0.018708022
000090 28 77 e3 3d 0a 2f 7d 3d 4f 2b 45 bd 9d 5f 5d 3d
       0.111067116 0.061812438 -0.048137005 0.054046262
0000a0 8d 15 7d 3c 43 7a b5 bd 76 56 00 bc 52 2a 1b bd
       0.015447033 -0.0886121 -0.007833114 -0.037882157
0000b0 57 19 0d be 79 50 28 bd 63 84 41 bd c7 66 33 bd
       -0.13779198 -0.04109237 -0.047245394 -0.043799188
0000c0 68 50 22 bd ed 2f 31 bd cc c0 5c bd 0c 74 ec bc
       -0.039627463 -0.043258596 -0.053894803 -0.02886393
0000d0 0b ae 34 bd ac fe 0b bd 36 3e 05 be 25 81 42 be
       -0.044111293 -0.03417842 -0.13012013 -0.18994577
0000e0 e7 5a 1a 3e f0 e5 a1 bd a8 b8 0d be db 45 0e 3e
       0.15073739 -0.07905185 -0.13839972 0.13893835
0000f0 db 3a a7 bc df 4b 14 be a6 38 64 3d 5c b5 f1 3d
       -0.020413807 -0.14482068 0.055718087 0.1180217
000100 1a 2d 95 3d 7d da 70 3d a1 5b 90 3c 5a b0 8e bb
       0.07283993 0.058802117 0.017621817 -0.004354519
000110 16 dd 57 3b 16 b8 0f 3b b8 0c ab bc 84 9c d5 bb
       0.0032938174 0.0021929792 -0.020880088 -0.0065189023
000120 3e 94 17 3e 48 38 29 3e 59 df 66 3e 30 5d 36 3d
       0.14802644 0.16525376 0.22546138 0.044522464
000130 de f7 7c 3d f2 e6 b9 3d 60 84 96 3c 94 8d 48 3d
       0.061759822 0.090772524 0.018373668 0.048963144
000140 e7 9d 98 3d 22 46 0f bc 3a 54 38 bd 64 e3 0a bd
       0.074519925 -0.008744748 -0.0450022 -0.033908263
000150 ac 89 2b bc cf fd 5a bd e1 2a aa bd 2a fe b1 bc
       -0.010469835 -0.053464707 -0.0830896 -0.02172764
000160 36 70 37 bd d8 2f 5a bd f1 28 0f 3a 3b 68 e7 bc
       -0.044784747 -0.053268284 0.0005461118 -0.028247943
000170 5b 43 a3 bc f7 63 61 bd 48 58 9d bd 2f f9 1c bd
       -0.019929579 -0.055026975 -0.07682854 -0.038323577
000180 c3 7d 1d bd 36 c1 77 bd a0 67 6f bd 55 5f f4 bc
       -0.038450014 -0.060486995 -0.058448434 -0.029830614
000190 d2 95 9d bc 64 c7 f6 3b c4 c8 4c bd 29 99 3e bd
       -0.019236479 0.0075310934 -0.049996153 -0.046532784
0001a0 b2 54 09 bd 29 4b ee bc 19 42 45 bd ba 99 df bb
       -0.033528037 -0.029088574 -0.04815874 -0.0068237456
0001b0 d4 97 96 bc 57 87 cf bc 53 18 fd bc fe 32 e9 bc
       -0.018382944 -0.02533309 -0.030895388 -0.028466698
0001c0 3c f0 23 bd 67 1b c4 bc 77 12 dd bc e9 7f d4 bc
       -0.040024027 -0.023938848 -0.026986344 -0.025939899
0001d0 16 47 c3 bc f6 a5 c8 bb 91 a7 b7 bb eb 13 00 bc
       -0.023837607 -0.0061232997 -0.0056046923 -0.007817249
0001e0 1c 9f 21 bc 60 f5 b0 bc 4e bf ce bc f8 2a b5 bc
       -0.009864595 -0.021601379 -0.025237706 -0.022115216
0001f0 3d ed 13 bd 8b 6c 40 bd 06 57 f0 bd 3c 5a ed bd
       -0.03611492 -0.046978515 -0.117353484 -0.115894765
000200 b7 40 27 bd aa 2d 7c bd 1f b2 c2 bd 50 27 b4 bb
       -0.0408332 -0.061566986 -0.0950663 -0.0054978505
000210 1f 7b 00 be 71 f9 12 be 58 3b 98 bd 62 e7 99 bd
       -0.12546967 -0.14352967 -0.07433194 -0.07514836
000220 58 2a 86 bd c5 20 e8 bc 43 7b 98 bd ad 00 97 bd
       -0.06551045 -0.028335938 -0.07445385 -0.07373176
000230 24 13 0c bd ae 7d 99 bd 8c 0e 96 bd dc 7e d4 bc
       -0.03419794 -0.074946746 -0.07326993 -0.025939398
000240 dd 06 b5 bc 93 bd 9d bc 87 17 b4 3b 22 40 94 bc
       -0.022098 -0.019255435 0.0054959687 -0.018096987
000250 8d 6d d9 bc 7a 51 f7 3b ce 76 4a 3c eb b4 4a 3a
       -0.026541496 0.0075475546 0.012357427 0.00077326474
000260 c4 ee 16 bb c3 2a 28 3d 88 c9 ea 3c fb 8a 94 3b
       -0.00230305 0.041056406 0.02866055 0.0045331693
000270 50 2e 26 3d 99 99 34 3d 82 d3 65 bb ed 5d f1 3c
       0.04057151 0.044091795 -0.0035068695 0.029463733
000280 a5 8e 86 3c 3f a0 22 3b c2 4b 59 bc 8e 99 26 bc
       0.01642544 0.0024814752 -0.013262691 -0.010168446
000290 b0 2d 0c bc 26 85 c5 bc 90 b6 1c bd 1d d0 4e bd
       -0.008555815 -0.024111342 -0.038260043 -0.05049144
0002a0 58 e7 c5 bc 50 d1 21 bd 92 77 42 bd 21 9c 09 3d
       -0.024158165 -0.039506257 -0.047477312 0.03359616
0002b0 cb c1 3d 3d a1 9e 73 3d 85 4d 4e 3d da dd 70 3d
       0.046327394 0.059477452 0.050366897 0.058805324
0002c0 9f 3e 48 3d 42 43 5f 3d e6 7f 3d 3d 1b dd 44 3d
       0.048887845 0.0545075 0.04626455 0.048062425
0002d0 08 b1 3f 3e 60 04 37 be 6b 10 af be c1 47 83 3d
       0.18719876 -0.17872763 -0.34192213 0.0641017
0002e0 37 03 63 be 15 bf 89 be 67 e6 6c bd 4f 79 78 be
       -0.22169195 -0.26903597 -0.057836916 -0.24265026
0002f0 bd 26 4b be b2 9a a0 3d 08 9e a2 3d ee 1b 03 3e
       -0.19838996 0.07842006 0.07940298 0.12803623
000300 91 ca 19 3c ae ea 60 3c 3f 5b 83 3d 55 6f 12 3d
       0.0093866745 0.013727827 0.06413888 0.035750706
000310 00 9b b8 3c 05 4b 96 3d 02 be 7e bd 61 cf 78 bd
       0.022534847 0.073385276 -0.062192924 -0.060744647
000320 3d ae 88 bd 69 ba 4f bd f5 15 68 bd 13 a0 82 bd
       -0.06673858 -0.050714884 -0.056661565 -0.06378188
000330 8c b2 82 bd 1d 6c 49 bd b5 23 31 bd 5f 0b ca 3b
       -0.06381711 -0.04917537 -0.043246944 0.0061659063
000340 9c 36 d2 3c 5a e1 db 3c e3 2f c4 3b 91 03 a6 3c
       0.025660805 0.026840854 0.005987154 0.020265372
000350 e7 05 26 3d 51 07 00 3d fb b2 00 3d a6 29 fa 3c
       0.040532973 0.031256977 0.03142069 0.030537438
000360 92 75 12 3c 46 77 11 bd 52 ef a0 3c 06 96 2e bd
       0.008939164 -0.03551414 0.019645367 -0.042623542
000370 ea 54 7b bd b7 df ca bc bb da 41 bd 70 0f 4c bd
       -0.061360277 -0.024764879 -0.04732774 -0.04981941
000380 b3 d2 f9 3a ec 87 0e 3d 20 d5 d0 bd 37 de 32 bd
       0.0019059986 0.034797594 -0.101969 -0.04366895
000390 3b 93 ff bc 54 21 98 bd 98 2f 3a 3c 47 2e 4a bd
       -0.031198135 -0.07428232 0.011363886 -0.04936054
0003a0 6d 22 53 bd de 95 d2 38 1d 90 c2 3c ab 0b 2c b9
       -0.051546503 0.00010041495 0.02375036 -0.00016407545
0003b0 da c9 f4 ba 4e 61 ee bc 1e 37 73 bd 42 72 2e bd
       -0.0018675879 -0.029099133 -0.059378736 -0.042589433
0003c0 89 d6 13 bd 87 f1 50 bd 41 56 f5 bb 23 28 9b 3d
       -0.03609327 -0.05101159 -0.007487089 0.07576015
0003d0 b4 9a f4 bc bf 36 cd bd 8d 59 7c 3d 1b d2 76 bd
       -0.029858924 -0.100202076 0.06160884 -0.060258966
0003e0 17 af 0d be 80 39 a4 3d d4 4e c3 bd 50 6f 34 be
       -0.13836323 0.0801878 -0.0953652 -0.17620587
0003f0 08 46 0b 3d 93 89 17 3d 19 50 54 3d 1e ae f5 3c
       0.034002334 0.036996435 0.0518342 0.029990252

dense1.4.bn1.weight f4 [72]
000000 7d e7 33 3f 33 98 a3 3e 29 74 09 3f 15 07 7f 3f
       0.702751 0.31952056 0.5369287 0.9962018
000010 5c 3b 78 3f bb a4 2b 3e 3f 68 e8 3e c5 76 fb 3e
       0.96965575 0.16762058 0.45392033 0.4911405
000020 89 2d 95 3f b5 23 37 3e bc 6a 22 3e 00 5e 34 3e
       1.1654521 0.17884715 0.15861028 0.17613983
000030 35 87 d7 3d 27 77 dd 3e fb fd 4d 3f be b6 fb 3e
       0.105238356 0.4325497 0.8046567 0.4916286
000040 25 5f 40 3f 16 5b e1 3e ee 3d a4 3e a5 14 ce 3e
       0.7514518 0.44014806 0.320785 0.40250126
000050 35 03 09 3f fb cf 96 3e 73 d9 1f 3e 66 d9 26 3e
       0.5352052 0.29455552 0.15610294 0.16293868
000060 72 06 a2 3e 46 34 72 3f 8d da 0b 3f d6 67 58 3e
       0.31645542 0.9461101 0.5463036 0.2113336
000070 7c a6 8f 3e fd 31 48 3e 27 5d ca 3e f7 bd 9e 3e
       0.28056705 0.19550319 0.39524195 0.31004307
000080 29 7f d4 3e b3 e9 06 3f 2e a1 cd 3e 0b c2 05 3f
       0.41503266 0.52700347 0.40162033 0.5224921
000090 bf 9c 19 3f 9a 47 89 3f 21 9a 76 3e ee a5 44 3e
       0.600048 1.0724976 0.24082233 0.19203922
0000a0 57 ef b2 3e 80 99 e6 3d df a2 a3 3e d2 49 0b 3f
       0.34948227 0.112597466 0.31960198 0.54409516
0000b0 c2 29 89 3e 5a 5a 19 3f 71 7f 4f 3f e4 10 f2 3e
       0.2678967 0.5990349 0.81053835 0.47278512
0000c0 cb 68 a0 3e 8d af 3d 3e 51 6a a2 3e 48 0c d6 3e
       0.3132995 0.18523999 0.31721738 0.41806245
0000d0 49 09 b0 3e 64 01 74 3e a9 e4 a7 3e 53 65 ac 3e
       0.34382084 0.23828655 0.3279164 0.33671054
0000e0 84 c6 9b 3f 20 e2 83 3e 70 80 34 3e 19 ef 0e 3f
       1.2169957 0.25758457 0.1762712 0.55833584
0000f0 5b a4 3b 3e 51 5b 1e 3e fc 89 bf 3f f6 14 8c 3e
       0.18324415 0.15464522 1.4963984 0.27359742
000100 1d 29 59 3e cc 2c c7 3d 91 83 c7 3d ff 56 5a 3f
       0.2120709 0.09725341 0.09741891 0.85288996
000110 35 45 0a 3d b9 7a 39 3f 28 bf b7 3e 3e 1b 22 3e
       0.033757407 0.72452885 0.35888028 0.15830705

dense1.4.bn1.bias f4 [72]
000000 36 ef d1 be fe e6 05 bd 7e a3 cc be 45 28 13 bd
       -0.41002816 -0.032690994 -0.39968485 -0.035927076
000010 c1 d5 d6 be 8d 32 ea bc 58 93 16 be 3e 11 7c bd
       -0.41959956 -0.028588558 -0.14704645 -0.06153988
000020 f5 07 d4 3c 71 05 c9 bc 9b 45 3a bd ac 05 46 bd
       0.0258827 -0.024538727 -0.045476537 -0.048345253
000030 30 43 74 bd 36 a6 06 bd 99 ac 62 3c 59 3b 9c be
       -0.059634387 -0.032873355 0.013835096 -0.3051403
000040 84 4b df be 81 65 d0 be 20 fa 63 be 34 4a b3 be
       -0.436123 -0.4070244 -0.22263384 -0.3501755
000050 35 5e a3 be 0c d2 08 3e cc 1f 99 3b 45 c6 8a 3d
       -0.31907812 0.13361377 0.00467298 0.06776098
000060 eb a8 e0 3d 9a 5b d6 3d 23 09 87 be 53 ff 31 be
       0.109697185 0.1046669 -0.26374158 -0.17382555
000070 e2 02 f2 3d a6 c5 d9 bc 55 2a aa bc 0c 3c 9e bc
       0.11816956 -0.026583504 -0.020772139 -0.019315742
000080 c0 45 e2 bd 51 c4 9b bd 19 db 80 bd 62 7e 62 3d
       -0.1104846 -0.07605804 -0.062917896 0.05529631
000090 81 53 23 be df 05 09 be 5e 7f 00 bf ac 16 94 bb
       -0.15949823 -0.13381146 -0.50194347 -0.0045193043
0000a0 dc c3 5a be 09 ff 15 bd 57 d9 8d bd a1 f5 75 be
       -0.21363777 -0.036620174 -0.0692622 -0.24019481
0000b0 2a fb 3f bd ad d7 8a 3d 73 73 1f be b2 25 dd 3e
       -0.046870388 0.06779418 -0.15571384 0.43192822
0000c0 f0 65 2f bc 2a 1a 56 3d 34 11 13 bd 56 8a a4 bb
       -0.010705456 0.052271046 -0.035905078 -0.0050213737
0000d0 ad d5 4d 3d 29 c8 bd bd c6 62 14 3d ea 0e 47 bd
       0.050252605 -0.09266693 0.03622701 -0.048598208
0000e0 fe a2 6a be 1f 2d c8 bc 7d a0 c0 3c 6a ce f5 3d
       -0.22913739 -0.024435578 0.023514027 0.12002261
0000f0 9c 30 19 bd 7d dc 91 bd 46 6a a0 be 4d 86 78 3d
       -0.037399873 -0.07122133 -0.3133108 0.060674954
000100 f8 ef 3f 3d 23 80 b3 3d 29 bc 58 3b 17 71 43 3a
       0.04685971 0.087646745 0.0033071137 0.00074555114
000110 3e 1b da bd f5 bc 83 3e e6 03 a7 3d 45 86 a7 bc
       -0.10649727 0.257301 0.081550404 -0.020449767
