independent_train/client35/best_model_1000.0.pth (torch, 930411 bytes, 56 tensors)

conv1.weight f4 [24, 3, 3, 3]
000000 e5 cc ab 3c d6 e1 49 3e 26 e2 93 bd bd 93 f8 3d
       0.020971725 0.19715056 -0.07220869 0.12137554
000010 d1 35 5c 3e af 88 19 3e f8 ee 78 bd 6b 54 ac bd
       0.21504904 0.14993547 -0.060774773 -0.08414539
000020 bf 83 52 bd e6 c0 16 3e 19 c5 a0 bc 2e 89 e8 3d
       -0.051395174 0.14722022 -0.019625233 0.1135429
000030 b3 8e f9 3d 9a 6f 5f bb cf da 83 3c 79 54 8b bb
       0.12185421 -0.003409362 0.016095547 -0.0042520133
000040 ac 1b 2c be 34 90 e8 bc f5 aa eb 3d 4d 42 75 3d
       -0.16807431 -0.028389074 0.11507217 0.059877682
000050 f1 cf 44 3d aa 32 8a bd df fa bc 3d 38 98 03 3c
       0.04804987 -0.06747945 0.09227537 0.008031897
000060 7d c5 4e bd 95 83 ba bd a8 eb 22 bd 6b 06 18 be
       -0.05048131 -0.091071285 -0.03977552 -0.14846198
000070 df 4a 21 3d 03 99 54 be 33 93 ab bd fd 4f 07 be
       0.039378043 -0.20761494 -0.083776854 -0.13214107
000080 f2 52 29 bd e0 ee 2a be 2c c8 53 3d 6f 89 39 bd
       -0.04133887 -0.16692686 0.05170457 -0.045297083
000090 bf a9 1c 3d c1 74 6f bd 75 51 f7 3d eb 6b 1e 3e
       0.03824782 -0.058460955 0.120760836 0.15470855
0000a0 60 ec 8d bd e1 7c dc 3d 35 89 2c 3e aa 45 1b be
       -0.069298506 0.10766006 0.16849215 -0.15163293
0000b0 4a ab e4 ba 8b 91 87 3c 1c cf 94 bc db 32 0e be
       -0.0017446068 0.016548892 -0.018165164 -0.13886587
0000c0 d9 21 72 3e a7 3d a9 3c 84 1d 20 bc ab a8 b6 3d
       0.23645724 0.020659281 -0.009772662 0.089188896
0000d0 6c 03 3b be 79 ed 95 bc 52 d2 1c bd fa e8 87 3c
       -0.18263024 -0.018301712 -0.038286515 0.016590584
0000e0 c5 52 aa bd 08 b6 34 bd 07 62 2f 3d d9 8d e2 3d
       -0.08316568 -0.04411891 0.042818096 0.110622115
0000f0 63 1e e5 bc 59 a5 a5 bd 6b f9 5c be 5d c3 0f 3c
       -0.027968591 -0.08088178 -0.2157952 0.008774606
000100 a3 ee 7f bd af 85 34 3d 4d 7a 40 bd 92 74 88 3b
       -0.06248344 0.044072803 -0.046991635 0.004164287
000110 f5 53 93 3c 99 5d 01 3c 65 18 4c 3c f9 69 12 bd
       0.01798437 0.007895851 0.012456988 -0.035745595
000120 94 92 86 3d e0 74 9d bc b7 f4 26 3e 19 49 ab 3d
       0.06570926 -0.01922077 0.16304289 0.08363552
000130 9c ab d6 3d be 50 91 3b f7 50 f5 3b 3b e5 f0 3d
       0.10481951 0.004434674 0.0074864584 0.11762472
000140 a3 6a 43 3d d3 8c d8 bd b0 19 af 3d 67 1a 51 3d
       0.04770912 -0.10573735 0.085498214 0.05105057
000150 f8 24 48 3d 16 82 cd 3d b3 d2 f3 3c 2a ad 26 be
       0.04886338 0.100345775 0.029763555 -0.16276994
000160 b9 36 02 bd fe 2d 29 bd 11 d0 5e 3d 84 93 89 3e
       -0.03179047 -0.041303627 0.054397646 0.26870358
000170 64 46 37 be 09 75 b0 bd 16 95 4b bd 93 f0 b4 3c
       -0.17897946 -0.08616073 -0.049702726 0.022087371
000180 4b 3c a6 3c 17 80 c9 3c a7 58 06 be 7f 95 8c bd
       0.020292422 0.02459721 -0.13119756 -0.068644516
000190 17 0c 39 bd 38 74 ad bc ce 09 c9 3d 4b b7 31 bc
       -0.045177545 -0.021173581 0.09816323 -0.010846923
0001a0 cb fe 0d be 63 a2 11 3c 8c 42 e5 bd bd 44 65 bc
       -0.13866727 0.008888814 -0.111943334 -0.013993439
0001b0 b5 7e 2b be 0d f0 db 3d 64 76 5e bd 17 5a 0b be
       -0.16747554 0.107391454 -0.054312125 -0.13608585
0001c0 6e ea 4d bd fa 51 e6 bc 87 a0 2c 3e 4f 4d 8d bc
       -0.050272398 -0.028115261 0.16858111 -0.017248778
0001d0 df af 84 3d 43 fa e7 3c 67 20 8e 3d e8 25 78 3e
       0.06478857 0.028317576 0.06939774 0.2423321
0001e0 69 b9 0b 3d 71 29 33 bd f0 26 75 3d ea dc 2c bc
       0.034112368 -0.043740693 0.059851587 -0.010550717
0001f0 ce 91 97 3c f8 f6 e1 3c 96 18 3f 3d 3f 65 81 3d
       0.018502142 0.027583584 0.046654306 0.06318139
000200 8f f6 44 bd 23 62 42 3e 6f 8a 13 bc 37 73 ba 3c
       -0.0480867 0.18982749 -0.009005173 0.022760017
000210 ba 1c 6c 3d e3 56 e3 3d 38 60 60 bc a2 6d 3d 3d
       0.057644583 0.11100557 -0.013694815 0.046247132
000220 0f 0e 54 bd 3c 1a a7 3d f6 cd 1e 3d 66 2c 57 bc
       -0.05177122 0.08159301 0.03877064 -0.013133144
000230 ad 31 78 3d 1c 59 e2 3c b4 18 de 3d b9 69 8a bd
       0.06059425 0.027630381 0.108445555 -0.06758446
000240 38 2c f1 bc 44 6e b6 bc 4b 7e 33 3d 79 80 8b bd
       -0.02944003 -0.022269376 0.043821614 -0.068116136
000250 92 53 21 3e fe 09 27 be cc 2c 1b 3c 0e bf 0a be
       0.15754536 -0.16312405 0.00947113 -0.13549444
000260 67 0f 52 3d f0 78 32 be a4 5c b2 3d bc 01 7c 3d
       0.05128422 -0.17428946 0.08709076 0.06152509
000270 1b a9 a0 3d 82 5b 16 3e a7 33 9c bc 49 a4 51 bd
       0.07844754 0.14683345 -0.019067599 -0.051182065
000280 c5 c2 92 3d bf 0f 27 be 36 d1 d7 3c 14 34 5a bd
       0.071660556 -0.163146 0.026344877 -0.05327232
000290 b7 0e 6a bc 22 cf 13 3e 62 91 6e bd 61 9b f4 bc
       -0.014285735 0.14434484 -0.058244117 -0.029859247
0002a0 d3 8b 4e 3d 71 b3 d0 3c 84 61 00 bd 0a 91 b9 3b
       0.050426316 0.02547619 -0.031343 0.005663042
0002b0 13 e3 09 3c 44 3d 86 bc 48 d0 b9 bd 59 21 aa bd
       0.008415955 -0.016386636 -0.090729296 -0.08307142
0002c0 fd c7 6b bd 57 9b 2b bd f6 24 cd bd 29 0e e7 3d
       -0.05756377 -0.04189619 -0.10016815 0.11281998
0002d0 b6 7a 8e 3d 9c db da 3c 22 6d ab 3b 9d 16 43 be
       0.06956999 0.026716046 0.0052315155 -0.19051595
0002e0 17 4a 4e be 39 dc 27 bc df db 40 3e 9c a1 1c 3d
       -0.2014545 -0.010245376 0.18833874 0.03824006
0002f0 55 a9 03 bc 20 f8 fd 3d f0 c3 7b 3c 66 f3 57 bd
       -0.008035977 0.12400842 0.015366539 -0.052722357
000300 00 72 99 3d cd 48 cf 3d 3a d5 f6 3c 01 dd e8 3d
       0.07492447 0.101213075 0.030130971 0.11370278
000310 74 8e 85 3d 1f c0 7c 3d 32 c9 93 bd 31 29 2c 3d
       0.065213114 0.06170666 -0.07216109 0.04203147
000320 3e 61 91 bc f1 9a a7 bd fa 5e f5 bc d1 5f 91 3e
       -0.017746564 -0.081838496 -0.029952515 0.28393415
000330 43 f6 23 3c 4f cd d8 bd ef fa 83 bd f2 77 47 be
       0.010007444 -0.105860345 -0.06444346 -0.1947935
000340 f6 7d 25 be 46 b0 63 3b 0d 78 08 bc 3a 90 3c 3c
       -0.16161332 0.0034742518 -0.008329404 0.011508996
000350 3f fd bb 3d b9 c2 b8 bc 21 9d c9 bd 01 12 84 3d
       0.09179162 -0.022553788 -0.09844423 0.064487465
000360 c9 3c 27 3e 0c 6b 35 3e ef c0 fd 3c c3 00 91 bd
       0.16331781 0.17716616 0.030975787 -0.070802234
000370 00 c9 df bc 73 b9 21 3e 07 09 0c 3d 74 5e 3c 3d
       -0.027317524 0.157934 0.034188297 0.045988515
000380 f3 55 8d bd 62 3b aa 3d 73 bf 94 3c 1f 23 a5 bb
       -0.06901159 0.083121076 0.018157696 -0.005039587
000390 ad 91 e4 bc 61 8a 41 bc d6 61 47 3d 4f c3 04 3e
       -0.027901495 -0.011812777 0.048677288 0.1296513
0003a0 3a ed 27 be 73 08 60 be fe 21 f3 bd cf 4f 30 3e
       -0.16399089 -0.21878223 -0.11871718 0.17217945
0003b0 c6 88 b0 bd 2e ec 3f 3d 9d 5a 07 3e f4 0b 29 3d
       -0.086198375 0.046856098 0.1321816 0.041271165
0003c0 1e 51 fc 3c b8 c5 b0 3d 2d fd 35 3d 84 8a 43 3d
       0.030800398 0.08631462 0.0444309 0.04773952
0003d0 e1 bf 10 3e 79 89 7e bc 82 b1 70 3d ec 9b 33 bc
       0.14135696 -0.015535706 0.058763035 -0.010962468
0003e0 35 ab 07 bd 5e 2f a5 3d c8 19 49 3e 7a e9 71 bd
       -0.03312226 0.08065675 0.19638741 -0.05906055
0003f0 a7 30 02 bd eb 95 31 be a5 12 bf 3d 29 bd e9 bd
       -0.03178468 -0.17342345 0.09329728 -0.114130326

dense1.0.bn1.weight f4 [24]
000000 00 00 80 3f 00 00 80 3f 00 00 80 3f 00 00 80 3f
       1.0 1.0 1.0 1.0
000010 00 00 80 3f 00 00 80 3f 00 00 80 3f 00 00 80 3f
       1.0 1.0 1.0 1.0
000020 00 00 80 3f 00 00 80 3f 00 00 80 3f 00 00 80 3f
       1.0 1.0 1.0 1.0
000030 00 00 80 3f 00 00 80 3f 00 00 80 3f 00 00 80 3f
       1.0 1.0 1.0 1.0
000040 00 00 80 3f 00 00 80 3f 00 00 80 3f 00 00 80 3f
       1.0 1.0 1.0 1.0
000050 00 00 80 3f 00 00 80 3f 00 00 80 3f 00 00 80 3f
       1.0 1.0 1.0 1.0

dense1.0.bn1.bias f4 [24]
000000 00 00 00 00 00 00 00 00 00 00 00 00 00 00 00 00
       0.0 0.0 0.0 0.0
000010 00 00 00 00 00 00 00 00 00 00 00 00 00 00 00 00
       0.0 0.0 0.0 0.0
000020 00 00 00 00 00 00 00 00 00 00 00 00 00 00 00 00
       0.0 0.0 0.0 0.0
000030 00 00 00 00 00 00 00 00 00 00 00 00 00 00 00 00
       0.0 0.0 0.0 0.0
000040 00 00 00 00 00 00 00 00 00 00 00 00 00 00 00 00
       0.0 0.0 0.0 0.0
000050 00 00 00 00 00 00 00 00 00 00 00 00 00 00 00 00
       0.0 0.0 0.0 0.0

dense1.0.conv1.weight f4 [12, 24, 3, 3]
000000 83 6a d6 bd 67 fa be bd 9a 2b 64 3e 38 dd a3 bd
       -0.10469534 -0.09325104 0.22282258 -0.080011785
000010 f5 64 07 be ba 0a 02 be 10 fa 84 3e 4b a7 87 3d
       -0.13222106 -0.12699404 0.25972033 0.066237055
000020 4c 13 f4 bb 1d 52 84 3d a5 d5 3b 3d 71 30 9c bd
       -0.0074485894 0.06460974 0.045858044 -0.07626427
000030 1c eb e5 bd d6 0c 24 be 85 1f c4 3d 85 2d 49 3d
       -0.11226484 -0.16020522 0.095763244 0.049115676
000040 8d 69 09 3e c9 d9 e1 3b 7b 1b 83 3d fa 02 85 bc
       0.1341917 0.006892417 0.06401726 -0.01623677
000050 9f 4f d7 3d a4 6d c3 bc a5 c2 fb 3b 09 4e 22 3d
       0.105132334 -0.023855992 0.0076831155 0.0396252
000060 5f 97 61 3d ac 4a 2a bd 70 a3 45 bd 9f ce 80 3c
       0.055076 -0.04157512 -0.04825157 0.015723525
000070 2f 5d c8 bd b7 2f 3f 3d ed 24 69 bd d8 eb 8f bc
       -0.09783398 0.046676364 -0.05691998 -0.017568514
000080 cc c6 eb bd fc 9a e8 3c 09 1c 93 3c b7 58 27 3b
       -0.11512527 0.028394215 0.017957704 0.0025535056
000090 51 20 19 be a3 55 70 be 4a fd a7 3b e3 2d 05 bd
       -0.14953734 -0.23470168 0.00512663 -0.032514464
0000a0 85 78 cd 3d 46 f7 63 3e d0 35 aa 3c d0 40 99 bc
       0.10032753 0.22262296 0.020777613 -0.018707663
0000b0 87 c0 ad bd 25 fc 84 bd b5 02 b8 3d 4a 6a a3 bd
       -0.08483987 -0.06493405 0.08984891 -0.079792574
0000c0 00 80 45 3e bf 16 39 3e 2e 60 b9 3c d9 01 b7 3b
       0.1928711 0.18075083 0.02262887 0.005584937
0000d0 91 45 5b 3e fc 59 33 bd 13 b0 bd bd c8 a2 1d 3e
       0.21413256 -0.043786988 -0.09262099 0.15394127
0000e0 fb 37 2d bc 5d e1 9e bb 3b 36 4b bd 3d 00 b8 3e
       -0.010572429 -0.0048486427 -0.049612265 0.35937682
0000f0 d3 ce fa bc 4c 0e bd bd f2 c0 cf 3d 93 0b 8c be
       -0.0306162 -0.092312425 0.10144223 -0.2735258
000100 2c 6e 94 bd 4e 7c 09 be 98 e0 7f 3e ac 5c 89 bc
       -0.07247576 -0.13426325 0.2498802 -0.016767822
000110 68 b3 89 3d 96 66 12 bd 92 8d b5 bd d0 76 25 3d
       0.06723672 -0.035742365 -0.08864893 0.04039651
000120 93 75 fb 3b ab e0 aa 3d eb 26 8d bd 6b 76 42 be
       0.007673928 0.08343633 -0.06892189 -0.18990485
000130 fb b9 3f be 46 1f c9 bc 1b ca 1b 3e 6b 60 c1 3b
       -0.1872329 -0.024551045 0.15213816 0.0059013865
000140 61 06 13 be c3 4e 4d bd 23 5e 90 3d 90 90 41 bd
       -0.14357902 -0.05012394 0.07049205 -0.047257006
000150 be 5c 92 3d 23 7e ef bd 86 79 23 bd b2 0c 8d bd
       0.071465954 -0.116939805 -0.039910816 -0.06887187
000160 40 07 87 3c e6 8a a8 3d 05 05 63 bc cb ed cc 3d
       0.01648295 0.08229618 -0.013856177 0.10006293
000170 e1 52 c1 bd 69 bb 5b 3d 9b 0d 8a 3d 3b 46 e0 bd
       -0.09439636 0.053645525 0.06740876 -0.109508954
000180 da a8 95 bd 90 57 0d be bd eb e5 3d cf 60 2b 3d
       -0.073075965 -0.13802934 0.11226604 0.04184037
000190 da a7 4f 3d e4 26 9d bd 9b 9d d1 3d 6a c3 e1 bd
       0.050697185 -0.076734334 0.10235139 -0.110236004
0001a0 45 5c ac bd 90 69 66 3e 09 a3 f9 bd 78 19 36 be
       -0.084160365 0.22501206 -0.121892996 -0.17783153
0001b0 4d 65 ad bd 4d 64 76 3e 90 4a 31 be e5 97 51 bd
       -0.08466587 0.24061699 -0.173136 -0.05117025
0001c0 0f f6 d5 3d 03 b7 45 3d 43 b5 bd bc 45 7d a6 3c
       0.104473226 0.048270237 -0.023157721 0.020323405
0001d0 f1 4a ed 3b ef d8 50 bc 24 63 0c 3e 1f a7 18 3d
       0.0072415997 -0.0127470335 0.13709694 0.037268754
0001e0 95 eb 17 3d 0e d5 f2 3b 3d dc 94 bb 5b d8 19 3e
       0.037089903 0.007410652 -0.004542856 0.1502394
0001f0 e2 62 8b bd 27 93 13 3d 4d e0 81 be 5b de 22 3d
       -0.0680597 0.036029007 -0.2536644 0.039762836
000200 27 e5 f4 bc 1a 1b 28 3e 9b 92 37 be 5e 9a 6f be
       -0.029894425 0.16416588 -0.1792702 -0.2339873
000210 4b 0e 45 3e 65 de ac be cf de 05 be 4e b1 61 bd
       0.19243734 -0.33763424 -0.13073276 -0.05510073
000220 4a a2 a5 3d aa e9 ca 39 22 2b 14 bd 68 1d 14 be
       0.08087595 0.00038702536 -0.036173947 -0.14464343
000230 7e 52 22 3c 87 f5 10 be 83 3d 02 3d da 6c 90 3e
       0.009907363 -0.14156161 0.031796943 0.28208047
000240 5a 90 de bd 0d 97 0b be d6 8d 34 be 04 85 0c 3d
       -0.108673766 -0.1363184 -0.17632231 0.03430654
000250 46 5c 4c 3d 78 7e 59 bd f5 83 75 bd e0 e7 17 3d
       0.049892686 -0.053099126 -0.059940297 0.037086368
000260 2e 60 4e be 1e ad 5e be 89 69 80 3d fc 22 80 ba
       -0.20153877 -0.21745726 0.06270129 -0.0009776051
000270 af df d3 bd 02 e3 38 3d bd 7f bd bd da 06 b0 3d
       -0.10345399 0.045138367 -0.0925288 0.08595057
000280 21 7a 28 3e 2c 9f 73 3d b8 97 f5 3c f4 ee e5 3d
       0.16452838 0.05947797 0.029979572 0.11227217
000290 95 43 f8 3c 42 8e 1a bd f3 7b 3c be 54 21 73 be
       0.030305663 -0.037733324 -0.18406658 -0.23743182
0002a0 2e cd f5 bd fa 1d b8 3d 79 ba 3d 3d d9 36 30 3c
       -0.120020255 0.089900926 0.046320412 0.010755264
0002b0 b2 96 06 3e 80 12 0d 3e d8 b7 7e bd 6b f9 a8 3d
       0.13143423 0.13776588 -0.062187046 0.08250698
0002c0 fd 87 85 3d 7c 67 1a 3c a5 e3 1f 3e 18 12 3a 3e
       0.06520078 0.009424087 0.15614183 0.18170965
0002d0 65 ef 73 bd 12 1c 29 3e bc 40 14 3e bb b4 04 be
       -0.059554476 0.16514614 0.14477819 -0.12959568
0002e0 fb b3 96 bd 75 89 e2 bd 96 60 5f 3e a1 e1 35 3e
       -0.07358547 -0.11061374 0.21814188 0.17761852
0002f0 3f 20 03 3e 1f 8d b2 3c c0 12 56 3d 9f 24 96 3b
       0.1280527 0.021795807 0.052263975 0.0045820023
000300 83 26 24 3d 2e ee 65 3d a6 a9 2c 3e 87 30 96 3d
       0.04007579 0.05613535 0.1686159 0.073334746
000310 74 b7 37 bd 6b 1c 4f 3d f5 91 e2 bd 0c b5 d3 bb
       -0.04485269 0.05056421 -0.11062995 -0.0064607915
000320 6b b9 73 3e ad fe ab 3d fd 25 47 be 3c e8 fe bd
       0.238012 0.08398185 -0.19448085 -0.12446639
000330 df 7e 46 3e 40 98 96 3c 63 25 0b be 97 80 c0 bd
       0.19384335 0.018383145 -0.1358848 -0.093995266
000340 23 73 0d be 70 78 a6 bd 5f 7a c6 bd 88 6b 3a 3d
       -0.13813452 -0.081284404 -0.09691309 0.045512706
000350 16 99 0d bc 8c 9e a2 bd 7e d1 29 3c 73 1b 24 3c
       -0.008642456 -0.07940397 0.010364888 0.01001631
000360 17 11 02 3e 57 de e4 bd 4e e0 41 be e5 26 d6 bc
       0.12701832 -0.111752205 -0.18933222 -0.026141593
000370 99 d6 d9 3d a2 70 52 be 14 97 ad 3d 7f 93 46 bb
       0.106366344 -0.20550779 0.084760815 -0.0030300317
000380 6b 22 6b be 2a 0e b8 3c ce d7 33 be c2 03 ac 3d
       -0.22962348 0.022467691 -0.17562792 0.08399154
000390 be 19 04 3e f7 27 a8 bd ac a1 c8 3d 9f 47 46 3e
       0.12900445 -0.08210748 0.097964615 0.19363259
0003a0 a0 0c e5 ba ed 92 94 3e 8c 21 82 3e 62 30 ab 3d
       -0.0017475076 0.29018345 0.2541622 0.08358838
0003b0 25 77 bc 3d f9 bf 3b be 27 64 ae bc a8 52 8f 3b
       0.092024125 -0.1833495 -0.02128799 0.004373867
0003c0 4b c1 35 be 9f 2e 6f 3e b4 36 87 be 37 e9 c0 3d
       -0.17749517 0.23357628 -0.26408923 0.09419482
0003d0 c1 0f cb 3d c2 5b d9 ba b2 8d e0 3c e9 42 0e bd
       0.09915114 -0.0016583132 0.027411316 -0.03473178
0003e0 9a 3a fb bc f7 9e 6e bd 11 51 c4 3d 96 81 15 3c
       -0.030667592 -0.05825707 0.09585775 0.009125134
0003f0 8e f6 a8 3d 8e 3f df 3c e4 53 fc 3c 32 b7 b4 bd
       0.082501516 0.027251985 0.03080172 -0.08824004

dense1.1.bn1.weight f4 [36]
000000 00 00 80 3f 00 00 80 3f 00 00 80 3f 00 00 80 3f
       1.0 1.0 1.0 1.0
000010 00 00 80 3f 00 00 80 3f 00 00 80 3f 00 00 80 3f
       1.0 1.0 1.0 1.0
000020 00 00 80 3f 00 00 80 3f 00 00 80 3f 00 00 80 3f
       1.0 1.0 1.0 1.0
000030 00 00 80 3f 00 00 80 3f 00 00 80 3f 00 00 80 3f
       1.0 1.0 1.0 1.0
000040 00 00 80 3f 00 00 80 3f 00 00 80 3f 00 00 80 3f
       1.0 1.0 1.0 1.0
000050 00 00 80 3f 00 00 80 3f 00 00 80 3f 00 00 80 3f
       1.0 1.0 1.0 1.0
000060 00 00 80 3f 00 00 80 3f 00 00 80 3f 00 00 80 3f
       1.0 1.0 1.0 1.0
000070 00 00 80 3f 00 00 80 3f 00 00 80 3f 00 00 80 3f
       1.0 1.0 1.0 1.0
000080 00 00 80 3f 00 00 80 3f 00 00 80 3f 00 00 80 3f
       1.0 1.0 1.0 1.0

dense1.1.bn1.bias f4 [36]
000000 00 00 00 00 00 00 00 00 00 00 00 00 00 00 00 00
       0.0 0.0 0.0 0.0
000010 00 00 00 00 00 00 00 00 00 00 00 00 00 00 00 00
       0.0 0.0 0.0 0.0
000020 00 00 00 00 00 00 00 00 00 00 00 00 00 00 00 00
       0.0 0.0 0.0 0.0
000030 00 00 00 00 00 00 00 00 00 00 00 00 00 00 00 00
       0.0 0.0 0.0 0.0
000040 00 00 00 00 00 00 00 00 00 00 00 00 00 00 00 00
       0.0 0.0 0.0 0.0
000050 00 00 00 00 00 00 00 00 00 00 00 00 00 00 00 00
       0.0 0.0 0.0 0.0
000060 00 00 00 00 00 00 00 00 00 00 00 00 00 00 00 00
       0.0 0.0 0.0 0.0
000070 00 00 00 00 00 00 00 00 00 00 00 00 00 00 00 00
       0.0 0.0 0.0 0.0
000080 00 00 00 00 00 00 00 00 00 00 00 00 00 00 00 00
       0.0 0.0 0.0 0.0

dense1.1.conv1.weight f4 [12, 36, 3, 3]
000000 73 1e 8b bd 37 a8 7d be 5e 5c 2b be ea 77 e6 3d
       -0.06792917 -0.247712 -0.16734454 0.112533405
000010 b8 5e a1 bd 18 09 92 3d f5 2b c0 3d 7e 6c 72 bd
       -0.07879394 0.07130641 0.09383384 -0.059185497
000020 ad cf 24 3d b7 de 0f be bc b4 07 3d e5 7a 5d 3d
       0.040237118 -0.14049803 0.033131346 0.05407228
000030 74 b0 31 3d 8a 22 53 be 50 91 59 3e 54 cb 05 be
       0.04338117 -0.20618644 0.21246839 -0.13065845
000040 2d 4a cf 3b ad c1 94 bd 65 93 ea bc 20 6f 34 3e
       0.006325981 -0.07263503 -0.028634736 0.17620516
000050 12 81 7c be 97 ae 50 bd 29 ed 90 3e 64 c9 24 3d
       -0.24658611 -0.05094775 0.2830594 0.040231124
000060 9d 5b 6a 3c ab 6d 16 3e 84 ae 16 be 9f 2b fe bd
       0.014304069 0.14690273 -0.1471501 -0.12410664
000070 b7 8b bd 3d 8c 90 e5 bd 44 23 3d 3e 36 45 cc 3e
       0.09255164 -0.11209211 0.18470484 0.39896554
000080 3f fc 00 3c 14 27 0e bd 0d 24 85 be a2 61 ed bc
       0.00787264 -0.034705237 -0.26004067 -0.028977219
000090 ee fc 88 3d 58 b8 68 bd 6c 95 5c bd 5f 4f 18 be
       0.066888675 -0.05681643 -0.053853437 -0.14874028
0000a0 9d 4b 60 be 09 f3 0b 3c 69 57 11 be 1b bf 99 3c
       -0.21903844 0.008541831 -0.141935 0.018767884
0000b0 7d 80 8f 3d 14 53 a3 be e1 ee 57 3c 5e 0b f8 bc
       0.07006929 -0.3189932 0.013179512 -0.030278858
0000c0 dd 26 9e be 5a d6 06 3b 6f 63 17 3d 24 64 98 bd
       -0.30889025 0.002057454 0.03696006 -0.07440975
0000d0 25 e9 69 bd 70 17 05 be 5c 06 ad bd 00 f8 11 3e
       -0.05710711 -0.12997222 -0.084484786 0.1425476
0000e0 90 5c fe 3c 9a 3a 53 3e ff 6c 05 be b3 4b 03 3c
       0.031049997 0.20627823 -0.1302986 0.008013654
0000f0 81 b4 15 3e 85 f1 2a 3e 77 7f 54 3d 25 0c ed bb
       0.14619638 0.16693695 0.051879372 -0.0072341138
000100 40 de ff bd 90 61 92 bd ba d5 22 be 8d 04 2f be
       -0.12493563 -0.07147515 -0.15901843 -0.1709158
000110 46 2f 9f bc 50 8a 1b 3d 58 a7 84 be 4d 78 a6 3d
       -0.019431721 0.037973702 -0.25908923 0.08128414
000120 99 9e 35 3e a8 1c 21 3e 12 14 a8 bc b8 55 7a 3e
       0.17736281 0.15733588 -0.020517383 0.24446762
000130 7c 0a 18 3d e5 95 89 3e 72 bb b7 bd 72 68 1b 3c
       0.037119374 0.26872173 -0.08971299 0.009485351
000140 a4 9d 8a bd c0 8f 32 3e 6e 5c ad bd 7d c3 64 3d
       -0.06768349 0.17437649 -0.08464895 0.055850495
000150 de c6 ec bd 72 59 74 bd d6 1e e5 bb 8e 07 0e 3e
       -0.115613684 -0.059655614 -0.0069922013 0.1387007
000160 38 62 aa 3e a7 19 67 be a4 ff f2 3c 31 39 29 be
       0.3327806 -0.2256838 0.029662915 -0.16525723
000170 b7 27 02 be ed 1d 15 3e 18 6e a6 3c 58 56 3b be
       -0.12710463 0.14562197 0.020316169 -0.18294656
000180 3b d3 3c bc 99 98 3d 3d 0b 24 51 bd 9e d4 40 be
       -0.011524971 0.046288107 -0.051059764 -0.18831107
000190 47 8d 14 3e 98 d9 11 3c fc 19 eb 3d 9f 4c f3 bc
       0.14507018 0.008901976 0.114795655 -0.029699622
0001a0 df 0b 1c 3e 55 0a 4c 3e cd f7 64 bb a8 62 2c bd
       0.15238903 0.19925816 -0.003493774 -0.042086273
0001b0 8d c2 f9 bd 47 00 80 be d6 fa aa 3b db a7 92 be
       -0.12195311 -0.25000212 0.0052178903 -0.2864369
0001c0 67 22 05 be 26 9d 2c be a9 de bd 3d 49 e3 9d 3e
       -0.13001405 -0.16856822 0.09270985 0.30837467
0001d0 29 6c db 3c 44 3a a3 3e df df 50 be e9 86 b1 bd
       0.026784973 0.3188039 -0.203979 -0.0866831
0001e0 f9 03 e4 3c 3b 75 80 bd 7a be 47 bc 54 43 2a be
       0.027833926 -0.0627236 -0.012191409 -0.16627246
0001f0 ac 82 ef 3d ab 20 27 be fa 1a 86 bd ed 2c d7 3d
       0.116948456 -0.16321056 -0.06548114 0.10506616
000200 ba c9 89 3c 0e 9a 17 be ef 37 75 3c 26 39 4a be
       0.016819824 -0.14804861 0.014966949 -0.19748363
000210 6e 81 b3 3d 53 b6 26 bc 8e e8 60 39 9f 98 89 be
       0.08764921 -0.010175305 0.00021448938 -0.26874253
000220 44 9d 1c be 19 90 f4 3d b3 3f 27 3d 09 73 2f 3e
       -0.15294367 0.11941547 0.040832233 0.17133726
000230 2f ce 9b 3e dd 94 42 3a fb 9e 34 3e 41 b8 d8 bd
       0.30430743 0.0007422695 0.17638771 -0.10582019
000240 1d 73 81 3d 36 1e 49 3e e8 1b a9 3d 7a cf 81 3e
       0.06320784 0.19640431 0.08257276 0.25353605
000250 fd 0b 87 be 13 c3 98 bc e0 cd e0 bd e0 5a 68 be
       -0.26376334 -0.018647706 -0.109767675 -0.22690916
000260 33 27 2f 3d 86 fb d8 3d 96 f8 ea bc c6 fb aa bd
       0.042761993 0.10594849 -0.028682988 -0.08348803
000270 4c 26 8a 3d b0 92 10 3d 72 6f 31 3e 1c 88 52 3e
       0.06745586 0.035296142 0.1732767 0.20559734
000280 a6 7f 3d 3e 93 fb 60 be b0 2b 0e 3c 5d 10 08 3d
       0.18505725 -0.21970968 0.008677408 0.03321873
000290 1e 20 01 be c3 24 4a 3e ef df 21 be b9 15 2f 3e
       -0.12609908 0.19740586 -0.1580808 0.1709813
0002a0 a9 e0 60 3d e3 ff a4 3c 39 62 c4 3d ba ec 4d 3e
       0.054901753 0.020141548 0.09589047 0.20109835
0002b0 c1 6b e2 bc 66 2d 84 3b de e3 78 be 32 4f 95 be
       -0.027639272 0.004033732 -0.24305674 -0.29161984
0002c0 c4 07 17 be 55 e3 36 bc 97 fa 63 3e 47 a7 45 be
       -0.14749056 -0.011162599 0.22263561 -0.19302092
0002d0 4f ee a7 3d c9 16 91 3e e0 b1 ca bd 19 65 21 3d
       0.08199751 0.28337696 -0.09897208 0.039403055
0002e0 dc f1 f8 bd 1c 75 76 3e fa a0 3e 3e e0 50 d4 3d
       -0.12155506 0.24068111 0.18616095 0.10366988
0002f0 fa 1c 55 3e 79 48 c4 bd 9f 9a ee 3d 40 b9 de 3d
       0.20811835 -0.095841356 0.116505854 0.108751774
000300 70 f5 a5 be b0 dd 11 be 84 0e 5d 3d 53 03 13 3b
       -0.32413816 -0.14244723 0.05396892 0.0022432401
000310 56 ba b3 3d 29 d3 ac bd d7 f2 5e 3d a6 e6 f1 bd
       0.08775775 -0.08438713 0.05443081 -0.11811571
000320 52 8b 5a 3e a9 bb b4 3d e5 0d ae bc f1 3d 73 3c
       0.21342209 0.08824856 -0.02124686 0.014846311
000330 9b 4c 63 be 4f cb 98 3b 0f 6d c2 3d 02 a7 e7 bd
       -0.22197191 0.004662908 0.094934575 -0.11311151
000340 f7 01 80 be 95 67 48 3c 76 8e 17 3e e9 32 81 be
       -0.250015 0.012231727 0.14800438 -0.25234154
000350 96 15 81 be b8 52 a5 bd 86 7f 5c bd db 8e 89 3d
       -0.2521178 -0.08072418 -0.053832553 0.06716701
000360 51 59 71 3d 02 be c6 bd 59 df 0b 3e f0 23 1d 3e
       0.05892307 -0.0970421 0.13659419 0.1534574
000370 ef 36 b1 3d d6 d7 b9 bd 4e ae 51 3e e4 98 5e 3d
       0.08653056 -0.090743706 0.20476648 0.054345027
000380 c1 a2 1e bc c0 e3 7e 3c e1 6d 1f 3e 27 c5 bd bd
       -0.009682358 0.0155572295 0.15569259 -0.092661195
000390 2e 0d 81 3e 2a 6d 7f bd ec fd 77 3e 80 9e d2 bc
       0.25205368 -0.062359966 0.24217957 -0.025710344
0003a0 f2 0c 89 bd ac ce bd bd f0 3d bc 3e c1 d8 f2 bd
       -0.06691922 -0.09267935 0.36766005 -0.11857749
0003b0 a7 46 d3 bc 5f 44 48 3d a2 74 1b be fe c0 ac be
       -0.025790526 0.04889333 -0.1518121 -0.3374099
0003c0 00 73 02 bd 1f d7 32 bc 15 c1 21 be 64 cd cb bc
       -0.031847954 -0.010915547 -0.15796311 -0.024878211
0003d0 6b fb 11 bc 70 e3 2e be 3d 7e 62 be 2b d3 ed bd
       -0.00891004 -0.17078948 -0.22118469 -0.11612543
0003e0 c9 95 c6 bd 7e 31 21 be c6 b4 6b bd 3d a7 18 be
       -0.09696538 -0.15741536 -0.057545446 -0.14907546
0003f0 5a 79 6f 3d 46 36 b6 3d 5a 4d bd 3d 7c b8 8f 3e
       0.05846534 0.088970706 0.09243269 0.28070438

dense1.2.bn1.weight f4 [48]
000000 00 00 80 3f 00 00 80 3f 00 00 80 3f 00 00 80 3f
       1.0 1.0 1.0 1.0
000010 00 00 80 3f 00 00 80 3f 00 00 80 3f 00 00 80 3f
       1.0 1.0 1.0 1.0
000020 00 00 80 3f 00 00 80 3f 00 00 80 3f 00 00 80 3f
       1.0 1.0 1.0 1.0
000030 00 00 80 3f 00 00 80 3f 00 00 80 3f 00 00 80 3f
       1.0 1.0 1.0 1.0
000040 00 00 80 3f 00 00 80 3f 00 00 80 3f 00 00 80 3f
       1.0 1.0 1.0 1.0
000050 00 00 80 3f 00 00 80 3f 00 00 80 3f 00 00 80 3f
       1.0 1.0 1.0 1.0
000060 00 00 80 3f 00 00 80 3f 00 00 80 3f 00 00 80 3f
       1.0 1.0 1.0 1.0
000070 00 00 80 3f 00 00 80 3f 00 00 80 3f 00 00 80 3f
       1.0 1.0 1.0 1.0
000080 00 00 80 3f 00 00 80 3f 00 00 80 3f 00 00 80 3f
       1.0 1.0 1.0 1.0
000090 00 00 80 3f 00 00 80 3f 00 00 80 3f 00 00 80 3f
       1.0 1.0 1.0 1.0
0000a0 00 00 80 3f 00 00 80 3f 00 00 80 3f 00 00 80 3f
       1.0 1.0 1.0 1.0
0000b0 00 00 80 3f 00 00 80 3f 00 00 80 3f 00 00 80 3f
       1.0 1.0 1.0 1.0

dense1.2.bn1.bias f4 [48]
000000 00 00 00 00 00 00 00 00 00 00 00 00 00 00 00 00
       0.0 0.0 0.0 0.0
000010 00 00 00 00 00 00 00 00 00 00 00 00 00 00 00 00
       0.0 0.0 0.0 0.0
000020 00 00 00 00 00 00 00 00 00 00 00 00 00 00 00 00
       0.0 0.0 0.0 0.0
000030 00 00 00 00 00 00 00 00 00 00 00 00 00 00 00 00
       0.0 0.0 0.0 0.0
000040 00 00 00 00 00 00 00 00 00 00 00 00 00 00 00 00
       0.0 0.0 0.0 0.0
000050 00 00 00 00 00 00 00 00 00 00 00 00 00 00 00 00
       0.0 0.0 0.0 0.0
000060 00 00 00 00 00 00 00 00 00 00 00 00 00 00 00 00
       0.0 0.0 0.0 0.0
000070 00 00 00 00 00 00 00 00 00 00 00 00 00 00 00 00
       0.0 0.0 0.0 0.0
000080 00 00 00 00 00 00 00 00 00 00 00 00 00 00 00 00
       0.0 0.0 0.0 0.0
000090 00 00 00 00 00 00 00 00 00 00 00 00 00 00 00 00
       0.0 0.0 0.0 0.0
0000a0 00 00 00 00 00 00 00 00 00 00 00 00 00 00 00 00
       0.0 0.0 0.0 0.0
0000b0 00 00 00 00 00 00 00 00 00 00 00 00 00 00 00 00
       0.0 0.0 0.0 0.0

dense1.2.conv1.weight f4 [12, 48, 3, 3]
000000 aa 3b f1 bd fa af 37 3e bc 84 0e be c2 fe af bd
       -0.11778958 0.17938223 -0.13917822 -0.08593513
000010 5c 2e 61 be 64 77 f5 bd 7d 25 9e 3c 1e 23 5c 3d
       -0.21990341 -0.119856626 0.019304985 0.053744428
000020 c2 a5 3e 3e a6 dc ec 3d 26 19 21 be f8 1b 8a bd
       0.18617919 0.11565523 -0.1573225 -0.06743616
000030 3d 03 52 bc 2e e2 ca bd e3 d7 87 3d f7 3f 53 be
       -0.012818155 -0.099064216 0.06632974 -0.2062987
000040 49 4e e8 bd ab aa dd bd 4a c5 35 3e d9 51 6c bd
       -0.11343057 -0.10823568 0.17751041 -0.057695244
000050 6b cd 45 bd 6c 60 3d be 50 ad bf 3d 6a 1d 4d be
       -0.048291605 -0.18493813 0.093592286 -0.20030752
000060 ad b8 a6 3d dc 38 8c be 92 2e a7 bc 04 70 9c bd
       0.08140693 -0.2738713 -0.020407949 -0.07638553
000070 e7 ea 2e 3e c0 8c c0 bd 3f 89 8a 3e 12 c2 8a bd
       0.17081796 -0.09401846 0.27057835 -0.06775297
000080 4a 86 86 3e 89 5d 4c 3c 1f 03 ce bb e8 32 03 3e
       0.2627433 0.012473472 -0.006286993 0.12812388
000090 ec ed 12 3e c4 08 b3 bd c3 5e ae bd a3 63 e5 3b
       0.14348572 -0.08741906 -0.08514168 0.007000403
0000a0 48 1d a3 3a 03 f4 1a 3d 79 5f cf bd 55 df 69 3e
       0.001244464 0.037830364 -0.10125632 0.228391
0000b0 ec 2f b4 bc a0 19 5d be b0 2d e9 bc 4d e0 b1 3e
       -0.021995507 -0.21591806 -0.028464168 0.3474144
0000c0 6c a0 9f bd 76 76 0c 3e 87 f4 40 3e 9b a3 92 bc
       -0.0779427 0.13717064 0.1884328 -0.017900279
0000d0 9b 97 9e 3d 51 d7 b6 bd ff ee a9 3c 90 e8 9d 3d
       0.0774376 -0.08927787 0.020743845 0.077103734
0000e0 83 1f c8 bd 9c bc 85 3d 69 e2 a2 bd 3f d2 7f be
       -0.097716354 0.06530115 -0.079533406 -0.24982546
0000f0 da 22 34 be 6f ee f6 bd 46 5b 3a 3e 9d 0b 76 3e
       -0.1759142 -0.12057196 0.1819888 0.24027868
000100 28 6e 36 bd 7a 30 d3 bd 46 0d 24 3c 3e be fe 3c
       -0.044538647 -0.103119805 0.01001293 0.031096574
000110 2a 3d 3c 3d 74 99 91 3a 9a 29 e8 3d 28 8c 89 3d
       0.045956768 0.0011108355 0.1133606 0.06716186
000120 5e eb a8 bd 2c 41 ab bd 76 84 53 bd a8 d5 a4 bd
       -0.08248018 -0.0836204 -0.051639996 -0.08048564
000130 bb 17 82 3c 34 6f f7 3b 3b cb 5c 3d 35 ef 0b be
       0.015880456 0.0075510982 0.053904753 -0.13665469
000140 22 73 11 be 07 a7 6c be 28 9d e3 3d 5b 31 a1 3d
       -0.14204076 -0.23110591 0.111139596 0.07870742
000150 00 b0 e9 3c dd 5c d9 be fc d7 6d be b4 6a f7 bd
       0.028526306 -0.42453662 -0.23226923 -0.12080899
000160 b4 62 40 be e2 1f 55 3e 7e 3d 19 3e 79 99 2d be
       -0.18787652 0.20812944 0.14964864 -0.16953076
000170 1d e6 39 3d 48 ce a8 3c c7 08 90 bd 31 ea 2e be
       0.04538547 0.020606175 -0.07032924 -0.17081524
000180 2f 2b e7 bd cd b1 c7 bd 65 87 5c 3e 78 a3 1a be
       -0.112875335 -0.0975071 0.21536024 -0.15101421
000190 bb 84 ee bd 2c a9 5e bd 45 9a be bc 81 69 ce bd
       -0.1164641 -0.054360554 -0.02326692 -0.10078717
0001a0 7a 00 09 3d fd 26 85 3e da 7e 86 be 6b a5 a5 3e
       0.03344772 0.26006308 -0.26268655 0.32352766
0001b0 8d ea 76 bd 4b 55 74 3e d2 37 c9 bc 02 77 70 bd
       -0.06028228 0.23860662 -0.02456275 -0.058707245
0001c0 3e a4 b5 bc ad d8 8b 3c 47 36 04 3d 60 09 42 3d
       -0.022173043 0.017071093 0.032278325 0.047372222
0001d0 9e cb 28 3e 46 c9 44 3e b6 f6 e7 bd c8 4c 51 bd
       0.16483924 0.19217405 -0.11326353 -0.051098615
0001e0 4e c9 83 3e ae ca 41 be 08 64 00 be 32 f6 c1 be
       0.2573952 -0.18924972 -0.12538159 -0.37883145
0001f0 7e 6d 9f 3d 08 c5 59 bc 33 e4 99 3d 3e 2b 94 3c
       0.07784556 -0.013291605 0.07514229 0.018087026
000200 dd 26 12 be a0 68 84 be 56 79 b7 3d dc 79 5c bd
       -0.14272638 -0.25861073 0.0895869 -0.05382715
000210 ea d6 b1 3d b0 b2 19 be 99 b9 17 3e 12 a9 ec 3d
       0.0868357 -0.1500957 0.14816894 0.11555685
000220 e9 a2 43 be 89 07 35 be 2a fb 4f 3d 80 85 d3 3d
       -0.19105114 -0.17678656 0.050776638 0.103281975
000230 63 82 0d 3e e4 27 46 3e 65 28 e5 3d 23 28 32 be
       0.1381927 0.19351155 0.11189345 -0.17398123
000240 0c b4 36 3e 1b 5d e0 3d eb 99 4a 3d 6c c5 b7 bb
       0.1784212 0.109552585 0.049463194 -0.0056082513
000250 81 68 98 3d b7 1e fb bd 66 e7 a9 bd 62 fe 9d bd
       0.074418075 -0.12261718 -0.08296089 -0.07714535
000260 19 6f 86 bd 28 55 f3 bd b3 f3 65 bb ff b5 12 be
       -0.06564159 -0.11881477 -0.0035087883 -0.14327239
000270 a8 2a 92 bd 08 26 be 3c 3a 88 19 be 3d c8 31 be
       -0.07137042 0.023211494 -0.14993373 -0.17361541
000280 ed aa 95 bd 8b 81 32 3d 70 ee 0a bf 57 53 17 be
       -0.07307992 0.043580573 -0.54270077 -0.14777885
000290 d7 39 17 3e a9 92 48 3d a8 b0 56 3e ff c7 62 be
       0.14768158 0.04896799 0.20965827 -0.22146605
0002a0 85 ed 96 3d 36 72 11 bd 4c 0d e2 3d 81 64 5f 3e
       0.07369522 -0.03550931 0.110376924 0.21815683
0002b0 e5 34 b8 be 45 6e df bd 13 3d 8e 3d 3d 05 bd bd
       -0.35977855 -0.10909704 0.06945243 -0.09229515
0002c0 77 2a f6 be 1c 2e b2 bc e2 7a 30 bd b6 11 00 be
       -0.48079273 -0.021750502 -0.04308594 -0.12506756
0002d0 91 11 91 3e bd 97 92 3e 5f 77 b9 bd 03 e3 f2 3d
       0.28333715 0.28631392 -0.09055971 0.11859705
0002e0 80 6d 5a be 7d c8 ba bd ff fd e6 bd 86 3e e3 3c
       -0.21330833 -0.09120271 -0.11278915 0.027739774
0002f0 dd 3c 8d ba 7d 8e 29 ba 71 13 33 3e 42 6f 56 3d
       -0.0010775585 -0.0006468071 0.17487885 0.052352197
000300 d6 00 6e be 83 db 34 bc 04 18 f8 3d e6 58 c9 bd
       -0.23242506 -0.011038664 0.121139556 -0.09831409
000310 2b c1 8e 3d ae 75 2b 3d 49 77 15 3e 76 b6 10 3e
       0.069704376 0.041860275 0.14596285 0.14132103
000320 eb 96 20 bd 11 56 b0 3e 94 e7 84 3d 03 dc 89 3d
       -0.039206427 0.34440663 0.064894825 0.06731417
000330 06 a4 7d bd ca 75 6b 3c f8 ed ba bd 83 f2 85 3d
       -0.061924003 0.014371345 -0.0912742 0.06540396
000340 cb d9 a6 3d 76 ff 4a bd 09 d4 45 be 7d a0 9d 3d
       0.081470095 -0.049560033 -0.19319166 0.07696626
000350 da 2b 64 bd b5 2b 1b be ec 29 a1 be ce 69 1b 3e
       -0.055705883 -0.15153392 -0.31477296 0.1517708
000360 73 85 7d 3d 52 75 9d 3d 72 c8 62 bd e6 5c 08 bd
       0.061894845 0.07688393 -0.05536694 -0.03329172
000370 46 8a a3 bd 38 65 d6 bb a0 c3 31 3e cb 58 b5 3d
       -0.07985358 -0.006542828 0.17359781 0.088548265
000380 29 84 ab bd 9b 59 83 3e f4 b8 cd bc 02 b3 ff bd
       -0.08374817 0.256543 -0.025112607 -0.12485315
000390 a6 53 16 be cb 56 00 bd 32 84 ba bc a5 d5 8f 3d
       -0.14680347 -0.031332772 -0.022768114 0.07023171
0003a0 e8 fc c5 3d 94 6e 06 be 2f 2d 47 3e f3 69 5a bc
       0.09667379 -0.1312812 0.1945083 -0.013330924
0003b0 3c 3f 37 3e 08 cc 6d bc 9b 51 7d 3e c2 a4 bf be
       0.17895216 -0.014513977 0.24738161 -0.37430388
0003c0 02 03 53 bd 99 15 3e 3e 33 0e 83 3c eb cb 09 bd
       -0.05151654 0.18562926 0.015997982 -0.033641737
0003d0 c0 1d fa 3c 8a e7 dc bb 1e 42 4a 3e 2e 8b 48 3d
       0.030531764 -0.006741469 0.19751784 0.048960857
0003e0 8b d1 27 be 37 43 45 3e 5e b2 1f 3e ad 1b 66 bd
       -0.16388528 0.19263922 0.15595385 -0.056178737
0003f0 af 0e 0d bd 10 c5 c0 3d 99 21 45 bd 6d dc e4 3d
       -0.03443783 0.09412587 -0.048127744 0.111748554

dense1.3.bn1.weight f4 [60]
000000 00 00 80 3f 00 00 80 3f 00 00 80 3f 00 00 80 3f
       1.0 1.0 1.0 1.0
000010 00 00 80 3f 00 00 80 3f 00 00 80 3f 00 00 80 3f
       1.0 1.0 1.0 1.0
000020 00 00 80 3f 00 00 80 3f 00 00 80 3f 00 00 80 3f
       1.0 1.0 1.0 1.0
000030 00 00 80 3f 00 00 80 3f 00 00 80 3f 00 00 80 3f
       1.0 1.0 1.0 1.0
000040 00 00 80 3f 00 00 80 3f 00 00 80 3f 00 00 80 3f
       1.0 1.0 1.0 1.0
000050 00 00 80 3f 00 00 80 3f 00 00 80 3f 00 00 80 3f
       1.0 1.0 1.0 1.0
000060 00 00 80 3f 00 00 80 3f 00 00 80 3f 00 00 80 3f
       1.0 1.0 1.0 1.0
000070 00 00 80 3f 00 00 80 3f 00 00 80 3f 00 00 80 3f
       1.0 1.0 1.0 1.0
000080 00 00 80 3f 00 00 80 3f 00 00 80 3f 00 00 80 3f
       1.0 1.0 1.0 1.0
000090 00 00 80 3f 00 00 80 3f 00 00 80 3f 00 00 80 3f
       1.0 1.0 1.0 1.0
0000a0 00 00 80 3f 00 00 80 3f 00 00 80 3f 00 00 80 3f
       1.0 1.0 1.0 1.0
0000b0 00 00 80 3f 00 00 80 3f 00 00 80 3f 00 00 80 3f
       1.0 1.0 1.0 1.0
0000c0 00 00 80 3f 00 00 80 3f 00 00 80 3f 00 00 80 3f
       1.0 1.0 1.0 1.0
0000d0 00 00 80 3f 00 00 80 3f 00 00 80 3f 00 00 80 3f
       1.0 1.0 1.0 1.0
0000e0 00 00 80 3f 00 00 80 3f 00 00 80 3f 00 00 80 3f
       1.0 1.0 1.0 1.0

dense1.3.bn1.bias f4 [60]
000000 00 00 00 00 00 00 00 00 00 00 00 00 00 00 00 00
       0.0 0.0 0.0 0.0
000010 00 00 00 00 00 00 00 00 00 00 00 00 00 00 00 00
       0.0 0.0 0.0 0.0
000020 00 00 00 00 00 00 00 00 00 00 00 00 00 00 00 00
       0.0 0.0 0.0 0.0
000030 00 00 00 00 00 00 00 00 00 00 00 00 00 00 00 00
       0.0 0.0 0.0 0.0
000040 00 00 00 00 00 00 00 00 00 00 00 00 00 00 00 00
       0.0 0.0 0.0 0.0
000050 00 00 00 00 00 00 00 00 00 00 00 00 00 00 00 00
       0.0 0.0 0.0 0.0
000060 00 00 00 00 00 00 00 00 00 00 00 00 00 00 00 00
       0.0 0.0 0.0 0.0
000070 00 00 00 00 00 00 00 00 00 00 00 00 00 00 00 00
       0.0 0.0 0.0 0.0
000080 00 00 00 00 00 00 00 00 00 00 00 00 00 00 00 00
       0.0 0.0 0.0 0.0
000090 00 00 00 00 00 00 00 00 00 00 00 00 00 00 00 00
       0.0 0.0 0.0 0.0
0000a0 00 00 00 00 00 00 00 00 00 00 00 00 00 00 00 00
       0.0 0.0 0.0 0.0
0000b0 00 00 00 00 00 00 00 00 00 00 00 00 00 00 00 00
       0.0 0.0 0.0 0.0
0000c0 00 00 00 00 00 00 00 00 00 00 00 00 00 00 00 00
       0.0 0.0 0.0 0.0
0000d0 00 00 00 00 00 00 00 00 00 00 00 00 00 00 00 00
       0.0 0.0 0.0 0.0
0000e0 00 00 00 00 00 00 00 00 00 00 00 00 00 00 00 00
       0.0 0.0 0.0 0.0

dense1.3.conv1.weight f4 [12, 60, 3, 3]
000000 04 ec 53 3d ef 2f ff 3d 64 84 84 bc 8a 34 87 be
       0.051738754 0.124603145 -0.01617641 -0.26407272
000010 c1 21 ea 3d 2e 96 60 be 61 29 47 3d 89 04 6c bd
       0.11432219 -0.21932289 0.048623446 -0.057621513
000020 e3 8a fb bc 57 e2 a0 3d 8a 3a 38 3e a5 cc 48 bc
       -0.030705875 0.07855671 0.17991081 -0.012255822
000030 12 01 11 3e 6a f5 82 3e 5e f1 bc 3d 92 25 2c 3c
       0.14160565 0.2557786 0.09225725 0.010507004
000040 ef f5 ba bd 6a ec a1 bd 55 7e fb bd 20 3f 9a bd
       -0.09128939 -0.079064205 -0.12279955 -0.075315714
000050 fd f8 c0 bc fd bb 2e 3d 8e 2e 85 be 09 58 c2 bd
       -0.023556227 0.04265975 -0.2601208 -0.094894476
000060 da 0f 17 be 03 bc 69 bd e7 5d ac 3d 03 22 25 bd
       -0.1475214 -0.057064068 0.08416348 -0.04031564
000070 24 05 24 3e 73 ba a3 bc a3 27 b2 bd bd 4f f6 bd
       0.16017586 -0.019986367 -0.08698966 -0.120269276
000080 87 3d f2 bd fb 43 20 be e1 bf e5 3d b2 6b 1c be
       -0.11828142 -0.15650932 0.112182386 -0.15275458
000090 79 19 c0 3d d0 83 f4 3c 6e 2f d7 bd 81 0c e1 3d
       0.093798585 0.02984801 -0.10507093 0.10988713
0000a0 68 ea 6e 3d 9b 30 00 be 1f 18 9f bd 35 d3 b2 3c
       0.058329016 -0.12518542 -0.077682726 0.021829227
0000b0 72 3d c9 bd 37 49 10 bc 23 db 57 3e b4 e7 06 3e
       -0.09826173 -0.008806518 0.21079688 0.13174325
0000c0 7a 14 37 bd d7 bf 32 3c d2 6c 09 3e 33 bb 21 3e
       -0.044697262 0.010909996 0.13420418 0.15794067
0000d0 75 8f e2 3c 95 34 12 3d d5 5c 4f bd 69 b2 8d 3e
       0.027656296 0.035694677 -0.05062564 0.2767518
0000e0 c9 0a 9f bd bd 2a 62 3e 28 ac 10 bd fc 80 88 3d
       -0.07765729 0.22086616 -0.03532043 0.06665227
0000f0 24 2f cd bd 7f 79 02 3e 8d a4 44 bd 06 d6 34 3c
       -0.10018757 0.1274166 -0.04800849 0.011037355
000100 bf 15 74 3e b2 56 d6 3d 3b 84 bd bb d6 c9 33 3d
       0.2383642 0.104657546 -0.0057835854 0.043893658
000110 62 46 2f bd ee 31 6e be 73 72 dd bd 50 1e 45 3e
       -0.04279173 -0.23261234 -0.10812845 0.19249845
000120 c3 9e 5e be 2f 35 59 bc ed 54 94 bd e3 10 93 bd
       -0.2174025 -0.013257309 -0.07242761 -0.07180955
000130 c3 bb 1e 3d 47 17 f8 bc b1 af 9f 3d 08 94 3f 3e
       0.038753282 -0.030284537 0.07797182 0.18708813
000140 d3 97 20 be 4d 23 2e 3e de 83 92 3d 38 7e b2 bc
       -0.15682916 0.17005654 0.07154058 -0.021788701
000150 7a 0c eb bb 50 95 53 be 09 68 95 bd 92 c2 1c 3e
       -0.007173118 -0.20662427 -0.07295234 0.15308598
000160 fe ad 00 3e da 0d 18 3d a6 78 37 3e 6b 39 80 bd
       0.12566373 0.037122585 0.17917117 -0.062609516
000170 e2 f1 53 bb b7 19 77 3b 64 dc b0 3c e0 2c 11 bd
       -0.0032340218 0.0037704536 0.021589465 -0.035443187
000180 a1 41 e1 bd 4b fe 57 be 0b 3f 35 ba da e1 5f be
       -0.10998846 -0.21093099 -0.0006913996 -0.218635
000190 cd f4 5c be c4 5f 51 3d 0d 5d a1 3e f8 da 8f bc
       -0.21577759 0.05111672 0.31516305 -0.017560467
0001a0 ec 20 00 be 62 0e 84 be 23 ee d6 3d 6a f3 d6 bb
       -0.12512559 -0.25792223 0.1049464 -0.006559779
0001b0 e4 11 40 3e ee 51 e3 3c 81 5d 1a 3e d2 32 b1 3c
       0.18756825 0.027749028 0.15074731 0.021630678
0001c0 ea b5 5f be f3 cd 6c 3d 79 2d 52 bc 79 10 83 3d
       -0.21846738 0.057813596 -0.012828224 0.06399626
0001d0 28 3e 2f bd b1 22 57 bd 6c be f4 bd de a3 48 be
       -0.042783886 -0.05252332 -0.119503826 -0.1959376
0001e0 26 a0 3f 3c 58 fb 8a bd 34 d2 86 bd 7d 3b 49 3d
       0.011695897 -0.06786221 -0.06583062 0.049128998
0001f0 76 9f d4 3d 41 7b 55 be de 93 2a be 61 44 a4 bc
       0.10381977 -0.20847799 -0.1665797 -0.020052137
000200 68 b5 8d bd aa 84 a3 bd 53 4a 85 3e 93 a3 60 3d
       -0.06919366 -0.07984288 0.26033267 0.054843497
000210 69 21 ae 3e 7f b6 a6 3c e3 ba f4 bc 3b c4 db 3c
       0.34009865 0.020350693 -0.02987427 0.026826968
000220 95 2d 0e be f0 e9 28 be ee c5 3a bd c2 72 27 be
       -0.13884576 -0.1649549 -0.045598917 -0.1635237
000230 89 99 98 bd 66 10 85 3e 3d 8d 1f be fd d9 b4 3c
       -0.074511595 0.25989074 -0.15581222 0.022076601
000240 e5 eb 20 3d 91 24 26 bd cc bc 07 be 9d fb 9a 3d
       0.039287467 -0.040562216 -0.13255614 0.07567523
000250 1b f4 5f bc 13 a3 6e 3d df 7c 3c 3e 6e 94 aa bc
       -0.013669039 0.05826099 0.1840701 -0.02082273
000260 fa e1 3b 3d be 01 af bd 6a d3 68 3e 99 30 18 be
       0.045869805 -0.08545254 0.22736898 -0.14862289
000270 f4 ba 14 3d 33 f8 c5 bd 7e 0d 3a 3e 7b 9f 7f bd
       0.036311105 -0.09666481 0.1816921 -0.06240795
000280 a1 ab a0 3c f6 1b cc 3a da c8 ab 3e 47 73 83 bb
       0.019613089 0.0015572298 0.33551675 -0.004011545
000290 f2 9c ac 3e 7b 13 b4 bd a0 29 0b 3e a0 27 c1 3e
       0.3371349 -0.08792778 0.13590097 0.37725544
0002a0 19 ce 2a 3c ec 28 94 3d 0b ec 60 3d ac ce c0 bd
       0.010425114 0.07234368 0.054912608 -0.094144195
0002b0 4e f3 14 be ae 83 34 bd a5 1c 1c be 6a 4d 24 3e
       -0.14545938 -0.044070892 -0.15245302 0.16045156
0002c0 5e 42 97 3e 66 c4 63 bc 62 bf 54 3c a6 24 27 bd
       0.29542822 -0.0139018055 0.012985082 -0.040806435
0002d0 31 8e 9c be dc 9b 09 be 1f e8 36 bc 60 90 a8 3d
       -0.30577233 -0.13438362 -0.01116374 0.08230662
0002e0 4a 21 1a bd e0 15 82 3d 84 b1 0e 3d b3 f6 19 be
       -0.037629403 0.063518286 0.03483726 -0.15035515
0002f0 fb af 2e be ef 3a 3e bd ac cb 42 3e a6 9b 8d bc
       -0.17059319 -0.046442922 0.19023007 -0.017286133
000300 74 38 13 be f6 d2 92 bd c3 39 52 3e 7b 3c e8 bd
       -0.14377004 -0.07169144 0.20529847 -0.11339661
000310 d1 63 08 3e 43 5e f0 3d 66 32 c8 3d 3e fe 52 be
       0.13319327 0.11736729 0.09775238 -0.20604798
000320 ad b1 34 be a8 b4 bd 3d bb e6 85 3e de 6f a4 3d
       -0.17645903 0.09262973 0.26152596 0.080291495
000330 fe 5e 88 bd 83 fd 4d bd d1 c2 11 3e f9 23 a9 bd
       -0.06658743 -0.050290596 0.14234473 -0.08258814
000340 1a 49 6c be 4b c3 91 3e 23 f2 21 be 7f 9d 42 bd
       -0.23074761 0.2846931 -0.15815024 -0.04751348
000350 88 90 34 3d 0e 0c 42 be 67 66 59 be 0e 0c 88 bd
       0.04408315 -0.18949911 -0.2123047 -0.06642924
000360 ae 32 86 bd d9 6d ed bd 7c e3 a3 be 15 ba 66 be
       -0.06552635 -0.115932174 -0.32009494 -0.22531922
000370 29 4e 51 3e 10 60 fc bd 7c 54 ff 3d 18 00 12 bd
       0.20439972 -0.1232301 0.12467286 -0.03564462
000380 d6 98 9c 3d a7 28 25 3e fd 72 16 be 59 54 d2 bd
       0.07646339 0.16128789 -0.14692302 -0.10269994
000390 d1 dc 55 3e e5 e4 b1 be 21 12 b6 bd ec 96 8e be
       0.20885016 -0.34744945 -0.088901766 -0.2784952
0003a0 b4 8d c2 bd 31 18 18 be 56 4c ee 3d 16 d0 09 3d
       -0.09499684 -0.14852978 0.11635654 0.03364571
0003b0 ae 07 25 3e 31 52 5e bd 6f dd 1a be 77 71 21 3e
       0.16116211 -0.054277603 -0.15123533 0.1576594
0003c0 1a 22 a3 3d 17 aa 11 be 24 93 f2 bd 43 e0 3e 3d
       0.07965489 -0.1422504 -0.11844471 0.04660059
0003d0 27 76 9d 3d 39 46 44 bd fc 04 e7 3d c4 40 46 be
       0.076885514 -0.047918532 0.112802476 -0.19360644
0003e0 cb 25 be bc 24 46 f5 3d 0f b4 5f 3e 76 b3 df 3c
       -0.02321138 0.11976269 0.2184603 0.027307253
0003f0 36 14 67 bd 79 66 50 be 54 00 2e bc 7a ef 85 3d
       -0.05641576 -0.2035159 -0.010620195 0.06539817

dense1.4.bn1.weight f4 [72]
000000 00 00 80 3f 00 00 80 3f 00 00 80 3f 00 00 80 3f
       1.0 1.0 1.0 1.0
000010 00 00 80 3f 00 00 80 3f 00 00 80 3f 00 00 80 3f
       1.0 1.0 1.0 1.0
000020 00 00 80 3f 00 00 80 3f 00 00 80 3f 00 00 80 3f
       1.0 1.0 1.0 1.0
000030 00 00 80 3f 00 00 80 3f 00 00 80 3f 00 00 80 3f
       1.0 1.0 1.0 1.0
000040 00 00 80 3f 00 00 80 3f 00 00 80 3f 00 00 80 3f
       1.0 1.0 1.0 1.0
000050 00 00 80 3f 00 00 80 3f 00 00 80 3f 00 00 80 3f
       1.0 1.0 1.0 1.0
000060 00 00 80 3f 00 00 80 3f 00 00 80 3f 00 00 80 3f
       1.0 1.0 1.0 1.0
000070 00 00 80 3f 00 00 80 3f 00 00 80 3f 00 00 80 3f
       1.0 1.0 1.0 1.0
000080 00 00 80 3f 00 00 80 3f 00 00 80 3f 00 00 80 3f
       1.0 1.0 1.0 1.0
000090 00 00 80 3f 00 00 80 3f 00 00 80 3f 00 00 80 3f
       1.0 1.0 1.0 1.0
0000a0 00 00 80 3f 00 00 80 3f 00 00 80 3f 00 00 80 3f
       1.0 1.0 1.0 1.0
0000b0 00 00 80 3f 00 00 80 3f 00 00 80 3f 00 00 80 3f
       1.0 1.0 1.0 1.0
0000c0 00 00 80 3f 00 00 80 3f 00 00 80 3f 00 00 80 3f
       1.0 1.0 1.0 1.0
0000d0 00 00 80 3f 00 00 80 3f 00 00 80 3f 00 00 80 3f
       1.0 1.0 1.0 1.0
0000e0 00 00 80 3f 00 00 80 3f 00 00 80 3f 00 00 80 3f
       1.0 1.0 1.0 1.0
0000f0 00 00 80 3f 00 00 80 3f 00 00 80 3f 00 00 80 3f
       1.0 1.0 1.0 1.0
000100 00 00 80 3f 00 00 80 3f 00 00 80 3f 00 00 80 3f
       1.0 1.0 1.0 1.0
000110 00 00 80 3f 00 00 80 3f 00 00 80 3f 00 00 80 3f
       1.0 1.0 1.0 1.0

dense1.4.bn1.bias f4 [72]
000000 00 00 00 00 00 00 00 00 00 00 00 00 00 00 00 00
       0.0 0.0 0.0 0.0
000010 00 00 00 00 00 00 00 00 00 00 00 00 00 00 00 00
       0.0 0.0 0.0 0.0
000020 00 00 00 00 00 00 00 00 00 00 00 00 00 00 00 00
       0.0 0.0 0.0 0.0
000030 00 00 00 00 00 00 00 00 00 00 00 00 00 00 00 00
       0.0 0.0 0.0 0.0
000040 00 00 00 00 00 00 00 00 00 00 00 00 00 00 00 00
       0.0 0.0 0.0 0.0
000050 00 00 00 00 00 00 00 00 00 00 00 00 00 00 00 00
       0.0 0.0 0.0 0.0
000060 00 00 00 00 00 00 00 00 00 00 00 00 00 00 00 00
       0.0 0.0 0.0 0.0
000070 00 00 00 00 00 00 00 00 00 00 00 00 00 00 00 00
       0.0 0.0 0.0 0.0
000080 00 00 00 00 00 00 00 00 00 00 00 00 00 00 00 00
       0.0 0.0 0.0 0.0
000090 00 00 00 00 00 00 00 00 00 00 00 00 00 00 00 00
       0.0 0.0 0.0 0.0
0000a0 00 00 00 00 00 00 00 00 00 00 00 00 00 00 00 00
       0.0 0.0 0.0 0.0
0000b0 00 00 00 00 00 00 00 00 00 00 00 00 00 00 00 00
       0.0 0.0 0.0 0.0
0000c0 00 00 00 00 00 00 00 00 00 00 00 00 00 00 00 00
       0.0 0.0 0.0 0.0
0000d0 00 00 00 00 00 00 00 00 00 00 00 00 00 00 00 00
       0.0 0.0 0.0 0.0
0000e0 00 00 00 00 00 00 00 00 00 00 00 00 00 00 00 00
       0.0 0.0 0.0 0.0
0000f0 00 00 00 00 00 00 00 00 00 00 00 00 00 00 00 00
       0.0 0.0 0.0 0.0
000100 00 00 00 00 00 00 00 00 00 00 00 00 00 00 00 00
       0.0 0.0 0.0 0.0
000110 00 00 00 00 00 00 00 00 00 00 00 00 00 00 00 00
       0.0 0.0 0.0 0.0
