fedmd_results_0.0/client98/best_model_0.0.pth (torch, 420539 bytes, 98 tensors)

conv1.0.weight f4 [16, 3, 3, 3]
000000 38 f8 c7 3d 18 40 76 bd 61 2d c5 3e 8b 24 c0 be
       0.09764141 -0.06011972 0.38511184 -0.3752788
000010 84 b7 57 bf eb a5 a2 be c9 cb 3d be 3b b0 2a bf
       -0.842644 -0.3176721 -0.18534769 -0.66675156
000020 c2 24 57 be a3 c6 a2 3d a9 bb 73 be b2 25 c9 3d
       -0.21010116 0.07948043 -0.23802055 0.09821643
000030 b2 98 74 bd 24 19 20 bf ee 8e 53 be 5e 9c bb 3e
       -0.059715934 -0.6253836 -0.20659992 0.36642736
000040 44 0b 3a be a7 0c 3f 3e 79 c0 ac 3d 6c 8d 18 3d
       -0.1816836 0.1865717 0.08435149 0.037244245
000050 66 a8 a2 3e fe 84 94 be 1e 3e 0f bf d4 ea 26 be
       0.31769103 -0.29007715 -0.5595416 -0.16300517
000060 df da 64 be ab 2b fd be af c3 fd bd 0a 3d 2e bf
       -0.22349118 -0.4944738 -0.12390839 -0.6806189
000070 75 fe 1f bf 2c df 1d bf 25 ee 88 bf 3b 7b 83 bf
       -0.62497646 -0.6166866 -1.0697676 -1.0271982
000080 01 74 6b bf 3e 8e 88 bf 5d 74 9e bf f3 d1 81 bf
       -0.9197388 -1.0668409 -1.2379261 -1.0142196
000090 2c 68 60 3f ba d1 84 3f 95 6d 4d 3f 68 21 6f 3f
       0.87658954 1.0376503 0.80245334 0.9341035
0000a0 eb fc 97 3f da b5 80 3f fd ed 65 3f c4 0d 6f 3f
       1.187406 1.0055497 0.89816266 0.9338038
0000b0 86 65 52 3f c0 d1 64 be 2c e3 2f be 32 6d bb be
       0.8218616 -0.22345638 -0.17176503 -0.36606747
0000c0 f1 19 7d 3d 25 9e 75 3e 77 09 55 3c 16 05 92 3e
       0.061792318 0.23986109 0.013002745 0.28519505
0000d0 3e f6 91 3e 65 29 ee 3d 21 17 aa be e0 38 8f 3e
       0.2850818 0.11628989 -0.3322077 0.2797308
0000e0 6c ec ab be 10 28 20 be 0e 18 5b 3f c8 93 11 bf
       -0.33578813 -0.15640283 0.8558358 -0.5686612
0000f0 97 16 b5 3e 8d b5 8b 3f 80 f0 4a bf 01 36 d3 be
       0.35368797 1.091478 -0.79273224 -0.4125214
000100 b8 ef 27 3f 43 30 4f bf 56 53 5c be d1 6c 99 3f
       0.65600157 -0.80933017 -0.21516165 1.1986333
000110 b8 1f 99 bf 3b e6 3c 3e f6 10 a4 3f 35 19 c2 bf
       -1.1962805 0.18447201 1.2817676 -1.5163943
000120 28 7a 7e be e6 88 dc 3e 77 20 9b be 04 62 3a bd
       -0.24851286 0.43073195 -0.30298206 -0.04550363
000130 f1 d3 83 3f 22 c5 38 bf 1f d9 92 3e 56 7d 83 3f
       1.0299054 -0.721758 0.28681275 1.0272624
000140 1b c7 94 bf 0a 58 01 3e 14 fc 76 bd 84 dd 80 3d
       -1.1623262 0.1263124 -0.060298994 0.06292251
000150 6c 0c 06 3d 61 f7 8b bd ce 3a 12 3e 58 15 c6 3e
       0.03272669 -0.06834293 0.14280245 0.3868816
000160 6f e8 56 3e b3 6e ff 3e ca 58 33 bf cd a4 7f bf
       0.20987104 0.49889144 -0.70057356 -0.9986084
000170 7f 4e 3c bf e9 b7 86 bf 09 f3 af bf 00 d1 8c bf
       -0.73557276 -1.0524875 -1.3746043 -1.1001282
000180 64 6e 52 bf f8 42 9f bf 69 42 71 bf 1a da 52 3f
       -0.8219969 -1.2442312 -0.9424196 0.82364047
000190 78 af 6c 3f 98 50 66 3f 42 00 70 3f 0e 89 8f 3f
       0.92455244 0.89966726 0.93750393 1.1213701
0001a0 e4 14 7d 3f 3c e2 66 3f cf 69 6b 3f 2a e4 44 3f
       0.9886 0.90188956 0.91958326 0.7691065
0001b0 da 42 05 bf 96 fc 18 3e 88 0c bf 3e ed 6d b2 3f
       -0.5205513 0.14940104 0.37314248 1.3939797
0001c0 a4 b6 0a bb d0 90 8a bf 47 f4 f1 3f 6f 65 35 bf
       -0.0021165991 -1.0825443 1.8902673 -0.708579
0001d0 ad 92 cc bf 8d 07 bb be 76 09 a9 3c 6b 5d 71 3d
       -1.5982262 -0.36529198 0.020634394 0.05892698
0001e0 1a ca d2 3f 7d 60 8f bc ef 05 a5 bf 0e 0a 10 40
       1.6467927 -0.017502064 -1.2892436 2.2506137
0001f0 05 09 16 bf cc 80 cc bf 5f 31 c2 be d3 28 e1 bc
       -0.5860751 -1.5976806 -0.37928292 -0.027485287
000200 f9 47 a3 3e d4 5d c2 3f e6 02 27 be f4 69 8f bf
       0.31890848 1.5184884 -0.163097 -1.1204209
000210 b2 88 04 40 fc bc 4e bf 11 ff cc bf 78 f9 07 3d
       2.0708432 -0.8075712 -1.601534 0.033196896
000220 dc 37 83 3d 6c f3 a2 3c 6d e6 c6 3e 82 37 1c 3f
       0.06407139 0.019891463 0.38847676 0.610222
000230 38 18 d9 3e ce 4e 8b 3d af 1c a4 3e 0c de 79 3e
       0.4240129 0.0680214 0.32053134 0.2440111
000240 f5 62 f4 bd e4 d5 ec bd 4e 2f 09 be 94 68 8d 3e
       -0.11932937 -0.11564234 -0.13396952 0.2761885
000250 9d e9 f2 3e be 5a 99 3e ab 3f 88 bd ee 52 16 3e
       0.47443858 0.29952043 -0.06652769 0.14680073
000260 57 31 a4 3d 3b 68 eb 3c b6 ad 89 bc ef 07 84 bc
       0.08017223 0.028736224 -0.016806465 -0.016117064
000270 00 f7 b9 3e 84 1d 04 3f c0 1a c6 3e 36 5d 41 be
       0.3632126 0.5160754 0.38692284 -0.18883213
000280 95 f0 8a bc 95 51 09 bd b8 c0 15 3f 10 67 12 3f
       -0.016960422 -0.03352507 0.5849719 0.5718851
000290 ec e1 62 3e 9b 1e 65 3f 19 06 8e 3f 7b 60 3c 3f
       0.22156495 0.89499825 1.1095611 0.7358472
0002a0 15 c8 08 3f ac f0 70 3f 88 1e 1a 3f fc 84 be 3d
       0.534303 0.94117236 0.60202837 0.093027085
0002b0 15 2e a2 bd 37 04 c3 3c 34 b3 02 be 8c e6 97 be
       -0.07918946 0.02380572 -0.12763673 -0.2966808
0002c0 2c ee 1b be 7f 12 c1 be f6 92 ca be cd f6 33 be
       -0.15227574 -0.37709424 -0.39565247 -0.17574616
0002d0 61 3f cd be 4c 37 05 bf fc 83 79 be 05 49 2e bf
       -0.40087417 -0.520375 -0.24366754 -0.6808017
0002e0 cd a4 73 bf 84 47 0e bf 1a fe 3b bf 42 6b 70 bf
       -0.9517334 -0.55577874 -0.73434603 -0.9391366
0002f0 60 d6 f8 be 60 56 94 bf 5c a1 57 3f 0d 20 91 3f
       -0.48601055 -1.158886 0.8423059 1.1337906
000300 da 04 83 3f ff 1c b7 3f 71 5e 02 3f 55 95 93 bd
       1.0235856 1.4305724 0.50925356 -0.07206217
000310 56 45 e7 bf 76 86 28 c0 a8 9b 75 bf 16 b6 62 3f
       -1.8068035 -2.6332068 -0.9594064 0.8855909
000320 5a 4a a8 3f 2f 3d 8b 3f f9 60 b7 3f 19 11 40 3f
       1.314769 1.0878047 1.4326469 0.7502609
000330 5c 9a 17 be 28 0d f1 bf 9b 23 1b c0 1c 12 bc bf
       -0.14804977 -1.883214 -2.4240482 -1.4693027
000340 35 2c 5e 3d 7c d2 0f 3f 37 a5 83 3f d1 64 b0 3f
       0.054241378 0.5618055 1.0284795 1.3780767
000350 c3 c8 5c 3f 8f b1 d9 3e a3 50 81 bf 0b c9 b2 bf
       0.8624384 0.4251828 -1.0102733 -1.3967603
000360 a8 6e 11 3f a8 e9 4a 3f 37 83 ee 3e 12 e7 58 3f
       0.56809473 0.7926278 0.46584484 0.84727585
000370 39 2c a5 3f ee 0e 55 3f 4c b4 ee 3e 75 1e 6c 3f
       1.2904121 0.83225906 0.4662193 0.92233974
000380 5f 6d cd 3e 6f 38 85 bf e9 92 9a bf e8 75 87 bf
       0.40122506 -1.0407847 -1.2076083 -1.0582857
000390 9d 8f b2 bf c3 59 bf bf ca 2f a8 bf 8e 0f a3 bf
       -1.3950077 -1.4949268 -1.3139584 -1.2739122
0003a0 0a 87 a6 bf 30 a9 8d bf db db ef 3e 3a f4 09 3f
       -1.3009961 -1.1067257 0.46847424 0.53888285
0003b0 79 1f e3 3e eb 4a e6 3e 49 3c 31 3f 13 81 13 3f
       0.4435995 0.44979033 0.6923261 0.57618827
0003c0 63 da 7a 3e 41 33 f6 3e 1b 49 b0 3e 02 cf 13 bf
       0.2449737 0.4808598 0.34430775 -0.57737744
0003d0 f8 a9 ae bf 07 34 43 bf 76 a2 26 bf dd 07 1f bf
       -1.364562 -0.7625126 -0.65091646 -0.62121373
0003e0 30 d7 06 bf 41 40 97 3f d8 f7 01 40 c1 9f 9a 3f
       -0.526721 1.1816484 2.0307522 1.2080003
0003f0 dd 9f f3 be ea 84 aa bf c2 c8 2a bf 96 8a 0c bf
       -0.47582904 -1.3321812 -0.6671258 -0.54898965

conv1.1.weight f4 [16]
000000 f6 9a d4 3f 49 dd d3 3f 12 72 e5 3f 6d 17 c9 3f
       1.660979 1.6551906 1.7925436 1.5710274
000010 f2 e3 0b 40 58 02 b0 3f 27 05 cc 3f e7 2f 0e 40
       2.1857877 1.3750715 1.5939072 2.2216737
000020 61 2e af 3f 96 3a d4 3f 42 2c db 3f 30 30 dd 3f
       1.3686029 1.6580379 1.7122881 1.7280331
000030 ad 90 bf 3f ce 38 cb 3f 4b 18 c3 3f fe 3a d1 3f
       1.4966027 1.587671 1.5241789 1.6346128

conv1.1.bias f4 [16]
000000 5f f4 61 be e3 37 14 3f f9 ad 85 3f 4d ff 08 3f
       -0.22065876 0.57897776 1.0443717 0.5351456
000010 30 a7 11 be e2 75 a7 3e cb bb 19 3f 86 2b c2 be
       -0.14223933 0.32707125 0.60052174 -0.3792383
000020 ae 56 2e 3f 36 97 39 be e6 0d 09 3f 1e f9 58 bd
       0.6810101 -0.18124089 0.5353683 -0.05297195
000030 db 60 7d 3e 57 ad 68 3f fa 7e a3 bb e9 2d 66 3e
       0.24743979 0.90889496 -0.004989502 0.22478451

stage2.0.branch1.0.weight f4 [16, 1, 3, 3]
000000 2f cf 83 bd 8f 19 e2 bd b4 85 0f 3f ed 7d c5 3e
       -0.064360015 -0.11040031 0.5606339 0.38572636
000010 6a c7 c3 be 54 0d d5 3e 23 bb 37 3e 3c 3b 2c bf
       -0.38238078 0.4161173 0.1794248 -0.67277884
000020 8e b1 ab bd e0 38 a4 3e 8b 31 5e be 53 73 27 bf
       -0.08383475 0.32074642 -0.21698587 -0.65410346
000030 08 40 00 bf be 32 29 3e 8f c1 50 3f 4e a5 25 bf
       -0.50097704 0.16523263 0.81545347 -0.6470536
000040 45 7f 68 3f 9b 45 e8 3f 9e 6a 82 bd a2 36 db 3c
       0.908192 1.8146242 -0.06367992 0.02675945
000050 21 3e bb bd bb 8a 4c 3e fa 35 a6 bf 41 cd 5b 3f
       -0.091427095 0.19974796 -1.2985222 0.8586007
000060 fd 8f 7b 3f 86 ab 33 c0 78 48 f2 3f f8 1f b6 3e
       0.98266584 -2.807344 1.8928366 0.35571265
000070 99 44 cc be 08 0a a1 be 8c b0 f9 be b8 ca d3 bd
       -0.39896086 -0.31452966 -0.48767507 -0.103414
000080 01 97 10 3f f5 f5 f5 be 3b 5e 29 3f 01 0e c0 3f
       0.56480414 -0.48039213 0.6615941 1.5004274
000090 00 75 80 3c 1a f3 d5 3d ec 3d 2b 3d c9 e2 12 3f
       0.01568079 0.104467586 0.0418071 0.57377297
0000a0 f4 bb 41 3f ae 15 02 3f a7 de 79 3e 18 06 16 3f
       0.7567742 0.5081433 0.24401341 0.5860305
0000b0 cf e1 8e 3f 39 f9 36 3c 28 2b 31 be d3 94 0b bf
       1.1162661 0.011167818 -0.17301619 -0.5452396
0000c0 a4 ef 7f 3d 8c 10 dc 3e bd 24 37 3e cf 9d 1a be
       0.0624844 0.42981374 0.17885108 -0.15099262
0000d0 20 99 1b 3f f0 17 81 3f 6c 65 0c bf a0 de f4 3e
       0.60780525 1.008543 -0.5484226 0.478261
0000e0 e4 75 52 3f ce 27 24 3e 0c ac 0e bf 6e 4a 88 bf
       0.82211137 0.1603081 -0.5573127 -1.0647714
0000f0 26 6f 82 3f aa 58 06 bf 32 8a a0 bf 04 83 bf bd
       1.019017 -0.5247904 -1.2542174 -0.09351161
000100 cb 0a 4b 3c c8 0c ce 3e 5d a9 c5 3e f1 30 92 3f
       0.01239271 0.40244126 0.38605776 1.1421186
000110 d9 b5 48 3f 46 50 e0 3e 6e 1f 9f 3f c1 bb 40 3f
       0.7840248 0.43811244 1.2431467 0.7528649
000120 7c f7 b1 be 04 bf 9b 3e c5 e0 32 3f 93 1b 0e 3f
       -0.34759128 0.3041917 0.6987422 0.55510825
000130 5c d5 17 3d 14 8c 0c bf e1 02 70 3f 9a bc 4a bf
       0.03706871 -0.5490124 0.9375439 -0.79194033
000140 fa 89 fd bf 7e 82 8b 3e ef 3b 07 be ec cd 2c bf
       -1.9807732 0.27247995 -0.13206457 -0.6750171
000150 c2 35 c7 3e 70 9d 57 bf 4a d7 9c bf be ab 09 3d
       0.389082 -0.84224606 -1.2253201 0.03361105
000160 dc 36 a8 bf 73 28 91 bf e1 c7 b1 3d b8 16 99 3f
       -1.3141742 -1.1340469 0.08680702 1.1960058
000170 75 6d b3 bf 8c 18 e4 bf d0 bb 14 3f 3c ae a8 3f
       -1.4017779 -1.7819991 0.5809908 1.3178172
000180 8d 28 c1 3f aa cf e1 bf 1f 62 55 3e f5 aa f0 bd
       1.50905 -1.7641499 0.20838211 -0.117513575
000190 70 08 75 3d 69 10 bf 3d 88 55 1b bf 6c 1e 27 bf
       0.0598225 0.09329302 -0.60677385 -0.65280795
0001a0 9d 0b 77 be a1 87 02 bf 72 21 1f bf 1c 8c 6b bf
       -0.24125524 -0.50988203 -0.6216041 -0.92010665
0001b0 ff f8 ec bc d3 7f 8b bd 40 8b 7e bc e6 4e 0d 3e
       -0.028927324 -0.0681149 -0.0155361295 0.13799629
0001c0 4b 29 05 3e 94 c8 1a 3e 4a 24 13 bd 03 89 4f bc
       0.13004033 0.15115577 -0.03592328 -0.0126669435
0001d0 d8 a1 83 3c d4 f7 4c 3f ec 46 1f 3d dc ab 0c bf
       0.016068384 0.80065656 0.038885996 -0.54949737
0001e0 bf f1 92 3f 76 60 8c 3d 4d bd 50 bf b9 fe 00 3f
       1.1480025 0.06854336 -0.8153885 0.50388676
0001f0 32 e5 8e be 0d dd 55 bf 0b 2c ba be 64 ac 26 3f
       -0.27909237 -0.8354042 -0.36361727 0.651068
000200 26 41 6c 3f 35 ca 00 3f 61 1f ee bc d0 9e f0 be
       0.9228691 0.50308543 -0.029067697 -0.46996164
000210 12 f1 28 3f fd 7a 84 bf 36 a9 c3 bf 5d 75 32 bd
       0.65992844 -1.0350033 -1.5286014 -0.043568958
000220 c1 67 17 3e a7 c5 21 3e b4 9d 31 3e f3 8e 0a bf
       0.14785673 0.15798055 0.17345315 -0.54124373
000230 69 bb 5d bf 61 7a 2b 3f 10 a3 d4 be 54 37 53 bf
       -0.8661409 0.6698361 -0.41530657 -0.825063

stage2.0.branch1.1.weight f4 [16]
000000 68 97 99 3f 3f 93 df 3f fb 96 fa 3f d0 c7 d3 3f
       1.199933 1.7466811 1.9577326 1.6545353
000010 2a e3 cc 3f 8c a6 a4 3f 60 de cf 3f b5 c6 ae 3f
       1.6006825 1.2863326 1.6239738 1.365439
000020 b8 24 e5 3f ee fa 9a 3f 50 66 12 40 75 8c c6 3f
       1.7901831 1.2107828 2.2874947 1.5511614
000030 05 81 c7 3e be e8 82 3f 1b f1 ca 3f 71 a1 bb 3f
       0.38965622 1.0227277 1.585483 1.4658643

stage2.0.branch1.1.bias f4 [16]
000000 7d 9b 05 3e a1 0e b8 be 89 71 80 3f fd 87 a8 3d
       0.13047595 -0.3594866 1.0034648 0.08229063
000010 9b ee c7 be e4 8a c1 bd c0 73 b2 3f 9e 3e d5 be
       -0.3904923 -0.094503194 1.3941574 -0.41649336
000020 51 19 35 be 4b 57 37 3f d4 6d 85 bf b3 16 a2 3e
       -0.17685439 0.71617573 -1.0424142 0.31657943
000030 42 6d 39 be 8a f4 cc be 3d 80 aa be 6e ba a7 3d
       -0.18108085 -0.40030318 -0.33300963 0.081898555

stage2.0.branch1.2.weight f4 [16, 16, 1, 1]
000000 9f ab 3a 3e b3 5c 4e 3f bf ac c9 3d 01 b5 8d 3f
       0.18229531 0.806102 0.09847402 1.1070863
000010 ae ea a4 be e9 ea 06 3f 96 4e 3a 3f 37 95 ec 3e
       -0.32210296 0.52702194 0.7277616 0.46207592
000020 9b f4 c1 3e 92 00 5f bf 17 da 9d 3d b5 19 5c bd
       0.37881932 -0.87110245 0.07707613 -0.053735454
000030 b6 4b 38 be 63 00 fb be 52 99 b9 bf e9 19 a2 3f
       -0.17997631 -0.49023733 -1.4499915 1.2664157
000040 93 12 22 bf f5 4e 23 be c9 3f 1d 3d 60 74 a8 3d
       -0.6330959 -0.15948088 0.03839091 0.08225322
000050 1b cd 2b be c1 5f d6 bd 43 75 a4 3d 36 55 0b 40
       -0.1677746 -0.10467482 0.080301784 2.1770759
000060 4d b7 33 bd 8f 95 4a bf 81 c9 45 be b1 9b 60 bc
       -0.04387598 -0.7913446 -0.19315149 -0.013708995
000070 ec 9c e8 3d b1 58 8b 3e d3 a5 03 3f 03 d7 e9 bd
       0.113580555 0.27216104 0.514249 -0.11417963
000080 9f 3f 09 3c 92 ed 26 3f b5 0c b2 3d 1e 71 90 bf
       0.008376985 0.65206254 0.0869383 -1.1284521
000090 98 d9 f8 bd 74 13 8c be a3 36 1f bf 0f e6 64 3e
       -0.12150878 -0.27358592 -0.62192744 0.22353385
0000a0 12 94 02 40 20 f5 eb 3d 4d 6c 35 3e e1 35 6e 3e
       2.0402875 0.11521363 0.17717095 0.2326274
0000b0 00 dc 87 3e 87 db 31 3d 5d ff 0d 3e c6 e3 7d bf
       0.26535034 0.04342225 0.13866945 -0.9917568
0000c0 93 a6 31 be e2 37 8e bf 99 10 d7 bd 10 5b 40 bf
       -0.173487 -1.1110804 -0.105012126 -0.7513895
0000d0 05 df 37 bd 9a eb 95 bf d1 01 7f bf e5 1f c2 bd
       -0.044890422 -1.1712525 -0.99612147 -0.0947874
0000e0 2f 48 9f 3e 61 43 0a 3f a2 20 6e 3d a9 a3 4e 3e
       0.3110976 0.5400906 0.05813659 0.20179619
0000f0 ec 49 a6 3c 14 dd 5e 3e 40 58 2d bd f8 f3 62 3f
       0.02029892 0.21764022 -0.04232049 0.88653517
000100 08 69 bd 3e e2 5c 64 3e 7b 1f 00 be 72 ea d4 3e
       0.36994195 0.22301057 -0.12512009 0.41585118
000110 07 76 42 3f a1 45 8b 3e 07 7d c5 3e 6d 90 53 bc
       0.75961345 0.2720156 0.3857195 -0.012912852
000120 9c bd 6a bd 38 aa 15 40 1f a9 9e 3e f0 00 b5 be
       -0.05730973 2.3385143 0.30988404 -0.35352278
000130 dc 44 66 be c8 25 92 3e c0 cb 69 be d5 5b e1 bc
       -0.22487205 0.2854445 -0.2283163 -0.02750961
000140 02 52 a0 be 8d 12 67 be 3e 55 00 40 16 d3 07 bd
       -0.31312567 -0.2256567 2.0052028 -0.03316029
000150 a4 00 f4 bd 3d 66 21 be 51 11 9e 3e 5a 42 67 be
       -0.11914185 -0.15761657 0.30872586 -0.22583905
000160 14 5e 00 3e 83 92 fa 3d b9 4c 5a be 36 55 1d be
       0.12535888 0.12234976 -0.2131833 -0.15364537
000170 57 39 07 3d 88 90 b0 bf f0 31 87 be 0b c0 6e 3e
       0.033013668 -1.3794107 -0.26405287 0.23315446
000180 5b 50 63 3e 45 3c 63 3c 5a bb 6b 3d 0b 25 0c 3e
       0.22198622 0.01386935 0.05755172 0.13686006
000190 6d 4f c0 3d f4 0f d5 3e df dc 87 bd df 3d 17 be
       0.09390149 0.41613734 -0.06633925 -0.14769696
0001a0 45 9f a6 3d 47 4c 2d 3e af a4 2c 40 68 fc 68 3e
       0.08135847 0.16923629 2.6975515 0.22752535
0001b0 52 22 e7 3d dc 6f b1 3c 43 f6 9d 3d 73 77 06 3d
       0.11285843 0.021659784 0.07712986 0.03282876
0001c0 b6 05 84 3d 82 04 de bf 8b 35 27 3d 5a c6 27 3e
       0.06446402 -1.7345126 0.040822547 0.16384259
0001d0 7a 47 59 bc e8 3d 03 3f 86 ee af bf 68 5b 47 3e
       -0.01326167 0.51266336 -1.3744667 0.19468462
0001e0 ca a4 69 bf 21 f8 5b bd 61 da cb 38 b3 d2 da bd
       -0.91267073 -0.05370343 9.7204706e-05 -0.10684719
0001f0 08 c8 0a 3d 6c 9e 21 bd a4 c7 43 3f 58 eb 42 be
       0.03388217 -0.039457723 0.764765 -0.19035089
000200 c0 d9 f3 be 54 52 f5 3d 4e 9a 54 be 43 42 28 bd
       -0.47627068 0.119785935 -0.20761988 -0.041078817
000210 0f 62 4f 3e 61 e4 64 bf b3 d6 60 be da bc 02 3e
       0.2025225 -0.8941098 -0.21956901 0.12767354
000220 ce 78 30 3f 3c fa 82 3f 70 5d ab bd 47 f5 ff 3d
       0.68934333 1.0232615 -0.08367431 0.12497955
000230 d0 be 5f bc f1 55 09 3e 09 a1 72 3d b6 47 5f be
       -0.013656333 0.1341169 0.059235606 -0.218047
000240 a0 3c 36 be ed 58 86 bd d3 99 2a bf 4a 46 a4 bd
       -0.17796564 -0.0655993 -0.6664097 -0.08021219
000250 a0 38 0a bf 7f d5 ed bd dd e9 1d 3d f3 69 6f bd
       -0.5399265 -0.11612987 0.038553108 -0.05845065
000260 18 d8 9a 3a 4b 38 36 be 14 32 8d 3d 0b 21 24 40
       0.0011813669 -0.17794912 0.06894317 2.5645168
000270 2e 56 47 be 48 0a 8c be 43 65 d8 be 9a c0 98 bd
       -0.19466469 -0.27351594 -0.42264757 -0.07458611
000280 42 f1 0a be f6 28 a4 be cb 4c 9a be ba 7a 8c 3d
       -0.13568595 -0.320625 -0.30136713 0.06859346
000290 c7 92 67 3f 59 37 50 be 35 a3 51 3e 14 84 5f bf
       0.9045834 -0.20333613 0.20472415 -0.8731091
0002a0 f7 46 98 3e 81 64 69 be 20 80 b9 be 90 5f b7 3b
       0.29741642 -0.22792245 -0.36230564 0.0055961087
0002b0 b9 4b 9e bc 97 53 52 bf 21 b5 4a 3e a1 62 fe 3e
       -0.019323217 -0.821588 0.19795658 0.49684623
0002c0 f1 72 fe be dc 5f 42 bf df c7 27 3e 01 95 14 be
       -0.49697068 -0.7592752 0.16384839 -0.14509965
0002d0 2f 4a 8e 3d a7 80 14 bf a4 58 7a bf 5e 6f 82 be
       0.06947743 -0.5800881 -0.97791505 -0.2547559
0002e0 0f 38 f1 be 47 52 28 3e a0 8b d1 bd 6d 0e 97 bd
       -0.47113082 0.16437636 -0.102317095 -0.073757984
0002f0 ae 07 08 3d c8 65 d7 3d 05 5a 07 3f 92 78 89 be
       0.03321045 0.1051746 0.52871734 -0.268498
000300 b5 65 64 be ac 51 17 3f be 23 12 3f c6 83 a5 3e
       -0.22304423 0.59108996 0.5708579 0.32327098
000310 0d ba 8a 3e 9a 29 a4 3e cc 87 ea 3e 56 01 4d be
       0.2709507 0.3206299 0.4580673 -0.20020041
000320 cc 5d c4 3e f2 1c ae 3e 45 d7 60 3b ed 18 1a bf
       0.3835281 0.3400646 0.0034307998 -0.60194284
000330 bf 04 cc 3d 3d db e9 3d 20 63 44 bf 0f 68 42 bb
       0.09961843 0.114187695 -0.7671375 -0.0029664075
000340 da d1 0e 3f 2b a2 90 3d 36 20 0c c0 40 73 c1 3d
       0.5578896 0.07062181 -2.189466 0.0944581
000350 4b e0 71 be f7 18 ba 3e 75 18 2f bb 29 d7 30 3b
       -0.23620717 0.36347172 -0.0026717458 0.0026983714
000360 e3 88 1c 3d ea 08 06 3e f5 81 1b bd d0 36 9d bd
       0.038216483 0.13089338 -0.037965734 -0.0767647
000370 65 4c 17 3e bf 7d fb bd 08 5c 5d bd 2d 15 c6 bd
       0.14775236 -0.122798435 -0.054042846 -0.09672008
000380 35 42 bd 3e 63 96 35 3d a3 54 f7 be db 7a bf 3e
       0.36964574 0.044332873 -0.4830676 0.3739842
000390 b8 4a 2c c0 b6 29 28 3e 17 39 87 bd 42 ef fe 3d
       -2.6920605 0.16422161 -0.06602686 0.124479786
0003a0 1f 04 69 be 71 63 a0 bc b5 e0 c8 3c ae 87 bd 3d
       -0.22755478 -0.019578667 0.024521211 0.092543945
0003b0 55 50 3b bd f6 ff da 3d cc 3e 35 3e 7e e8 67 be
       -0.045730907 0.10693352 0.17699736 -0.22647282
0003c0 a8 03 c4 3e f0 ce 60 3f dd 82 b4 3c 84 53 3c bf
       0.3828404 0.8781576 0.022035057 -0.73564935
0003d0 57 5e 44 be 64 bc 72 bc 44 37 4b 3f 10 3a 89 be
       -0.19176613 -0.014815424 0.79381204 -0.2680211
0003e0 44 ff da 3e 87 12 c9 be bf ab 96 bc ad f4 d6 3d
       0.42772877 -0.39271948 -0.018392442 0.10495887
0003f0 05 f3 02 bd 43 65 44 be 54 31 c1 be a4 24 49 bf
       -0.031970043 -0.19179253 -0.37732947 -0.78571534

stage2.0.branch1.3.weight f4 [16]
000000 6e a8 d7 3f 69 67 b5 3f 24 ed ff 3f d3 6c 03 40
       1.6848276 1.4172183 1.9994245 2.053517
000010 df c2 dc 3f b2 9d f6 3f f9 88 f8 3f 54 ae dc 3f
       1.724697 1.9266875 1.9416801 1.7240701
000020 37 d0 87 3f fc 82 ab 3f a4 c3 7f 3f 60 90 86 3f
       1.0610417 1.3399348 0.999079 1.051281
000030 07 d1 6c 3f 1f f5 cc 3f 02 9e b3 3f cf 86 8b 3f
       0.9250645 1.6012305 1.4032595 1.0900515

stage2.0.branch1.3.bias f4 [16]
000000 4b 6d e6 bc b4 66 71 3f 1f 25 47 3d cc 7b 08 3f
       -0.028128287 0.9429734 0.048619386 0.533139
000010 3c eb 8b 3e 66 05 cd be cb d1 09 be 3c 71 e5 3d
       0.27327907 -0.4004318 -0.13458936 0.11203238
000020 5b 28 01 3f 41 21 9d 3e 18 31 1a 3f 0b 50 b1 3e
       0.504522 0.30689433 0.6023116 0.3463138
000030 7f 2b b6 3e 95 a0 85 bc a8 63 f6 3d 00 ef d8 3e
       0.3558006 -0.016311923 0.12030727 0.42369843

stage2.0.branch2.0.weight f4 [16, 16, 1, 1]
000000 a8 d7 c1 3c fe 21 32 be 9c 14 1c 3e 27 7d 9a 3e
       0.023662403 -0.1739578 0.15242237 0.3017361
000010 18 c4 75 bd c4 88 c1 3f c9 99 06 3f bf 98 ff be
       -0.060001463 1.5119863 0.5257841 -0.49921224
000020 38 7e c8 be 14 81 4b 3d 08 bf ae 3c 01 ee 15 bd
       -0.39158797 0.049683645 0.021331325 -0.03660393
000030 9f d9 70 3f 6e 6b 1a 3f 1b 8f 43 3f 79 59 35 be
       0.94082063 0.60320175 0.76390237 -0.17709912
000040 7f 39 02 3f e1 8f 3e 3e 9f 00 85 bf 42 e7 de 3a
       0.5086898 0.18609573 -1.0390815 0.0017006176
000050 93 b6 4f bf 0f 11 87 3c a2 ba c9 3e bb c3 5d 3f
       -0.8113796 0.016487626 0.39400202 0.86626786
000060 58 64 cf 3e d1 f9 ae 3e 09 59 e8 3e f4 bf e7 be
       0.40506244 0.3417497 0.45380428 -0.45263636
000070 73 ad ed 3e f5 6c fe 3e 7d a9 e6 3e 1d 56 e4 bc
       0.46421394 0.49692503 0.45051184 -0.027873093
000080 cd 6a bc 3f c4 24 68 be 31 b8 7e 3e 41 c7 3d 3d
       1.4720093 -0.22670275 0.24874951 0.0463326
000090 68 d9 ef 3d bc 6d 06 be 09 2c 2f bf d3 8a e3 3e
       0.11711389 -0.13127798 -0.6842657 0.44441852
0000a0 09 55 93 3d 52 eb 16 3f d9 f4 25 be b3 f5 81 bd
       0.071939535 0.5895282 -0.16206683 -0.063456915
0000b0 2c 20 8f 3d 17 d7 1a be d8 9e 97 bd 43 ad da 3e
       0.06988558 -0.15121113 -0.07403344 0.42710313
0000c0 c4 68 89 3f 82 b8 a8 3d 87 04 78 3b f5 02 a6 3e
       1.0735097 0.08238317 0.0037844495 0.3242413
0000d0 e9 b9 89 3e 54 bc da bd 55 d1 17 bf f0 36 0e bf
       0.2689965 -0.10680452 -0.5930379 -0.5555258
0000e0 25 ff de be a7 48 e8 be 1f 0c 48 3e 9c dc 11 3f
       -0.43554035 -0.4536793 0.19535874 0.5697725
0000f0 43 2f 2a be c3 90 7f bd 5c 7b 2a 3f 33 28 27 be
       -0.16619591 -0.062393915 0.6659448 -0.16323929
000100 ab e6 b4 3f 71 04 e6 be 7a 2d 5e bf bf 55 90 bd
       1.4132894 -0.44925264 -0.8678814 -0.07047605
000110 d7 a7 5a 3f 71 e6 1a bd 47 53 07 3f fc 70 5d 3d
       0.85412353 -0.037817422 0.52861446 0.05406283
000120 77 b8 3f 3e c1 3c 3f 3e a1 6a f3 bd ba 0f 6a 3f
       0.18722712 0.1867552 -0.11885572 0.91430247
000130 70 2e b5 bd b1 a1 cd be ee 59 c3 bd 0d 4e c4 3e
       -0.08846748 -0.40162423 -0.09538637 0.38340798
000140 85 ce 9b 3d 44 73 bd 3e 59 ea 00 3f 97 73 20 be
       0.0760775 0.37002003 0.50357586 -0.15669094
000150 a0 a3 74 3f 0a 80 0f 3f 04 cb 39 3e ef 4b 15 3e
       0.9556217 0.5605475 0.1814385 0.14579748
000160 cb 6f 20 3f 49 06 ad 3d ad 4e 56 be 8b 21 6b 3f
       0.6267058 0.084484644 -0.2092845 0.9184806
000170 10 25 2d 3f 6e ce 9f 3e 77 5c 4c be 08 cb 89 3e
       0.6763468 0.3121218 -0.19957148 0.26912713
000180 d5 d0 37 3e ab df c9 3e 1e 7c 3c 3e 20 d6 eb be
       0.17950757 0.39428458 0.18406722 -0.46061802
000190 dc e1 37 3e 87 31 88 3f cb 95 85 3f 52 3f 22 3d
       0.17957252 1.0640115 1.0436338 0.03961117
0001a0 b8 b8 fc 3e d1 34 df 3d b2 fb 5d 3e c5 5b 84 3c
       0.4935968 0.10898746 0.21678045 0.01615704
0001b0 a2 29 7c 3f 6f 8b 9e bd 24 fc d4 be 71 6d 63 3f
       0.98501027 -0.077414386 -0.41598618 0.8883887
0001c0 8a e1 52 3f e6 b6 2d bf 60 25 62 3e ee 4d 8d 3c
       0.82375395 -0.67857206 0.2208457 0.017249074
0001d0 fd 36 c5 3e 21 7f 91 bf 00 82 0e 3f 74 db 37 3f
       0.38518515 -1.1366922 0.55667114 0.71819234
0001e0 c7 fc 8b bd b3 8b 0b 3e f1 7a 55 3e 89 a0 69 bc
       -0.06835323 0.1362751 0.2084768 -0.014259466
0001f0 a5 f9 60 bf ad bf 67 bf 86 11 27 3e 75 b9 70 bf
       -0.8788093 -0.9052685 0.16315278 -0.94032985
000200 4e 89 15 be f2 f5 2e bd 66 84 33 bf c5 d0 57 be
       -0.14603159 -0.04271502 -0.701239 -0.21075733
000210 bf 4f fc bf 01 ef 5c be 16 bf d3 3e 03 d1 af 3f
       -1.9711837 -0.21575548 0.41356725 1.373566
000220 ba d0 25 be cd 9a 75 be 33 ab bf be 04 0a bd bf
       -0.16192904 -0.23984833 -0.37435302 -1.4768682
000230 99 a3 ca 3e 27 6f cc be f9 3b 17 3d 46 a0 ab 3e
       0.3957794 -0.39928553 0.03692243 0.33520716
000240 99 0a 72 3f d9 2b 93 3d d1 73 41 3e 5a 26 a2 be
       0.9454742 0.07186098 0.18891837 -0.31669885
000250 76 c6 8e be 89 fe f8 be 45 0e fb 3d 32 54 1e bd
       -0.2788579 -0.48631695 0.12258581 -0.038654514
000260 94 6a 30 bf d6 6f 2a 3f 79 3b d7 3e b6 b0 e9 be
       -0.68912625 0.665769 0.42037562 -0.45642632
000270 60 4d 2e bd 9c fc 47 3d 80 64 67 3e c9 19 67 3f
       -0.04255426 0.04882489 0.22596931 0.9027372
000280 45 c8 c6 3e f5 2e df bd 04 14 83 bd 98 f8 47 3e
       0.3882467 -0.10897628 -0.06400302 0.19528425
000290 f7 8a 14 be 2d 0c ef 3e a7 99 45 bc e8 1f ac be
       -0.14506136 0.46688977 -0.012060559 -0.33618093
0002a0 76 39 92 3d 13 22 48 be f8 3a d0 3e 80 f8 03 be
       0.07139866 -0.19544248 0.4066999 -0.12887764
0002b0 4e 0f 2b 3e 7d ad 02 be d9 48 06 bf e8 fb d7 be
       0.16705057 -0.12761493 -0.52454907 -0.42184377
0002c0 5f c7 03 3d 9f e4 2c be 5e 5e 39 be d0 ea bc bf
       0.032172557 -0.16884087 -0.18102404 -1.4759159
0002d0 be a9 0f 3d 81 91 88 3e 33 7c 69 3f 35 ea d8 b9
       0.03507399 0.2667351 0.9120514 -0.00041373228
0002e0 1c 77 4c bf ba e4 3d 3e 77 f4 24 be f0 11 ea bd
       -0.79869246 0.18544284 -0.16108881 -0.114292026
0002f0 0c f1 c6 3e eb 76 cf 3d af 19 8f bf de 36 92 3f
       0.3885578 0.10130104 -1.1179713 1.1422994
000300 49 70 15 be 71 a4 b2 3f 15 7b 41 bd 1e a5 6a 3e
       -0.14593615 1.3956434 -0.04723652 0.2291455
000310 01 db 30 be 42 22 68 3d a9 2d 2e be 59 ed 7c be
       -0.17271043 0.056673296 -0.17009605 -0.24699916
000320 9a 8d 66 bf 06 2f c9 bd 7a 92 05 3e 44 91 0d bd
       -0.90059817 -0.09823422 0.13044158 -0.034562364
000330 5e 37 9c be 00 64 7b be 9a 11 93 3f 9c d8 a5 3e
       -0.30510992 -0.24549866 1.1489747 0.32391822
000340 53 47 ed 3e f4 4b 03 3f 6a 54 37 3f 2a cf c6 3d
       0.4634348 0.5128777 0.7161318 0.09707482
000350 01 df 25 bd fa c2 11 3e 02 f9 0c 3f e1 d2 ab 3d
       -0.040495876 0.14234534 0.55067456 0.08389831
000360 9a 78 04 3f 44 f6 e0 3e 2c 13 2f 3e 3e 67 d0 be
       0.51746523 0.43937886 0.17097157 -0.40703768
000370 cc 51 d5 3e f6 79 e0 bf 75 30 88 3c 45 2b 73 3e
       0.4166397 -1.753722 0.016624669 0.23746975
000380 80 80 e7 3d 58 dd 0d bf 22 26 6e bd a4 b7 d4 3f
       0.11303806 -0.5541587 -0.058141835 1.6618543
000390 ca 8c e3 3c e3 df 1c be 2c d6 81 3f 8b e8 ad bd
       0.027777094 -0.15319781 1.0143485 -0.0849162
0003a0 f1 9a 9d 3f 36 6f fc 3c aa b1 06 be 92 7e 53 be
       1.2312909 0.030814748 -0.13153711 -0.20653751
0003b0 ed fd 21 bf 07 0e c4 3d 6d 3c c1 3e aa c6 3e bf
       -0.63278085 0.09572988 0.37741414 -0.7452189
0003c0 56 2c a2 bd 47 ea 4e 3e a8 87 04 bd 52 b4 2c bf
       -0.07918613 0.20206557 -0.032355934 -0.67462647
0003d0 d2 5b 2a 3f 25 43 c5 be 78 1b 42 3f 02 34 ea be
       0.66546357 -0.3852779 0.75823164 -0.45742804
0003e0 72 86 79 bf c9 9b fb be cb e9 01 bf 8e 64 39 3f
       -0.9747077 -0.49142292 -0.50747365 0.7241906
0003f0 4d 0b 21 be 27 03 97 bd 9d 41 af be 16 6b da be
       -0.15726967 -0.07373648 -0.34229746 -0.42659825

stage2.0.branch2.1.weight f4 [16]
000000 f1 8f 8e 3f 09 ee 6f 3f 07 39 90 3f 3f c0 82 3f
       1.1137677 0.9372259 1.1267403 1.0214919
000010 34 3e de 3f 54 79 92 3f b2 40 5b 3f 5d b9 96 3f
       1.7362733 1.1443276 0.8564559 1.1775318
000020 f1 b9 d7 3f 5d e5 91 3f 6c ed 16 3f bc 9e 9a 3f
       1.685362 1.1398121 0.5895603 1.2079692
000030 9c 18 b8 3f 72 14 89 3f ca a0 b0 3f 3c 3d 9d 3f
       1.438251 1.0709364 1.3799069 1.2284312

stage2.0.branch2.1.bias f4 [16]
000000 09 89 8b bf 80 7f 18 3f 34 cf f4 3e 7a 80 b1 3e
       -1.0901195 0.5956955 0.47814333 0.34668332
000010 b1 90 0b 3e c4 14 56 be 42 8e 02 bd a9 39 97 3f
       0.13629414 -0.20906359 -0.03187395 1.1814471
000020 f2 f7 ae 3e bb 9a ba 3e 6f e2 83 3f 2e b0 68 3f
       0.34173542 0.36446175 1.0303477 0.9089383
000030 46 be 0d bf de 7f 59 3e 25 21 94 bf c3 df 9a 3f
       -0.5536846 0.21240184 -1.1572615 1.2099537

stage2.0.branch2.3.weight f4 [16, 1, 3, 3]
000000 cb 60 22 bd 85 d2 b5 3e bd 03 d5 3e 0f 21 1c 3e
       -0.03964309 0.35512176 0.41604415 0.15246986
000010 ec 84 d0 be e9 c5 18 bf a7 1c ff 3d 45 cb 77 bf
       -0.4072641 -0.59676987 0.12456637 -0.9679454
000020 92 29 53 bf b3 db a9 3e 76 34 0d 3f cb e0 86 3e
       -0.82485306 0.3317543 0.55158174 0.26343378
000030 a9 48 01 bf 58 2b 85 be b1 0e 01 3e 0e 89 22 bf
       -0.50501496 -0.2600963 0.1260326 -0.6349038
000040 ff 00 78 bf 00 2d f3 be 46 c7 0b 3d a6 1c 89 be
       -0.9687652 -0.4749527 0.03412559 -0.2677967
000050 08 a4 ee be f3 0b 2d be f8 7f d5 3e 72 a5 02 3f
       -0.4660952 -0.1689909 0.41699195 0.510337
000060 1e ea c6 be 9d cc 68 3f 95 2c 77 3f 58 75 0b be
       -0.38850492 0.90937215 0.965524 -0.13618982
000070 09 c4 e0 bd f7 c3 24 be c3 45 00 bd 66 eb 9f 3e
       -0.10974891 -0.1609038 -0.03131653 0.31234282
000080 9a 8c 21 3f 3c 3f 81 bd e8 61 fd 3e 29 26 63 3f
       0.63105166 -0.06310889 0.4948876 0.887301
000090 42 c5 07 bd e9 43 65 3e af 7c a1 3e c8 02 d3 3d
       -0.033147104 0.22389187 0.3154044 0.10303265
0000a0 2e 60 f0 be 95 f3 4f bf 63 02 24 be 01 d0 39 bf
       -0.4694838 -0.8123105 -0.16016535 -0.72583014
0000b0 c9 14 b2 bf 47 ba 09 be c9 0d 97 3c ce ad 13 bf
       -1.3912593 -0.13449965 0.01843919 -0.5768708
0000c0 86 db d2 bd 59 d6 29 bf 47 e8 72 bf 22 af 3c 3e
       -0.10295777 -0.66342694 -0.9488568 0.18426183
0000d0 75 b8 50 3d 08 02 ff bd cf 75 95 be a6 49 0c 3e
       0.050957162 -0.12451559 -0.29191443 0.1369997
0000e0 51 8e 2d 3f ad 57 bd 3e 88 72 86 bd ab 36 f9 be
       0.6779528 0.36980954 -0.06564814 -0.4867452
0000f0 dc 91 42 3f c5 60 a8 be 9c 37 d0 bf 21 b0 fc bd
       0.76003814 -0.3288633 -1.6266971 -0.123382814
000100 7b b0 ec 3d 21 7e cf be 6c 14 91 be 0d a9 0f bf
       0.115570985 -0.40525916 -0.28335893 -0.56117326
000110 42 7c f1 be bf b6 0a bf 4f 7b 54 bf 5b 17 f8 be
       -0.47165114 -0.541851 -0.83000654 -0.4845532
000120 90 9f 26 be cd fc 88 3e 1e 9f e4 3e 4f 28 43 bd
       -0.16271806 0.26755372 0.44652647 -0.047645863
000130 0f 57 31 3f 7b 9a 86 3f 80 cb f1 3d 11 52 13 3f
       0.69273466 1.0515894 0.11806393 0.575471
000140 66 7c 56 3f 45 66 41 be d0 27 09 3e 1d d5 02 bd
       0.83783567 -0.18886669 0.13394094 -0.031941522
000150 b0 69 66 be b2 33 12 3f 9e 3d 1b 3f 5a 3f 93 bd
       -0.22501254 0.5711013 0.60640895 -0.07189818
000160 31 62 20 3f 94 0e 86 3f 82 6c 4e 3f 34 50 69 3e
       0.6264983 1.0473199 0.8063432 0.22784501
000170 ee 17 9d 3e 92 0d 49 3f ba 86 4a be 68 83 a2 bd
       0.3068232 0.7853633 -0.19777957 -0.0793522
000180 07 c5 48 3f 0b 83 96 be 32 97 81 bd 0b 16 cc bd
       0.7842564 -0.29396853 -0.06327666 -0.09965142
000190 6a 82 62 be 18 25 32 bf 1d ef e2 be 34 f2 5e 3e
       -0.22120062 -0.6958785 -0.44323054 0.2177208
0001a0 e7 e7 9a 3e 7d 73 cf be ec dc 8e 3f 1b 1c de 3f
       0.30255052 -0.40517798 1.116117 1.7352327
0001b0 cc f8 08 3d e4 31 46 be 46 dd 80 bf 80 e3 8c be
       0.033440396 -0.1935497 -1.0067527 -0.2751732
0001c0 89 ad 88 3e bf 9b d7 3e 48 ba d4 be a8 a3 1b 3f
       0.26694897 0.42111012 -0.4154837 0.60796595
0001d0 85 8e cc 3f f6 4e 65 3e 3b 94 08 3f 4f b1 8c 3e
       1.5980994 0.22393402 0.5335118 0.27479026
0001e0 4b f4 e3 be 2d be bc be 44 5e 68 bd ea 0c af be
       -0.44522318 -0.36863843 -0.056730524 -0.3418954
0001f0 11 9b 8b bf f0 1d 72 bf 5f b1 19 be c3 62 86 3e
       -1.0906698 -0.9457693 -0.15009068 0.26247224
000200 7f d5 59 3f 52 0b 96 3e 2b 0e c3 be 34 8e 0b bf
       0.85091394 0.29305512 -0.38096747 -0.5451386
000210 22 94 45 3f 29 ee 18 bf c1 68 b5 bf f1 0f b1 bd
       0.7717916 -0.59738404 -1.4172593 -0.08645619
000220 23 37 1d be 52 90 02 bf d7 e1 0a be 64 1e 87 3e
       -0.15353064 -0.51001465 -0.13562714 0.26390374
000230 01 a9 2d 3f e5 2d 56 3b f1 8d 23 3f 05 61 b9 3f
       0.67836004 0.0032681164 0.6388846 1.4482733

stage2.0.branch2.4.weight f4 [16]
000000 2d 58 b1 3f 4e a9 a4 3f d0 09 a9 3f e4 68 be 3f
       1.3855034 1.2864168 1.320612 1.487576
000010 98 e0 4d 3f f8 02 8c 3f 5e 51 bb 3f 8b 16 92 3f
       0.8042083 1.0938406 1.4634206 1.141313
000020 4d fe ba 3f 69 1a 94 3f 38 3c 73 3f 29 3a ab 3f
       1.4608856 1.157056 0.9501376 1.3377124
000030 c8 81 c0 3f 12 4b a5 3f 42 90 a4 3f 22 00 94 3f
       1.5039606 1.2913535 1.2856524 1.156254

stage2.0.branch2.4.bias f4 [16]
000000 bf c9 da bd 14 13 17 3d e2 b1 86 bf d2 99 b8 bf
       -0.10683011 0.03688343 -1.0523036 -1.4421942
000010 78 bb 4a 3f b9 f6 ed 3e 61 37 a4 bd fb f0 4e 3f
       0.79192305 0.46477297 -0.08018375 0.80836457
000020 d1 a7 8b be 80 39 42 bf a0 63 0d bf 47 87 d9 be
       -0.2727647 -0.7586899 -0.5523014 -0.4248602
000030 2d c2 81 bc 2d be 79 3f 0a a7 59 3f 76 bb 8a be
       -0.01583966 0.9755581 0.85020506 -0.27096146

stage2.0.branch2.5.weight f4 [16, 16, 1, 1]
000000 67 bd ad 3e 86 13 29 3f aa 18 4c 3f 9d ce 17 3f
       0.33933565 0.66045415 0.79725134 0.5929964
000010 e7 71 71 be ad bf d9 bc 33 cf a8 3f ec 09 62 bf
       -0.23578607 -0.026580656 1.3188232 -0.8829639
000020 88 9e 64 3e 74 35 90 bd d1 a8 c1 be 92 a0 3d bf
       0.223261 -0.070414454 -0.3782411 -0.74073136
000030 93 9a 55 bf 49 a1 3f 3e 6e 93 0e 3f b7 45 e1 bd
       -0.83438987 0.18713869 0.5569371 -0.10999625
000040 66 c2 1e 3f c0 bb 25 3e 6a 9e 97 be 46 df f2 be
       0.6201538 0.16184902 -0.29613048 -0.4743597
000050 d1 18 62 3e 47 0c 65 3e e0 fa 1b 3f c9 6e 5e be
       0.22079779 0.22367965 0.6092968 -0.21721949
000060 45 9f d1 be 37 05 52 bf 39 f6 36 bf 83 da fc be
       -0.40941826 -0.8203921 -0.71469456 -0.4938546
000070 87 31 8d be 7c ca cd 3e be de 69 3e 56 48 13 3f
       -0.2757685 0.40193546 0.22838876 0.5753225
000080 44 aa 87 3d fb 64 83 3e 22 26 3a 3f 19 f4 43 bd
       0.066242725 0.2566298 0.72714436 -0.04784021
000090 44 76 2c bf 64 5c 3c 3f 7d 14 71 3e f8 e6 65 bf
       -0.6736796 0.73578477 0.23542972 -0.89805555
0000a0 e7 f2 bc be 0e d2 9a 3e 47 32 a5 be ba 23 f3 3e
       -0.3690407 0.30238384 -0.3226492 0.47488195
0000b0 13 e0 36 3e de d2 f0 be 11 0f fd 3d e4 f9 c9 3d
       0.17858915 -0.4703588 0.12356389 0.09862116
0000c0 46 6d 97 bf 77 df 45 bc 2a 04 96 bb f7 31 13 bf
       -1.1830223 -0.012077204 -0.004578133 -0.57498115
0000d0 37 94 7f 3e 28 30 6e be f4 cc 3e be 21 9e 34 3f
       0.24958883 -0.23260558 -0.18632871 0.70553786
0000e0 3c 8c c2 be 1c cc 7a bf 36 ed c0 be f9 a5 81 bd
       -0.37997615 -0.97967696 -0.37680978 -0.06330485
0000f0 7b 4f 4d 3e e4 d8 17 3e 08 6e 85 3e 58 d3 ec be
       0.2004985 0.14828831 0.2606051 -0.46254992
000100 e6 6c 17 3f 3f 13 90 3e 64 d9 64 bf fc e0 80 bf
       0.5915054 0.28139684 -0.8939421 -1.006866
000110 06 d4 3a 3e 94 ff 21 3e d8 25 80 bc 90 da 52 be
       0.18244943 0.15820152 -0.015643045 -0.20591187
000120 8f 40 8e 3b 84 11 9c 3e 33 1f e4 be 9c e4 6c 3f
       0.004341192 0.30482113 -0.44555053 0.9253633
000130 20 b1 2b bf 94 78 b2 bd dc ba 96 3e 4e 90 dc 3e
       -0.67067146 -0.08714405 0.29439437 0.43078846
000140 66 b4 3f 3d 3d 03 fd 3d d7 4e d4 3e 5a 27 1e bf
       0.0468029 0.12354133 0.414664 -0.61778796
000150 e1 2e 9a 3f f2 2e a7 3f 2a ab bb 3e a0 89 21 3f
       1.2045556 1.3061202 0.36654025 0.63100624
000160 1b 1f 8c 3e 8e 52 67 3f 6f be d7 be ed 39 76 3e
       0.27367482 0.90360343 -0.42137477 0.24045534
000170 f3 58 67 be 88 55 b7 bd 20 6a de 3e a4 b2 ed be
       -0.22592525 -0.08951861 0.43440342 -0.46425354
000180 88 a9 08 3f 47 fa d6 bc 4f 44 56 bd 17 c7 53 3e
       0.53383684 -0.026242388 -0.052311238 0.20681415
000190 77 51 08 3f 0e 7a 3a 3e cc 01 22 3f 12 73 9d be
       0.53249305 0.18210623 0.6328399 -0.30751854
0001a0 75 a4 0d bf 0a b4 77 be 40 1e 62 be d1 3a 30 bf
       -0.55329067 -0.24189773 -0.22081852 -0.68839747
0001b0 90 d5 57 3f 00 31 04 bf 1d 8a a7 bf e1 24 d5 be
       0.84310246 -0.5163727 -1.3089024 -0.416297
0001c0 75 17 92 3e a3 4d 91 bf c0 f0 68 bd 02 06 ef be
       0.2853352 -1.1351818 -0.056870222 -0.4668427
0001d0 e2 81 75 3e ba 7a 55 3e 20 9a 30 3d 3e 55 26 bf
       0.23975328 0.20847598 0.043115735 -0.6497382
0001e0 fd dd b7 3f 7b c2 0f be 1c 97 ec be fe 1b 77 bf
       1.436462 -0.14039032 -0.46209037 -0.9652709
0001f0 ef 8a 33 bd 8b be 5d be af f0 9f 3e 03 bb da be
       -0.04383367 -0.21654718 0.31238315 -0.42720804
000200 29 9e 6c be dc ad cc 3d 26 e5 25 3d a2 da 50 bf
       -0.23107208 0.099940985 0.040501736 -0.8158361
000210 09 a0 e6 bc aa 6e f0 be ce 00 07 bf ad 31 f8 be
       -0.028152483 -0.4695943 -0.527356 -0.484754
000220 0c 7f 09 bf 8e db 2b be 8e a0 04 3e 30 f0 b0 be
       -0.53709483 -0.16782972 0.12951872 -0.3455825
000230 3d 00 77 bf 3b 7d 8f bf 69 1e 00 bf 79 fd ef 3e
       -0.9648474 -1.1210092 -0.500464 0.46873072
000240 c6 ec d4 3e 77 9f 16 be c1 4f 67 3f 6d ce 22 3f
       0.41586894 -0.14709269 0.9035607 0.6359623
000250 ad 7e 9f be 90 d2 e4 be bd 8c 06 3e 26 77 ef be
       -0.31151333 -0.44691896 0.13139625 -0.4677059
000260 a0 52 a8 be 20 25 01 3f 74 77 12 3e f7 d0 d8 bd
       -0.32875538 0.50447273 0.1430338 -0.10586732
000270 4b be 28 be 5f 60 88 be 6e 3f a0 be d7 3f 11 bf
       -0.16478841 -0.26636025 -0.31298393 -0.56738037
000280 79 55 16 bf 82 c7 84 bd 08 5b c2 be 07 21 29 3e
       -0.5872417 -0.064833656 -0.37960076 0.16516505
000290 10 61 04 be a9 61 d9 bd 94 af ea bd 8b af a5 3e
       -0.12927651 -0.1061433 -0.1145927 0.3236049
0002a0 aa e4 6d 3e 9e 5a b7 3e 7a e5 60 3e 6c 84 1e 3f
       0.2323176 0.35811323 0.21962538 0.6192081
0002b0 0b 3a 42 3f c0 29 ac 3e 35 b5 86 3e 0a c3 87 3c
       0.75869817 0.33625603 0.26310125 0.016572494
0002c0 46 3e 1c bf d6 b8 aa bc dd cb e1 3d 86 f6 2c bd
       -0.6103252 -0.02084009 0.11025212 -0.04222729
0002d0 18 57 1b be 50 3e 2c 3d 9b 2a 3f bf 39 60 2c be
       -0.15169942 0.042051613 -0.74674386 -0.16833581
0002e0 f6 7f 77 3e 31 e2 5c be 7e 4e 66 be 6c 5c 2f bf
       0.24169907 -0.2157066 -0.2249088 -0.685004
0002f0 61 c0 53 bd 0f ce bd bd 49 b2 48 bf fb 76 18 bf
       -0.05169714 -0.09267818 -0.7839704 -0.5955655
000300 cb 1a 55 3d 87 13 60 bf 80 1d e0 3e 9a 3c 07 bf
       0.052027505 -0.87529796 0.43772507 -0.52826846
000310 1e bd c0 3e 75 df c4 be a4 f4 1a be f0 7e 54 bd
       0.37644285 -0.38451734 -0.15132385 -0.05187887
000320 7e 4e e1 be 3d a6 36 3e 92 9c f0 3e 01 08 40 3e
       -0.44005197 0.17836852 0.46994454 0.18753053
000330 ce 84 de 3e 84 dd 75 3f 7e 03 81 bb b7 67 d3 be
       0.43460697 0.9604113 -0.003937184 -0.41290066
000340 5d f8 e7 3e 2c 13 bd 3e e2 45 a9 3d 04 8b d4 bd
       0.45306674 0.3692869 0.08265282 -0.103780776
000350 9a 86 79 3e 68 26 e7 be c6 12 5d 3e 09 d3 a7 be
       0.24367753 -0.4514649 0.21589193 -0.32778195
000360 63 f8 47 bf 60 53 0e 3f 71 fa 8e 3c 3a a6 1f 3c
       -0.78113383 0.5559597 0.017453404 0.009744221
000370 31 aa 2b 3f 56 c8 d3 be 45 73 0b 3f 54 f7 37 3f
       0.67056566 -0.41363782 0.5447276 0.7186177
000380 6d 0c 4d 3e a7 5a a6 bd 0f 63 99 bd 07 5f 46 3d
       0.20024271 -0.08122759 -0.07489597 0.04843047
000390 9b 19 5e 3e 17 63 09 bd b0 a6 32 3f e3 94 3f 3e
       0.21689455 -0.033541765 0.69785595 0.1870914
0003a0 d9 ec de 3d e1 41 a1 3e 99 bc 9a 3d f8 1a 05 bf
       0.10885019 0.31495574 0.075555034 -0.51994276
0003b0 c6 3a 6e 3e ea c2 47 bf 3e 52 81 3e b6 76 5e bd
       0.23264608 -0.7803179 0.25258058 -0.05431243
0003c0 fe 05 17 3e f3 6c e5 3e 8b ab 08 3e b3 8b e3 be
       0.1474838 0.44809684 0.13346688 -0.4444252
0003d0 73 15 f1 3e b7 cf d1 3d 03 19 98 be 6c 4a a0 3d
       0.47086677 0.102446966 -0.29706582 0.07826695
0003e0 92 3f 84 3e fe 41 ec 3e d1 5f 34 3f a7 fc 0d 3f
       0.2582975 0.46144098 0.70458704 0.5546364
0003f0 fb 58 0c 3f 0b e3 51 bf 8d 55 0c be 43 bb 1b bf
       0.54823273 -0.81987065 -0.1370451 -0.60832614

stage2.0.branch2.6.weight f4 [16]
000000 0d bc ce 3f 4e 01 b3 3f 74 f4 d8 3f 24 96 aa 3f
       1.6151139 1.3984773 1.6949601 1.3327069
000010 3f 1e c5 3f 58 68 a0 3f aa 37 b9 3f b5 d3 b1 3f
       1.5399855 1.2531843 1.4470112 1.3892733
000020 af 43 28 3f 0e b2 74 3f 42 a0 78 3f d6 22 64 3f
       0.65728277 0.9558419 0.97119534 0.89115655
000030 bf 2e 4b 3f fa 89 30 3f 10 c5 2c 3f c5 1a 4c 3f
       0.79368204 0.68960536 0.67488194 0.7972835

stage2.0.branch2.6.bias f4 [16]
000000 b6 9c 1b be 98 01 01 3f 7f 15 a6 3d 04 3c dd 3e
       -0.15196499 0.50393057 0.08109569 0.4320985
000010 a0 f2 00 bd 21 d0 a0 3f 45 79 34 3f 05 ff ee 3d
       -0.031481385 1.2563516 0.7049754 0.11669735
000020 98 25 39 3f c2 39 b8 bd a1 3f 39 bf 10 89 43 be
       0.7232299 -0.089953914 -0.72362715 -0.19095254
000030 b0 df 41 3f da 23 fd 3e 2b 5e f7 3e 81 58 0e 3f
       0.75731945 0.49441415 0.48314032 0.55603796

stage2.1.branch2.0.weight f4 [16, 16, 1, 1]
000000 83 a7 5b bd 04 4e 9c be b5 6a b7 3f 7e 67 d6 3e
       -0.05362655 -0.3052827 1.4329439 0.41875833
000010 51 85 1a be da 91 ed 3c b1 26 77 be 33 09 f3 3d
       -0.15089919 0.029000212 -0.24135853 0.11866989
000020 35 17 e5 be 8a df 39 3d d6 90 e8 bf 5e 27 6e be
       -0.44744268 0.0453792 -1.81692 -0.23257205
000030 c9 01 b9 3f 2a db ad 3b c2 76 a1 3e 38 01 41 bc
       1.445367 0.0053056674 0.31535918 -0.011780076
000040 ba 0f 57 bf 5b 03 22 3f 4c 1f ff be bd e2 d0 be
       -0.8400837 0.6328637 -0.49828565 -0.40797988
000050 a5 16 0b bd ec c5 2d 3f 16 bc 22 3e 7b 81 1f 3f
       -0.033957142 0.6788013 0.15892062 0.62306947
000060 be 01 e5 3e 71 26 e9 3d c3 63 b8 3d 87 be 96 be
       0.44727892 0.11384285 0.09003403 -0.29442236
000070 be 90 86 be ef 18 fa bd 0f 03 b0 3d fb 87 f7 3d
       -0.26282305 -0.12211787 0.085943334 0.12086483
000080 d0 ac 53 be e2 1a f7 3e 2c c2 49 3d 19 45 47 3e
       -0.20671391 0.48262697 0.049257442 0.19459952
000090 33 7e 3c be af 12 0d 3f 0e 57 8f 3f 07 93 68 3e
       -0.18407516 0.55106634 1.1198442 0.22712336
0000a0 57 c4 ce be 39 49 0f 3d a3 0a 78 3e eb cf f9 be
       -0.4038417 0.03498194 0.24222808 -0.4879144
0000b0 72 9d e9 bd 40 9a 20 bc a1 fb fe be aa af df be
       -0.114069834 -0.009802401 -0.49801353 -0.4368871
0000c0 e1 3b a4 be f6 12 d0 be 10 e3 31 bf 18 bd 16 be
       -0.32076934 -0.40639466 -0.69487095 -0.14720571
0000d0 0d eb 06 3e 87 aa 23 3e 44 4f 72 3e 00 12 ad 3e
       0.13175602 0.1598302 0.2366305 0.33802795
0000e0 01 2b 05 3f 1b 7c 8d 3f 20 66 b3 be cd 60 40 3d
       0.52018744 1.1053499 -0.35038853 0.046967316
0000f0 92 37 cb 3e 88 66 04 bf 54 d5 08 3f 0b 3b 6c 3e
       0.39690834 -0.5171895 0.5345051 0.23069398
000100 af ed 37 be aa 46 39 be d2 4f 18 be 3c 53 05 bd
       -0.17961763 -0.18093362 -0.14874199 -0.03255008
000110 ad e5 1f 3c da 73 15 be 8d d9 0b be f4 64 1d 3d
       0.009759349 -0.14594975 -0.13657208 0.038426355
000120 73 a9 e4 bc 56 09 2d bd b7 a1 51 3e ae 6a 2a bd
       -0.027912831 -0.04224523 0.20471846 -0.041605644
000130 05 d5 dc bd 06 ec 57 bd 5a 6c 62 3d 49 15 ff bc
       -0.10782818 -0.052715324 0.055279113 -0.03113808
000140 5e 44 39 be b0 69 39 be 4a e7 18 be ee fa 07 bd
       -0.18092486 -0.18106723 -0.1493198 -0.03319829
000150 ca 22 1b 3c 25 1c 15 be 76 ec 0b be 7a 96 19 3d
       0.009468744 -0.14561518 -0.13664421 0.03749702
000160 c2 40 e5 bc d3 e4 2d bd 05 10 52 3e 2c e6 2b bd
       -0.02798498 -0.042454552 0.20513923 -0.041967556
000170 da 33 dc bd bd 11 59 bd 55 7f 62 3d bf 06 f6 bc
       -0.107520774 -0.052995432 0.055297215 -0.030032514
000180 70 3f 3f bd b2 c5 d7 bc 64 52 28 be 27 a6 90 be
       -0.046691358 -0.026339386 -0.1643768 -0.28251764
000190 d9 cf f0 3d 0e 1a b2 3e 8d 6b a5 3e a4 86 b8 3e
       0.11758394 0.34785503 0.32308617 0.36040223
0001a0 8c aa 47 3f a5 b2 42 3f f4 4f 54 bf a1 92 2d 3e
       0.7799461 0.7605384 -0.829345 0.16950466
0001b0 21 f9 26 3f 57 c0 29 bf b7 30 b1 3e 11 0a 90 be
       0.6522389 -0.6630911 0.3460748 -0.2813268
0001c0 ad 59 3a be 4b d0 3a be bd f7 1a be 70 b2 0b bd
       -0.18198271 -0.1824352 -0.15133567 -0.034105718
0001d0 93 a2 04 3c 4f 63 15 be ea 6a 0d be 1a 75 1c 3d
       0.008095401 -0.14588664 -0.13810316 0.038197614
0001e0 09 30 da bc 1c c9 28 bd 63 c2 52 3e ba 19 2f bd
       -0.026634233 -0.041207418 0.20581965 -0.042749144
0001f0 bb 8c d7 bd ac 55 56 bd 8b f5 5f 3d a4 b9 00 bd
       -0.10524889 -0.052327797 0.054677527 -0.03142704
000200 83 f3 8b be 48 eb 0d bf 32 47 a0 be 3a ff de be
       -0.27334222 -0.55437136 -0.31304318 -0.43554097
000210 a6 6f c2 be 56 83 4d 3c c1 6a 83 be 2b b8 b6 be
       -0.37975806 0.01254352 -0.25667384 -0.35687384
000220 8c 7b e5 be 48 2f da be 29 35 5f bf 61 79 8f be
       -0.4482082 -0.42614198 -0.8719049 -0.28022292
000230 8b ee 58 be 55 36 51 be 36 2b 30 be a1 c8 d7 be
       -0.21184747 -0.20430882 -0.17203984 -0.42145255
000240 17 02 9d 3d 3d 0b cb 3e e0 75 08 3f e8 5c d3 3e
       0.07666414 0.39657012 0.5330486 0.4128182
000250 04 62 8f 3f d7 88 01 be bd 97 8a 3e b0 54 8d bc
       1.1201787 -0.12649857 0.27068892 -0.017252296
000260 ab e7 5c bd 1d cc 2f bf fc ac 23 be 07 df dc 3e
       -0.053931873 -0.6867083 -0.15983957 0.43138906
000270 63 9b 16 be 1b 49 dc 3e 61 14 18 be e9 d1 08 3f
       -0.14707713 0.43024525 -0.14851524 0.534453
000280 8b e9 28 3f bc 73 60 3f d4 d7 02 bc 9a 03 1e 3f
       0.6598136 0.87676597 -0.007986028 0.61724246
000290 c0 64 86 bf 17 9a a5 be 76 16 1e 3e 9e 55 9a be
       -1.0499496 -0.32344124 0.15438256 -0.30143446
0002a0 f4 ff 91 bd ac ae bb 3e 67 dd 2d bd 2b 53 41 3f
       -0.07128897 0.36656702 -0.042447474 0.7551753
0002b0 88 46 8a 3b d5 43 cd bd b8 be 26 bf e9 2d 8d 3e
       0.0042198338 -0.100227036 -0.65134764 0.2757409
0002c0 79 bc 97 3f 45 42 9c be 8d ae 42 be ac e6 5e 3f
       1.1854392 -0.3051931 -0.19011898 0.8707073
0002d0 29 1a 15 be dc 35 b2 be 7a 44 e4 3e a7 87 92 be
       -0.1456076 -0.34806716 0.44583493 -0.2861912
0002e0 24 83 28 3e 59 d1 21 bf 80 b3 31 bb 3a b6 8e 3e
       0.16456276 -0.63210064 -0.0027115047 0.27873403
0002f0 c9 d2 1e be 71 58 f5 bc 70 f1 45 be 3f ec 9a be
       -0.15510096 -0.029949399 -0.19330382 -0.30258366
000300 c5 4f 8b be 8e ef 2e be 4e 7d 43 be 9b ba b0 be
       -0.27209297 -0.1708357 -0.19090769 -0.3451737
000310 82 18 05 3e 6d 42 6a be a5 c1 cf bb ff 3b 45 3d
       0.1299763 -0.22876902 -0.006340223 0.04815292
000320 dd 82 a7 be 2c 16 89 be 43 d2 c1 3f 74 6e 02 bf
       -0.32717028 -0.26774728 1.5142292 -0.5094979
000330 41 88 5f be 17 eb 7d bd cc 8f 15 3e 5b d3 7a be
       -0.2182932 -0.061991777 0.14605635 -0.24494688
000340 35 46 be 3d fc 3a 23 bf 6c e8 6d bd 5e 77 ab 3e
       0.09290735 -0.6376188 -0.058082983 0.33489507
000350 e0 06 d2 bd 27 24 a6 be 47 fb 3f bf b1 21 1b 3e
       -0.102552176 -0.32449457 -0.74992794 0.15149571
000360 12 6f 0b 3f 69 e6 6a 3d f2 30 c4 bc a5 d8 99 3e
       0.54466355 0.057348642 -0.02394912 0.300481
000370 a1 58 2e 3e a8 a1 e7 3e 9e ec 92 3f d1 17 31 3f
       0.17025997 0.4524052 1.147846 0.69176966
000380 06 e9 84 ba 5c 91 5e bf e2 4d 6c be 72 5e 3c bf
       -0.0010140247 -0.8694055 -0.23076585 -0.7358161
000390 16 10 dd be 30 11 b5 be ae 94 ab bd 82 fd e3 bd
       -0.43176335 -0.35364676 -0.08377968 -0.11132337
0003a0 4e 68 4c 3f 97 b2 ff bc bb f6 d3 3e 73 3e 74 3f
       0.79846656 -0.031213088 0.41399178 0.9540779
0003b0 82 72 70 be 19 79 8c 3e b7 e3 50 3e f9 5e d9 be
       -0.23481181 0.2743614 0.20399366 -0.4245527
0003c0 52 ac bf 3e 16 de aa 3d 56 30 58 be 29 f2 31 3e
       0.37436157 0.08343141 -0.21112189 0.17377533
0003d0 19 72 42 be 8a c5 1d 3f 70 a9 4d 3f ac d8 50 3f
       -0.18988837 0.61629546 0.80336666 0.81580615
0003e0 94 e5 b2 bc 83 38 ba be 18 4e 0f bd 69 12 0d be
       -0.021837987 -0.3637124 -0.034986585 -0.13776554
0003f0 82 28 7a 3e ea 8e 3b bf 40 fc 02 3f 9d f6 a6 3f
       0.24429515 -0.73264945 0.5116615 1.304401

stage2.1.branch2.1.weight f4 [16]
000000 9c b7 74 3f 29 c4 85 3f e1 1d 91 3f e5 b0 af 3f
       0.95592666 1.0450488 1.1337243 1.3725859
000010 4b 7e 98 bd 80 b6 98 bd 7e 40 a2 3f e1 00 92 bd
       -0.074459635 -0.07456684 1.2675931 -0.07129074
000020 85 f3 98 3c bd 15 90 3f d9 32 9e 3f 2a 46 8b 3f
       0.018670807 1.1256634 1.2359267 1.0880787
000030 49 47 56 3f e9 10 8d 3f 67 1d 85 3f 45 9d 9d 3f
       0.8370252 1.1020786 1.0399598 1.231362

stage2.1.branch2.1.bias f4 [16]
000000 14 3e 99 3e 73 51 62 3f 75 77 40 3f a6 74 00 3f
       0.29930174 0.8840553 0.75182277 0.5017799
000010 17 7b 3c 3b e7 09 3e 3b e1 df ab 3e 6f 5b 35 3b
       0.002875989 0.0028997601 0.33569244 0.0027672907
000020 56 ad 49 ba b9 43 e9 3e 76 5b a6 3e b3 f0 91 3f
       -0.00076933706 0.4555948 0.32491654 1.140158
000030 d5 f3 01 3f 35 b0 34 3f 7b 73 9b 3f fb 4d cb 3d
       0.50762683 0.7058137 1.2144617 0.09926983
